sd-card/config/ana-class100_0154_s1_q.tflite (tflite, 132144 bytes, 13 tensors)

sequential/conv2d/Conv2D i1 [64, 5, 5, 3]
000000 09 56 58 ec 60 7f fc 46 69 dd 60 4e eb 18 19 dd
       9 86 88 -20 96 127 -4 70 105 -35 96 78 -21 24 25 -35
000010 e7 17 f9 45 37 f1 4d 50 e3 27 12 07 df eb 0e a7
       -25 23 -7 69 55 -15 77 80 -29 39 18 7 -33 -21 14 -89
000020 d2 c3 ed 08 f7 f9 3c fc f1 00 0c e2 de 1a db cb
       -46 -61 -19 8 -9 -7 60 -4 -15 0 12 -30 -34 26 -37 -53
000030 00 bf dc 00 b3 fe fe c2 fd f0 b4 db 40 e3 c7 36
       0 -65 -36 0 -77 -2 -2 -62 -3 -16 -76 -37 64 -29 -57 54
000040 d5 e7 14 b6 df 0b c6 f0 c8 c1 e7 81 ec e0 b2 0d
       -43 -25 20 -74 -33 11 -58 -16 -56 -63 -25 -127 -20 -32 -78 13
000050 27 f3 0f 34 4a 3a 2f 56 25 13 a2 0b 12 ff 38 30
       39 -13 15 52 74 58 47 86 37 19 -94 11 18 -1 56 48
000060 f2 f5 00 1f fd ef 21 e9 e6 91 ef f6 e8 14 05 f7
       -14 -11 0 31 -3 -17 33 -23 -26 -111 -17 -10 -24 20 5 -9
000070 cb d6 2a f3 05 10 f3 bd c2 f0 f5 09 e2 f1 18 e7
       -53 -42 42 -13 5 16 -13 -67 -62 -16 -11 9 -30 -15 24 -25
000080 ce 49 2f 23 34 f0 03 df b1 c3 e3 c2 c7 38 ef f0
       -50 73 47 35 52 -16 3 -33 -79 -61 -29 -62 -57 56 -17 -16
000090 59 30 21 3e 39 23 61 81 b0 49 b1 04 2d b9 e9 f6
       89 48 33 62 57 35 97 -127 -80 73 -79 4 45 -71 -23 -10
0000a0 c8 ae ee 83 b0 68 9b e1 7b fc 01 39 09 00 ff a8
       -56 -82 -18 -125 -80 104 -101 -31 123 -4 1 57 9 0 -1 -88
0000b0 d0 cb 90 af 2f dc dc 4b 15 56 f3 25 3a e7 35 43
       -48 -53 -112 -81 47 -36 -36 75 21 86 -13 37 58 -25 53 67
0000c0 e0 ef ff ee 09 3a 00 3c 69 d6 48 47 e0 25 39 d3
       -32 -17 -1 -18 9 58 0 60 105 -42 72 71 -32 37 57 -45
0000d0 0c 0d d2 3d 19 fa 2e 3e a5 01 12 9e 37 1a fa 04
       12 13 -46 61 25 -6 46 62 -91 1 18 -98 55 26 -6 4
0000e0 29 04 4b 3e f9 3f 48 ae ec 30 e8 e6 0d 2f 31 08
       41 4 75 62 -7 63 72 -82 -20 48 -24 -26 13 47 49 8
0000f0 ce 16 3f a1 23 23 b6 cc 0f 0a 0a 42 21 5c 42 c3
       -50 22 63 -95 35 35 -74 -52 15 10 10 66 33 92 66 -61

sequential/conv2d_1/Conv2D i1 [64, 1, 1, 64]
000000 1b 22 8c 17 cc 2f 4b d5 7c e0 e3 de ad 3a b6 90
       27 34 -116 23 -52 47 75 -43 124 -32 -29 -34 -83 58 -74 -112
000010 ad 37 9c 7f c1 15 fc 07 d7 ff 0a e0 79 69 f7 20
       -83 55 -100 127 -63 21 -4 7 -41 -1 10 -32 121 105 -9 32
000020 36 e3 12 fc be a2 16 62 af 20 1e f2 f5 3a 25 10
       54 -29 18 -4 -66 -94 22 98 -81 32 30 -14 -11 58 37 16
000030 c3 c4 29 1f c5 39 1b 19 b0 14 e9 2c bc 2f d7 54
       -61 -60 41 31 -59 57 27 25 -80 20 -23 44 -68 47 -41 84
000040 31 0a 8c e5 cd ae 42 1a ae e2 05 be 0c 28 cd 26
       49 10 -116 -27 -51 -82 66 26 -82 -30 5 -66 12 40 -51 38
000050 24 f9 1e 81 f6 f8 a3 e2 34 94 b6 32 91 8e ef f3
       36 -7 30 -127 -10 -8 -93 -30 52 -108 -74 50 -111 -114 -17 -13
000060 1b e4 23 e7 3a eb 1e bf a0 1b b7 12 f2 f2 0f 5b
       27 -28 35 -25 58 -21 30 -65 -96 27 -73 18 -14 -14 15 91
000070 c4 01 48 f6 f2 2a aa df d8 f8 1c f3 98 e3 e9 40
       -60 1 72 -10 -14 42 -86 -33 -40 -8 28 -13 -104 -29 -23 64
000080 ee f1 d7 e4 df 0b b4 fc db de 10 a9 0e eb 02 03
       -18 -15 -41 -28 -33 11 -76 -4 -37 -34 16 -87 14 -21 2 3
000090 2a 15 3f c9 b9 21 e8 d7 20 f7 2f ec d9 36 0d ef
       42 21 63 -55 -71 33 -24 -41 32 -9 47 -20 -39 54 13 -17
0000a0 4d 20 7f a8 09 c5 fa dd 4c 14 f8 da 2c 45 c9 75
       77 32 127 -88 9 -59 -6 -35 76 20 -8 -38 44 69 -55 117
0000b0 c4 39 4d 2c da 35 37 07 f3 3e da d4 ec eb 04 17
       -60 57 77 44 -38 53 55 7 -13 62 -38 -44 -20 -21 4 23
0000c0 cf a8 c5 e5 09 f5 f2 48 a8 27 ee 43 1c f5 49 3d
       -49 -88 -59 -27 9 -11 -14 72 -88 39 -18 67 28 -11 73 61
0000d0 d7 cc f2 01 bc a1 ce c2 53 0c e8 0f fc c6 11 ff
       -41 -52 -14 1 -68 -95 -50 -62 83 12 -24 15 -4 -58 17 -1
0000e0 7f e1 4c af df 32 58 fd 01 31 db c2 69 3b e8 f6
       127 -31 76 -81 -33 50 88 -3 1 49 -37 -62 105 59 -24 -10
0000f0 05 03 24 1c 08 40 f4 02 c2 e2 02 41 fa 13 f6 1b
       5 3 36 28 8 64 -12 2 -62 -30 2 65 -6 19 -10 27

sequential/batch_normalization_1/FusedBatchNormV3 i1 [64] scale=0.11893754 zero_point=-128
000000 89 95 87 88 9a 8f 8c 91 89 8d 88 85 8d 94 93 8c
       1.0704378 2.4976883 0.83256274 0.9515003 3.092376 1.7840631 1.4272504 2.021938 1.0704378 1.546188 0.9515003 0.5946877 1.546188 2.3787508 2.2598133 1.4272504
000010 98 9f 91 89 8b 8b 9a 95 9a 93 91 9e 8c 86 90 8a
       2.8545008 3.6870637 2.021938 1.0704378 1.3083129 1.3083129 3.092376 2.4976883 3.092376 2.2598133 2.021938 3.5681262 1.4272504 0.7136252 1.9030006 1.1893754
000020 93 92 8d 8e 90 88 94 8d 92 9b 9b 91 93 ab 8d 8e
       2.2598133 2.1408756 1.546188 1.6651255 1.9030006 0.9515003 2.3787508 1.546188 2.1408756 3.2113135 3.2113135 2.021938 2.2598133 5.114314 1.546188 1.6651255
000030 af 96 8a 86 7f 8a 89 93 93 8d 8d 89 94 9f 89 87
       5.590064 2.6166258 1.1893754 0.7136252 30.329071 1.1893754 1.0704378 2.2598133 2.2598133 1.546188 1.546188 1.0704378 2.3787508 3.6870637 1.0704378 0.83256274

sequential/batch_normalization_1/FusedBatchNormV31 i1 [64] scale=0.0062306877 zero_point=127
000000 e2 2c eb 0c 0c 13 e7 d8 e6 2f f7 26 fb ef 07 d9
       -0.97821796 -0.51714706 -0.9221418 -0.7165291 -0.7165291 -0.67291427 -0.9470645 -1.0405248 -0.95329523 -0.49845502 -0.84737355 -0.5545312 -0.82245076 -0.89721906 -0.7476825 -1.0342941
000010 25 ed 17 f2 0d ea e4 0f fa 05 d3 f7 e5 a8 f1 e1
       -0.56076187 -0.9096804 -0.64799154 -0.878527 -0.7102984 -0.92837244 -0.9657566 -0.697837 -0.82868147 -0.7601439 -1.0716783 -0.84737355 -0.9595259 -1.3395978 -0.88475764 -0.9844487
000020 f6 e9 0b d4 12 1d e3 f2 fc 0a 18 de 0f 50 a4 d4
       -0.8536042 -0.93460315 -0.7227598 -1.0654476 -0.679145 -0.6106074 -0.9719873 -0.878527 -0.8162201 -0.72899044 -0.6417608 -1.0031407 -0.697837 -0.29284233 -1.3645207 -1.0654476
000030 4d f7 15 ca 79 01 1d 02 16 24 09 80 cb 26 19 25
       -0.31153437 -0.84737355 -0.6604529 -1.1277544 -0.037384126 -0.78506666 -0.6106074 -0.77883595 -0.6542222 -0.5669926 -0.73522115 -1.5888253 -1.1215237 -0.5545312 -0.6355302 -0.56076187

sequential/conv2d_2/Conv2D i1 [64, 3, 3, 64]
000000 1c b8 f1 b5 e3 43 2b 06 63 d6 b3 bc 22 21 dd c5
       28 -72 -15 -75 -29 67 43 6 99 -42 -77 -68 34 33 -35 -59
000010 02 ee 0c 28 be f4 db 1b f6 36 f2 f8 d8 e8 04 ff
       2 -18 12 40 -66 -12 -37 27 -10 54 -14 -8 -40 -24 4 -1
000020 fe f3 e9 2b fe 81 64 2c 13 0b 23 08 f4 31 2e 13
       -2 -13 -23 43 -2 -127 100 44 19 11 35 8 -12 49 46 19
000030 b9 3e cd ed 07 00 cb ef f7 87 e0 2d 14 b5 f5 91
       -71 62 -51 -19 7 0 -53 -17 -9 -121 -32 45 20 -75 -11 -111
000040 c0 02 c6 e0 a6 00 13 fb b9 c0 a8 d6 30 0a 36 d0
       -64 2 -58 -32 -90 0 19 -5 -71 -64 -88 -42 48 10 54 -48
000050 07 4e fb b2 c1 fc 28 ec 13 aa 49 1a 09 eb dd bc
       7 78 -5 -78 -63 -4 40 -20 19 -86 73 26 9 -21 -35 -68
000060 20 33 02 29 b6 d7 2c 1c fe d5 fd d1 e1 d7 1e fd
       32 51 2 41 -74 -41 44 28 -2 -43 -3 -47 -31 -41 30 -3
000070 f5 02 f6 90 2c ec c1 af e5 c5 33 fa f8 18 cc f3
       -11 2 -10 -112 44 -20 -63 -81 -27 -59 51 -6 -8 24 -52 -13
000080 c9 2c 1a fd db 0e 07 12 a3 db 08 da ef de 27 da
       -55 44 26 -3 -37 14 7 18 -93 -37 8 -38 -17 -34 39 -38
000090 01 df 13 ed fb 1f f7 06 f5 bf c8 df 18 24 c3 19
       1 -33 19 -19 -5 31 -9 6 -11 -65 -56 -33 24 36 -61 25
0000a0 2a ed 1d 06 c8 fc e8 09 be ff cb 06 f5 0c 07 08
       42 -19 29 6 -56 -4 -24 9 -66 -1 -53 6 -11 12 7 8
0000b0 08 ed a5 10 14 e5 d5 ec d5 49 28 ad ee e4 03 3a
       8 -19 -91 16 20 -27 -43 -20 -43 73 40 -83 -18 -28 3 58
0000c0 00 e6 10 d0 fd d8 0f 04 00 d0 f5 30 ee fe 15 da
       0 -26 16 -48 -3 -40 15 4 0 -48 -11 48 -18 -2 21 -38
0000d0 c1 01 ac cd d5 ed 02 2c 3f fd 18 da fb 19 e9 a4
       -63 1 -84 -51 -43 -19 2 44 63 -3 24 -38 -5 25 -23 -92
0000e0 2e 08 f2 f4 f8 ee 26 00 ed 13 1b b4 ea c9 ff 14
       46 8 -14 -12 -8 -18 38 0 -19 19 27 -76 -22 -55 -1 20
0000f0 c2 49 be d6 10 02 de 19 17 f1 ba c7 d9 d9 31 2f
       -62 73 -66 -42 16 2 -34 25 23 -15 -70 -57 -39 -39 49 47

sequential/conv2d_3/Conv2D i1 [64, 3, 3, 64]
000000 f1 12 22 09 5c 43 06 f2 f0 0c 17 03 e0 f9 bf ad
       -15 18 34 9 92 67 6 -14 -16 12 23 3 -32 -7 -65 -83
000010 c7 11 03 17 ae b7 d9 0e 39 24 17 0f 2c f6 dc 3b
       -57 17 3 23 -82 -73 -39 14 57 36 23 15 44 -10 -36 59
000020 52 fe f0 0d 19 15 09 14 15 d1 eb fb 14 41 1b 34
       82 -2 -16 13 25 21 9 20 21 -47 -21 -5 20 65 27 52
000030 fe ee f3 2b 13 2c f4 0f bc fd ea 2e f3 ec ec 2a
       -2 -18 -13 43 19 44 -12 15 -68 -3 -22 46 -13 -20 -20 42
000040 ad 19 e7 1f e1 30 02 e8 f6 cc d8 cf 1c d8 13 eb
       -83 25 -25 31 -31 48 2 -24 -10 -52 -40 -49 28 -40 19 -21
000050 d5 12 f4 00 d2 ea 02 2d 08 19 d5 a1 28 aa d8 da
       -43 18 -12 0 -46 -22 2 45 8 25 -43 -95 40 -86 -40 -38
000060 e0 09 8b 7f e7 2b 22 14 e5 a1 e8 00 88 26 1f f8
       -32 9 -117 127 -25 43 34 20 -27 -95 -24 0 -120 38 31 -8
000070 ca 08 15 00 03 11 e5 18 e0 cf 3f 09 d6 05 0e c3
       -54 8 21 0 3 17 -27 24 -32 -49 63 9 -42 5 14 -61
000080 1d e6 2e f3 cc 15 1f eb 21 4b ec bd 37 c8 14 10
       29 -26 46 -13 -52 21 31 -21 33 75 -20 -67 55 -56 20 16
000090 05 c7 f8 13 2c e7 13 2a 06 df ea d7 2f d4 05 20
       5 -57 -8 19 44 -25 19 42 6 -33 -22 -41 47 -44 5 32
0000a0 07 24 f3 fe 72 17 ee bf c6 a6 cd 37 0e f5 f6 cd
       7 36 -13 -2 114 23 -18 -65 -58 -90 -51 55 14 -11 -10 -51
0000b0 03 ed f3 db 29 fe d9 32 b7 e7 d2 10 ed b5 fa 88
       3 -19 -13 -37 41 -2 -39 50 -73 -25 -46 16 -19 -75 -6 -120
0000c0 22 16 1d fc 18 14 01 c9 18 40 05 01 bc 34 ab 21
       34 22 29 -4 24 20 1 -55 24 64 5 1 -68 52 -85 33
0000d0 f6 eb ca 21 00 79 c2 14 1d 4b 19 fa 03 2a 28 02
       -10 -21 -54 33 0 121 -62 20 29 75 25 -6 3 42 40 2
0000e0 74 d9 01 ef e2 f9 28 0d 24 e4 46 46 2a 42 32 24
       116 -39 1 -17 -30 -7 40 13 36 -28 70 70 42 66 50 36
0000f0 fd 09 aa 01 f3 e4 06 17 28 28 c3 e2 0e 06 00 e1
       -3 9 -86 1 -13 -28 6 23 40 40 -61 -30 14 6 0 -31

sequential/batch_normalization_2/FusedBatchNormV3 i1 [64] scale=0.12951997 zero_point=-128
000000 81 81 82 74 82 82 81 82 82 82 82 81 81 82 82 85
       0.12951997 0.12951997 0.25903994 31.602873 0.25903994 0.25903994 0.12951997 0.25903994 0.25903994 0.25903994 0.25903994 0.12951997 0.12951997 0.25903994 0.25903994 0.6475998
000010 81 82 82 81 81 82 81 7f 83 82 81 5f 81 82 82 82
       0.12951997 0.25903994 0.25903994 0.12951997 0.12951997 0.25903994 0.12951997 33.02759 0.3885599 0.25903994 0.12951997 28.882954 0.12951997 0.25903994 0.25903994 0.25903994
000020 81 82 82 82 82 82 82 81 82 81 81 81 83 82 82 82
       0.12951997 0.25903994 0.25903994 0.25903994 0.25903994 0.25903994 0.25903994 0.12951997 0.25903994 0.12951997 0.12951997 0.12951997 0.3885599 0.25903994 0.25903994 0.25903994
000030 82 82 84 85 81 81 82 81 82 81 82 81 82 82 82 81
       0.25903994 0.25903994 0.5180799 0.6475998 0.12951997 0.12951997 0.25903994 0.12951997 0.25903994 0.12951997 0.25903994 0.12951997 0.25903994 0.25903994 0.25903994 0.12951997

sequential/batch_normalization_2/FusedBatchNormV31 i1 [64] scale=0.008754549 zero_point=127
000000 29 13 51 7f 38 2c 27 34 2a 46 2b 2b 1d 20 21 3d
       -0.7528912 -0.94549125 -0.40270925 0.0 -0.621573 -0.7266275 -0.7704003 -0.6565911 -0.74413663 -0.49900928 -0.7353821 -0.7353821 -0.85794574 -0.83168215 -0.8229276 -0.5778002
000010 3d 30 2a 2d 1c 2e 2e 7f 35 26 1c 7f 21 37 40 3e
       -0.5778002 -0.6916093 -0.74413663 -0.717873 -0.8667003 -0.7091184 -0.7091184 0.0 -0.6478366 -0.77915484 -0.8667003 0.0 -0.8229276 -0.6303275 -0.55153656 -0.56904566
000020 3a 37 17 3d 47 3c 2b 48 31 80 0f 20 73 32 27 33
       -0.60406387 -0.6303275 -0.91047305 -0.5778002 -0.49025473 -0.58655477 -0.7353821 -0.48150018 -0.6828548 -2.23241 -0.98050946 -0.83168215 -0.10505459 -0.6741002 -0.7704003 -0.66534567
000030 27 41 53 55 16 24 40 2c 46 40 36 1c 34 31 33 48
       -0.7704003 -0.542782 -0.38520014 -0.36769104 -0.9192276 -0.79666394 -0.55153656 -0.7266275 -0.49900928 -0.55153656 -0.6390821 -0.8667003 -0.6565911 -0.6828548 -0.66534567 -0.48150018

sequential/conv2d_4/Conv2D i1 [32, 3, 3, 64]
000000 10 37 30 01 ff f2 35 eb fe ea c8 f5 0c 41 d4 da
       16 55 48 1 -1 -14 53 -21 -2 -22 -56 -11 12 65 -44 -38
000010 0c e9 c8 14 d0 d5 df 0f 19 07 e6 fe 11 d2 e1 dc
       12 -23 -56 20 -48 -43 -33 15 25 7 -26 -2 17 -46 -31 -36
000020 ee cb 03 f3 19 00 17 86 f3 31 fe 2f 02 10 0a 0d
       -18 -53 3 -13 25 0 23 -122 -13 49 -2 47 2 16 10 13
000030 05 b7 fc 03 07 fc 14 db f9 42 df f1 2c e7 2a 1b
       5 -73 -4 3 7 -4 20 -37 -7 66 -33 -15 44 -25 42 27
000040 28 e7 b4 0b 0c c0 3c 0e ff d1 01 c9 b3 f8 2f dd
       40 -25 -76 11 12 -64 60 14 -1 -47 1 -55 -77 -8 47 -35
000050 14 ed 20 ab f5 17 19 06 27 3d de f8 03 df 18 d2
       20 -19 32 -85 -11 23 25 6 39 61 -34 -8 3 -33 24 -46
000060 0b cd 28 c6 ef da 0d c1 ce e7 05 f9 17 0e 0a fe
       11 -51 40 -58 -17 -38 13 -63 -50 -25 5 -7 23 14 10 -2
000070 cf 08 20 bf 0e 01 2a c3 c3 c3 0c fa fe b8 47 85
       -49 8 32 -65 14 1 42 -61 -61 -61 12 -6 -2 -72 71 -123
000080 cc f0 ef eb c2 ef 01 19 de ba 36 f1 ca ee 16 e5
       -52 -16 -17 -21 -62 -17 1 25 -34 -70 54 -15 -54 -18 22 -27
000090 0d ed 20 e0 df 0e 05 23 2a 11 0f f3 28 d5 f6 08
       13 -19 32 -32 -33 14 5 35 42 17 15 -13 40 -43 -10 8
0000a0 01 ec 22 e0 dd ee 0a 04 e5 e9 d0 31 0b 27 14 1a
       1 -20 34 -32 -35 -18 10 4 -27 -23 -48 49 11 39 20 26
0000b0 27 f4 e8 ca c5 19 fa f7 bb 06 04 f1 d9 f8 1b e9
       39 -12 -24 -54 -59 25 -6 -9 -69 6 4 -15 -39 -8 27 -23
0000c0 f1 24 00 f4 07 12 03 dd de c5 ac 0b a9 04 00 06
       -15 36 0 -12 7 18 3 -35 -34 -59 -84 11 -87 4 0 6
0000d0 11 d4 cc c1 05 bd d7 0e e8 02 ef fd 15 e3 ed db
       17 -44 -52 -63 5 -67 -41 14 -24 2 -17 -3 21 -29 -19 -37
0000e0 fd e5 d3 cb 08 f1 e1 9d c8 f4 05 d4 f4 e5 ff 0d
       -3 -27 -45 -53 8 -15 -31 -99 -56 -12 5 -44 -12 -27 -1 13
0000f0 ee da d6 d8 04 f1 e6 c2 e0 c7 fc 06 fb cb 2c e8
       -18 -38 -42 -40 4 -15 -26 -62 -32 -57 -4 6 -5 -53 44 -24

sequential/conv2d_5/Conv2D i1 [32, 3, 3, 32]
000000 08 18 0d f2 cc 11 1e 1c d6 11 1e ba ff 18 f1 05
       8 24 13 -14 -52 17 30 28 -42 17 30 -70 -1 24 -15 5
000010 31 39 16 23 0c 01 0b 09 0b ff e6 18 21 f9 ee f0
       49 57 22 35 12 1 11 9 11 -1 -26 24 33 -7 -18 -16
000020 25 f8 24 db 14 fc 20 fe 0a f4 fd f3 f7 f4 00 16
       37 -8 36 -37 20 -4 32 -2 10 -12 -3 -13 -9 -12 0 22
000030 f6 ef 0f 00 10 b8 45 ea 1a 0a fb fe de 17 1e 0e
       -10 -17 15 0 16 -72 69 -22 26 10 -5 -2 -34 23 30 14
000040 d2 bb f6 f7 2b d6 04 d9 dc f3 00 f6 1e 1a 17 ea
       -46 -69 -10 -9 43 -42 4 -39 -36 -13 0 -10 30 26 23 -22
000050 ee cf fa dc c0 2f f3 12 0d 1d 0d 14 2d 13 14 fc
       -18 -49 -6 -36 -64 47 -13 18 13 29 13 20 45 19 20 -4
000060 08 bf 0f 12 fd f8 11 ed 10 21 d6 b1 ef f6 10 f4
       8 -65 15 18 -3 -8 17 -19 16 33 -42 -79 -17 -10 16 -12
000070 d8 ce 23 f0 d5 09 27 eb ff fb 13 cc 08 11 f8 f8
       -40 -50 35 -16 -43 9 39 -21 -1 -5 19 -52 8 17 -8 -8
000080 e5 81 26 16 12 33 15 05 fa de 34 e1 18 1b dc 0a
       -27 -127 38 22 18 51 21 5 -6 -34 52 -31 24 27 -36 10
000090 e1 da d8 f5 c4 b8 08 11 f9 25 17 07 16 00 d6 fa
       -31 -38 -40 -11 -60 -72 8 17 -7 37 23 7 22 0 -42 -6
0000a0 5f 13 05 da e5 1e ff 03 c7 f4 c1 00 da e3 1b 15
       95 19 5 -38 -27 30 -1 3 -57 -12 -63 0 -38 -29 27 21
0000b0 f3 12 1c e8 f4 ef ff 45 fa f1 27 2f 1f 0c be 2c
       -13 18 28 -24 -12 -17 -1 69 -6 -15 39 47 31 12 -66 44
0000c0 f9 0e ff 10 d1 e7 1c 20 c1 fc 11 cc f2 11 de 26
       -7 14 -1 16 -47 -25 28 32 -63 -4 17 -52 -14 17 -34 38
0000d0 e0 22 c2 f1 1c ec 17 02 e4 fa 17 de f9 07 08 d3
       -32 34 -62 -15 28 -20 23 2 -28 -6 23 -34 -7 7 8 -45
0000e0 de f6 d0 0f f5 f5 1c fa 15 fe 3f c7 ef 0b 20 1f
       -34 -10 -48 15 -11 -11 28 -6 21 -2 63 -57 -17 11 32 31
0000f0 d3 07 ef fc d2 01 e4 f6 13 f9 00 bb 0e 23 f4 fe
       -45 7 -17 -4 -46 1 -28 -10 19 -7 0 -69 14 35 -12 -2

sequential/batch_normalization_3/FusedBatchNormV3 i1 [32] scale=0.0027297637 zero_point=-128
000000 62 63 7f 6d 5d 5c 42 54 58 4f 67 77 69 77 6d 7c
       0.6169266 0.6196564 0.69608974 0.646954 0.6032778 0.600548 0.52957416 0.5787099 0.589629 0.5650611 0.6305754 0.6742516 0.63603497 0.6742516 0.646954 0.6879005
000010 5f 48 56 56 4a 41 50 6f 78 43 69 5e 57 42 69 34
       0.6087373 0.54595274 0.58416945 0.58416945 0.5514123 0.5268444 0.56779087 0.65241355 0.6769814 0.5323039 0.63603497 0.6060076 0.5868992 0.52957416 0.63603497 0.49135748

sequential/batch_normalization_3/FusedBatchNormV31 i1 [32] scale=0.014138817 zero_point=127
000000 01 f0 fb cd 07 14 19 f8 09 f7 f9 e3 03 e1 b6 80
       -1.7814909 -2.0218508 -1.8663238 -2.5167093 -1.696658 -1.5128534 -1.4421593 -1.9087403 -1.6683804 -1.9228791 -1.8946015 -2.2056553 -1.7532133 -2.233933 -2.8419023 -3.6053984
000010 ea 06 df 04 0a 15 0c fa f2 e5 fc f0 f7 c1 e5 1a
       -2.1066837 -1.7107968 -2.2622106 -1.7390745 -1.6542416 -1.4987146 -1.6259639 -1.8804626 -1.9935732 -2.1773777 -1.852185 -2.0218508 -1.9228791 -2.6863751 -2.1773777 -1.4280205

sequential/dense/MatMul i1 [100, 32] scale=0.0052717035 zero_point=0
000000 a9 0e 02 05 1d 44 00 b7 eb ac 26 b1 ba 33 bc 9f
       -0.4586382 0.07380385 0.010543407 0.026358517 0.1528794 0.35847583 0.0 -0.38483435 -0.11070577 -0.44282308 0.20032473 -0.41646457 -0.36901924 0.26885688 -0.35847583 -0.5113552
000010 a2 0d fb e5 ba 1e 05 34 bf 09 cf b4 cb 9d e3 d9
       -0.4955401 0.06853215 -0.026358517 -0.142336 -0.36901924 0.1581511 0.026358517 0.2741286 -0.34266073 0.04744533 -0.25831348 -0.40064946 -0.2794003 -0.5218986 -0.1528794 -0.20559643
000020 c6 1b d2 c1 28 3e ba e7 f6 a4 19 a0 c2 37 c4 91
       -0.3057588 0.142336 -0.24249835 -0.33211732 0.21086814 0.32684562 -0.36901924 -0.13179259 -0.052717034 -0.4849967 0.13179259 -0.50608355 -0.32684562 0.2899437 -0.3163022 -0.58515906
000030 a7 0d bc c9 94 19 0e 2c ba eb c9 ea 96 da ce df
       -0.4691816 0.06853215 -0.35847583 -0.2899437 -0.569344 0.13179259 0.07380385 0.23195495 -0.36901924 -0.11070577 -0.2899437 -0.11597747 -0.5588006 -0.20032473 -0.26358518 -0.17396621
000040 b2 1f d6 ab 21 35 9b bd cc a4 18 af ce 2a aa a3
       -0.41119286 0.16342281 -0.22141154 -0.4480948 0.17396621 0.2794003 -0.53244203 -0.35320413 -0.2741286 -0.4849967 0.12652089 -0.42700797 -0.26358518 0.22141154 -0.4533665 -0.4902684
000050 b7 1d bb ba ad f9 19 0e cb a8 d9 ac b9 be 02 b4
       -0.38483435 0.1528794 -0.36374754 -0.36901924 -0.43755138 -0.036901925 0.13179259 0.07380385 -0.2794003 -0.4639099 -0.20559643 -0.44282308 -0.37429094 -0.34793243 0.010543407 -0.40064946
000060 ec 26 a5 aa 25 26 a3 a9 d0 a5 e7 a9 ca 1e b0 ae
       -0.10543407 0.20032473 -0.479725 -0.4533665 0.19505303 0.20032473 -0.4902684 -0.4586382 -0.25304177 -0.479725 -0.13179259 -0.4586382 -0.284672 0.1581511 -0.42173627 -0.43227968
000070 b0 2a af b1 ca b9 22 01 f4 a3 d4 ce c0 ab 19 d8
       -0.42173627 0.22141154 -0.42700797 -0.41646457 -0.284672 -0.37429094 0.17923792 0.0052717035 -0.06326044 -0.4902684 -0.23195495 -0.26358518 -0.33738902 -0.4480948 0.13179259 -0.21086814
000080 f2 2a ba a7 24 18 c4 a3 b5 a4 e6 dd cf e0 a2 df
       -0.07380385 0.22141154 -0.36901924 -0.4691816 0.18978132 0.12652089 -0.3163022 -0.4902684 -0.39537776 -0.4849967 -0.1370643 -0.18450962 -0.25831348 -0.16869451 -0.4955401 -0.17396621
000090 af 2c a8 b0 e9 bb 1d df e3 ad ba 02 b7 98 29 c7
       -0.42700797 0.23195495 -0.4639099 -0.42173627 -0.12124918 -0.36374754 0.1528794 -0.17396621 -0.1528794 -0.43755138 -0.36901924 0.010543407 -0.38483435 -0.5482572 0.21613984 -0.3004871
0000a0 bf 1c bf aa 29 1b c0 a4 b0 ab ae 16 c9 b1 a2 c5
       -0.34266073 0.1476077 -0.34266073 -0.4533665 0.21613984 0.142336 -0.33738902 -0.4849967 -0.42173627 -0.4480948 -0.43227968 0.11597747 -0.2899437 -0.41646457 -0.4955401 -0.3110305
0000b0 a9 24 b1 cb 0b c4 13 ef d3 ad bc 0f b5 a4 28 df
       -0.4586382 0.18978132 -0.41646457 -0.2794003 0.057988737 -0.3163022 0.100162365 -0.08961896 -0.23722665 -0.43755138 -0.35847583 0.07907555 -0.39537776 -0.4849967 0.21086814 -0.17396621
0000c0 bd 0a c0 b7 2e ed c3 b1 b9 bc a8 2c d4 a4 b0 c9
       -0.35320413 0.052717034 -0.33738902 -0.38483435 0.24249835 -0.100162365 -0.3215739 -0.41646457 -0.37429094 -0.35847583 -0.4639099 0.23195495 -0.23195495 -0.4849967 -0.42173627 -0.2899437
0000d0 b4 10 b7 cc 20 b9 0e b6 b8 ad c5 1f e9 b4 2e de
       -0.40064946 0.084347256 -0.38483435 -0.2741286 0.16869451 -0.37429094 0.07380385 -0.39010605 -0.37956265 -0.43755138 -0.3110305 0.16342281 -0.12124918 -0.40064946 0.24249835 -0.17923792
0000e0 dc ea ba b9 34 bc c4 aa ca cf 9c 33 dd 9e d6 cc
       -0.18978132 -0.11597747 -0.36901924 -0.37429094 0.2741286 -0.35847583 -0.3163022 -0.4533665 -0.284672 -0.25831348 -0.52717036 0.26885688 -0.18450962 -0.51662695 -0.22141154 -0.2741286
0000f0 b7 ef c2 c6 31 b5 eb a3 a4 b2 c6 26 11 bd 31 e1
       -0.38483435 -0.08961896 -0.32684562 -0.3057588 0.25831348 -0.39537776 -0.11070577 -0.4902684 -0.4849967 -0.41119286 -0.3057588 0.20032473 0.08961896 -0.35320413 0.25831348 -0.16342281
