sd-card/config/ana-cont_1300_s2.tflite (tflite, 183756 bytes, 14 tensors)

model/dense/BiasAdd/ReadVariableOp f4 [128]
000000 4a e2 f4 3d 28 ec 31 3e 6b 7b c2 3d dd 64 ef 3d
       0.11957224 0.17375243 0.09496196 0.1168916
000010 6b d1 58 bc b0 66 85 bd 12 fb a6 bd a7 8b 8a 3d
       -0.013233523 -0.06513727 -0.081533566 0.06764918
000020 c6 18 0d 3e ef 2a 07 3e c7 30 8e 3d ed 5e 71 3d
       0.13778982 0.13199972 0.06942897 0.05892842
000030 6c a2 0e 3e 3e 8f 82 3d c6 25 f1 3d ff bb 07 3d
       0.13929147 0.063749775 0.11774783 0.03313827
000040 be aa 92 3d d7 d2 e4 bc c5 90 68 3b 70 b4 a9 3d
       0.07161473 -0.027932568 0.003548668 0.08286369
000050 59 f0 a9 3d 2c 28 91 3d 91 42 26 bd 87 2e 77 bd
       0.08297796 0.0708774 -0.040590826 -0.060347106
000060 76 f4 7b 3d 55 d5 84 3c 43 94 6a bd c7 a8 b0 3c
       0.061512433 0.016215006 -0.0572703 0.021564854
000070 c1 c7 bc 3d 7d bb 9c 3e 73 00 40 3e 6e 73 ad 3d
       0.092177875 0.30611792 0.18750171 0.08469282
000080 d6 19 b6 3d c6 9c 9d 3d 6a 8e 1c 3d e7 33 c7 bc
       0.088916466 0.07695918 0.038221754 -0.024316741
000090 7b f4 7f 3d 86 1b 86 bd 7b c0 dd 3d 35 2c 64 3c
       0.062489014 -0.065482184 0.10827728 0.013926555
0000a0 2c 29 80 3d b9 47 26 3d 80 fb 3e bd 6d 7e e5 bc
       0.06257853 0.040595744 -0.046626568 -0.028014386
0000b0 d5 5c 86 3d f6 7a 96 3d 2a 26 e0 3d 18 51 08 bd
       0.06560675 0.07347672 0.10944779 -0.033280462
0000c0 62 74 ab bd 82 7d b8 bd cc 01 b3 3c 08 21 e4 3d
       -0.08371808 -0.09008314 0.021851443 0.11139113
0000d0 37 1a 14 3e 52 49 12 bd cf e5 9c bd a0 4a 28 3e
       0.14463125 -0.035714455 -0.0766102 0.16434717
0000e0 ff f4 6b 3d 58 b0 4d bd c4 f1 5e 3e 3d 18 01 bc
       0.057606693 -0.050217003 0.21771914 -0.007879314
0000f0 ef f1 26 3e b1 a9 37 3e 25 95 e6 3d d8 33 fc 3c
       0.16303228 0.17935826 0.11258916 0.03078644
000100 4c 10 76 3c 9a 63 48 3d b2 d7 7c 3d 24 0b 6e bd
       0.015018534 0.048923112 0.06172914 -0.058116093
000110 16 88 cd 3d ee cd c7 3d 97 57 3b bd 8a 3a 8b 3d
       0.10035722 0.09756075 -0.04573783 0.06798275
000120 3d ab 8b 3d b3 8e 1a 3e c5 1c e1 3d 3d 3d 11 bd
       0.068197705 0.15093498 0.109918155 -0.035458792
000130 9d 2b 83 3e e3 92 e3 3d 51 8a 82 3d 59 ce c7 3d
       0.25619212 0.11112001 0.06374038 0.097561546
000140 7f 40 81 3d eb 70 5a 3d de a1 7d bd 69 3d c3 3d
       0.0631113 0.053330343 -0.061921947 0.095331974
000150 5d 16 b9 3d 59 48 6a 3c 2c 79 1a bd 09 75 0b bd
       0.090374686 0.014299476 -0.037713215 -0.03404716
000160 8d e8 a0 3d 85 c6 3d 3c c0 77 51 3d 98 76 87 3c
       0.078568555 0.011582975 0.051139593 0.016536042
000170 38 27 97 3c fd 08 56 3d c0 c3 cc 3d 06 9c 87 3d
       0.018451318 0.052254666 0.09998274 0.06621556
000180 8e dc 98 3d 91 d2 21 3d 13 3d ae 3d 38 94 d9 3d
       0.074639425 0.039507452 0.08507743 0.106239736
000190 62 09 1b bd 93 1e 69 3d c9 19 1a bd b9 84 53 bc
       -0.037850745 0.056913923 -0.037622247 -0.0129100615
0001a0 0a f2 08 3d 01 df 07 3e 28 43 1e 3e 94 ec 32 3e
       0.03343395 0.13268663 0.15455306 0.1747306
0001b0 4d 73 8c 3d 11 82 0e 3e 47 63 ff 3c 2a 60 d7 bc
       0.068579294 0.13916804 0.031175269 -0.026290972
0001c0 c5 16 bd bc 1b 96 96 3d a1 6a 95 3d 35 f2 28 3d
       -0.023082146 0.07352849 0.072957285 0.04124661
0001d0 0c 40 a7 3c 29 40 c1 3d db be b7 bd 09 c5 e9 3d
       0.020416282 0.09436066 -0.0897195 0.114145346
0001e0 34 82 03 3e b0 58 3c 3e 3b 65 c8 3d 77 c5 22 3d
       0.12842637 0.18393207 0.09784933 0.0397391
0001f0 b6 e7 9f 3d 3c b0 e7 3d 62 04 af 3d c7 4a 97 3d
       0.07807867 0.11312911 0.08545758 0.073873095

model/dense_2/BiasAdd/ReadVariableOp f4 [2]
000000 a4 0d d6 3d 61 2d 5e bd
       0.104518205 -0.054242495

model/dense_1/BiasAdd/ReadVariableOp f4 [64]
000000 60 97 47 3e e8 8e cd 3d ed 97 36 be e3 83 75 3e
       0.19491339 0.10037023 -0.17831393 0.23976092
000010 5f ad 48 be e7 f8 90 3c 9d 33 67 3e 78 7b 55 3e
       -0.19597386 0.01769681 0.22578283 0.20847881
000020 f8 59 2f 3e c1 ee e4 bd 65 26 87 3e 3d f0 4d 3e
       0.17124164 -0.11178351 0.2639648 0.20111175
000030 39 62 c7 3d 02 05 88 3e bb 04 58 3e 3d f6 4a 3e
       0.09735531 0.2656632 0.21095555 0.19820495
000040 07 f2 40 3e 11 6c 21 3e 97 c8 97 3e 27 8d 8f 3e
       0.18842326 0.1576388 0.29645225 0.28037378
000050 fb e0 4f 3d 5d a0 1e be fc e5 44 3e 17 f3 6b be
       0.050751667 -0.15490861 0.19228357 -0.2304195
000060 66 61 ae bd 76 86 4c be 78 2d 0e 3e 71 86 74 3e
       -0.08514671 -0.19973168 0.13884532 0.2387941
000070 a4 c2 af 3d d9 4e 43 be 19 2a 63 3e ae bb 3d 3e
       0.08582047 -0.19073047 0.22184028 0.18528625
000080 91 f8 26 3e 2a 00 3e 3e fc a1 0b 3e d1 53 a2 bd
       0.16305758 0.1855475 0.13636011 -0.07926143
000090 57 3e 2c be a6 06 34 3e bc 7a 69 3e 40 28 8a 3e
       -0.16820656 0.17580661 0.22800726 0.26983833
0000a0 e7 95 77 3e 8c 93 c1 bd 7b a9 85 3e 2d 95 c2 bd
       0.24178277 -0.094519705 0.26105866 -0.09501109
0000b0 46 44 b7 bd 02 f6 7b 3e 13 3b b2 bc 12 f7 5e 3e
       -0.08948569 0.24605563 -0.021756684 0.21773937
0000c0 ac 02 38 3e 10 9b 4a 3e fd 8a 48 3e 0d 20 55 3e
       0.17969769 0.19785714 0.1958427 0.20813008
0000d0 08 68 83 3c ab d7 1e 3e d0 0a 10 3e e8 b0 a3 bc
       0.016040817 0.15511958 0.14066625 -0.019981816
0000e0 7e 49 55 3e 78 0a 21 be cc 75 6d 3e 2f 5f 92 bc
       0.20828816 -0.1572665 0.23189467 -0.017867653
0000f0 75 9b 51 be 44 b7 6b 3e ed 9a 4a 3e 0a 76 48 3e
       -0.20469458 0.23019129 0.19785662 0.19576278

model/conv2d/BiasAdd/ReadVariableOp f4 [32]
000000 b5 39 d6 bc d9 46 21 bd c6 fa 94 bd 72 16 cf bd
       -0.026150564 -0.039374206 -0.07274394 -0.10111703
000010 c0 ff b9 bd 2c 80 ab bd c2 d7 8d bd 1c 32 87 bd
       -0.090819836 -0.08374056 -0.06925918 -0.066013545
000020 93 84 94 bd 3d ec 16 be 94 97 87 bd 5b 27 4e bd
       -0.07251849 -0.14738555 -0.06620708 -0.0503305
000030 da 47 6b be f8 33 a7 bb a4 70 8f bc 25 ad 72 bd
       -0.22976628 -0.0051026307 -0.017509766 -0.059247155
000040 14 76 91 bd 9d e9 fc bd 26 82 06 be 80 f5 e1 bd
       -0.071026 -0.12349246 -0.13135585 -0.110331535
000050 66 33 d4 bc 9e ed b8 bd 04 04 63 bd ef 42 c6 bd
       -0.025903415 -0.09029697 -0.05542375 -0.09680735
000060 8e 69 15 be 7e 44 96 bd 77 a7 04 be 66 9e 36 3d
       -0.14591047 -0.073372826 -0.12954508 0.044584654
000070 eb 99 3a bd b3 80 a2 bb a5 50 1c bd b7 e3 7f bd
       -0.045556944 -0.00495919 -0.038162846 -0.062473025

model/conv2d_2/BiasAdd/ReadVariableOp f4 [32]
000000 96 f6 1a bb c7 e3 9e bd 5a 30 7f bc 03 dd 5e bc
       -0.0023645512 -0.07758289 -0.015575493 -0.013602498
000010 14 e4 72 bd 63 18 8c 3d ef 85 b5 bd 57 e7 8d bc
       -0.059299543 0.06840589 -0.088634364 -0.017322225
000020 32 33 45 be f7 69 e6 bd c2 d1 b0 3c 5a 98 e3 3b
       -0.1925781 -0.1125068 0.021584395 0.006945652
000030 18 c9 29 3d 0f e2 95 3d 58 48 71 bd 5a ca 0c bc
       0.041451544 0.07318508 -0.058906883 -0.008593166
000040 81 89 3b bc 1e f7 be bd 1f 2f 06 3e c8 e8 1e 3d
       -0.011446358 -0.093244776 0.13103913 0.038796216
000050 70 cd fd 3a 2d 0d 38 3d f3 19 65 3d 30 fd fa bb
       0.0019363593 0.04493444 0.05593295 -0.007659577
000060 5d 43 c2 bc 20 a1 b8 bc 6e 1f 49 bd c8 20 02 bc
       -0.023713762 -0.022537768 -0.04910224 -0.007942386
000070 32 9c de 3c 76 0e fa bb b2 13 a1 bd 6e 3a 75 bd
       0.02717409 -0.0076311184 -0.07865085 -0.059870176

model/conv2d_1/BiasAdd/ReadVariableOp f4 [16]
000000 1d 93 af bd ca 3c 11 3d 02 56 56 3c 7f 3c 8c bd
       -0.085729815 0.035458364 0.013082029 -0.06847476
000010 c2 9b 3f bd c5 15 69 bb c4 dd 8a 3d 09 38 3c bd
       -0.0467794 -0.0035565954 0.0678058 -0.045951877
000020 1d d1 00 bd bb 3c 85 bd 2e e8 24 bd a3 c4 fa 3b
       -0.031449426 -0.06505724 -0.040260486 0.0076528355
000030 48 69 38 bd ea 6d b7 bc 08 fb 07 3d 87 08 2b be
       -0.04502228 -0.022391278 0.033198386 -0.16702472

model/batch_normalization/FusedBatchNormV3 f4 [3]
000000 fe 42 73 3b 84 ed 6d 3b 64 a1 2c 3b
       0.0037118788 0.00363049 0.0026341313

model/batch_normalization/FusedBatchNormV31 f4 [3]
000000 b7 e0 09 bf 72 80 f0 be a1 34 ad be
       -0.5385851 -0.46972996 -0.33829215

model/dense/MatMul f4 [128, 128]
000000 b3 be 39 bc 78 55 68 3d c2 0e 43 be 60 11 06 3d
       -0.01133697 0.056722134 -0.19048598 0.032731414
000010 4b 26 92 bc 32 49 6b 3d 88 7f 7d bd b4 d1 0a be
       -0.017840525 0.05744285 -0.0618892 -0.13556558
000020 22 13 54 3c 13 60 d1 bd 84 6c 00 be 5b d6 f0 3d
       0.012944015 -0.10223403 -0.12541395 0.11759635
000030 8a 97 a5 3c 4d d3 e1 bd 8a a6 ad bc 49 dd 16 3e
       0.020213861 -0.110266306 -0.021197576 0.14732851
000040 5c 0f ea 3c 76 f1 c7 bd 62 84 46 3e 8e 2a 3d bd
       0.028571777 -0.09762852 0.19386438 -0.04618316
000050 2e be b0 bc 79 9d c3 3d c6 38 1f 3e 82 fb 84 bc
       -0.02157506 0.0955152 0.15549001 -0.01623321
000060 dd 0a 05 3e 3d 6a 0b be 9a 1c 55 3b dc ae 10 be
       0.12992425 -0.13614745 0.0032518269 -0.14129204
000070 ae b5 43 be 8a 44 e4 bd 3b ff 84 3d 71 68 24 be
       -0.19112274 -0.11145885 0.06493994 -0.16055466
000080 74 29 6a 3d 7f 6f 56 3d ee 3a 96 bd f3 f8 46 be
       0.05716844 0.052352425 -0.07335459 -0.19430904
000090 36 ab 0e be 31 e5 1e 3e 9f c6 51 be 5a 7d 1a be
       -0.139325 0.15517117 -0.20485924 -0.1508688
0000a0 e6 d2 4c be 00 fa f6 3d bf 8c bf 3d 0b 3d 14 be
       -0.20002326 0.120594025 0.09353017 -0.14476411
0000b0 b1 de 11 be 59 18 b9 3d a8 69 8f bc 4a 5e e5 bc
       -0.14245106 0.09037847 -0.017506436 -0.027999062
0000c0 8b d1 63 3d 22 fd 5e 3d db 1d cd bd 0d 53 25 be
       0.055619758 0.054440625 -0.1001546 -0.16144963
0000d0 35 6b a4 3d 34 39 a5 3d d2 54 05 be 6a 85 dc bc
       0.080282606 0.08067551 -0.13020638 -0.026919086
0000e0 54 47 20 3d 07 65 3c be ab 23 c2 3c 74 26 75 3d
       0.039130524 -0.18397914 0.023698648 0.059851125
0000f0 a0 82 2d 3d 25 3e 92 3b 2e 8d 60 3d 74 a1 e2 3d
       0.0423609 0.0044629746 0.05482214 0.11065951
000100 f0 cb bc bb c5 9a d6 3c ac 8e 84 bd f2 28 d0 bd
       -0.005761616 0.026196847 -0.06472525 -0.1016406
000110 a4 a0 84 bd 7a 52 a9 3c 2f cf a8 3c 1d e2 71 bd
       -0.06475952 0.02066921 0.020606605 -0.05905353
000120 f1 29 96 3c 3d 68 ec bd 65 70 05 bd 1c 6e 50 be
       0.018330546 -0.115433194 -0.03257789 -0.20354503
000130 ba a3 2a 3c ca 44 27 be bd 94 96 3d c1 ea 30 be
       0.010415012 -0.16334835 0.07352588 -0.17277052
000140 3d 3a 2f bd 32 09 4b be 7c 32 4a be 66 38 24 bd
       -0.04278015 -0.19827726 -0.19745821 -0.04009285
000150 ff c1 d2 bc 2c 9e 03 3e 0a ed 63 bd 6a ea 47 be
       -0.02572727 0.12853307 -0.05564598 -0.19523016
000160 0b ed d7 bc e5 79 0b bd 99 fa 61 3d e4 1b 97 3d
       -0.026358148 -0.034051795 0.05517063 0.073783666
000170 85 c3 d0 bd 77 bd b0 3d 58 0c 36 3d 02 2a 86 3c
       -0.101935424 0.086298876 0.044445366 0.016377453
000180 e0 07 8b 3c 0d 21 f0 3d a9 03 0d be fa be ae 3c
       0.016971529 0.11725054 -0.13770927 0.0213313
000190 02 d6 fd 3d 06 f8 40 3d ea 63 8d bd 67 8a b1 3c
       0.123943344 0.047111534 -0.06903823 0.02167244
0001a0 8c 7c 50 3b ae f5 05 3d 9f ce e1 bd ce bd 01 be
       0.0031812517 0.032705 -0.11025738 -0.12670061
0001b0 e9 59 4a 3d f3 59 1c 3d 4e fc ee bc 97 e8 38 bd
       0.04940215 0.03817172 -0.029173043 -0.04514369
0001c0 93 83 63 bd d4 d2 bb 3d ef 39 cd bd 64 5c 41 be
       -0.0555454 0.09171072 -0.100208156 -0.188829
0001d0 86 1a bc bd 52 d2 cb bd 8d 90 7c 3d 55 c9 e8 bd
       -0.091847464 -0.09952225 0.061661292 -0.11366526
0001e0 95 28 8a bd 8c ad 05 3e d9 6b ea bd 16 9d 22 3d
       -0.06746022 0.13054484 -0.114463516 0.03970059
0001f0 85 08 f6 bc 37 95 0a 3d 8c c6 5f 3d ed cd 92 bd
       -0.03003336 0.03383371 0.05463271 -0.071681835
000200 33 1e 23 be 6c ea b6 bc 66 0b ab bd 80 26 70 3d
       -0.15929489 -0.022328578 -0.083517835 0.058630466
000210 9b 68 2e bc 4c 1f 8f bd 9b 51 b6 bd 9e dc dc bd
       -0.010645057 -0.06988391 -0.08902284 -0.10784267
000220 43 c8 4f 3c a4 0a e8 bb d0 b7 d6 bd 12 94 c4 3d
       0.012682023 -0.0070813466 -0.10484278 0.09598555
000230 5b a4 8a bc a4 ce 16 3c 90 ca f6 3d 18 73 26 be
       -0.016924074 0.00920454 0.120503545 -0.16254842
000240 31 df 3f 3d 1c 37 f7 bd e7 4a fe bc f9 95 b1 bd
       0.04684371 -0.12071058 -0.031041576 -0.08671183
000250 78 8b fc 3d f7 f3 db 3d 35 d9 0d be bd 5e d2 3d
       0.12331289 0.10739892 -0.13852389 0.10271976
000260 46 63 df 3d 6e c6 67 3d d5 51 bb 3b c7 ff 74 3d
       0.10907607 0.05658572 0.0057165422 0.05981424
000270 b5 6b 16 be 1d 8e a6 3d af 7f 1a be 1e 19 ee bd
       -0.14689524 0.08132575 -0.1508777 -0.116258845
000280 ef 70 a2 bd f9 2f 92 bc f3 86 cd bd 0e 00 d6 bc
       -0.079316966 -0.01784514 -0.10035505 -0.026123073
000290 be 9c fc bd c6 10 20 3e 7b 90 88 bd a9 7d d3 3d
       -0.12334584 0.15631399 -0.066681825 0.10326702
0002a0 33 20 fa bd ea 0c 8c 3c 70 7c 6a bd a3 33 91 3d
       -0.12213173 0.017096002 -0.05724758 0.07089927
0002b0 b7 9f 0b be 7b 7f 10 3e 4f 1b 12 be 6e af a7 bd
       -0.13635145 0.1411113 -0.1426823 -0.081877574
0002c0 ae 30 ef bc 45 77 0a 3e fa fa c7 3b 5b 10 be bd
       -0.029198017 0.1352206 0.006102917 -0.09280463
0002d0 f9 dc 1b be 89 53 21 be 1c 72 91 ba 9b 76 0d 3d
       -0.15221013 -0.15754522 -0.0011096629 0.03453694
0002e0 3e e8 13 be 93 ce fe 3d bb 98 e1 bd a3 2d 07 be
       -0.14444062 0.12441745 -0.11015459 -0.13201003
0002f0 fc d5 9b bc 5b 32 e4 3d f9 a0 5a be 7d a4 ac 3d
       -0.019022934 0.11142417 -0.21350469 0.08429811
000300 32 86 16 3c 19 a9 77 3e 00 1a 05 be 27 91 ce bc
       0.009187268 0.241856 -0.129982 -0.025215698
000310 ec bc c5 bc 85 50 90 3d a1 f9 5d bb cc c9 cc 3b
       -0.024137937 0.07046608 -0.0033870714 0.006249642
000320 93 a7 c2 bb d6 d7 8e bd 64 6a 3e be 00 c6 a3 3c
       -0.0059403866 -0.06974761 -0.18595272 0.019991875
000330 8a 88 23 3e 63 79 a6 bd 69 69 b4 bd 4d 05 81 bd
       0.15970054 -0.081286214 -0.08809168 -0.06299839
000340 4b 6b a6 3d c1 b5 a5 bd 84 12 95 3c 05 4b e2 3c
       0.08125933 -0.080913074 0.018197306 0.027623663
000350 2a 34 ec bd 52 8a 56 3d b9 c4 b1 3d 6a 68 97 bd
       -0.11533387 0.052378006 0.086801 -0.07392962
000360 e6 ea 9e bd 60 fb 34 3c 7d 2d 12 bd c5 45 8f 3c
       -0.07759647 0.011046261 -0.035687912 0.017489323
000370 b5 ec a1 bc c6 5b 86 3d 03 db 4d be 32 37 26 3e
       -0.019766191 0.06560473 -0.20103078 0.16231993
000380 6a 35 83 3d be 0a f5 bc 7e 78 13 bb 50 3e 51 3d
       0.06406672 -0.029912349 -0.002250224 0.051084816
000390 fc f8 63 bd 74 65 c3 3d ac cf d6 bd cd 49 61 3c
       -0.055657372 0.09540835 -0.10488829 0.013750506
0003a0 57 9e 89 3d c5 01 3c bd 32 3c b1 bd 6b 34 8c bd
       0.06719654 -0.045900125 -0.086540595 -0.068459354
0003b0 0e cb 46 be e3 82 fe bc 44 98 77 bb 51 fb 0a bd
       -0.19413397 -0.031068271 -0.0037779966 -0.03393108
0003c0 93 84 60 bc 73 76 f4 3d 86 3c 3b 3d 58 5b e9 3d
       -0.013703483 0.11936655 0.045712017 0.113943756
0003d0 43 9f b5 3d d2 01 20 be 1c 79 04 bc 96 b6 13 be
       0.088682674 -0.15625694 -0.008085515 -0.1442512
0003e0 6a b8 0a be 59 05 85 3d d3 10 46 bd 1c 15 ad bc
       -0.13546911 0.064951606 -0.04835589 -0.02112823
0003f0 8c 91 4f 3d 2b 6f 0c 3e a2 d0 0c 3e b2 c0 83 3d
       0.050675914 0.13714282 0.13751462 0.06433238

model/dense_1/MatMul f4 [64, 128]
000000 da 23 7b be bf 4d 41 bd 94 4b a6 be 67 b1 00 bd
       -0.24525395 -0.047193285 -0.32479537 -0.031419184
000010 9a e9 33 bd 65 07 00 3e 23 21 d5 bd 5e 51 4f bd
       -0.04392395 0.12502821 -0.10406711 -0.050614707
000020 f8 94 8b bc dc ad 20 3e f0 3b 47 3c cc d2 c9 be
       -0.017038807 0.15691322 0.012160286 -0.39418638
000030 82 6b ff 3d f7 98 db bd d5 e5 6a 3d d2 80 24 be
       0.12471677 -0.10722535 0.05734809 -0.16064766
000040 20 12 3f be 4a ed ec bd bf 0b eb bd 9e 08 f1 3d
       -0.18659258 -0.11568697 -0.1147685 0.11769222
000050 c2 de 3e be a1 1e 97 bd 09 91 47 bd 56 66 b3 bc
       -0.18639663 -0.07378889 -0.0487223 -0.021899384
000060 d9 08 4f be 36 63 a0 3d b9 fd 99 3d 05 ee 53 be
       -0.20218219 0.07831423 0.07519097 -0.20696266
000070 b3 a5 78 3d 56 5b f3 3d 2b f1 81 bd 7d 97 9d bd
       0.060704898 0.11882655 -0.06344827 -0.0769491
000080 9c c0 d1 bd 30 1a 1a be 1e 64 ad be cd 96 57 bb
       -0.102418154 -0.15049052 -0.33865446 -0.003289628
000090 81 2f ff 3d bf a8 d3 bd 1b 71 f1 3d b1 d4 c6 bd
       0.124602325 -0.1033492 0.11789151 -0.097085364
0000a0 f0 cb 20 bc a4 3f af 3d cf cd 7b bd fe f5 a1 bd
       -0.0098142475 0.0855706 -0.06147557 -0.079082474
0000b0 a2 fe fc 3c 31 a3 87 be a6 b7 bd 3d f4 0e 60 bc
       0.030883137 -0.26491693 0.09263544 -0.01367544
0000c0 4b bd 28 be 99 b5 a9 bd 85 28 09 be f7 02 1a bd
       -0.1647846 -0.0828659 -0.13394363 -0.037600484
0000d0 94 4d 40 3e 74 81 20 be 34 44 72 3c 4c 00 08 3d
       0.18779594 -0.15674382 0.014786769 0.033203408
0000e0 01 1b 7a 3e 1a dc b2 3c 72 cd ec 3d 8d d5 91 bc
       0.24424364 0.021833468 0.11562623 -0.017802024
0000f0 80 e2 00 be a1 35 3d be 9f 42 b5 3d cd fc d6 bd
       -0.12586403 -0.18477489 0.088505976 -0.10497437
000100 35 64 d8 bd 53 2b d2 3d 41 9f db bb 15 06 55 3d
       -0.10565988 0.1026217 -0.006702334 0.052007753
000110 dd 24 9f bd 37 c7 80 3e c0 4c 4c 3c a9 8d a4 3d
       -0.07770703 0.2515199 0.0124694705 0.08034832
000120 18 dc 9a 3d 11 a7 80 bc 84 5e f4 3c 57 4d c6 3d
       0.07561511 -0.015704663 0.029830225 0.0968272
000130 de a8 6e bd 16 01 72 3e 48 b3 83 3b f7 ba 4c be
       -0.058266513 0.23633227 0.0040191747 -0.19993196
000140 06 5c c7 bd b2 c1 cd bd e3 19 cc 3d cf 43 77 bc
       -0.09734349 -0.1004671 0.09965875 -0.01509185
000150 40 85 91 be 44 4c 02 be 85 26 13 3e 7e 05 a6 bd
       -0.28421974 -0.12724406 0.14370163 -0.08106516
000160 e1 cb a6 bc 50 08 6f bd a5 c8 8e 3b 0e 80 16 3e
       -0.020360889 -0.058357537 0.004357415 0.14697286
000170 8c 1e cb bc 00 1c ae 3d 04 e0 d6 3d 87 af e0 bb
       -0.02479484 0.08501434 0.10491946 -0.006856862
000180 1f bc 6f bd 6d 4b 04 be 81 1e 98 3d 04 c6 ae be
       -0.058529016 -0.12919398 0.07427693 -0.3413545
000190 1c 98 1e 3d be c4 94 bd 11 4f 13 be 81 99 06 be
       0.03871928 -0.07264088 -0.1438563 -0.13144495
0001a0 34 bb 9a bd 74 75 1a 3d cc be 19 be 80 81 89 3d
       -0.075552374 0.03770967 -0.1501419 0.06714153
0001b0 7c c1 77 be f3 2c 0e 3e 58 3c 71 3c 7b ba 18 3e
       -0.24194902 0.13884334 0.01472386 0.14914887
0001c0 b4 06 fd bd db 43 87 bd 77 5b 0f 3e 5e ac e7 3d
       -0.12354794 -0.06604739 0.13999735 0.11312173
0001d0 48 34 0e bd af 9d ab 3d 65 13 1a be 7e 64 8c bd
       -0.034717828 0.08379685 -0.15046461 -0.06855105
0001e0 e8 4a 8e be 92 09 02 be dc 3c 7c bd cf dc 41 3e
       -0.27791524 -0.12698963 -0.061581478 0.18931888
0001f0 f9 2f 8b 3d 00 b1 61 3e f8 56 c1 3d f1 dc 98 bb
       0.067962594 0.22040176 0.09440416 -0.00466501
000200 d2 b9 c5 3c 83 12 f3 3d 11 7d 8d 3d 82 e6 13 3d
       0.024136458 0.11868765 0.0690862 0.0361085
000210 84 5c d3 3d d6 f3 ff 3b f5 9a 88 3d fe 49 a8 bd
       0.1032038 0.00781105 0.06670181 -0.08217238
000220 41 2d 53 bd c2 c3 09 be 6d 56 90 bc f1 ee 6d be
       -0.05155683 -0.13453582 -0.017619336 -0.2323568
000230 26 f9 75 bc fe 40 04 be d6 7a 6d 3d bb e4 b6 3d
       -0.015013015 -0.12915418 0.057978474 0.089303456
000240 0f 7a c4 bd 27 04 03 3a 44 ed 10 be 3b c7 90 bd
       -0.09593593 0.0004997872 -0.1415301 -0.0706925
000250 84 1a 40 3d 52 4d d4 bc 87 3f d4 3c 74 0b 25 be
       0.046900287 -0.025915775 0.025909198 -0.1611765
000260 91 f7 bc bd 5b cd 93 3d 33 95 61 3c 6c e0 fd 3d
       -0.09226907 0.07216903 0.013768482 0.12396321
000270 1d 47 ae 3d 7b 5a 30 3e 37 c6 c7 3d 4f ed 13 be
       0.085096575 0.17222016 0.09754603 -0.14445995
000280 08 79 c8 3d 86 68 ed 3d 2f 90 0b be 8f 5c 08 be
       0.0978871 0.11592202 -0.1362922 -0.13316558
000290 18 d3 c3 bd e9 42 49 be fe bc 19 bd 52 33 3c be
       -0.09561747 -0.1965443 -0.037533753 -0.18378952
0002a0 a8 b3 84 be 6c 34 e7 3d 21 70 a3 bd b6 07 c0 3d
       -0.25918317 0.112892956 -0.07980371 0.09376471
0002b0 ae df 5b bc 47 0d cf bd 35 d4 0e be 62 1e ac bd
       -0.013420029 -0.10109954 -0.13948138 -0.084042326
0002c0 20 03 3b be e0 2b 5c bc 04 91 11 3d d6 43 9c bd
       -0.18262911 -0.013438195 0.03553869 -0.07630126
0002d0 47 54 3e 3d a2 7a 13 3e b5 16 a8 bd 15 96 81 3d
       0.046467092 0.1440225 -0.08207456 0.06327454
0002e0 f8 6a c1 3d bf 5d bf bd b6 bd c0 bd 08 fc bf bd
       0.09444231 -0.093440525 -0.094111845 -0.09374243
0002f0 18 a2 89 bd b1 a9 4f be 89 57 ac be a7 b4 db 3d
       -0.0672037 -0.20279576 -0.33660534 0.10727816
000300 ad 6c 6e bd 42 3e 26 be fc 02 cf bd f6 f7 ed 3c
       -0.05820911 -0.16234687 -0.10107991 0.029048901
000310 49 ba 1e 3e e4 48 68 3a 26 9b f6 bd 1e 5f e7 3d
       0.1550075 0.0008860959 -0.12041311 0.11297439
000320 05 02 d7 bd fc d5 fe bd ef c0 23 3d 96 40 cc 3c
       -0.10498432 -0.12443158 0.039978918 0.02493314
000330 76 4d 4c be b1 ff 84 be 4a f5 3b 3b ab 4e 66 bd
       -0.19951424 -0.25976327 0.002868014 -0.056227367
000340 db 05 82 3d 60 5a 64 3d 15 13 34 3d 06 66 d2 3d
       0.06348773 0.05575025 0.04396351 0.10273366
000350 c3 3f 21 be 2a 02 e1 3d 8e 4c a6 3d 41 1e 3d be
       -0.1574698 0.10986741 0.081200704 -0.18468572
000360 ce c5 02 3d d9 04 47 3d b4 8b ab bc c1 6d 1b be
       0.031926923 0.048588607 -0.02094064 -0.15178587
000370 02 f9 ac 3d 5d 51 6f be 53 a0 06 be a8 63 b2 bd
       0.08445932 -0.23370881 -0.13147096 -0.08710414
000380 cb 78 b1 3d 31 7c d0 bd 28 68 5b be 83 cf e6 3c
       0.086656176 -0.10179938 -0.21426451 0.028175121
000390 6e d3 c1 3d cb 3c 08 be ce 8f 40 bd 61 dd c4 3d
       0.09464155 -0.1330444 -0.047012143 0.09612537
0003a0 2e 97 18 be 33 49 fe bc 62 26 94 3d c8 e1 47 be
       -0.1490142 -0.031040763 0.072338834 -0.19519722
0003b0 65 ab 16 be 61 56 e1 3d 79 1f 99 bd 59 c1 8b bd
       -0.1471382 0.110028036 -0.07476706 -0.068239875
0003c0 75 8e 31 3e 11 f1 a7 bd f3 af 08 bc 07 e3 c1 3d
       0.173395 -0.08200277 -0.008342731 0.0946713
0003d0 0d a8 ce bd 19 5a 04 be ea 45 1a be 6a 76 e6 3d
       -0.10090647 -0.12924995 -0.15065733 0.112530544
0003e0 12 68 b7 3d 77 c4 ee bc 3b 2e a0 ba 2c e0 8b bb
       0.08955397 -0.029146416 -0.0012220809 -0.0042686667
0003f0 dc 68 69 be 78 45 30 3e 4e 18 e7 bd cd 32 55 be
       -0.22793907 0.17214 -0.112839326 -0.2082016

model/dense_2/MatMul f4 [2, 64]
000000 b3 45 21 be 06 3c c0 3d ae 42 ca 3e 12 90 bc be
       -0.15749244 0.093864486 0.39503998 -0.36828667
000010 5d 82 9c be 16 48 dd 3d 6c dc df 3b e9 75 16 3e
       -0.3056821 0.10804765 0.0068316963 0.14693417
000020 15 a0 c2 bd 24 24 35 bc 69 8a 78 be 2e b2 a6 3d
       -0.095031895 -0.01105598 -0.2427155 0.08139454
000030 b2 bd d4 3d aa 91 b1 3e 88 f6 9a 3e b0 4c 22 3e
       0.10387744 0.34681445 0.30266213 0.15849566
000040 83 6e e7 3d 74 cf 80 be 88 9e 43 3d 98 c4 12 be
       0.11300375 -0.25158274 0.04775861 -0.14332807
000050 cd 0a 04 3e 57 96 1e be 89 42 87 3e e4 e9 aa be
       0.12894745 -0.15487038 0.2641795 -0.3338157
000060 f0 83 48 be 37 65 63 3e 29 6b c1 bb 89 7d ba be
       -0.1958158 0.22206579 -0.005902667 -0.364239
000070 d4 1a 0f be 25 d1 25 3e 35 1a 37 3e 0f 3c bb be
       -0.13975078 0.16193064 0.17881091 -0.3656926
000080 00 5d 86 be bb 71 63 3d c0 68 06 3e f7 8b c3 3d
       -0.26242828 0.055528384 0.13125896 0.095481806
000090 18 f4 cc 3d 6a e2 6c 3e 56 7f 91 3e c0 96 96 be
       0.10007495 0.23133245 0.28417462 -0.29411888
0000a0 de b8 99 be da 67 83 3c 75 d2 9b 3e de bc bc be
       -0.30023855 0.016040731 0.30434003 -0.36862844
0000b0 4d a8 28 3e 1e c5 1a be 17 6e 56 3e 2d f8 8f 3e
       0.16470452 -0.15114257 0.20940433 0.2811903
0000c0 65 e8 4b be 2a ce 9d bd f1 ba c6 3d dc 91 13 be
       -0.1991287 -0.07705338 0.09703625 -0.1441111
0000d0 21 69 ed 3d ea 37 99 be d3 e2 0a 3e 9a 73 26 bd
       0.115923174 -0.29925472 0.13563089 -0.04063759
0000e0 1f 9b 9e 3d c6 6c e0 3e a4 e1 c0 be cb 4d 35 3c
       0.07744431 0.43832988 -0.3767215 0.011065911
0000f0 ce da 23 3e 5b ee 2e 3e ff 45 55 3e ac 8e 2d bd
       0.16001436 0.17083113 0.20827483 -0.04237239
000100 dd 6f 9a be cc 00 af 3d 2a 55 69 3c 66 72 bd 3d
       -0.3016347 0.08545074 0.014241496 0.092503354
000110 24 f8 7f be d3 c3 c2 3e f7 fc c8 be ec 8b 2c 3e
       -0.24997002 0.38040027 -0.39255497 0.16850251
000120 0b 34 98 be c6 e7 17 3e 47 45 91 3e ff 27 af be
       -0.29727206 0.14834508 0.28373167 -0.34210202
000130 ac d4 83 bd 4e 7e 84 3e 01 a3 2b bd b3 81 9a be
       -0.06437048 0.25877613 -0.0419035 -0.30177078
000140 80 9c 20 3e ff f4 4e be 4f f4 bb 3e c1 48 e5 3e
       0.156847 -0.20210646 0.3670983 0.4478207
000150 8c 53 6a 3c 32 e9 84 3e db 46 d3 3d 52 c1 c2 bc
       0.014302146 0.25959164 0.10316249 -0.023773823
000160 7b 00 d9 3d d1 e2 81 be ae 26 00 3e f1 df 03 3e
       0.10595795 -0.2536836 0.12514755 0.12878396
000170 f1 09 c8 3d e9 88 93 3e b0 0c a3 3e 2e c7 e2 bd
       0.09767521 0.28815392 0.31845617 -0.11073147
000180 be 31 03 be 89 b8 85 be 48 2f bf bc cf d6 01 be
       -0.12811944 -0.26117352 -0.023337975 -0.12679599
000190 c4 b9 e5 3e a4 ed b1 be 95 35 08 3e 6f 5c 5f 3e
       0.4486829 -0.34751618 0.1330169 0.21812604
0001a0 76 29 d0 3d 52 e5 10 3e 86 89 22 3e b6 c8 94 bc
       0.10164158 0.14149979 0.15872774 -0.018162113
0001b0 00 10 6d 3e 66 3b 80 3e 1a 0d dd 3c 76 e4 52 3d
       0.23150635 0.25045317 0.026983786 0.05148741
0001c0 fc cf b5 3e 4e a2 5b be a4 37 a4 3e 3c b1 37 be
       0.35510242 -0.21448633 0.320737 -0.17938703
0001d0 4f 20 49 3d 5c ef e5 bd 8c 2c 50 3b 59 cb ee 3c
       0.049103078 -0.11227295 0.0031764833 0.029149698
0001e0 0d bd 56 be a5 b4 60 3d 9c b6 a0 3c 9f 59 4a 3e
       -0.20970555 0.054859776 0.019618325 0.1976075
0001f0 b6 28 8f be d2 8e 4f be 0b db 29 be 07 55 85 be
       -0.27960747 -0.20269325 -0.16587465 -0.26041433

model/conv2d/Conv2D f4 [32, 5, 5, 3]
000000 3a e7 97 bd 16 b6 67 bd 5b e0 c1 bb bc 57 cb bd
       -0.0741715 -0.056570135 -0.005916638 -0.099288434
000010 06 e7 96 3d 8a 45 5b 3d 9d b6 14 3e 39 fd 09 3e
       0.07368283 0.053533114 0.14522786 0.13475503
000020 d8 70 69 3e 83 20 95 be da 72 41 be 0e 33 e5 bd
       0.22796953 -0.29126367 -0.18891469 -0.111913785
000030 b0 7b 7d bd 82 b2 fb 3c 80 2b af 3c ec c7 3b bd
       -0.061885536 0.030724768 0.021383047 -0.045844957
000040 f1 96 dd 3d 1b 2f 77 3d f7 eb 8c bd bb 6f 3f 3d
       0.108198054 0.060347658 -0.06880944 0.046737414
000050 ef 13 86 3d 7e 0b f9 bc 17 ff d0 3d 26 0b dd 3d
       0.06546771 -0.030400988 0.102049045 0.10793142
000060 7f b9 b7 bd 54 d5 0f be 65 33 85 bd f4 c5 21 3d
       -0.089709274 -0.14046222 -0.06503943 0.039495423
000070 6d 54 6b 3c be 09 d8 3d f8 71 39 be 17 68 53 3c
       0.01436339 0.10548733 -0.18109882 0.012903235
000080 15 08 cb bc bc 33 13 bc 61 72 07 3e 28 b1 15 3e
       -0.024784127 -0.008984502 0.13227226 0.14618361
000090 1d 45 ae bd c4 54 53 be 4b 16 f6 3c 8c a7 a6 3d
       -0.08509276 -0.20637804 0.030039927 0.08137426
0000a0 da 51 72 bd b7 f3 32 3d 4a ec 0e 3d a3 e6 04 be
       -0.05916009 0.043689456 0.03489331 -0.12978606
0000b0 f9 1d 08 bc b7 20 ce bd bb 4c bd 3d e8 1d 9b 3d
       -0.008307927 -0.100648336 0.09243151 0.075740635
0000c0 0f e9 45 3e a8 d5 1a 3e 9a 2b 9c 3e 8d 0c 13 be
       0.19327186 0.15120566 0.30502015 -0.14360256
0000d0 cc 42 b6 be 61 1b 51 be 43 43 77 3e 69 2d 97 bd
       -0.35597837 -0.204206 0.24146752 -0.07381708
0000e0 bf 32 2b 3e 6c 90 14 3e 91 a0 8b bd c3 8f 49 bd
       0.16718577 0.14508218 -0.06817735 -0.049209367
0000f0 55 01 98 bd 91 b0 4a 3d f5 94 09 3c 7b f6 de bc
       -0.07422129 0.049484793 0.0083973305 -0.02721714
000100 03 80 0f 3e d9 7a cf 3d b9 10 ae bd bb 84 55 be
       0.14013676 0.10130853 -0.08499283 -0.20851414
000110 f1 19 e5 bd e0 cd 62 3d 67 41 01 bd 5e cb 06 3e
       -0.111865886 0.05537212 -0.031556513 0.13163516
000120 8e 8a c8 3d 1c 77 1d be 31 db 9e 3c c4 da b4 3d
       0.09792052 -0.15377468 0.019391628 0.08830789
000130 6c b9 60 be 37 a4 eb bd 34 7c 2c 3d 52 b6 34 be
       -0.21945733 -0.11505931 0.042110637 -0.17647675
000140 e0 0e 08 3c 9c 65 be bc fd 2e 09 be 1b d3 38 3d
       0.008304328 -0.02324181 -0.13396831 0.0451232
000150 c2 10 75 bd 9f 22 ef 3d 0c ef 4f 3e d8 27 08 bd
       -0.059830435 0.11676525 0.20306033 -0.033241123
000160 15 1e 38 3e 58 ec b8 3d 48 6c cc 3d f8 86 b6 bd
       0.17980225 0.09029454 0.099815905 -0.08912462
000170 4a 96 12 be 26 2a 6a 3d 6e 12 4e bd d5 f8 33 bc
       -0.14315143 0.057169102 -0.050310545 -0.010984619
000180 4e 12 08 bd 3b 27 e5 3d 2f 41 22 3e 76 9d 65 be
       -0.03322058 0.11189123 0.15845178 -0.22423348
000190 ad 54 09 bc 42 70 ba 3d 91 3f b5 bd 7a 04 13 3e
       -0.008382005 0.09103443 -0.08850015 0.14357176
0001a0 70 30 58 3e e7 cd 5d 3e e1 30 ce bd 52 3c f2 bd
       0.21112227 0.21660577 -0.10067917 -0.118279114
0001b0 cf 28 07 3e e7 f0 16 3d a4 9e f3 3c 09 3e 28 bd
       0.13199161 0.036850836 0.029738732 -0.041074786
0001c0 1f 59 d0 bd d1 81 15 3c 55 b2 23 3d c0 7b 8e bc
       -0.101732485 0.009125189 0.039964993 -0.017392993
0001d0 77 14 68 3d 71 49 e4 bd cf a3 56 3e 35 d7 45 3e
       0.05666014 -0.1114682 0.20960926 0.19320376
0001e0 8c 8a 8e 3d ff e6 4e be 07 92 ff bd b5 c0 d5 3d
       0.069600195 -0.20205306 -0.124790244 0.104371466
0001f0 6f 79 ab bc b5 ac a7 bc 71 2d 21 bd 80 42 08 be
       -0.020931927 -0.020468095 -0.039349977 -0.13306618
000200 c3 e4 eb bd 68 64 08 3d 72 d2 51 bd 9e 2f 8a bc
       -0.11518242 0.03329888 -0.051226087 -0.016868409
000210 f5 f6 c4 bd af 1f 49 3e 8d fb 36 3e 56 90 86 bd
       -0.09617416 0.19640993 0.17869397 -0.06570499
000220 3c 94 05 be 17 7b 8b be c6 6a 1b 3e b5 8f 62 bd
       -0.13044828 -0.27242348 0.1517745 -0.05531283
000230 a6 f4 30 be ba 8a 2e 3e 47 c9 0b be 7d a3 27 be
       -0.17280826 0.17045107 -0.13651 -0.1637096
000240 aa 00 db bd 4e c5 22 bc 71 87 29 bd 34 bc e0 bd
       -0.10693486 -0.009934736 -0.041388933 -0.10973397
000250 fc f9 67 3e b8 64 68 3d 6c 22 9a bc e5 7a e1 3d
       0.22653955 0.056736678 -0.018815242 0.110097684
000260 5c ce 20 3e 46 40 cb 3c fc 1d 3d 3e 04 3b 2e 3d
       0.1570372 0.024810921 0.1846847 0.04253675
000270 15 7f 72 bd e7 37 20 3d e8 34 e7 bd 97 5d 49 3e
       -0.059203226 0.039115813 -0.11289388 0.19664608
000280 4c 4f 1c 3d f8 63 66 bd cc 8f ac 3d c3 0c 16 be
       0.03816156 -0.05624768 0.084258646 -0.14653306
000290 8b 20 2a be ba d9 2b be b9 87 eb bb 92 ad c5 3d
       -0.16613977 -0.16782275 -0.0071878103 0.096522465
0002a0 be 3c b5 bc d2 f1 fb 3d 10 37 60 3d b4 80 b5 3d
       -0.02212369 0.12301983 0.05474001 0.08862439
0002b0 20 76 b9 bb 0f bc 85 bd 9e ab bc 3c d1 89 1d 3d
       -0.0056598336 -0.0653001 0.023031052 0.03846151
0002c0 f3 32 fa bd 68 38 44 3d 86 5e 51 bd 69 3e b9 bd
       -0.12216749 0.047905356 -0.051115535 -0.09045107
0002d0 a5 d4 78 be 99 ec d6 3c db 50 50 bc d4 af 02 bf
       -0.24299867 0.026235865 -0.01271459 -0.5104954
0002e0 6a 1f a0 be 4a 41 b2 be 15 32 6a bd aa a0 85 3c
       -0.31273967 -0.34815437 -0.05717667 0.016311962
0002f0 49 e4 44 3d 95 03 80 3d 76 ea 88 bd 84 0c d1 bc
       0.048069272 0.06250683 -0.06685345 -0.025518663
000300 89 28 07 3e 41 a7 ec 3d 11 b5 41 bd 76 d8 4c 3e
       0.13199057 0.11555339 -0.04729182 0.20004448
000310 1e aa 1b 3e af df 5c 3e bb 2b a0 3d 92 89 2e 3e
       0.15201613 0.21569704 0.07820841 0.17044666
000320 91 3e 65 3d 59 e8 89 be 9f 94 16 3b 04 55 54 be
       0.05596787 -0.2693508 0.0022976769 -0.20735556
000330 1b 63 d2 bd 24 bb 02 3c da 34 c7 bd cb db f0 3d
       -0.10272809 0.007979188 -0.097268775 0.11760672
000340 67 70 8d bc ea b7 f4 bd 40 e8 bb bd ca ee 0f be
       -0.017265512 -0.11949141 -0.091751575 -0.14055935
000350 0e a9 3e bd ab 1b 21 3d 5e 29 e0 3d ca 03 1c 3e
       -0.046547942 0.039333027 0.1094539 0.1523582
000360 fe d1 d0 3d cc df 5f 3e b4 65 3d 3e 04 31 a0 3d
       0.10196303 0.21862715 0.18495828 0.07821849
000370 ce d0 ff 3c 3c 5f 3d 3d 8d 49 2d 3d 38 f3 dc 3c
       0.031227496 0.0462334 0.04230647 0.026971444
000380 04 a1 39 3d 2f 39 16 bd ee e4 86 3c 51 b6 90 bc
       0.045319572 -0.03667563 0.016466584 -0.01766506
000390 55 b7 dd bd ee ec a5 3d 81 93 2c 3d d9 ff ab bd
       -0.108259834 0.081018314 0.04213286 -0.083984084
0003a0 75 18 08 3d 2e a1 ed 3c 0c 5a 27 bd 10 71 97 3d
       0.03322645 0.02900752 -0.04085736 0.07394612
0003b0 ac 96 bf bc f0 d5 30 bd ae 9b ec bd 70 fa 0b be
       -0.023387276 -0.043172777 -0.11553131 -0.13669753
0003c0 e8 ec 9b bd 42 d4 3f bd 8e e7 81 bd f4 05 3b be
       -0.07613546 -0.046833284 -0.06342994 -0.1826399
0003d0 ab 73 9c bd 8b e0 73 bc c9 f0 2e 3e 96 8b ca 3c
       -0.076392494 -0.014885078 0.1708404 0.024724763
0003e0 3b 20 c7 3d 49 0a c6 3d 92 73 12 3e 0b 68 85 3c
       0.09722944 0.096699305 0.14301899 0.016284963
0003f0 1d 20 30 3e 33 2e fa 3d 36 a4 83 3d c8 47 b3 3d
       0.1719975 0.12215843 0.06427805 0.087539256

model/conv2d_1/Conv2D f4 [16, 5, 5, 32]
000000 5e aa c0 3d b5 65 4c 3d 88 b0 44 3e 1f dd c7 3d
       0.09407495 0.049901683 0.19207966 0.097589724
000010 53 74 39 3d ae fb 9f 3d 7a 20 13 3e 73 89 cf 3d
       0.04527695 0.07811676 0.14367858 0.10133638
000020 d5 63 02 be 53 b7 4a 3d d8 fd 51 3e f0 12 12 bd
       -0.12733395 0.049491238 0.2050699 -0.03566259
000030 68 f3 01 3e 3c 1f 79 bd df 88 1d bd c0 d3 99 3d
       0.12690508 -0.060820803 -0.03846061 0.07511091
000040 11 20 0f bd 17 7c fd 3d 8e ff 07 3d b2 98 ad bc
       -0.03494269 0.12377184 0.0332027 -0.021190975
000050 37 a8 94 3c 49 71 ce 3d 90 18 0a 3c a9 c3 af bd
       0.018146617 0.10080201 0.008428708 -0.08582241
000060 2c 3c 1d 3e f3 f9 35 3d 7e a4 72 bd 8e 41 53 3d
       0.15354985 0.044427823 -0.059238903 0.05157619
000070 22 d1 87 3d 33 79 8c 3d 2e c3 b3 bc 7a d3 da 3b
       0.06631686 0.068590544 -0.021943655 0.006678042
000080 1f 41 7b 3d c3 da 58 bd b1 03 5a 3d 35 37 98 bd
       0.0613414 -0.052943002 0.053226177 -0.07432405
000090 07 39 d1 3c 64 f5 ad 3b c4 fb 99 3d a6 77 ab 3c
       0.025539888 0.005308794 0.075187236 0.020931076
0000a0 ad db 8b bd 3e 1c 9f 3b c9 78 2d 3d c0 66 d2 bd
       -0.06829009 0.0048556617 0.042351518 -0.10273504
0000b0 63 53 7b bd 6e b9 3d bd 53 51 3b bd b0 35 62 3d
       -0.06135882 -0.046319418 -0.045731854 0.05522698
0000c0 a6 fd 84 3d e9 ec 50 bd 9e 8e 05 be 6b 1d f5 3c
       0.06493692 -0.051007185 -0.13042685 0.029921254
0000d0 94 53 0a 3d d9 40 a4 bd 2a 11 9a bd 10 1f cc 3d
       0.033771113 -0.08020181 -0.07522805 0.09966862
0000e0 53 fd c2 3b 30 5f 2f bd 6f f4 07 3d bd a5 34 3b
       0.0059506088 -0.042815387 0.033192094 0.0027564608
0000f0 ba 36 eb bc c3 2c 70 3d 3b 85 4e ba 7f e0 30 bd
       -0.02871262 0.058636438 -0.0007878129 -0.043182846
000100 3a 9a 78 bd 28 52 2c 3d bc 25 8e bd 42 c7 9b 3c
       -0.060693957 0.042070538 -0.06940791 0.019015912
000110 c3 7f c9 3d 13 f1 be ba 99 d9 80 3d 21 ae ba 3c
       0.09838822 -0.0014567695 0.062915035 0.02278811
000120 61 bb ab 3b e9 19 28 bd b9 ee d0 bd 83 78 92 bb
       0.005240843 -0.041040335 -0.10201783 -0.0044699325
000130 b6 89 75 bd d6 41 c8 3b a0 1e c2 bd b2 34 d0 bb
       -0.059945785 0.006111364 -0.094784975 -0.006353938
000140 97 a9 79 3d df 67 e6 bd 90 bb 1b bd 91 81 07 3e
       0.06095275 -0.112502806 -0.03802067 0.1323302
000150 f6 ba 33 3d 80 e7 76 be 17 b0 57 3d b0 e6 09 3e
       0.04387947 -0.24111748 0.052658167 0.13466907
000160 ee 28 c8 bd f2 e0 bb bd 27 b1 b0 3b 02 ea bd bd
       -0.09773432 -0.09173764 0.005392212 -0.09273149
000170 a5 f7 df bd e3 34 95 3d 3a 47 c2 3d 76 e3 b0 bc
       -0.10935906 0.07285478 0.09486242 -0.021592837
000180 a4 39 7b 3d d8 50 bd 3d ca 3b d2 bd c1 8a e1 bd
       0.061334267 0.09243935 -0.1026531 -0.11012793
000190 64 fc 8f 3d dc 62 98 bc 5d b0 43 bc e8 68 9e bc
       0.070305616 -0.018601827 -0.011943904 -0.019337133
0001a0 60 8d 43 bb 17 d6 e3 3d 1a 02 5d bd 2c 36 10 bd
       -0.0029838905 0.11124819 -0.053957082 -0.035207912
0001b0 6a 3d 86 bd 5e b3 0f 3e 14 dd e9 3d b2 c7 5b 3c
       -0.065546826 0.14033267 0.114191204 0.01341431
0001c0 a8 cd 20 bd 79 51 f7 3c ac 28 3e bd 41 cd f4 3c
       -0.03925863 0.030190216 -0.046425506 0.029883029
0001d0 a1 48 17 3c c9 bf 97 3c b5 1a 5b 3e 2e cf 12 3e
       0.009233625 0.018524067 0.21396907 0.14336845
0001e0 9c 3c 85 bd d9 32 22 3e 0e 55 05 3d 2a ac 95 bd
       -0.06505701 0.1583971 0.032551818 -0.07308228
0001f0 6b 0a b2 bd b7 b7 a0 3d 50 4e 7f 3d 11 50 90 3e
       -0.08693393 0.07847541 0.062330544 0.28186086
000200 e3 61 04 be a0 0d 69 bd ba 9c 8d bc 26 1e 3d bd
       -0.12927966 -0.05689776 -0.017286647 -0.04617133
000210 8e 8e 41 bd ae 44 b5 3d 38 7b 88 bc 8b 76 2e be
       -0.04725509 0.0885099 -0.016660318 -0.17037408
000220 f5 6e 81 be 23 cd 5a bd a0 2b bd 3d df b4 f0 bd
       -0.25279966 -0.05341829 0.092368364 -0.117532484
000230 0a bb bb 3c 77 14 02 be 9c ac 1f 3d e7 1c d2 3d
       0.022916336 -0.12703119 0.038982973 0.10259419
000240 46 0b d8 bd 58 16 67 b7 44 f7 df 3c d0 44 a0 bd
       -0.10549025 -1.3773875e-05 0.027339585 -0.07825625
000250 1b 31 c0 bd 12 ff 93 3b 11 f5 41 3e 8c 6e a5 bd
       -0.09384366 0.0045164907 0.18941142 -0.08077726
000260 a8 65 16 bd df b1 9d bd 4c fa f6 3d 04 a0 5c bd
       -0.03671804 -0.07699942 0.12059459 -0.05386354
000270 18 39 b8 bd ae 57 f7 3d 08 cb 23 bd 52 53 97 bd
       -0.08995265 0.120772704 -0.039988548 -0.07388939
000280 6f 77 7b bd 1f 90 32 3d 4a 66 06 3d e3 37 45 bd
       -0.061393198 0.043594476 0.032812394 -0.048149
000290 4e da c5 bc 48 d4 65 bc 13 0f c5 3d 1a f8 60 bd
       -0.024151947 -0.014027663 0.09622016 -0.054924108
0002a0 48 08 3c bd bc da c8 3d 19 0a 5c bd 86 6c ff bc
       -0.045906335 0.09807345 -0.053720567 -0.031179678
0002b0 d7 39 d5 3d bd 87 00 be 07 1a dc 3c a4 c0 76 bd
       0.10411423 -0.1255178 0.02686788 -0.06024231
0002c0 36 b7 62 be 41 91 67 bd 67 11 4f bc ff 33 23 bd
       -0.22140202 -0.05653501 -0.012638426 -0.03984451
0002d0 bb b7 b8 ba b0 38 38 bc 7c 97 1e bc fb b5 d9 bb
       -0.0014092842 -0.011243984 -0.009679671 -0.006644008
0002e0 77 ba 14 3e 4a 26 bc bd 4e f0 25 3d ea 46 f8 bb
       0.14524256 -0.091869906 0.040512376 -0.007576813
0002f0 7c c7 62 bd 4c f6 8c 3c 15 6c eb bc 30 8b 0e be
       -0.055366024 0.017207287 -0.028738061 -0.13920283
000300 7b e6 ce bc 51 68 cb bd 8e 36 c4 bd 85 ba 24 bd
       -0.025256386 -0.09932006 -0.09580718 -0.04021694
000310 8d 56 cb bd 4d 11 97 bd a7 4d 78 bd 7f f0 36 be
       -0.099286176 -0.07376347 -0.06062093 -0.1786518
000320 04 d3 35 bd 20 26 57 3d 0d 50 b8 bd 6d f5 d0 bd
       -0.044390693 0.052526593 -0.089996435 -0.10203061
000330 f6 d3 c2 3d a7 11 02 be 77 42 9d 3d 47 c7 84 bd
       0.095130846 -0.12702046 0.07678693 -0.06483322
000340 58 b1 fa 3c 8b 32 8a 3d 28 a9 da bd 91 0b ff bc
       0.030602142 0.067479216 -0.10676795 -0.031133445
000350 b4 7c 2f bc f7 88 00 3e f8 41 0d be 66 23 f2 bb
       -0.010710884 0.12552248 -0.13794696 -0.0073894737
000360 f5 04 5c 3d a1 5f d3 bd 7a d1 96 3b 52 d0 e7 bc
       0.053715665 -0.10320974 0.0046026083 -0.028297577
000370 df d2 8d bd 3b 00 9c 3d e6 ee 05 be 84 8a 1b bd
       -0.06924986 0.076172315 -0.13079414 -0.037973896
000380 7c 70 f1 3d 5e f0 04 bc 61 03 ae 3d c1 75 36 3e
       0.11789033 -0.008113949 0.08496738 0.17818357
000390 21 0f f1 3d 5c 20 37 bd f5 85 c5 3d 14 64 71 3d
       0.11770464 -0.044708595 0.09644691 0.058933333
0003a0 e8 60 15 3e 33 d1 58 bd dc 5b bf bd 0a a5 36 3e
       0.14587748 -0.052933883 -0.09343693 0.17836395
0003b0 b0 74 04 3e f8 69 da 3d a3 3d e2 3d d9 1a a5 3b
       0.12935138 0.10664743 0.110469125 0.005038601
0003c0 d3 4e 09 bc 9a b1 9d bd 89 ea 9e bd 7c f7 6a bd
       -0.00838061 -0.076998904 -0.07759578 -0.057364926
0003d0 65 67 1a 3d ba 61 df bd d9 3b 89 3d d9 22 5b 3d
       0.03769626 -0.10907312 0.06700868 0.05350003
0003e0 66 23 c7 bd c6 fb 22 bd 35 ec 8d bd 65 50 59 be
       -0.097235486 -0.03979089 -0.069298185 -0.21222074
0003f0 5b 20 45 3c 98 5f 04 3e 97 7b b1 3c 5c 6b 09 3d
       0.01203164 0.12927091 0.021665378 0.03354965

model/conv2d_2/Conv2D f4 [32, 3, 3, 16]
000000 2b 3d 41 bd d8 a9 8c bd 27 c3 cb 3d e0 7d 24 3e
       -0.047177475 -0.068683326 0.09949332 0.16063643
000010 f0 f2 ca 3c 6d 13 00 be f4 e1 b6 bd 36 ed c6 bb
       0.024774045 -0.1250741 -0.08929816 -0.006070758
000020 5c 5e 65 be 41 ba 08 be b0 a6 3d bd 35 58 fb 3c
       -0.22399276 -0.133523 -0.046301544 0.030681709
000030 45 59 81 3d 6c 8f ba bd 1c e4 24 3d 12 22 1f 3d
       0.06315855 -0.09109387 0.040256605 0.03885085
000040 39 60 9a bd 66 17 60 bd 52 55 c4 3d a7 69 12 3e
       -0.07537884 -0.054709814 0.09586586 0.14298116
000050 50 9e e7 b8 23 ad d6 3c 1e aa 19 bd 40 63 58 3d
       -0.00011044426 0.026205605 -0.037515752 0.052829027
000060 ea 75 5c 3c 66 42 5f 3d 70 33 47 bd 9d d4 3c 3d
       0.013455847 0.05450668 -0.04863304 0.0461012
000070 b4 8d 39 3d 83 a1 5c bd 96 da 3c 3e 69 df 2f 3d
       0.045301154 -0.053864967 0.18442759 0.04293767
000080 0d 8d 0f be ef b5 2b bd c8 8f 2d bd 49 c6 b3 bd
       -0.1401865 -0.041921552 -0.04237345 -0.08778054
000090 58 5b 85 be 70 52 6f bd a1 fb 09 3c d5 c7 97 3d
       -0.26046252 -0.058428228 0.008421809 0.07411162
0000a0 99 c7 6e bd 36 0b 01 bc 35 87 dc bc 8b 9d 4f bd
       -0.05829582 -0.007876208 -0.02691994 -0.050687354
0000b0 8b 6e 98 bd 08 54 90 3d a7 4f 74 bd d7 3a 98 3c
       -0.074429594 0.07047278 -0.059646275 0.018582745
0000c0 a7 e7 59 3d d5 b9 5e 3e 34 ba e9 bd 09 80 3c be
       0.053199437 0.21750577 -0.114124686 -0.18408217
0000d0 dd f0 0b 3e 4b 8b 47 3d 2f 4c 8c 3c d3 ec a9 bd
       0.13666101 0.048716825 0.01712617 -0.08297124
0000e0 e5 6e 14 3e 41 03 25 3d 51 a3 ab bc 41 bf 4a bd
       0.14495428 0.040286306 -0.020951899 -0.0494988
0000f0 7d b6 46 bc 59 93 6f bd 29 66 d6 bd 1b 45 34 3d
       -0.0121284695 -0.05849013 -0.10468704 0.044011217
000100 d7 b5 6a 3d 14 46 3a be 19 b7 45 3d 16 ec 9d bd
       0.057302322 -0.18190795 0.04827032 -0.077110454
000110 b8 dd 88 3d f0 ae ef bd 13 df b5 bd 5f 27 32 3c
       0.066829145 -0.117032886 -0.08880439 0.010873645
000120 86 4a 14 be 36 da 47 bd 50 66 50 3c 62 e9 c1 bb
       -0.14481553 -0.048792087 0.012719706 -0.005917714
000130 d1 7b 23 3e 11 35 cf bd 02 71 31 3e 88 f1 7b bd
       0.15965201 -0.101175435 0.17328265 -0.06150964
000140 2b 01 09 3e 99 58 64 3e 1f e5 70 bd d8 d3 98 3e
       0.13379352 0.22299422 -0.058812257 0.29849124
000150 a7 60 3b be ad 84 5b bd 23 1c bc bd 07 1a f3 3d
       -0.18298589 -0.053593326 -0.09185054 0.11870199
000160 c2 7c 09 be 91 01 ff bc d9 b6 1d 3e 53 b3 e0 3c
       -0.13426498 -0.031128677 0.15401782 0.027429258
000170 8f b7 24 3e 98 10 e0 3d 88 ac 35 bd 4b f5 74 3d
       0.16085647 0.10940665 -0.04435399 0.059804242
000180 ac c5 b5 bc 09 1a 06 be d5 bd 80 bd 91 80 6b 3c
       -0.022188984 -0.13095869 -0.062862076 0.014373914
000190 41 b2 1b be f9 52 b4 bd a8 86 73 bc 73 51 2b be
       -0.15204717 -0.08804888 -0.0148636475 -0.16730289
0001a0 a5 34 0b be d6 f4 f1 3c 97 d6 3f 3d ed ed 77 bd
       -0.13594301 0.029535692 0.04683551 -0.060529638
0001b0 a3 df d1 bc 43 08 19 3b ba a3 4b 3d 31 ae 1e 3d
       -0.025619334 0.0023350872 0.04971669 0.03874034
0001c0 32 3c a8 bc 8c f6 e3 bd f0 88 0d 3e 80 26 27 3c
       -0.020536516 -0.111310095 0.13821769 0.01020205
0001d0 8f d5 12 be 0b d0 02 3d 67 76 34 3d 54 84 78 bc
       -0.14339279 0.031936686 0.04405823 -0.015168268
0001e0 00 4a 55 3d 94 05 8c bd d0 d7 88 3e 24 cc 84 bc
       0.052072525 -0.068370014 0.26727152 -0.016210623
0001f0 a4 ff 50 bd 33 eb a5 3d 29 8f ae bc 49 82 45 be
       -0.051025048 0.08101501 -0.021308498 -0.19287981
000200 28 49 b1 bd 38 51 cc 3d 21 9b 51 3e 51 1a 0d 3d
       -0.086565316 0.09976429 0.20469333 0.034448925
000210 60 88 92 3d 56 b1 5e bd 30 0f e0 bd 75 7d b2 3d
       0.07154918 -0.05436834 -0.10940397 0.08715335
000220 34 e4 7e be 17 a1 0e bd 08 24 19 3e 47 c0 da 3d
       -0.2489174 -0.034821596 0.14955151 0.10681205
000230 d0 21 73 3d de 99 5f bd e2 bb 73 3d 2c 5a 53 3d
       0.059358418 -0.0545901 0.05950535 0.051599666
000240 c5 50 bf bd ef 74 50 3d 34 72 76 3e ba c5 75 3d
       -0.093415774 0.050892767 0.24067003 0.06000302
000250 2f dc db bd 02 69 ca 3c 99 ad 6f 3d 72 dd 37 3d
       -0.10735356 0.024708275 0.058515165 0.04488892
000260 19 e6 21 bd fd 95 e8 3b d0 3c fb bd 4d a2 98 3c
       -0.03952608 0.007097958 -0.122674584 0.018632079
000270 84 26 03 bc 3e bf b0 bd 7d 1a 13 3e 02 d6 ac bb
       -0.008004788 -0.086302266 0.14365573 -0.005274535
000280 ec 2c 68 3d 1c a6 7e bd 00 78 2d 3c 02 d9 06 be
       0.056683466 -0.062170133 0.010587692 -0.1316872
000290 65 4a 12 be 6f 64 b3 bd d3 51 1d bc 5d e7 7a bb
       -0.14286192 -0.087593906 -0.009602028 -0.0038284876
0002a0 41 96 1c bb f0 59 14 3b 02 3e 3d 3e ac 1c 77 be
       -0.002389327 0.0022636615 0.18480685 -0.24132031
0002b0 9b fa b0 3e 71 f4 d7 3d c0 42 de 3c 5f 12 5c bd
       0.34566197 0.105446704 0.027131438 -0.053728458
0002c0 1e 4f d5 bc 9d 06 dc 3d f0 6c f4 3d 94 b5 72 bd
       -0.026038703 0.10743449 0.11934841 -0.059255198
0002d0 7f 59 b2 3d 94 1e a3 bc 71 69 5a 3c 60 7a 74 3d
       0.08708476 -0.019912042 0.013330803 0.05968702
0002e0 9c 2b cb bd ad 2c 2d 3e 05 c2 5e bc 4d 1b 0d 3e
       -0.09920427 0.16911574 -0.013596063 0.13779946
0002f0 9c 79 3e 3d 8a 0f ef bc b0 37 3b 3c 07 a5 e3 3c
       0.046502694 -0.029182214 0.011426851 0.027788652
000300 c3 cb d5 3d ef 45 57 be 31 14 cd bd ba e2 3a 3e
       0.10439255 -0.21022771 -0.10013617 0.18250552
000310 b7 b1 97 3d 05 29 a1 3c 4b a6 29 3d a5 bb 85 3d
       0.07406943 0.01967288 0.041418355 0.06529931
000320 5a 48 9d bd a5 f1 6c 3e 70 cf ff bc 9d 49 6c bc
       -0.076798156 0.23139055 -0.031226844 -0.014421848
000330 f0 71 c7 3b fb 39 35 bd 4e c8 2c 3e 37 9a be 3d
       0.0060865805 -0.044244748 0.16873285 0.09306758
000340 ae b1 45 bd 3d ad e9 bd 79 00 0c be 54 7d fa bd
       -0.04826515 -0.11409996 -0.13672055 -0.12230936
000350 09 c4 0d 3e 14 94 01 3d 0b 9c d6 3d 3b a7 94 bd
       0.13844313 0.03163536 0.104789816 -0.07258459
000360 eb 10 87 3d 9d 5e 0a be 78 bb a3 3d d1 3f 4b 3e
       0.06595024 -0.13512655 0.07994741 0.19848563
000370 ce e3 08 3e c0 86 a2 bd c7 1d cc bd de 44 5a bd
       0.1336815 -0.07935858 -0.09966617 -0.053288333
000380 9c e6 ed 3c 95 30 7e 3d 93 ce ab bd c5 a4 db 3d
       0.029040627 0.06205805 -0.0838901 0.10724787
000390 1c fa 83 be ed 6e ab bd b1 91 b2 bd f4 62 cc bd
       -0.25776756 -0.08370767 -0.08719195 -0.09979811
0003a0 a9 b4 9a bc 1b 1c 15 be 4e af 6a 3d d8 b3 03 be
       -0.018884974 -0.14561503 0.05729609 -0.12861574
0003b0 15 01 28 bd bb d4 ed bd 62 3b 2e be 99 5f 5a 3d
       -0.041016657 -0.11612841 -0.1701484 0.053313825
0003c0 1d c0 16 3e d8 46 21 3e 9f c6 79 3d 73 1e 53 3d
       0.14721723 0.15749681 0.060980435 0.05154271
0003d0 1c ec 13 be 7c 86 87 3b e3 9b e2 bd 96 4f e7 bd
       -0.14445537 0.004135905 -0.11064889 -0.11294477
0003e0 0f e7 c5 bc 4b bd aa 3c 33 ee c7 3d 11 07 75 be
       -0.024158029 0.020842215 0.0976223 -0.23928477
0003f0 e7 d0 26 be bc dc b5 3d d3 79 6a 3e 7c 22 09 be
       -0.16290627 0.08879992 0.22898035 -0.13392061
