sd-card/config/ana-class100_0157_s1_q.tflite (tflite, 132304 bytes, 13 tensors)

sequential_1/conv2d_6/Conv2D i1 [64, 5, 5, 3]
0	0x12	18
1	0x04	4
2	0x01	1
3	0xf2	-14
4	0x18	24
5	0x36	54
6	0xaa	-86
7	0x16	22
8	0x4a	74
9	0x81	-127
10	0x16	22
11	0x2c	44
12	0xbf	-65
13	0x43	67
14	0x1d	29
15	0xf0	-16
16	0xda	-38
17	0x13	19
18	0xf6	-10
19	0x10	16
20	0x11	17
21	0xcd	-51
22	0x0d	13
23	0x20	32
24	0xb0	-80
25	0x21	33
26	0x41	65
27	0xc0	-64
28	0x29	41
29	0x23	35
30	0x15	21
31	0xec	-20
32	0x02	2
33	0x01	1
34	0xed	-19
35	0x09	9
36	0xf8	-8
37	0xe1	-31
38	0x29	41
39	0xe3	-29
40	0xe1	-31
41	0x0d	13
42	0xe9	-23
43	0xf2	-14
44	0x0d	13
45	0x4f	79
46	0xfc	-4
47	0x1e	30
48	0x1d	29
49	0xec	-20
50	0x1f	31
51	0x1e	30
52	0xc4	-60
53	0x14	20
54	0x33	51
55	0xd5	-43
56	0xec	-20
57	0x25	37
58	0xbb	-69
59	0xf2	-14
60	0x24	36
61	0xfa	-6
62	0x0b	11
63	0x62	98
64	0xf8	-8
65	0x38	56
66	0x39	57
67	0x08	8
68	0x00	0
69	0x2a	42
70	0xc5	-59
71	0xd1	-47
72	0xff	-1
73	0xa0	-96
74	0xb6	-74
75	0x14	20
76	0x1a	26
77	0xf4	-12
78	0xf9	-7
79	0xca	-54
80	0xdf	-33
81	0x0d	13
82	0xcf	-49
83	0xb8	-72
84	0xf2	-14
85	0xd0	-48
86	0xd5	-43
87	0x1c	28
88	0x00	0
89	0x08	8
90	0xf9	-7
91	0x64	100
92	0x61	97
93	0xeb	-21
94	0x26	38
95	0x44	68
96	0xe2	-30
97	0x02	2
98	0x0b	11
99	0xf1	-15
100	0xa5	-91
101	0xb8	-72
102	0x2f	47
103	0xdb	-37
104	0xfe	-2
105	0xc9	-55
106	0x61	97
107	0x7f	127
108	0xe6	-26
109	0x7d	125
110	0x5e	94
111	0xe8	-24
112	0x00	0
113	0x0a	10
114	0xcc	-52
115	0xa5	-91
116	0xc9	-55
117	0xfb	-5
118	0xb1	-79
119	0xb7	-73
120	0xe3	-29
121	0x54	84
122	0x5d	93
123	0x0b	11
124	0x5c	92
125	0x6c	108
126	0xfc	-4
127	0x32	50
128	0x37	55
129	0xff	-1
130	0xfe	-2
131	0xf0	-16
132	0xfc	-4
133	0xd4	-44
134	0xba	-70
135	0xe5	-27
136	0x45	69
137	0x31	49
138	0xed	-19
139	0x28	40
140	0x18	24
141	0xf5	-11
142	0x1c	28
143	0xdf	-33
144	0x03	3
145	0xd5	-43
146	0xde	-34
147	0xe7	-25
148	0xcf	-49
149	0xa5	-91
150	0x01	1
151	0x19	25
152	0x19	25
153	0xb1	-79
154	0xd6	-42
155	0xc6	-58
156	0xc0	-64
157	0xd3	-45
158	0xcd	-51
159	0xae	-82
160	0xf1	-15
161	0xd1	-47
162	0x1e	30
163	0x18	24
164	0x10	16
165	0xbe	-66
166	0xfb	-5
167	0xe5	-27
168	0xf4	-12
169	0x03	3
170	0xea	-22
171	0x02	2
172	0x09	9
173	0x14	20
174	0xe3	-29
175	0x15	21
176	0x0b	11
177	0xc3	-61
178	0x11	17
179	0x25	37
180	0xd9	-39
181	0x32	50
182	0x18	24
183	0xae	-82
184	0x11	17
185	0xb2	-78
186	0xf1	-15
187	0x0c	12
188	0x0a	10
189	0xdd	-35
190	0x5e	94
191	0x16	22
192	0xf2	-14
193	0x04	4
194	0x1e	30
195	0x3d	61
196	0x6a	106
197	0x5c	92
198	0xf6	-10
199	0x54	84
200	0x1a	26
201	0x10	16
202	0x23	35
203	0x16	22
204	0x2c	44
205	0x7f	127
206	0x45	69
207	0xf5	-11
208	0xfa	-6
209	0xe0	-32
210	0xc6	-58
211	0x0d	13
212	0xd6	-42
213	0xc0	-64
214	0xc4	-60
215	0x94	-108
216	0xdc	-36
217	0x27	39
218	0x09	9
219	0x47	71
220	0x6d	109
221	0x40	64
222	0x04	4
223	0x1d	29
224	0xe3	-29
225	0xa4	-92
226	0x05	5
227	0xc8	-56
228	0x9e	-98
229	0x04	4
230	0xcd	-51
231	0xd3	-45
232	0x71	113
233	0x23	35
234	0x43	67
235	0x64	100
236	0x58	88
237	0x2f	47
238	0x31	49
239	0x2b	43
240	0xf1	-15
241	0x2c	44
242	0x1a	26
243	0xd8	-40
244	0x67	103
245	0x26	38
246	0xa9	-87
247	0x23	35
248	0x07	7
249	0xdf	-33
250	0x0d	13
251	0xf8	-8
252	0xe1	-31
253	0x13	19
254	0xea	-22
255	0xfa	-6

sequential_1/conv2d_7/Conv2D i1 [64, 1, 1, 64]
0	0x98	-104
1	0x5d	93
2	0xfb	-5
3	0x6b	107
4	0x05	5
5	0x51	81
6	0xe5	-27
7	0xa8	-88
8	0x23	35
9	0xe1	-31
10	0xae	-82
11	0x00	0
12	0xa2	-94
13	0xe6	-26
14	0xa7	-89
15	0x92	-110
16	0x0c	12
17	0xe1	-31
18	0xfb	-5
19	0xfa	-6
20	0xf5	-11
21	0xe0	-32
22	0x19	25
23	0x0d	13
24	0xce	-50
25	0xeb	-21
26	0x11	17
27	0xf6	-10
28	0x26	38
29	0xea	-22
30	0xbb	-69
31	0x2e	46
32	0xf6	-10
33	0xec	-20
34	0x46	70
35	0xda	-38
36	0xe4	-28
37	0xb4	-76
38	0x7f	127
39	0x23	35
40	0x96	-106
41	0x57	87
42	0xd1	-47
43	0x97	-105
44	0xe9	-23
45	0x45	69
46	0x0a	10
47	0x13	19
48	0xc6	-58
49	0x2e	46
50	0xf4	-12
51	0x69	105
52	0x8d	-115
53	0x56	86
54	0x45	69
55	0x27	39
56	0xc8	-56
57	0xae	-82
58	0xb6	-74
59	0x22	34
60	0x35	53
61	0x05	5
62	0x06	6
63	0x2a	42
64	0x29	41
65	0x3a	58
66	0xe6	-26
67	0xa5	-91
68	0xd3	-45
69	0xda	-38
70	0x2b	43
71	0x28	40
72	0xb9	-71
73	0x0a	10
74	0x09	9
75	0xf0	-16
76	0xe6	-26
77	0xf0	-16
78	0xe2	-30
79	0x09	9
80	0x28	40
81	0x05	5
82	0xe8	-24
83	0xf4	-12
84	0xe5	-27
85	0xe3	-29
86	0xef	-17
87	0x26	38
88	0xff	-1
89	0xe9	-23
90	0xe3	-29
91	0x22	34
92	0xd2	-46
93	0xd7	-41
94	0xdb	-37
95	0x00	0
96	0x2d	45
97	0xdf	-33
98	0x2b	43
99	0xd6	-42
100	0x1b	27
101	0xfa	-6
102	0x20	32
103	0x81	-127
104	0xed	-19
105	0x3e	62
106	0xee	-18
107	0xae	-82
108	0xe4	-28
109	0xda	-38
110	0xe2	-30
111	0x19	25
112	0xd6	-42
113	0xf0	-16
114	0x0a	10
115	0x12	18
116	0xfb	-5
117	0x04	4
118	0xfc	-4
119	0xf0	-16
120	0xb7	-73
121	0xff	-1
122	0x1b	27
123	0xbe	-66
124	0x13	19
125	0x17	23
126	0xd8	-40
127	0x03	3
128	0xd6	-42
129	0xbd	-67
130	0x0e	14
131	0xed	-19
132	0xc0	-64
133	0xe6	-26
134	0xd5	-43
135	0xa3	-93
136	0xb7	-73
137	0xe4	-28
138	0xfa	-6
139	0xe6	-26
140	0x23	35
141	0xae	-82
142	0xb1	-79
143	0xe6	-26
144	0x0f	15
145	0x5e	94
146	0x5e	94
147	0x11	17
148	0xea	-22
149	0x1a	26
150	0xe0	-32
151	0xe7	-25
152	0x02	2
153	0x1f	31
154	0x41	65
155	0xd8	-40
156	0x1a	26
157	0x08	8
158	0xfd	-3
159	0xea	-22
160	0x42	66
161	0xfd	-3
162	0x22	34
163	0x07	7
164	0xd2	-46
165	0xb7	-73
166	0x02	2
167	0x9b	-101
168	0xf2	-14
169	0xd0	-48
170	0xfd	-3
171	0xb8	-72
172	0x77	119
173	0x13	19
174	0xb8	-72
175	0xda	-38
176	0xff	-1
177	0x22	34
178	0x7f	127
179	0x43	67
180	0x2b	43
181	0x32	50
182	0x11	17
183	0x33	51
184	0x27	39
185	0x19	25
186	0xa4	-92
187	0xf0	-16
188	0xfd	-3
189	0x04	4
190	0xff	-1
191	0xf4	-12
192	0xeb	-21
193	0x17	23
194	0x09	9
195	0x06	6
196	0xeb	-21
197	0x0e	14
198	0x81	-127
199	0xfc	-4
200	0xe9	-23
201	0xd4	-44
202	0x0a	10
203	0x07	7
204	0xfd	-3
205	0x05	5
206	0xde	-34
207	0xff	-1
208	0x01	1
209	0x14	20
210	0xfe	-2
211	0x53	83
212	0xfd	-3
213	0x0c	12
214	0x0b	11
215	0x00	0
216	0x19	25
217	0xc0	-64
218	0xfe	-2
219	0xde	-34
220	0xf6	-10
221	0xc6	-58
222	0x10	16
223	0xe7	-25
224	0x0d	13
225	0x03	3
226	0xdc	-36
227	0xe8	-24
228	0xcf	-49
229	0xf3	-13
230	0x46	70
231	0x08	8
232	0xef	-17
233	0x48	72
234	0xe5	-27
235	0xe4	-28
236	0x50	80
237	0x17	23
238	0x29	41
239	0x0c	12
240	0x21	33
241	0xde	-34
242	0x1f	31
243	0x03	3
244	0xb8	-72
245	0xf8	-8
246	0xf9	-7
247	0x0b	11
248	0x03	3
249	0xf8	-8
250	0x03	3
251	0xe6	-26
252	0xec	-20
253	0x08	8
254	0xe0	-32
255	0x09	9

sequential_1/batch_normalization_5/FusedBatchNormV3 i1 [64] scale=0.11030736 zero_point=-128
0	0x8a	1.1030736
1	0x90	1.7649177
2	0x8f	1.6546104
3	0x94	2.2061472
4	0xa2	3.7504501
5	0x8e	1.544303
6	0x95	2.3164544
7	0x8f	1.6546104
8	0x91	1.8752251
9	0x8d	1.4339956
10	0x8f	1.6546104
11	0x88	0.88245887
12	0x8c	1.3236883
13	0x8d	1.4339956
14	0x99	2.757684
15	0x91	1.8752251
16	0x96	2.4267619
17	0x9a	2.8679912
18	0x91	1.8752251
19	0x93	2.0958397
20	0x93	2.0958397
21	0x8a	1.1030736
22	0x87	0.7721515
23	0x8f	1.6546104
24	0x88	0.88245887
25	0x90	1.7649177
26	0x8d	1.4339956
27	0x89	0.9927662
28	0x91	1.8752251
29	0x86	0.66184413
30	0x94	2.2061472
31	0x8c	1.3236883
32	0x98	2.6473765
33	0x93	2.0958397
34	0x86	0.66184413
35	0x8f	1.6546104
36	0x98	2.6473765
37	0x9f	3.419528
38	0x92	1.9855324
39	0x95	2.3164544
40	0x91	1.8752251
41	0x99	2.757684
42	0x9f	3.419528
43	0x89	0.9927662
44	0x8c	1.3236883
45	0x8f	1.6546104
46	0x7f	28.128376
47	0x8b	1.2133809
48	0x9a	2.8679912
49	0x91	1.8752251
50	0x8b	1.2133809
51	0x94	2.2061472
52	0xca	8.1627445
53	0x95	2.3164544
54	0x9d	3.1989133
55	0x8f	1.6546104
56	0xaa	4.632909
57	0x8e	1.544303
58	0x89	0.9927662
59	0x96	2.4267619
60	0x95	2.3164544
61	0x95	2.3164544
62	0x88	0.88245887
63	0x89	0.9927662

sequential_1/batch_normalization_5/FusedBatchNormV31 i1 [64] scale=0.0057917014 zero_point=127
0	0xf1	-0.8224216
1	0xf4	-0.8050465
2	0x0c	-0.66604567
3	0x1d	-0.5675867
4	0x23	-0.53283656
5	0xe0	-0.9208805
6	0x0c	-0.66604567
7	0x0f	-0.64867055
8	0xf8	-0.78187966
9	0xd8	-0.9672141
10	0x00	-0.73554605
11	0xf2	-0.8166299
12	0xa4	-1.2683825
13	0xe5	-0.891922
14	0x2c	-0.48071122
15	0xd1	-1.007756
16	0x18	-0.5965452
17	0xed	-0.8455884
18	0x2b	-0.48650292
19	0x05	-0.70658755
20	0x15	-0.61392033
21	0x1b	-0.5791701
22	0xda	-0.9556307
23	0xe6	-0.88613033
24	0xb5	-1.1699237
25	0x07	-0.69500417
26	0xf3	-0.8108382
27	0xf7	-0.7876714
28	0x0a	-0.67762905
29	0xa6	-1.2567992
30	0x09	-0.6834208
31	0xe1	-0.91508883
32	0xee	-0.8397967
33	0xe5	-0.891922
34	0x80	-1.4768839
35	0xf8	-0.78187966
36	0xe6	-0.88613033
37	0xb0	-1.1988822
38	0x06	-0.7007959
39	0xe7	-0.8803386
40	0xf4	-0.8050465
41	0xf9	-0.776088
42	0xf1	-0.8224216
43	0x03	-0.718171
44	0x11	-0.63708717
45	0x09	-0.6834208
46	0x7e	-0.0057917014
47	0xfe	-0.7471295
48	0x05	-0.70658755
49	0xd2	-1.0019643
50	0xcc	-1.0367146
51	0xec	-0.8513801
52	0x3c	-0.388044
53	0xe6	-0.88613033
54	0x23	-0.53283656
55	0xf5	-0.7992548
56	0x40	-0.3648772
57	0xcb	-1.0425062
58	0x1e	-0.56179506
59	0xd5	-0.9845892
60	0x04	-0.7123793
61	0xdc	-0.94404733
62	0xfc	-0.7587129
63	0x15	-0.61392033

sequential_1/conv2d_8/Conv2D i1 [64, 3, 3, 64]
0	0xc6	-58
1	0xaf	-81
2	0xf1	-15
3	0x0d	13
4	0xe4	-28
5	0xff	-1
6	0xe7	-25
7	0xd8	-40
8	0xd7	-41
9	0xd3	-45
10	0x03	3
11	0xfb	-5
12	0xec	-20
13	0x1b	27
14	0x0f	15
15	0xef	-17
16	0xe9	-23
17	0xbf	-65
18	0xfe	-2
19	0xf3	-13
20	0xd2	-46
21	0xff	-1
22	0x19	25
23	0xbd	-67
24	0xe0	-32
25	0xf8	-8
26	0xcb	-53
27	0xdc	-36
28	0x19	25
29	0x31	49
30	0xd5	-43
31	0xf4	-12
32	0x27	39
33	0x04	4
34	0xde	-34
35	0xe9	-23
36	0xaf	-81
37	0xf8	-8
38	0xfb	-5
39	0x49	73
40	0xcd	-51
41	0xeb	-21
42	0xd2	-46
43	0xe0	-32
44	0xdf	-33
45	0xec	-20
46	0xfb	-5
47	0xdf	-33
48	0xe3	-29
49	0xa8	-88
50	0xe1	-31
51	0xd3	-45
52	0x10	16
53	0xde	-34
54	0x10	16
55	0xf9	-7
56	0x1c	28
57	0x1e	30
58	0xcf	-49
59	0x4d	77
60	0x01	1
61	0xe3	-29
62	0xe1	-31
63	0xf2	-14
64	0xeb	-21
65	0x33	51
66	0xc8	-56
67	0xf6	-10
68	0xc2	-62
69	0x15	21
70	0x19	25
71	0xf8	-8
72	0x00	0
73	0x19	25
74	0x1c	28
75	0xf7	-9
76	0x24	36
77	0xea	-22
78	0xf7	-9
79	0xf7	-9
80	0x4b	75
81	0xf2	-14
82	0x03	3
83	0x06	6
84	0x0b	11
85	0xd6	-42
86	0xc2	-62
87	0xf3	-13
88	0x03	3
89	0xe1	-31
90	0xf8	-8
91	0x14	20
92	0xf7	-9
93	0xbc	-68
94	0x07	7
95	0xe3	-29
96	0x12	18
97	0xf1	-15
98	0x00	0
99	0xf3	-13
100	0xeb	-21
101	0x27	39
102	0x17	23
103	0xe0	-32
104	0xea	-22
105	0xf9	-7
106	0xd9	-39
107	0x13	19
108	0xd7	-41
109	0x38	56
110	0x09	9
111	0xde	-34
112	0x03	3
113	0x05	5
114	0x07	7
115	0x1e	30
116	0x06	6
117	0xdf	-33
118	0x39	57
119	0xb8	-72
120	0xe4	-28
121	0xcb	-53
122	0xf1	-15
123	0xbf	-65
124	0xe4	-28
125	0x18	24
126	0xd9	-39
127	0x1a	26
128	0xcd	-51
129	0x85	-123
130	0xc7	-57
131	0xec	-20
132	0xda	-38
133	0x07	7
134	0xea	-22
135	0xfd	-3
136	0xba	-70
137	0x09	9
138	0xbf	-65
139	0xde	-34
140	0xef	-17
141	0xe9	-23
142	0xd6	-42
143	0xe4	-28
144	0x1c	28
145	0x06	6
146	0xec	-20
147	0x2c	44
148	0xf8	-8
149	0xa9	-87
150	0xe8	-24
151	0xcb	-53
152	0xd8	-40
153	0xdf	-33
154	0x8d	-115
155	0xdf	-33
156	0xf3	-13
157	0xfb	-5
158	0x1e	30
159	0x0f	15
160	0xe3	-29
161	0x0e	14
162	0xb5	-75
163	0xcf	-49
164	0x15	21
165	0xbd	-67
166	0x55	85
167	0xfe	-2
168	0xc7	-57
169	0x07	7
170	0xd3	-45
171	0xba	-70
172	0x22	34
173	0x93	-109
174	0xea	-22
175	0xe0	-32
176	0xe3	-29
177	0xc9	-55
178	0xfb	-5
179	0xe5	-27
180	0xc8	-56
181	0xce	-50
182	0xef	-17
183	0x06	6
184	0xce	-50
185	0x15	21
186	0x2d	45
187	0x0a	10
188	0xe9	-23
189	0xd8	-40
190	0x48	72
191	0xe0	-32
192	0xd7	-41
193	0xd4	-44
194	0xf5	-11
195	0xe8	-24
196	0x05	5
197	0xf4	-12
198	0xea	-22
199	0xe0	-32
200	0xcb	-53
201	0xfe	-2
202	0x1c	28
203	0xf5	-11
204	0x03	3
205	0x14	20
206	0x00	0
207	0xb3	-77
208	0xd2	-46
209	0xc2	-62
210	0xdb	-37
211	0x19	25
212	0xf9	-7
213	0x12	18
214	0xd9	-39
215	0xd9	-39
216	0xe2	-30
217	0xc6	-58
218	0x1f	31
219	0xe5	-27
220	0xcd	-51
221	0xee	-18
222	0xd0	-48
223	0xd5	-43
224	0x0e	14
225	0x0d	13
226	0xc0	-64
227	0x16	22
228	0x89	-119
229	0x28	40
230	0xff	-1
231	0x17	23
232	0xf5	-11
233	0xd5	-43
234	0xfe	-2
235	0xe4	-28
236	0xde	-34
237	0xe3	-29
238	0xea	-22
239	0xe7	-25
240	0xd8	-40
241	0xc3	-61
242	0x02	2
243	0xf4	-12
244	0xf8	-8
245	0xd3	-45
246	0x0a	10
247	0xf2	-14
248	0xfe	-2
249	0x03	3
250	0xe1	-31
251	0x24	36
252	0xd0	-48
253	0x2e	46
254	0xe1	-31
255	0xfc	-4

sequential_1/conv2d_9/Conv2D i1 [64, 3, 3, 64]
0	0x2c	44
1	0x35	53
2	0xe7	-25
3	0xe0	-32
4	0x30	48
5	0x19	25
6	0x1c	28
7	0x1c	28
8	0xf4	-12
9	0x1a	26
10	0xef	-17
11	0x09	9
12	0x17	23
13	0xf7	-9
14	0x03	3
15	0x1e	30
16	0xfb	-5
17	0xed	-19
18	0xdf	-33
19	0xdb	-37
20	0xf0	-16
21	0x00	0
22	0xfb	-5
23	0xeb	-21
24	0xfc	-4
25	0x16	22
26	0xec	-20
27	0xe9	-23
28	0xce	-50
29	0xeb	-21
30	0xf3	-13
31	0x32	50
32	0x31	49
33	0xf2	-14
34	0xda	-38
35	0xb0	-80
36	0xf9	-7
37	0x25	37
38	0x64	100
39	0xfd	-3
40	0x3a	58
41	0x08	8
42	0x08	8
43	0xe6	-26
44	0xe2	-30
45	0xd4	-44
46	0x13	19
47	0xac	-84
48	0x09	9
49	0x0b	11
50	0xd4	-44
51	0xe9	-23
52	0xfb	-5
53	0x05	5
54	0xf4	-12
55	0x1a	26
56	0x18	24
57	0xae	-82
58	0x0f	15
59	0x06	6
60	0xe9	-23
61	0x0c	12
62	0x32	50
63	0x3c	60
64	0xf1	-15
65	0xca	-54
66	0x81	-127
67	0x3b	59
68	0x19	25
69	0x0c	12
70	0x18	24
71	0xf7	-9
72	0xdb	-37
73	0xe5	-27
74	0x03	3
75	0x3f	63
76	0x39	57
77	0xce	-50
78	0x01	1
79	0x0e	14
80	0x11	17
81	0x0e	14
82	0xe3	-29
83	0xbe	-66
84	0xe9	-23
85	0x0f	15
86	0xe5	-27
87	0x20	32
88	0xf4	-12
89	0xdc	-36
90	0xf6	-10
91	0xd8	-40
92	0xf1	-15
93	0xe9	-23
94	0x19	25
95	0x38	56
96	0x05	5
97	0xd9	-39
98	0xd6	-42
99	0xdc	-36
100	0x01	1
101	0xe0	-32
102	0xf8	-8
103	0xc4	-60
104	0xef	-17
105	0xf8	-8
106	0xfd	-3
107	0xf0	-16
108	0xe2	-30
109	0xdb	-37
110	0x4f	79
111	0xda	-38
112	0xea	-22
113	0xea	-22
114	0x16	22
115	0x0d	13
116	0x29	41
117	0x42	66
118	0x00	0
119	0x29	41
120	0xcd	-51
121	0xe7	-25
122	0x00	0
123	0x2b	43
124	0xe3	-29
125	0x46	70
126	0x21	33
127	0x28	40
128	0xe6	-26
129	0xdb	-37
130	0xdf	-33
131	0x15	21
132	0xe0	-32
133	0x58	88
134	0xeb	-21
135	0xde	-34
136	0xd1	-47
137	0xd7	-41
138	0xd0	-48
139	0xeb	-21
140	0xfb	-5
141	0xd3	-45
142	0xf3	-13
143	0x0b	11
144	0xe6	-26
145	0x17	23
146	0xe3	-29
147	0x1f	31
148	0x32	50
149	0x25	37
150	0xaa	-86
151	0x31	49
152	0xc6	-58
153	0xd6	-42
154	0x39	57
155	0x0b	11
156	0x1f	31
157	0x0e	14
158	0xdb	-37
159	0x07	7
160	0xe1	-31
161	0xb1	-79
162	0xf8	-8
163	0x22	34
164	0x2f	47
165	0xd0	-48
166	0xd0	-48
167	0xc7	-57
168	0xfd	-3
169	0x0f	15
170	0x0b	11
171	0xf4	-12
172	0x0b	11
173	0xf8	-8
174	0x05	5
175	0x1a	26
176	0x3e	62
177	0x00	0
178	0xd4	-44
179	0x22	34
180	0x19	25
181	0x02	2
182	0x38	56
183	0xf8	-8
184	0xe8	-24
185	0x12	18
186	0xf6	-10
187	0x3c	60
188	0xed	-19
189	0xfc	-4
190	0x2e	46
191	0x56	86
192	0x27	39
193	0x09	9
194	0xf1	-15
195	0xfe	-2
196	0xd7	-41
197	0xde	-34
198	0xe4	-28
199	0xa6	-90
200	0xfe	-2
201	0x32	50
202	0x01	1
203	0xf0	-16
204	0x06	6
205	0x42	66
206	0xd7	-41
207	0xf3	-13
208	0x03	3
209	0x0a	10
210	0x0e	14
211	0xe2	-30
212	0xda	-38
213	0xec	-20
214	0xd8	-40
215	0x34	52
216	0xdc	-36
217	0x1d	29
218	0x0a	10
219	0x11	17
220	0xe7	-25
221	0xe3	-29
222	0xd3	-45
223	0xfc	-4
224	0x0a	10
225	0x14	20
226	0xe8	-24
227	0xe8	-24
228	0xc2	-62
229	0xed	-19
230	0x2c	44
231	0xdc	-36
232	0x38	56
233	0xe0	-32
234	0xfc	-4
235	0x05	5
236	0xca	-54
237	0x13	19
238	0xef	-17
239	0xc4	-60
240	0xfe	-2
241	0xd9	-39
242	0xac	-84
243	0x01	1
244	0xf9	-7
245	0x0c	12
246	0xd4	-44
247	0xfb	-5
248	0x18	24
249	0xb2	-78
250	0xd3	-45
251	0xee	-18
252	0xe5	-27
253	0xe4	-28
254	0xf7	-9
255	0xc0	-64

sequential_1/batch_normalization_6/FusedBatchNormV3 i1 [64] scale=0.11975145 zero_point=-128
0	0x81	0.11975145
1	0x81	0.11975145
2	0x76	29.458858
3	0x82	0.2395029
4	0x71	28.8601
5	0x81	0.11975145
6	0x81	0.11975145
7	0x81	0.11975145
8	0x82	0.2395029
9	0x81	0.11975145
10	0x81	0.11975145
11	0x81	0.11975145
12	0x81	0.11975145
13	0x81	0.11975145
14	0x82	0.2395029
15	0x83	0.35925436
16	0x81	0.11975145
17	0x81	0.11975145
18	0x81	0.11975145
19	0x81	0.11975145
20	0x81	0.11975145
21	0x82	0.2395029
22	0x82	0.2395029
23	0x81	0.11975145
24	0x81	0.11975145
25	0x81	0.11975145
26	0x81	0.11975145
27	0x81	0.11975145
28	0x81	0.11975145
29	0x81	0.11975145
30	0x81	0.11975145
31	0x81	0.11975145
32	0x81	0.11975145
33	0x81	0.11975145
34	0x81	0.11975145
35	0x82	0.2395029
36	0x81	0.11975145
37	0x81	0.11975145
38	0x81	0.11975145
39	0x81	0.11975145
40	0x82	0.2395029
41	0x81	0.11975145
42	0x81	0.11975145
43	0x78	29.69836
44	0x81	0.11975145
45	0x82	0.2395029
46	0x7b	30.057615
47	0x81	0.11975145
48	0x81	0.11975145
49	0x81	0.11975145
50	0x81	0.11975145
51	0x82	0.2395029
52	0x81	0.11975145
53	0x80	0.0
54	0x7f	30.536621
55	0x81	0.11975145
56	0x81	0.11975145
57	0x81	0.11975145
58	0x81	0.11975145
59	0x82	0.2395029
60	0x81	0.11975145
61	0x81	0.11975145
62	0x81	0.11975145
63	0x82	0.2395029

sequential_1/batch_normalization_6/FusedBatchNormV31 i1 [64] scale=0.0051713074 zero_point=124
0	0xf9	-0.67744124
1	0xf0	-0.72398305
2	0x7f	0.015513922
3	0xf4	-0.7032978
4	0x7b	-0.0051713074
5	0xd7	-0.8532657
6	0x09	-0.59470034
7	0xc6	-0.94117796
8	0x30	-0.39301935
9	0xdc	-0.82740915
10	0xf9	-0.67744124
11	0xbd	-0.9877197
12	0xdd	-0.82223785
13	0xa3	-1.1221737
14	0x14	-0.537816
15	0x13	-0.5429873
16	0x17	-0.52230203
17	0xb3	-1.0394328
18	0x11	-0.5533299
19	0x0f	-0.5636725
20	0x94	-1.1997433
21	0xbc	-0.992891
22	0x06	-0.6102143
23	0x8f	-1.2255999
24	0xcf	-0.89463615
25	0x04	-0.6205569
26	0x1e	-0.48610288
27	0xcd	-0.9049788
28	0xeb	-0.74983954
29	0xcc	-0.9101501
30	0xe5	-0.7808674
31	0xc4	-0.95152056
32	0xff	-0.64641345
33	0xef	-0.72915435
34	0x0b	-0.58435774
35	0x19	-0.51195943
36	0xc8	-0.9308353
37	0xed	-0.73949695
38	0x10	-0.5585012
39	0x24	-0.45507506
40	0x12	-0.5481586
41	0xdf	-0.81189525
42	0xfd	-0.65675604
43	0x7d	0.0051713074
44	0x2e	-0.40336198
45	0xfd	-0.65675604
46	0x7e	0.010342615
47	0xa2	-1.127345
48	0xcf	-0.89463615
49	0x06	-0.6102143
50	0x17	-0.52230203
51	0x14	-0.537816
52	0xe5	-0.7808674
53	0xc1	-0.96703446
54	0x7c	0.0
55	0x23	-0.46024635
56	0x17	-0.52230203
57	0x03	-0.6257282
58	0xda	-0.8377518
59	0xc7	-0.9360066
60	0x80	-1.3031695
61	0x24	-0.45507506
62	0xaf	-1.060118
63	0x01	-0.6360708

sequential_1/conv2d_10/Conv2D i1 [32, 3, 3, 64]
0	0x24	36
1	0xed	-19
2	0xf2	-14
3	0x0f	15
4	0xfa	-6
5	0xf3	-13
6	0xf8	-8
7	0x05	5
8	0xd8	-40
9	0xe1	-31
10	0x22	34
11	0xf9	-7
12	0xe5	-27
13	0x35	53
14	0xdc	-36
15	0x0a	10
16	0x1a	26
17	0x0c	12
18	0x0e	14
19	0xde	-34
20	0xec	-20
21	0xd7	-41
22	0xfa	-6
23	0x17	23
24	0xdb	-37
25	0xc7	-57
26	0xd0	-48
27	0xda	-38
28	0xf1	-15
29	0x09	9
30	0xf5	-11
31	0xe1	-31
32	0xc1	-63
33	0xf0	-16
34	0x1e	30
35	0xdc	-36
36	0xe6	-26
37	0x01	1
38	0x14	20
39	0xf3	-13
40	0x2e	46
41	0xfe	-2
42	0xf8	-8
43	0x0c	12
44	0x03	3
45	0xf6	-10
46	0xf3	-13
47	0x04	4
48	0x13	19
49	0xe3	-29
50	0xee	-18
51	0x10	16
52	0xda	-38
53	0xeb	-21
54	0xf8	-8
55	0xcd	-51
56	0x1f	31
57	0x30	48
58	0xf0	-16
59	0x08	8
60	0x00	0
61	0x06	6
62	0x31	49
63	0x38	56
64	0xf7	-9
65	0x00	0
66	0xe9	-23
67	0x05	5
68	0x01	1
69	0xc5	-59
70	0xd9	-39
71	0x0a	10
72	0x0c	12
73	0xe5	-27
74	0xe7	-25
75	0xd9	-39
76	0x17	23
77	0xfe	-2
78	0x02	2
79	0xe4	-28
80	0xd9	-39
81	0xeb	-21
82	0xf1	-15
83	0x11	17
84	0xb2	-78
85	0x3c	60
86	0x0b	11
87	0xed	-19
88	0xbd	-67
89	0xf1	-15
90	0xf7	-9
91	0x0c	12
92	0x09	9
93	0x1c	28
94	0x06	6
95	0xd3	-45
96	0x18	24
97	0x08	8
98	0x24	36
99	0x14	20
100	0x01	1
101	0xd4	-44
102	0x07	7
103	0x09	9
104	0xe3	-29
105	0x1b	27
106	0xe5	-27
107	0xf5	-11
108	0x07	7
109	0x08	8
110	0xfb	-5
111	0xb0	-80
112	0xf1	-15
113	0x01	1
114	0x0a	10
115	0x01	1
116	0x18	24
117	0x09	9
118	0x0f	15
119	0xe5	-27
120	0x06	6
121	0xf8	-8
122	0xe7	-25
123	0x22	34
124	0xf0	-16
125	0x08	8
126	0x20	32
127	0x0c	12
128	0x1a	26
129	0xe9	-23
130	0x09	9
131	0xed	-19
132	0xff	-1
133	0x1b	27
134	0xf3	-13
135	0x2f	47
136	0xbb	-69
137	0x17	23
138	0x27	39
139	0x27	39
140	0x10	16
141	0xa8	-88
142	0xe8	-24
143	0x25	37
144	0x02	2
145	0xda	-38
146	0xcd	-51
147	0x31	49
148	0x0e	14
149	0x81	-127
150	0x9f	-97
151	0xf8	-8
152	0x4e	78
153	0xf2	-14
154	0x0c	12
155	0xf2	-14
156	0xe3	-29
157	0xcc	-52
158	0xd9	-39
159	0x13	19
160	0x04	4
161	0x10	16
162	0x08	8
163	0xf9	-7
164	0x26	38
165	0xc7	-57
166	0x19	25
167	0x1b	27
168	0xed	-19
169	0x28	40
170	0xda	-38
171	0x12	18
172	0x14	20
173	0xf3	-13
174	0x07	7
175	0x29	41
176	0xfa	-6
177	0x0d	13
178	0xff	-1
179	0x08	8
180	0x13	19
181	0xff	-1
182	0x09	9
183	0xff	-1
184	0x20	32
185	0x47	71
186	0x12	18
187	0x02	2
188	0x08	8
189	0xe2	-30
190	0xe9	-23
191	0x02	2
192	0xfc	-4
193	0x0f	15
194	0x14	20
195	0xde	-34
196	0xea	-22
197	0xd5	-43
198	0xf7	-9
199	0x09	9
200	0x0d	13
201	0xd7	-41
202	0xe9	-23
203	0xe9	-23
204	0xfb	-5
205	0x22	34
206	0x04	4
207	0x03	3
208	0xe0	-32
209	0x17	23
210	0x00	0
211	0x22	34
212	0xf0	-16
213	0xff	-1
214	0x15	21
215	0x0f	15
216	0xe8	-24
217	0xe2	-30
218	0xec	-20
219	0x11	17
220	0x2b	43
221	0xf7	-9
222	0x16	22
223	0x01	1
224	0xe8	-24
225	0x02	2
226	0xf1	-15
227	0x0a	10
228	0xfe	-2
229	0xee	-18
230	0xf5	-11
231	0xd4	-44
232	0x0b	11
233	0x1f	31
234	0x12	18
235	0xec	-20
236	0x08	8
237	0xfc	-4
238	0x0e	14
239	0xc5	-59
240	0x22	34
241	0xe2	-30
242	0x0b	11
243	0xcc	-52
244	0xdd	-35
245	0x1e	30
246	0xf6	-10
247	0xd9	-39
248	0x05	5
249	0x24	36
250	0xf0	-16
251	0x07	7
252	0xed	-19
253	0x43	67
254	0x01	1
255	0x17	23

sequential_1/conv2d_11/Conv2D i1 [32, 3, 3, 32]
0	0x1c	28
1	0x0e	14
2	0xff	-1
3	0x3e	62
4	0xd0	-48
5	0x09	9
6	0xf2	-14
7	0x1d	29
8	0x16	22
9	0xd2	-46
10	0xff	-1
11	0xfe	-2
12	0x5e	94
13	0x20	32
14	0xdf	-33
15	0xe5	-27
16	0x41	65
17	0x07	7
18	0x09	9
19	0x07	7
20	0xfd	-3
21	0xdf	-33
22	0xe8	-24
23	0xfc	-4
24	0xd7	-41
25	0x45	69
26	0x09	9
27	0x24	36
28	0xe7	-25
29	0xf3	-13
30	0x0f	15
31	0x03	3
32	0xdc	-36
33	0xf5	-11
34	0x0f	15
35	0xef	-17
36	0xd7	-41
37	0xf6	-10
38	0x40	64
39	0xf9	-7
40	0x11	17
41	0xfa	-6
42	0x23	35
43	0x2c	44
44	0xb1	-79
45	0xea	-22
46	0xf2	-14
47	0xe6	-26
48	0x19	25
49	0xf2	-14
50	0x08	8
51	0x0d	13
52	0xe5	-27
53	0xd6	-42
54	0x0a	10
55	0xb8	-72
56	0x4b	75
57	0x23	35
58	0x47	71
59	0x06	6
60	0x00	0
61	0xfb	-5
62	0x2b	43
63	0x1e	30
64	0x2c	44
65	0xde	-34
66	0xd0	-48
67	0xd3	-45
68	0xfa	-6
69	0x32	50
70	0x2f	47
71	0x28	40
72	0xba	-70
73	0x0b	11
74	0xd9	-39
75	0xe1	-31
76	0x0f	15
77	0x0c	12
78	0x3b	59
79	0x1f	31
80	0xe5	-27
81	0x33	51
82	0x1c	28
83	0xe5	-27
84	0x02	2
85	0xf4	-12
86	0xd3	-45
87	0xe5	-27
88	0xfd	-3
89	0x52	82
90	0x26	38
91	0xee	-18
92	0x4f	79
93	0xea	-22
94	0x05	5
95	0x20	32
96	0x02	2
97	0xcf	-49
98	0x11	17
99	0xf6	-10
100	0xf9	-7
101	0xcc	-52
102	0x35	53
103	0xeb	-21
104	0x19	25
105	0xfa	-6
106	0x17	23
107	0xeb	-21
108	0x28	40
109	0xa6	-90
110	0x58	88
111	0xf2	-14
112	0xe1	-31
113	0x0e	14
114	0x02	2
115	0xc6	-58
116	0xfe	-2
117	0xb2	-78
118	0x0b	11
119	0x0c	12
120	0x0f	15
121	0x07	7
122	0xf2	-14
123	0xf2	-14
124	0xd1	-47
125	0xab	-85
126	0x37	55
127	0x06	6
128	0xe5	-27
129	0x8f	-113
130	0x20	32
131	0xf8	-8
132	0xc4	-60
133	0x2f	47
134	0xde	-34
135	0x06	6
136	0xca	-54
137	0xee	-18
138	0x15	21
139	0x02	2
140	0xae	-82
141	0xe6	-26
142	0xd7	-41
143	0xcc	-52
144	0xb0	-80
145	0xf3	-13
146	0xd4	-44
147	0x06	6
148	0xd9	-39
149	0xe7	-25
150	0xdf	-33
151	0x0a	10
152	0x26	38
153	0x19	25
154	0x10	16
155	0x9c	-100
156	0x19	25
157	0x14	20
158	0xe6	-26
159	0xd6	-42
160	0x47	71
161	0x04	4
162	0x20	32
163	0x0a	10
164	0xeb	-21
165	0x3d	61
166	0xe5	-27
167	0xa6	-90
168	0xd1	-47
169	0xcb	-53
170	0x9b	-101
171	0x12	18
172	0xe6	-26
173	0x19	25
174	0x1a	26
175	0xe1	-31
176	0x2e	46
177	0x16	22
178	0xcd	-51
179	0x0d	13
180	0x8f	-113
181	0xee	-18
182	0x29	41
183	0x02	2
184	0xd3	-45
185	0x16	22
186	0xfe	-2
187	0xee	-18
188	0x37	55
189	0xd4	-44
190	0xfa	-6
191	0x42	66
192	0xd8	-40
193	0x18	24
194	0x1f	31
195	0x21	33
196	0x8c	-116
197	0x01	1
198	0x06	6
199	0x0f	15
200	0xe3	-29
201	0x00	0
202	0xcf	-49
203	0x1b	27
204	0x1f	31
205	0xcc	-52
206	0x30	48
207	0x1f	31
208	0xfb	-5
209	0x28	40
210	0xf0	-16
211	0xf6	-10
212	0x1f	31
213	0xd7	-41
214	0x06	6
215	0xfa	-6
216	0x16	22
217	0x0a	10
218	0xef	-17
219	0x63	99
220	0x2a	42
221	0x32	50
222	0xd2	-46
223	0xca	-54
224	0x38	56
225	0xc0	-64
226	0xe0	-32
227	0xf4	-12
228	0x01	1
229	0x31	49
230	0xe2	-30
231	0xd6	-42
232	0x1e	30
233	0x2a	42
234	0x1c	28
235	0xf2	-14
236	0x5c	92
237	0x11	17
238	0x02	2
239	0x33	51
240	0x00	0
241	0xbf	-65
242	0x13	19
243	0xfd	-3
244	0x06	6
245	0xfe	-2
246	0x17	23
247	0x01	1
248	0x05	5
249	0xee	-18
250	0x19	25
251	0x0f	15
252	0xaf	-81
253	0x31	49
254	0xba	-70
255	0xcb	-53

sequential_1/batch_normalization_7/FusedBatchNormV3 i1 [32] scale=0.0020116868 zero_point=-128
0	0x52	0.42245424
1	0x31	0.35606855
2	0x38	0.37015036
3	0x5c	0.4425711
4	0x54	0.4264776
5	0x49	0.40434906
6	0x37	0.36813867
7	0x4a	0.40636075
8	0x45	0.3963023
9	0x41	0.38825557
10	0x59	0.43653604
11	0x6d	0.47676978
12	0x4c	0.41038412
13	0x58	0.43452436
14	0x7d	0.50895673
15	0x7f	0.5129801
16	0x74	0.49085158
17	0x67	0.46469966
18	0x3d	0.3802088
19	0x5a	0.43854773
20	0x6b	0.4727464
21	0x35	0.3641153
22	0x43	0.39227894
23	0x5c	0.4425711
24	0x5b	0.44055942
25	0x5c	0.4425711
26	0x4d	0.4123958
27	0x41	0.38825557
28	0x65	0.46067628
29	0x6a	0.47073472
30	0x61	0.45262954
31	0x58	0.43452436

sequential_1/batch_normalization_7/FusedBatchNormV31 i1 [32] scale=0.011195548 zero_point=127
0	0xd6	-1.8920476
1	0xe7	-1.7017233
2	0xdf	-1.7912877
3	0xbb	-2.1943274
4	0xd5	-1.9032432
5	0xee	-1.6233544
6	0xfe	-1.4442257
7	0xea	-1.6681366
8	0xfb	-1.4778123
9	0xe4	-1.73531
10	0xe1	-1.7688966
11	0xa2	-2.474216
12	0xcc	-2.004003
13	0x93	-2.6421492
14	0xa8	-2.4070427
15	0x80	-2.8548646
16	0xc0	-2.1383495
17	0xbb	-2.1943274
18	0xd7	-1.880852
19	0x01	-1.410639
20	0xf2	-1.5785723
21	0xff	-1.4330301
22	0xf7	-1.5225945
23	0xc3	-2.104763
24	0xbb	-2.1943274
25	0xf9	-1.5002034
26	0xda	-1.8472654
27	0xdd	-1.8136787
28	0xe0	-1.7800921
29	0x9b	-2.552585
30	0xd6	-1.8920476
31	0xe2	-1.757701

sequential_1/dense_1/MatMul i1 [100, 32] scale=0.0053745448 zero_point=0
0	0xc2	-0.33322176
1	0xe1	-0.16661088
2	0xfb	-0.026872724
3	0xaf	-0.43533814
4	0x28	0.2149818
5	0x36	0.29022542
6	0xb2	-0.4192145
7	0xdf	-0.17735998
8	0xe2	-0.16123635
9	0xc7	-0.30634904
10	0x26	0.20423271
11	0xa4	-0.4944581
12	0xad	-0.4460872
13	0x37	0.29559997
14	0xc2	-0.33322176
15	0x94	-0.58045083
16	0xbb	-0.3708436
17	0xeb	-0.11286544
18	0xc4	-0.3224727
19	0xe7	-0.13436362
20	0x05	0.026872724
21	0x14	0.1074909
22	0x32	0.26872724
23	0x3d	0.32784724
24	0xaa	-0.46221086
25	0x10	0.085992716
26	0xcd	-0.2741018
27	0xd9	-0.20960724
28	0xb8	-0.3869672
29	0xad	-0.4460872
30	0x00	0.0
31	0xeb	-0.11286544
32	0xff	-0.0053745448
33	0xae	-0.44071266
34	0xe1	-0.16661088
35	0xb4	-0.40846542
36	0x24	0.1934836
37	0x30	0.25797814
38	0xdc	-0.1934836
39	0xb7	-0.39234176
40	0xec	-0.1074909
41	0xbc	-0.36546904
42	0x2c	0.23647997
43	0xb2	-0.4192145
44	0xb3	-0.41383994
45	0x22	0.18273452
46	0x9e	-0.5267054
47	0xa3	-0.49983266
48	0xc9	-0.29559997
49	0xfb	-0.026872724
50	0xb0	-0.4299636
51	0xcc	-0.2794763
52	0x16	0.118239984
53	0x01	0.0053745448
54	0x2b	0.23110543
55	0x2c	0.23647997
56	0xdd	-0.18810907
57	0xef	-0.09136726
58	0xcc	-0.2794763
59	0xbe	-0.35471997
60	0xbc	-0.36546904
61	0xa4	-0.4944581
62	0x13	0.102116354
63	0x15	0.11286544
64	0xee	-0.0967418
65	0xe9	-0.12361453
66	0x08	0.042996358
67	0xa8	-0.47295994
68	0x27	0.20960724
69	0x1f	0.16661088
70	0xcc	-0.2794763
71	0xa6	-0.48370904
72	0xc8	-0.30097452
73	0xcd	-0.2741018
74	0x2f	0.2526036
75	0xce	-0.26872724
76	0xdf	-0.17735998
77	0x1e	0.16123635
78	0xa9	-0.46758538
79	0xa3	-0.49983266
80	0xc8	-0.30097452
81	0xe3	-0.1558618
82	0xa7	-0.4783345
83	0xbe	-0.35471997
84	0x1f	0.16661088
85	0xd4	-0.23647997
86	0x35	0.28485087
87	0x1c	0.15048726
88	0x07	0.037621815
89	0xa2	-0.5052072
90	0xda	-0.20423271
91	0xaf	-0.43533814
92	0xa0	-0.5159563
93	0xae	-0.44071266
94	0x22	0.18273452
95	0x1d	0.1558618
96	0xff	-0.0053745448
97	0x08	0.042996358
98	0xe5	-0.14511271
99	0xb8	-0.3869672
100	0x2c	0.23647997
101	0x11	0.09136726
102	0xc9	-0.29559997
103	0xb1	-0.42458904
104	0xde	-0.18273452
105	0xb8	-0.3869672
106	0x2d	0.24185452
107	0x0a	0.05374545
108	0xc5	-0.31709814
109	0xfb	-0.026872724
110	0xab	-0.4568363
111	0xcf	-0.2633527
112	0xb8	-0.3869672
113	0xc6	-0.3117236
114	0xaa	-0.46221086
115	0xd5	-0.23110543
116	0x24	0.1934836
117	0xd2	-0.24722905
118	0x22	0.18273452
119	0x20	0.17198543
120	0x29	0.22035633
121	0xcb	-0.28485087
122	0xc8	-0.30097452
123	0xbe	-0.35471997
124	0xab	-0.4568363
125	0xa8	-0.47295994
126	0x2a	0.22573088
127	0x2e	0.24722905
128	0xd6	-0.22573088
129	0x0b	0.059119992
130	0xeb	-0.11286544
131	0xca	-0.29022542
132	0x32	0.26872724
133	0xea	-0.118239984
134	0xbd	-0.3600945
135	0xcc	-0.2794763
136	0xcc	-0.2794763
137	0xa3	-0.49983266
138	0x23	0.18810907
139	0x22	0.18273452
140	0xbf	-0.34934542
141	0xc6	-0.3117236
142	0xbd	-0.3600945
143	0xc8	-0.30097452
144	0xbd	-0.3600945
145	0xc2	-0.33322176
146	0xaf	-0.43533814
147	0xe0	-0.17198543
148	0x30	0.25797814
149	0xc7	-0.30634904
150	0x17	0.12361453
151	0x16	0.118239984
152	0x2b	0.23110543
153	0xdc	-0.1934836
154	0xd7	-0.22035633
155	0x00	0.0
156	0xa1	-0.51058173
157	0xa4	-0.4944581
158	0x33	0.2741018
159	0x30	0.25797814
160	0x9e	-0.5267054
161	0x08	0.042996358
162	0xc0	-0.34397087
163	0xc3	-0.32784724
164	0x27	0.20960724
165	0xea	-0.118239984
166	0xbb	-0.3708436
167	0xbc	-0.36546904
168	0xae	-0.44071266
169	0xc2	-0.33322176
170	0x0f	0.08061817
171	0x29	0.22035633
172	0xb3	-0.41383994
173	0xa4	-0.4944581
174	0xf2	-0.07524363
175	0xbc	-0.36546904
176	0xce	-0.26872724
177	0xb7	-0.39234176
178	0xc3	-0.32784724
179	0xe3	-0.1558618
180	0x27	0.20960724
181	0xc8	-0.30097452
182	0xc0	-0.34397087
183	0x25	0.19885816
184	0x2d	0.24185452
185	0xc4	-0.3224727
186	0xb9	-0.3815927
187	0x21	0.17735998
188	0xe8	-0.12898907
189	0x96	-0.56970173
190	0x33	0.2741018
191	0x23	0.18810907
192	0xb1	-0.42458904
193	0x12	0.0967418
194	0xb8	-0.3869672
195	0xc8	-0.30097452
196	0x2a	0.22573088
197	0xbe	-0.35471997
198	0xcc	-0.2794763
199	0xb3	-0.41383994
200	0xaa	-0.46221086
201	0xfc	-0.021498179
202	0xe5	-0.14511271
203	0x32	0.26872724
204	0xdb	-0.19885816
205	0xb0	-0.4299636
206	0xe6	-0.13973816
207	0xb9	-0.3815927
208	0xcb	-0.28485087
209	0xa8	-0.47295994
210	0xc3	-0.32784724
211	0xb8	-0.3869672
212	0x2b	0.23110543
213	0xc1	-0.3385963
214	0xe1	-0.16661088
215	0x0e	0.07524363
216	0x2a	0.22573088
217	0xbd	-0.3600945
218	0xd4	-0.23647997
219	0x26	0.20423271
220	0x12	0.0967418
221	0xbe	-0.35471997
222	0x33	0.2741018
223	0x26	0.20423271
224	0xcf	-0.2633527
225	0x19	0.13436362
226	0xbb	-0.3708436
227	0xcd	-0.2741018
228	0x2d	0.24185452
229	0xad	-0.4460872
230	0xe0	-0.17198543
231	0xb2	-0.4192145
232	0x8f	-0.6073236
233	0x1d	0.1558618
234	0xa9	-0.46758538
235	0x32	0.26872724
236	0xfc	-0.021498179
237	0xb8	-0.3869672
238	0xe3	-0.1558618
239	0xa9	-0.46758538
240	0xc8	-0.30097452
241	0xb4	-0.40846542
242	0xbc	-0.36546904
243	0x9c	-0.5374545
244	0x2a	0.22573088
245	0xbe	-0.35471997
246	0xf6	-0.05374545
247	0xe4	-0.15048726
248	0x24	0.1934836
249	0xd9	-0.20960724
250	0xd9	-0.20960724
251	0x25	0.19885816
252	0x21	0.17735998
253	0xeb	-0.11286544
254	0x2d	0.24185452
255	0x23	0.18810907
