sd-card/config/ana-class100_0171_s1_q.tflite (tflite, 133784 bytes, 17 tensors)

model_1/dense_1/MatMul i1 [100, 32] scale=0.006115124 zero_point=0
00000000: d5b5 1f21 c631 1128 f8f6 dab9 c626 ec14
00000010: 14bb f4d9 ddea 162f c8f6 c30a c823 08b3
00000020: c5b2 1b26 bf2a 1123 c0c8 02bc c016 e5fa
00000030: e7bd d2ef 04e0 2033 bbf6 0502 c22c 0eba
00000040: eca2 1a2c a828 051f c5c5 08c4 bf0d cecc
00000050: d3f6 beea 08c6 fb32 c1f5 0c03 aa1f 14dd
00000060: fed1 1e2b a41b e01c e4bc 1d00 c900 c3b7
00000070: bdef c3d8 1bcc 152c c8f9 ff19 be0e 1c0a
00000080: fad2 2130 ab1c da17 05c1 1efc c8c5 b6ee
00000090: be07 bdd1 1dc0 fd28 f3ed 0c0f c103 1f1a
000000a0: 20ec 1a2c b90c e105 19bd 220b d19b bd15
000000b0: be04 c6d1 27b9 fe24 f7d3 0b21 c2f5 1f10
000000c0: 27e6 1d22 bef3 d8f2 21d2 2af7 f0be c526
000000d0: b81b becb 1ad3 0dfc 02c4 0c1b b1d1 1e1d
000000e0: 1dd5 1b1b c2e8 cbe1 28ed 23e4 08e2 c42a
000000f0: ba24 bbc6 13d0 1bdf 07b5 0d15 b3c5 2317
-0.26295033 -0.45863432 0.18956885 0.2017991 -0.3546772 0.29964107 0.10395711 0.24460496
-0.048920993 -0.06115124 -0.23237471 -0.43417382 -0.3546772 0.23237471 -0.12230248 0.12230248
0.12230248 -0.42194358 -0.07338149 -0.23848984 -0.21402934 -0.13453273 0.13453273 0.28741083
-0.34244695 -0.06115124 -0.37302256 0.06115124 -0.34244695 0.21402934 0.048920993 -0.47086456
-0.3607923 -0.47697967 0.16510835 0.23237471 -0.39748308 0.25683522 0.10395711 0.21402934
-0.39136794 -0.34244695 0.012230248 -0.41582844 -0.39136794 0.13453273 -0.16510835 -0.036690746
-0.1528781 -0.40971333 -0.28129572 -0.10395711 0.024460496 -0.19568397 0.19568397 0.31187132
-0.42194358 -0.06115124 0.03057562 0.012230248 -0.3791377 0.26906547 0.08561174 -0.42805868
-0.12230248 -0.57482165 0.15899323 0.26906547 -0.53813094 0.24460496 0.03057562 0.18956885
-0.3607923 -0.3607923 0.048920993 -0.36690745 -0.39748308 0.079496615 -0.3057562 -0.31798646
-0.27518058 -0.06115124 -0.4035982 -0.13453273 0.048920993 -0.3546772 -0.03057562 0.3057562
-0.3852528 -0.06726637 0.07338149 0.018345373 -0.52590066 0.18956885 0.12230248 -0.21402934
-0.012230248 -0.28741083 0.18345372 0.26295033 -0.56259143 0.16510835 -0.19568397 0.17122348
-0.17122348 -0.41582844 0.1773386 0.0 -0.3363318 0.0 -0.37302256 -0.44640407
-0.40971333 -0.10395711 -0.37302256 -0.24460496 0.16510835 -0.31798646 0.12841761 0.26906547
-0.34244695 -0.04280587 -0.006115124 0.1528781 -0.4035982 0.08561174 0.17122348 0.06115124
-0.036690746 -0.28129572 0.2017991 0.29352596 -0.5197855 0.17122348 -0.23237471 0.14064786
0.03057562 -0.3852528 0.18345372 -0.024460496 -0.34244695 -0.3607923 -0.45251918 -0.11007223
-0.4035982 0.04280587 -0.40971333 -0.28741083 0.1773386 -0.39136794 -0.018345373 0.24460496
-0.079496615 -0.11618736 0.07338149 0.09172686 -0.3852528 0.018345373 0.18956885 0.15899323
0.19568397 -0.12230248 0.15899323 0.26906547 -0.43417382 0.07338149 -0.18956885 0.03057562
0.1528781 -0.40971333 0.20791422 0.06726637 -0.28741083 -0.61762756 -0.40971333 0.12841761
-0.4035982 0.024460496 -0.3546772 -0.28741083 0.23848984 -0.43417382 -0.012230248 0.22014447
-0.055036116 -0.27518058 0.06726637 0.2017991 -0.3791377 -0.06726637 0.18956885 0.097841986
0.23848984 -0.15899323 0.1773386 0.20791422 -0.4035982 -0.079496615 -0.24460496 -0.08561174
0.2017991 -0.28129572 0.25683522 -0.055036116 -0.097841986 -0.4035982 -0.3607923 0.23237471
-0.44028893 0.16510835 -0.4035982 -0.32410157 0.15899323 -0.27518058 0.079496615 -0.024460496
0.012230248 -0.36690745 0.07338149 0.16510835 -0.4830948 -0.28741083 0.18345372 0.1773386
0.1773386 -0.26295033 0.16510835 0.16510835 -0.3791377 -0.14676298 -0.32410157 -0.18956885
0.24460496 -0.11618736 0.21402934 -0.17122348 0.048920993 -0.18345372 -0.36690745 0.25683522
-0.42805868 0.22014447 -0.42194358 -0.3546772 0.11618736 -0.29352596 0.16510835 -0.2017991
0.04280587 -0.45863432 0.079496615 0.12841761 -0.47086456 -0.3607923 0.21402934 0.14064786

model_1/batch_normalization_11/FusedBatchNormV31 i1 [32] scale=0.012286813 zero_point=127
00000000: b5d5 a8b9 a7d5 efc8 e380 d1b1 c1c3 abb2
00000010: abb4 b9e4 ee06 ecab 83f3 f3c3 f990 eaee
-2.4819362 -2.0887582 -2.6416647 -2.432789 -2.6539516 -2.0887582 -1.769301 -2.2484868
-1.9167428 -3.1331372 -2.1379054 -2.5310836 -2.3344944 -2.3099208 -2.6048043 -2.5187967
-2.6048043 -2.494223 -2.432789 -1.904456 -1.7815878 -1.4867043 -1.8061615 -2.6048043
-3.0962768 -1.7201538 -1.7201538 -2.3099208 -1.646433 -2.9365482 -1.8307351 -1.7815878

model_1/batch_normalization_11/FusedBatchNormV3 i1 [32] scale=0.008086759 zero_point=-128
00000000: 183e 5276 414e 417f 5e5e 497f 6458 5c7f
00000010: 5643 6f4e 3d34 3860 695a 3a43 597d 5355
1.2291874 1.5364841 1.6982193 1.9893427 1.5607444 1.6658723 1.5607444 2.0621235
1.7952604 1.7952604 1.6254385 2.0621235 1.843781 1.7467399 1.779087 2.0621235
1.7305664 1.5769179 1.9327353 1.6658723 1.5283974 1.4556166 1.4879636 1.8114339
1.8842148 1.7629133 1.5041372 1.5769179 1.7548267 2.04595 1.7063061 1.7224796

model_1/conv2d_11/Conv2D i1 [32, 3, 3, 32]
00000000: 12f2 20d5 f40f ec17 0a1e cb07 16d8 1cfd
00000010: 1eea 2819 ee1e de18 52d0 0308 f819 0327
00000020: 180c 36cd 0110 06cf 1b28 ee11 02de 32f8
00000030: 390b f9e4 1e3a fe28 7fdc 1812 e4fd c813
00000040: edc4 d00d 101f 2412 f132 0429 0c21 e2e7
00000050: 0fd9 e2ff 221d c60f 26ce 162e d90e 00e0
00000060: 01f2 2dbe 04fb 1006 1421 ffeb 16d9 13df
00000070: 0e08 2723 fc28 fb21 54f2 e837 4731 d873
00000080: f9ee 14e8 160e 050e e8fd 01fa 1497 55cb
00000090: 0613 092e e32e c521 64e8 fe48 d500 e414
000000a0: 0817 0803 15fc fc15 0c4d 25c8 b81e d607
000000b0: f4aa 56c6 45d1 f7f1 02f8 22ed dc13 f604
000000c0: f2fe 03e2 0041 fc06 1d27 fedd 3c07 fcc6
000000d0: f6f5 0e16 0915 08fb 602e 291c 1715 ed5b
000000e0: d0e8 0cdd ea00 1ab6 4330 f007 c9cb 10cf
000000f0: 1a42 ee33 dd11 2ceb 19c7 1ec9 d805 e840
18 -14 32 -43 -12 15 -20 23
10 30 -53 7 22 -40 28 -3
30 -22 40 25 -18 30 -34 24
82 -48 3 8 -8 25 3 39
24 12 54 -51 1 16 6 -49
27 40 -18 17 2 -34 50 -8
57 11 -7 -28 30 58 -2 40
127 -36 24 18 -28 -3 -56 19
-19 -60 -48 13 16 31 36 18
-15 50 4 41 12 33 -30 -25
15 -39 -30 -1 34 29 -58 15
38 -50 22 46 -39 14 0 -32
1 -14 45 -66 4 -5 16 6
20 33 -1 -21 22 -39 19 -33
14 8 39 35 -4 40 -5 33
84 -14 -24 55 71 49 -40 115
-7 -18 20 -24 22 14 5 14
-24 -3 1 -6 20 -105 85 -53
6 19 9 46 -29 46 -59 33
100 -24 -2 72 -43 0 -28 20
8 23 8 3 21 -4 -4 21
12 77 37 -56 -72 30 -42 7
-12 -86 86 -58 69 -47 -9 -15
2 -8 34 -19 -36 19 -10 4
-14 -2 3 -30 0 65 -4 6
29 39 -2 -35 60 7 -4 -58
-10 -11 14 22 9 21 8 -5
96 46 41 28 23 21 -19 91
-48 -24 12 -35 -22 0 26 -74
67 48 -16 7 -55 -53 16 -49
26 66 -18 51 -35 17 44 -21
25 -57 30 -55 -40 5 -24 64

model_1/batch_normalization_10/FusedBatchNormV31 i1 [32] scale=0.0039302083 zero_point=127
00000000: dc4b 6340 22d8 d00e 3dfd 165a 6c0a e71b
00000010: 0be9 e722 e7fb e6c2 d71f 8029 2b43 edf4
-0.6406239 -0.20437083 -0.110045835 -0.24760312 -0.36550936 -0.6563448 -0.68778646 -0.44411352
-0.25939375 -0.5109271 -0.41267186 -0.1454177 -0.07467396 -0.45983437 -0.59739166 -0.39302084
-0.45590416 -0.58953124 -0.59739166 -0.36550936 -0.59739166 -0.5187875 -0.6013219 -0.74280936
-0.660275 -0.3773 -1.0022031 -0.3379979 -0.3301375 -0.2358125 -0.5738104 -0.5462989

model_1/batch_normalization_10/FusedBatchNormV3 i1 [32] scale=0.001303567 zero_point=-128
00000000: 1141 6b5a 271d 1530 3b16 1c1c 5043 253b
00000010: 3013 2373 163c 4e04 1858 ef7f 2f3d 4c4c
0.1890172 0.25158843 0.30633825 0.2841776 0.21769568 0.20466001 0.19423148 0.22942778
0.24376702 0.19553505 0.20335644 0.20335644 0.27114192 0.25419557 0.21508855 0.24376702
0.22942778 0.19162434 0.21248141 0.31676677 0.19553505 0.24507059 0.2685348 0.17207085
0.19814219 0.28157046 0.14469594 0.3324096 0.22812422 0.24637416 0.26592767 0.26592767

model_1/conv2d_10/Conv2D i1 [32, 3, 3, 64]
00000000: 002c f51c 472c 2dc1 f814 04de fa07 de1c
00000010: 8132 5ec5 e302 e8f0 9f38 be0b dd3a e311
00000020: 9eed d8df 0324 12e0 ea0b 03d6 3be3 00f8
00000030: 1e30 f438 040c 0dce f2bc 50e9 0007 37e9
00000040: bb18 dd32 b0e3 c0ea baf6 4d2f 560e 2605
00000050: 1f08 e846 0b0b 0ec7 0ce6 2d9f d1ac fefe
00000060: 1ffd ffc9 e60e 1e12 3dbf 2704 faca d5f6
00000070: 0bde 01e6 0c3e f7ff b71b 252c c544 eeeb
00000080: 3829 3906 0b47 24f3 5209 2515 19f6 d9cc
00000090: 04e0 f8bb 1a1f 1138 2a40 09d4 2333 bf32
000000a0: df2c 5d12 c095 012f e006 fd39 f71d f2dd
000000b0: 150b eaff 2fd4 47e5 2d0a fce9 1ce3 e9ae
000000c0: 35b2 13f0 e9fa 3c1e fddc f50f ee0a c0c2
000000d0: fb39 18fb e70c e914 c80c 2813 f940 0a01
000000e0: d21c 2cff 0b98 ff47 0a13 3217 41eb deb8
000000f0: 041b 11c4 0fc9 0501 261a 172b fbe0 164c
0 44 -11 28 71 44 45 -63
-8 20 4 -34 -6 7 -34 28
-127 50 94 -59 -29 2 -24 -16
-97 56 -66 11 -35 58 -29 17
-98 -19 -40 -33 3 36 18 -32
-22 11 3 -42 59 -29 0 -8
30 48 -12 56 4 12 13 -50
-14 -68 80 -23 0 7 55 -23
-69 24 -35 50 -80 -29 -64 -22
-70 -10 77 47 86 14 38 5
31 8 -24 70 11 11 14 -57
12 -26 45 -97 -47 -84 -2 -2
31 -3 -1 -55 -26 14 30 18
61 -65 39 4 -6 -54 -43 -10
11 -34 1 -26 12 62 -9 -1
-73 27 37 44 -59 68 -18 -21
56 41 57 6 11 71 36 -13
82 9 37 21 25 -10 -39 -52
4 -32 -8 -69 26 31 17 56
42 64 9 -44 35 51 -65 50
-33 44 93 18 -64 -107 1 47
-32 6 -3 57 -9 29 -14 -35
21 11 -22 -1 47 -44 71 -27
45 10 -4 -23 28 -29 -23 -82
53 -78 19 -16 -23 -6 60 30
-3 -36 -11 15 -18 10 -64 -62
-5 57 24 -5 -25 12 -23 20
-56 12 40 19 -7 64 10 1
-46 28 44 -1 11 -104 -1 71
10 19 50 23 65 -21 -34 -72
4 27 17 -60 15 -55 5 1
38 26 23 43 -5 -32 22 76

model_1/batch_normalization_9/FusedBatchNormV31 i1 [64] scale=0.00528332 zero_point=127
00000000: bbac b0cd b89a 9eb8 a0bb b9b6 9f97 aa95
00000010: ad95 bfb0 daa8 c89b 99bf 87c3 a1a5 b1d4
00000020: bea3 9cb9 9c90 b8b8 a49f 9c8e acb0 80b9
00000030: 8da0 d19d dac5 c2a7 bfc0 b7df 8fb0 b3bf
-1.0355307 -1.1147805 -1.0936472 -0.94043094 -1.0513806 -1.2098802 -1.1887469 -1.0513806
-1.1781803 -1.0355307 -1.0460973 -1.0619473 -1.1834637 -1.2257302 -1.1253471 -1.2362969
-1.1094972 -1.2362969 -1.0143974 -1.0936472 -0.8717478 -1.1359137 -0.96684754 -1.2045969
-1.2151636 -1.0143974 -1.3102633 -0.99326414 -1.172897 -1.1517637 -1.0883639 -0.9034477
-1.0196807 -1.1623304 -1.1993136 -1.0460973 -1.1993136 -1.2627134 -1.0513806 -1.0513806
-1.157047 -1.1834637 -1.1993136 -1.2732801 -1.1147805 -1.0936472 -1.3472465 -1.0460973
-1.2785634 -1.1781803 -0.91929764 -1.1940303 -0.8717478 -0.9826975 -0.99854743 -1.1411971
-1.0143974 -1.0091141 -1.056664 -0.8453312 -1.2679968 -1.0936472 -1.0777973 -1.0143974

model_1/batch_normalization_9/FusedBatchNormV3 i1 [64] scale=0.0019042519 zero_point=-128
00000000: 1e57 2b3b 201b 5063 4338 3b1c 3639 5641
00000010: 4544 4c3f 6f4c 641f 493a 3429 3561 3d7f
00000020: 256c 1731 3437 7c45 4f3f 3348 4541 495f
00000030: 3743 4225 524a 4e3a 172e 653f 2915 3e3c
0.3008718 0.40941414 0.32562706 0.3560951 0.3046803 0.29515904 0.3960844 0.43226516
0.37132913 0.35038236 0.3560951 0.2970633 0.34657383 0.3522866 0.4075099 0.3675206
0.37513763 0.37323338 0.38846737 0.3637121 0.45511618 0.38846737 0.4341694 0.30277604
0.38275462 0.35419086 0.34276533 0.32181856 0.34466958 0.42845666 0.3599036 0.48558423
0.31420156 0.44940343 0.28754205 0.33705258 0.34276533 0.34847808 0.47987148 0.37513763
0.39418015 0.3637121 0.34086108 0.38085037 0.37513763 0.3675206 0.38275462 0.42464817
0.34847808 0.37132913 0.36942485 0.31420156 0.3998929 0.38465887 0.3922759 0.35419086
0.28754205 0.33133984 0.4360737 0.3637121 0.32181856 0.28373352 0.36180785 0.35799935

model_1/conv2d_9/Conv2D i1 [64, 3, 3, 64]
00000000: 00c8 8126 eb0b d9e8 1add cdfc eca6 ff47
00000010: ca49 0805 100c e5ec f830 13aa 1d41 f214
00000020: cb12 f505 dfc1 d0f0 ffb4 10a7 5924 51ea
00000030: 1c08 dc25 14cb 07fb 0de1 74e9 e8e8 32bf
00000040: c43f e0d3 3db6 14f2 ef05 1edc 3b3e 0a0d
00000050: e6cf 2004 db00 df16 45ce ea2b f8ec c521
00000060: e4e0 1532 c4e1 e91a fad6 230e b244 ffce
00000070: e915 2d28 27b4 f9e6 ede3 09a5 de05 0825
00000080: de2c 33d7 00d7 f0d8 dbda f5e7 01e8 fd17
00000090: 4d12 50d2 262b e1ae 1cf5 b507 f61e 2d21
000000a0: da18 e9fd 01d1 c0d7 07ff 3005 cfb8 f618
000000b0: 1c30 0ff3 31d3 0f3a 2ceb de16 0a2b f6e2
000000c0: e602 e600 09ac eae3 2ce7 d605 e4f9 f50d
000000d0: 1d36 1ed1 e3ba 35e8 1505 08fa 05ed 07dc
000000e0: 1d48 03f6 e8e1 f9e4 f510 0eed 11f7 06cb
000000f0: ccf0 03d5 1724 16e5 0910 dfea 1a0c e805
0 -56 -127 38 -21 11 -39 -24
26 -35 -51 -4 -20 -90 -1 71
-54 73 8 5 16 12 -27 -20
-8 48 19 -86 29 65 -14 20
-53 18 -11 5 -33 -63 -48 -16
-1 -76 16 -89 89 36 81 -22
28 8 -36 37 20 -53 7 -5
13 -31 116 -23 -24 -24 50 -65
-60 63 -32 -45 61 -74 20 -14
-17 5 30 -36 59 62 10 13
-26 -49 32 4 -37 0 -33 22
69 -50 -22 43 -8 -20 -59 33
-28 -32 21 50 -60 -31 -23 26
-6 -42 35 14 -78 68 -1 -50
-23 21 45 40 39 -76 -7 -26
-19 -29 9 -91 -34 5 8 37
-34 44 51 -41 0 -41 -16 -40
-37 -38 -11 -25 1 -24 -3 23
77 18 80 -46 38 43 -31 -82
28 -11 -75 7 -10 30 45 33
-38 24 -23 -3 1 -47 -64 -41
7 -1 48 5 -49 -72 -10 24
28 48 15 -13 49 -45 15 58
44 -21 -34 22 10 43 -10 -30
-26 2 -26 0 9 -84 -22 -29
44 -25 -42 5 -28 -7 -11 13
29 54 30 -47 -29 -70 53 -24
21 5 8 -6 5 -19 7 -36
29 72 3 -10 -24 -31 -7 -28
-11 16 14 -19 17 -9 6 -53
-52 -16 3 -43 23 36 22 -27
9 16 -33 -22 26 12 -24 5

model_1/batch_normalization_8/FusedBatchNormV31 i1 [64] scale=0.0036512613 zero_point=101
00000000: e9f1 097f dd04 3051 eb39 0f11 c61a 0530
00000010: 182b 163b 39fb 0419 4f00 0d85 22d7 fcf6
00000020: 0b08 2da6 dc06 ffc3 b0d5 c98b 0392 38f3
00000030: 520c fa23 0fef 53c7 1a10 f801 8020 be0e
-0.4527564 -0.4235463 -0.33591604 0.094932795 -0.49657154 -0.35417235 -0.19351685 -0.07302523
-0.44545388 -0.1606555 -0.31400847 -0.30670595 -0.58055055 -0.2738446 -0.3505211 -0.19351685
-0.28114712 -0.21177316 -0.28844965 -0.15335298 -0.1606555 -0.3870337 -0.35417235 -0.27749586
-0.08032775 -0.3687774 -0.321311 -0.81788254 -0.24463451 -0.5184791 -0.38338244 -0.40529
-0.32861352 -0.3395673 -0.20447063 -0.6973909 -0.5002228 -0.34686983 -0.37242866 -0.59150434
-0.6608783 -0.52578163 -0.56959677 -0.79597497 -0.3578236 -0.77041614 -0.16430676 -0.4162438
-0.069373965 -0.32496226 -0.39068496 -0.24098325 -0.31400847 -0.43084884 -0.065722704 -0.5768993
-0.2738446 -0.3103572 -0.39798748 -0.36512613 -0.83613884 -0.25193703 -0.60976064 -0.31765974

model_1/batch_normalization_8/FusedBatchNormV3 i1 [64] scale=0.002869924 zero_point=-128
00000000: c103 cee8 ccd5 eaf9 f0dd b352 c9d2 d1d6
00000010: e4fd e0cf dbc4 dae6 f0c7 bcbb c3c6 c7e3
00000020: b8c3 7fc4 c2bd bcd0 b3c3 daae d8b9 ecae
00000030: efbd c3e3 cd02 4bba c1ea d8ba b2de bbd6
0.18654506 0.37596005 0.22385408 0.2984721 0.21811423 0.24394354 0.30421194 0.3472608
0.3214315 0.26690292 0.14636613 0.6026841 0.20950446 0.23533377 0.23246385 0.24681348
0.2869924 0.3587405 0.2755127 0.226724 0.2611631 0.19515483 0.25829315 0.29273227
0.3214315 0.2037646 0.17219545 0.16932552 0.19228491 0.20089468 0.2037646 0.2841225
0.16071574 0.19228491 0.73183066 0.19515483 0.189415 0.17506537 0.17219545 0.22959393
0.14636613 0.19228491 0.25829315 0.13201651 0.2525533 0.16358568 0.3099518 0.13201651
0.31856158 0.17506537 0.19228491 0.2841225 0.22098415 0.37309012 0.5825946 0.1664556
0.18654506 0.30421194 0.2525533 0.1664556 0.1434962 0.26977286 0.16932552 0.24681348

model_1/conv2d_8/Conv2D i1 [64, 3, 3, 64]
00000000: fe10 f7da fc04 f30b e41e d94a 2b09 fbff
00000010: 0004 20f3 ef4b ff06 2ef3 f615 6138 ffe9
00000020: eb1c f407 19da edf4 49f2 2437 e416 effc
00000030: 01d7 ff02 c619 f73b 01fd dcf5 f910 2122
00000040: 0e19 f4f7 0622 f90f edf1 0c15 ffef f9f4
00000050: 0ece 01fc 001a 22fe 0b02 0edd 4b07 2ff0
00000060: 0104 15f4 45e7 eb11 3314 0b2c d319 d70e
00000070: 1b1f 1d25 e0ed 37fc d3fc fd0a fa06 17fa
00000080: 0c24 11f2 2a08 df1f 1c12 3fe6 e7ee bce1
00000090: 11c9 b7c7 f2fb e338 e0d3 3c03 1c2e 2218
000000a0: f5bc 1f2c 1bed 03f5 0b0f e323 bd1e 040f
000000b0: fded 04fe fceb 1a03 f8d4 2dcf e9f4 db15
000000c0: 0b0b 3d15 0d3c ffd8 fefd f2ec 3621 c0c0
000000d0: 0224 c1b6 f408 0e22 f7ff e2ed 0200 e4bd
000000e0: 13eb 16e5 20d1 062c 81e0 f6f3 fbd3 f800
000000f0: 1eea ead8 0b21 2f15 1adc e21b ea0e 1518
-2 16 -9 -38 -4 4 -13 11
-28 30 -39 74 43 9 -5 -1
0 4 32 -13 -17 75 -1 6
46 -13 -10 21 97 56 -1 -23
-21 28 -12 7 25 -38 -19 -12
73 -14 36 55 -28 22 -17 -4
1 -41 -1 2 -58 25 -9 59
1 -3 -36 -11 -7 16 33 34
14 25 -12 -9 6 34 -7 15
-19 -15 12 21 -1 -17 -7 -12
14 -50 1 -4 0 26 34 -2
11 2 14 -35 75 7 47 -16
1 4 21 -12 69 -25 -21 17
51 20 11 44 -45 25 -41 14
27 31 29 37 -32 -19 55 -4
-45 -4 -3 10 -6 6 23 -6
12 36 17 -14 42 8 -33 31
28 18 63 -26 -25 -18 -68 -31
17 -55 -73 -57 -14 -5 -29 56
-32 -45 60 3 28 46 34 24
-11 -68 31 44 27 -19 3 -11
11 15 -29 35 -67 30 4 15
-3 -19 4 -2 -4 -21 26 3
-8 -44 45 -49 -23 -12 -37 21
11 11 61 21 13 60 -1 -40
-2 -3 -14 -20 54 33 -64 -64
2 36 -63 -74 -12 8 14 34
-9 -1 -30 -19 2 0 -28 -67
19 -21 22 -27 32 -47 6 44
-127 -32 -10 -13 -5 -45 -8 0
30 -22 -22 -40 11 33 47 21
26 -36 -30 27 -22 14 21 24

model_1/batch_normalization_7/FusedBatchNormV31 i1 [64] scale=0.004620067 zero_point=127
00000000: fd00 b7e6 eabf 0ee8 d6ce bef0 d376 af8d
00000010: 458d bf85 b8c0 eda7 ff23 ecc8 ecfe 1025
00000020: 17d2 180d f7f0 401f dadf e424 cb20 d226
00000030: f7a2 e1d6 ed80 eb23 fc0a e00c 0ecb d924
-0.6006087 -0.5867485 -0.9240134 -0.7068702 -0.68838996 -0.88705283 -0.52206755 -0.6976301
-0.7807913 -0.8177518 -0.8916729 -0.66066957 -0.7946515 -0.041580603 -0.9609739 -1.1180562
-0.2679639 -1.1180562 -0.88705283 -1.1550167 -0.9193933 -0.88243276 -0.67452973 -0.99793446
-0.59136856 -0.42504615 -0.6791498 -0.8454722 -0.6791498 -0.59598863 -0.5128274 -0.41580603
-0.48048696 -0.7992716 -0.47586688 -0.5266876 -0.6283291 -0.66066957 -0.2910642 -0.44352642
-0.76231104 -0.7392107 -0.71611035 -0.42042607 -0.83161205 -0.43890634 -0.7992716 -0.41118595
-0.6283291 -1.0210347 -0.7299706 -0.7807913 -0.67452973 -1.178117 -0.6837699 -0.42504615
-0.6052288 -0.54054785 -0.73459065 -0.5313077 -0.52206755 -0.83161205 -0.7669311 -0.42042607

model_1/batch_normalization_7/FusedBatchNormV3 i1 [64] scale=0.09143131 zero_point=-128
00000000: 9b92 9a9b 8ca1 88a4 9798 95a2 8f7f 9088
00000010: a188 938f 9788 9e8e 8c86 898f 9189 969e
00000020: aa9f 8c90 9aa7 bbc2 92a2 8b8d 8c94 94f6
00000030: 899d 8e90 a08d 9390 9598 a29c 9987 b196
2.4686453 1.6457636 2.3772142 2.4686453 1.0971757 3.0172334 0.7314505 3.2915273
2.1029203 2.1943514 1.9200575 3.1086645 1.3714697 23.314985 1.462901 0.7314505
3.0172334 0.7314505 1.7371949 1.3714697 2.1029203 0.7314505 2.7429395 1.2800384
1.0971757 0.54858786 0.8228818 1.3714697 1.5543323 0.8228818 2.011489 2.7429395
3.840115 2.8343706 1.0971757 1.462901 2.3772142 3.5658212 5.3944473 6.0344667
1.6457636 3.1086645 1.0057445 1.1886071 1.0971757 1.8286263 1.8286263 10.788895
0.8228818 2.651508 1.2800384 1.462901 2.925802 1.1886071 1.7371949 1.462901
1.9200575 2.1943514 3.1086645 2.5600767 2.2857828 0.6400192 4.4801345 2.011489

model_1/conv2d_7/Conv2D i1 [64, 1, 1, 64]
00000000: dcee ebc1 d229 f7b6 f00a c58f 2805 8ab3
00000010: b2e5 207f 050a 2a30 a0c4 471f ba01 aae0
00000020: 0d29 fa07 1cb6 06b1 0421 08b1 d9bd 9feb
00000030: fd20 d5fd 5900 101a 0018 e14f ff91 b2ca
00000040: 3a17 27b6 45db 3510 8190 0b1f e3ec ab2c
00000050: 2f0c f0d1 becd d9fa e716 eb0c 1be9 27c5
00000060: f30e 5e1b 5ce8 e321 f0fa b525 a97b 2a99
00000070: 94fd ee2f f32e 26e1 e200 a4f8 86eb 31c0
00000080: 58eb 0cfe ea16 cd8c f0f6 fdda ee0e b78d
00000090: 072d 34f3 ccce 02c0 c814 06ea 2531 1500
000000a0: 1e19 0d1b 1ba3 e19f f1b4 d721 ff38 8106
000000b0: d525 8a30 b522 c616 243f bdf4 f927 e8e5
000000c0: f8bc d12d e72b e0fb 3b40 34e2 e72b e8a3
000000d0: bb05 f681 2dd6 0dc1 da05 e3e4 c30e 2817
000000e0: d130 f500 49f2 f9da fb1c 12d2 f9ff a923
000000f0: 21bb bcfd 3dd0 f5cb acfa f9f6 da31 e6c9
-36 -18 -21 -63 -46 41 -9 -74
-16 10 -59 -113 40 5 -118 -77
-78 -27 32 127 5 10 42 48
-96 -60 71 31 -70 1 -86 -32
13 41 -6 7 28 -74 6 -79
4 33 8 -79 -39 -67 -97 -21
-3 32 -43 -3 89 0 16 26
0 24 -31 79 -1 -111 -78 -54
58 23 39 -74 69 -37 53 16
-127 -112 11 31 -29 -20 -85 44
47 12 -16 -47 -66 -51 -39 -6
-25 22 -21 12 27 -23 39 -59
-13 14 94 27 92 -24 -29 33
-16 -6 -75 37 -87 123 42 -103
-108 -3 -18 47 -13 46 38 -31
-30 0 -92 -8 -122 -21 49 -64
88 -21 12 -2 -22 22 -51 -116
-16 -10 -3 -38 -18 14 -73 -115
7 45 52 -13 -52 -50 2 -64
-56 20 6 -22 37 49 21 0
30 25 13 27 27 -93 -31 -97
-15 -76 -41 33 -1 56 -127 6
-43 37 -118 48 -75 34 -58 22
36 63 -67 -12 -7 39 -24 -27
-8 -68 -47 45 -25 43 -32 -5
59 64 52 -30 -25 43 -24 -93
-69 5 -10 -127 45 -42 13 -63
-38 5 -29 -28 -61 14 40 23
-47 48 -11 0 73 -14 -7 -38
-5 28 18 -46 -7 -1 -87 35
33 -69 -68 -3 61 -48 -11 -53
-84 -6 -7 -10 -38 49 -26 -55

model_1/conv2d_6/Conv2D i1 [64, 5, 5, 3]
00000000: d1d3 cddf f1dc 41e1 d544 e7ef f4f8 cd81
00000010: 25e1 8e07 fbe6 3419 3713 ebfe ccc2 b254
00000020: 1ed4 2b23 1159 4237 3416 e7da aab8 3c0a
00000030: ca27 eb02 2016 470e f4e7 ce9e 0d3a 07ca
00000040: 30e8 0b28 0528 360d 08f6 e2d2 e1eb d4ff
00000050: 00fc ff1c f7e4 fff1 bcb6 bc1a 36e5 333a
00000060: ee42 2105 1c15 0c03 0e1f 7f75 0c4a 2006
00000070: 05fb d7de df08 bfc5 1436 1b11 1301 1bf1
00000080: db2b f3fc 04d1 f10a dbcf 09b3 b7fb b4cb
00000090: 1cf8 ff1d 1a0d 0a3b 111f 685f a211 0eae
000000a0: d5fe b3da d651 19e5 5142 1c11 d5d1 54cc
000000b0: de7f d9f8 06f7 ac22 d0bf b790 badb 8aa8
000000c0: 61ff f5cf 01dc bf30 30fb 0b3b e7fe fa26
000000d0: 3c1d d1f0 f2eb 2834 e764 5dd8 7054 d833
000000e0: 360a f4d1 e8fa e2b5 1107 c13d 0ef7 6558
000000f0: 05db c5d9 01c4 c343 eeb4 5806 cb5a 1a3f
-47 -45 -51 -33 -15 -36 65 -31
-43 68 -25 -17 -12 -8 -51 -127
37 -31 -114 7 -5 -26 52 25
55 19 -21 -2 -52 -62 -78 84
30 -44 43 35 17 89 66 55
52 22 -25 -38 -86 -72 60 10
-54 39 -21 2 32 22 71 14
-12 -25 -50 -98 13 58 7 -54
48 -24 11 40 5 40 54 13
8 -10 -30 -46 -31 -21 -44 -1
0 -4 -1 28 -9 -28 -1 -15
-68 -74 -68 26 54 -27 51 58
-18 66 33 5 28 21 12 3
14 31 127 117 12 74 32 6
5 -5 -41 -34 -33 8 -65 -59
20 54 27 17 19 1 27 -15
-37 43 -13 -4 4 -47 -15 10
-37 -49 9 -77 -73 -5 -76 -53
28 -8 -1 29 26 13 10 59
17 31 104 95 -94 17 14 -82
-43 -2 -77 -38 -42 81 25 -27
81 66 28 17 -43 -47 84 -52
-34 127 -39 -8 6 -9 -84 34
-48 -65 -73 -112 -70 -37 -118 -88
97 -1 -11 -49 1 -36 -65 48
48 -5 11 59 -25 -2 -6 38
60 29 -47 -16 -14 -21 40 52
-25 100 93 -40 112 84 -40 51
54 10 -12 -47 -24 -6 -30 -75
17 7 -63 61 14 -9 101 88
5 -37 -59 -39 1 -60 -61 67
-18 -76 88 6 -53 90 26 63
