sd-card/config/ana-cont_1206_s2_q.tflite (tflite, 47232 bytes, 12 tensors)

model/conv2d/Conv2D i1 [32, 5, 5, 3]
-18 27 12 -72 63 57 -37 -16
-36 -6 -24 9 -35 -26 13 59
89 73 -8 40 30 -28 -37 39
30 4 -3 -21 -44 -74 75 11
6 49 12 93 36 26 74 -8
-127 -46 -81 -126 -100 68 -33 45
36 49 106 20 102 105 -15 2
3 -85 -71 -114 -49 -35 -66 -2
-36 19 8 84 60 15 31 84
-49 -12 12 -45 52 12 -8 -7
20 -26 30 12 -12 -20 49 -8
-8 25 -25 1 36 -14 8 2
18 -28 -4 -26 -7 35 -21 22
11 -27 -13 53 85 -83 -41 127
-110 -63 55 -72 8 -39 11 52
8 -10 -3 106 -94 -58 122 -121
-36 54 -52 -16 -29 7 48 -67
48 34 -13 29 3 8 -33 18
-76 77 27 -88 61 53 -15 49
33 -74 66 55 -40 -17 -16 -54
46 -50 -20 -18 1 -20 56 76
-31 -24 5 -61 -70 -79 -80 -69
-25 -11 -7 90 -75 90 113 -58
39 -42 15 15 6 16 46 -30
127 73 103 -13 85 32 -65 -42
-72 -10 -68 -72 60 -56 -21 108
20 66 -50 96 122 -72 47 21
-9 -63 -2 -6 -87 -114 126 47
-22 22 -38 -1 -53 -8 35 -47
-16 -35 33 -44 19 52 14 36
20 -44 -10 -50 -74 0 -8 -66
-19 81 10 38 127 -17 34 32
00000000: ee1b 0cb8 3f39 dbf0 dcfa e809 dde6 0d3b
00000010: 5949 f828 1ee4 db27 1e04 fdeb d4b6 4b0b
00000020: 0631 0c5d 241a 4af8 81d2 af82 9c44 df2d
00000030: 2431 6a14 6669 f102 03ab b98e cfdd befe
00000040: dc13 0854 3c0f 1f54 cff4 0cd3 340c f8f9
00000050: 14e6 1e0c f4ec 31f8 f819 e701 24f2 0802
00000060: 12e4 fce6 f923 eb16 0be5 f335 55ad d77f
00000070: 92c1 37b8 08d9 0b34 08f6 fd6a a2c6 7a87
00000080: dc36 ccf0 e307 30bd 3022 f31d 0308 df12
00000090: b44d 1ba8 3d35 f131 21b6 4237 d8ef f0ca
000000a0: 2ece ecee 01ec 384c e1e8 05c3 bab1 b0bb
000000b0: e7f5 f95a b55a 71c6 27d6 0f0f 0610 2ee2
000000c0: 7f49 67f3 5520 bfd6 b8f6 bcb8 3cc8 eb6c
000000d0: 1442 ce60 7ab8 2f15 f7c1 fefa a98e 7e2f
000000e0: ea16 daff cbf8 23d1 f0dd 21d4 1334 0e24
000000f0: 14d4 f6ce b600 f8be ed51 0a26 7fef 2220

model/batch_normalization_1/FusedBatchNormV3 i1 [32] scale=0.033916593 zero_point=-128
1.2549139 5.935404 2.238495 2.001079 0.9496646 2.238495 1.9332458 2.8150773
1.2209973 2.7133274 3.5273256 1.3566637 1.8654126 1.3905803 2.9846601 2.4759111
3.8325748 2.001079 1.0174978 3.5273256 3.2220764 8.648731 1.3566637 2.4080782
3.4255757 1.4923301 2.2724118 1.6958296 2.238495 1.7975794 3.08641 2.0349956
00000000: a52f c2bb 9cc2 b9d3 a4d0 e8a8 b7a9 d8c9
00000010: f1bb 9ee8 df7f a8c7 e5ac c3b2 c2b5 dbbc

model/batch_normalization_1/FusedBatchNormV31 i1 [32] scale=0.0043912684 zero_point=127
-0.85190606 -0.5049959 -0.6630815 -0.74651563 -0.2766499 -0.85190606 -0.5532998 -0.7333418
-0.7640807 -0.7509069 -0.6938204 -0.4435181 -0.90021 -0.6806466 -0.75529814 -0.67625535
-0.64551646 -0.7509069 -0.5357347 -0.5532998 -0.43912685 -0.6411252 -0.74651563 -1.0846432
-0.7728632 -0.8255584 -0.63234264 -0.8167759 -0.7245593 -0.64551646 -0.8255584 -1.1197734
00000000: bd0c e8d5 40bd 01d8 d1d4 e11a b2e4 d3e5
00000010: ecd4 0501 1bed d588 cfc3 efc5 daec c380

model/conv2d_1/Conv2D i1 [16, 3, 3, 32]
-39 -3 13 82 25 0 18 -55
-15 0 -79 2 12 -46 75 17
26 15 40 -31 -6 -25 -9 -25
15 2 25 -57 -16 -14 -52 28
63 -12 32 -24 36 -2 5 -5
-53 -21 -23 0 17 -24 -28 -50
-40 -40 -20 22 10 -56 41 11
-19 -45 -16 -57 -42 -28 -42 -70
24 15 27 6 18 0 -37 -43
-24 -7 45 33 -11 3 7 5
-88 -20 0 31 22 -54 -13 -4
-26 -18 -32 -12 17 26 19 54
7 0 -23 14 -79 -10 39 -41
42 11 -47 9 -11 -6 13 7
40 -13 9 -37 -25 -22 -58 -34
-9 -24 54 -25 14 2 -25 11
34 -42 17 -60 -41 18 24 -35
-38 -22 -53 13 23 2 16 20
-24 -12 -46 -109 -60 -1 -43 45
55 -16 39 -4 28 -12 -15 -25
-52 -18 -30 30 -4 5 -100 14
-10 -30 36 -26 -8 -26 -29 -18
-9 -41 -30 8 83 -64 -34 19
-2 -21 -41 3 33 8 -17 60
-14 8 -24 15 -51 23 55 -5
5 22 -54 -26 6 -8 35 -1
-10 46 -12 0 -11 26 -30 -31
19 10 23 12 -26 15 -4 -38
-23 29 -8 -35 -9 19 5 104
-1 23 17 32 18 -20 -8 15
-20 -20 -39 -6 6 26 -16 28
-19 50 16 -18 28 24 -24 15
00000000: d9fd 0d52 1900 12c9 f100 b102 0cd2 4b11
00000010: 1a0f 28e1 fae7 f7e7 0f02 19c7 f0f2 cc1c
00000020: 3ff4 20e8 24fe 05fb cbeb e900 11e8 e4ce
00000030: d8d8 ec16 0ac8 290b edd3 f0c7 d6e4 d6ba
00000040: 180f 1b06 1200 dbd5 e8f9 2d21 f503 0705
00000050: a8ec 001f 16ca f3fc e6ee e0f4 111a 1336
00000060: 0700 e90e b1f6 27d7 2a0b d109 f5fa 0d07
00000070: 28f3 09db e7ea c6de f7e8 36e7 0e02 e70b
00000080: 22d6 11c4 d712 18dd daea cb0d 1702 1014
00000090: e8f4 d293 c4ff d52d 37f0 27fc 1cf4 f1e7
000000a0: ccee e21e fc05 9c0e f6e2 24e6 f8e6 e3ee
000000b0: f7d7 e208 53c0 de13 feeb d703 2108 ef3c
000000c0: f208 e80f cd17 37fb 0516 cae6 06f8 23ff
000000d0: f62e f400 f51a e2e1 130a 170c e60f fcda
000000e0: e91d f8dd f713 0568 ff17 1120 12ec f80f
000000f0: ecec d9fa 061a f01c ed32 10ee 1c18 e80f

model/batch_normalization_2/FusedBatchNormV3 i1 [16] scale=0.0020587402 zero_point=-128
0.3891019 0.42204174 0.31498724 0.41586554 0.4138068 0.42615923 0.45909908 0.3335159
0.32322222 0.28410617 0.43027672 0.39527813 0.52497876 0.3685145 0.3417509 0.34586835
00000000: 3d4d 194a 494f 5f22 1d0a 5140 7f33 2628

model/batch_normalization_2/FusedBatchNormV31 i1 [16] scale=0.004206233 zero_point=127
-0.71505964 -1.0725895 -0.559429 -0.6183163 -0.47951058 -0.9169588 -0.63093495 -0.69823474
-0.45006695 -0.8748965 -0.84545285 -0.82021546 -0.7781531 -0.58466643 -0.504748 -0.6351412
00000000: d580 faec 0da5 e9d9 14af b6bc c6f4 07e8

model/conv2d_2/Conv2D i1 [32, 3, 3, 16]
5 37 -13 -23 -54 17 14 4
-1 6 45 -6 -23 14 -16 -11
25 15 -84 12 -29 10 -33 -2
-29 -51 41 33 9 -11 -12 -37
-24 -27 -3 -27 -53 26 0 -29
-25 -37 17 -21 7 -20 -44 -12
-22 2 2 23 10 -32 -4 10
-4 12 10 -39 24 22 14 -1
26 4 -13 32 15 -127 -9 39
-17 4 -74 -3 29 -8 29 -14
-49 20 4 -23 -4 -17 -3 1
-5 -22 -46 -12 3 -10 7 4
-60 -14 5 23 10 15 6 -6
-10 -6 -16 -45 23 -27 -5 -37
-40 1 -6 11 -15 -2 -45 -11
-1 -14 -25 -11 10 -2 22 -52
-34 -32 -22 -19 11 13 -15 -34
6 -37 14 23 12 20 -10 19
-9 -28 21 -62 -9 -38 38 61
25 -38 21 -12 7 10 21 30
-37 21 -7 6 -2 -35 -7 1
-11 10 -4 5 -16 -38 46 12
27 -10 51 -1 -50 -32 1 -11
27 -41 19 -38 60 38 83 2
68 26 -7 -2 -6 10 18 22
1 2 -15 63 -75 34 23 -54
31 -14 -16 -38 -10 -30 -14 -33
7 -54 -28 5 -50 -20 -33 18
-43 88 -23 -30 -3 2 -26 -27
-24 -117 -29 -56 67 46 63 -4
-42 -28 71 127 107 4 13 10
64 56 25 -31 39 66 19 63
00000000: 0525 f3e9 ca11 0e04 ff06 2dfa e90e f0f5
00000010: 190f ac0c e30a dffe e3cd 2921 09f5 f4db
00000020: e8e5 fde5 cb1a 00e3 e7db 11eb 07ec d4f4
00000030: ea02 0217 0ae0 fc0a fc0c 0ad9 1816 0eff
00000040: 1a04 f320 0f81 f727 ef04 b6fd 1df8 1df2
00000050: cf14 04e9 fcef fd01 fbea d2f4 03f6 0704
00000060: c4f2 0517 0a0f 06fa f6fa f0d3 17e5 fbdb
00000070: d801 fa0b f1fe d3f5 fff2 e7f5 0afe 16cc
00000080: dee0 eaed 0b0d f1de 06db 0e17 0c14 f613
00000090: f7e4 15c2 f7da 263d 19da 15f4 070a 151e
000000a0: db15 f906 fedd f901 f50a fc05 f0da 2e0c
000000b0: 1bf6 33ff cee0 01f5 1bd7 13da 3c26 5302
000000c0: 441a f9fe fa0a 1216 0102 f13f b522 17ca
000000d0: 1ff2 f0da f6e2 f2df 07ca e405 ceec df12
000000e0: d558 e9e2 fd02 e6e5 e88b e3c8 432e 3ffc
000000f0: d6e4 477f 6b04 0d0a 4038 19e1 2742 133f

model/batch_normalization_3/FusedBatchNormV3 i1 [32] scale=0.003187626 zero_point=-128
0.52277064 0.3697646 0.30282447 0.35382646 0.74590445 0.46858102 0.81284463 0.31557497
0.33470073 0.32832548 0.6757767 0.3952656 0.36657697 0.45901814 0.31557497 0.27732345
0.5928984 0.5291459 0.3315131 0.46858102 0.31238735 0.32513785 0.596086 0.41439137
0.42395425 0.6152118 0.36020172 0.3315131 0.36657697 0.2964492 0.7618426 0.44945526
00000000: 24f4 dfef 6a13 7fe3 e9e7 54fc f310 e3d7
00000010: 3a26 e813 e2e6 3b02 0541 f1e8 f3dd 6f0d

model/batch_normalization_3/FusedBatchNormV31 i1 [32] scale=0.0026344939 zero_point=127
-0.5637817 -0.37146363 -0.5084573 -0.421519 -0.5189953 -0.40834656 -0.45840192 -0.59012663
-0.57958865 -0.58485764 -0.55060923 -0.48738137 -0.5611472 -0.2634494 -0.47947788 -0.67179596
-0.27662185 -0.5216298 -0.49001586 -0.4715744 -0.5585127 -0.57958865 -0.3424842 -0.5637817
-0.48211238 -0.18968356 -0.32140824 -0.5374367 -0.57431966 -0.48211238 -0.48738137 -0.5110918
00000000: a9f2 bedf bae4 d19f a3a1 aec6 aa1b c980
00000010: 16b9 c5cc aba3 fda9 c837 05b3 a5c8 c6bd

model/dense/MatMul i1 [128, 128] scale=0.0045105307 zero_point=0
-0.13531592 -0.06314743 0.027063183 0.14884752 0.17140017 -0.09021062 -0.18493176 0.0586369
0.06765796 -0.06314743 0.013531592 0.07667902 -0.19846335 0.18493176 0.027063183 -0.15786858
0.1172738 0.1172738 0.06314743 0.08570009 0.018042123 -0.09021062 -0.18042123 -0.04510531
-0.21650547 0.07667902 -0.12178433 -0.027063183 -0.094721146 -0.1759107 0.07667902 -0.2796529
-0.221016 -0.07667902 -0.17140017 -0.036084246 0.04510531 -0.08118955 0.12178433 0.018042123
-0.027063183 -0.08118955 -0.0090210615 0.0045105307 0.23905812 -0.3563319 -0.1172738 -0.031573717
-0.040594775 -0.013531592 -0.08118955 -0.103742205 0.19395283 0.08118955 -0.21199495 0.20748441
-0.27063185 -0.094721146 -0.13080539 0.018042123 -0.09021062 -0.08118955 -0.0090210615 0.027063183
0.15786858 -0.018042123 -0.103742205 0.07667902 -0.013531592 -0.0090210615 0.13080539 0.1172738
-0.14884752 -0.04510531 -0.0045105307 -0.0586369 -0.022552654 -0.09021062 0.0090210615 0.108252734
0.20297389 0.32024768 0.1759107 -0.027063183 -0.23003706 -0.0090210615 0.3112266 -0.24356866
0.0586369 -0.2480792 0.036084246 -0.12178433 -0.13982645 0.103742205 -0.07216849 -0.13080539
0.07216849 -0.040594775 0.108252734 0.0045105307 0.15786858 -0.013531592 0.031573717 0.049615838
-0.08570009 0.027063183 -0.1759107 -0.049615838 0.21650547 -0.20297389 -0.1172738 -0.0090210615
0.1623791 0.108252734 0.054126367 0.14884752 -0.20297389 0.049615838 -0.06314743 -0.27514237
-0.06765796 -0.20297389 -0.103742205 -0.036084246 -0.022552654 0.022552654 -0.23003706 0.06765796
0.15786858 -0.11276327 -0.06765796 -0.018042123 -0.06314743 0.094721146 -0.12629487 -0.20297389
-0.0045105307 0.08118955 0.027063183 0.04510531 0.25710025 -0.24356866 -0.0090210615 -0.12629487
0.027063183 -0.036084246 0.16688964 -0.054126367 -0.15335804 0.0045105307 -0.18042123 -0.0045105307
0.036084246 0.12629487 -0.094721146 -0.12178433 -0.13531592 0.031573717 -0.06314743 -0.13531592
-0.06765796 -0.018042123 -0.1623791 0.031573717 -0.0045105307 -0.018042123 0.094721146 -0.031573717
0.031573717 0.15786858 -0.040594775 -0.12629487 -0.099231675 -0.31573716 -0.06314743 0.04510531
-0.12629487 0.036084246 0.04510531 -0.027063183 -0.14433698 -0.07216849 -0.12629487 -0.027063183
0.06314743 -0.09021062 -0.09021062 -0.34280035 0.13982645 0.022552654 0.049615838 0.018042123
0.040594775 -0.07667902 -0.06314743 -0.09021062 -0.06765796 -0.1172738 0.022552654 0.049615838
0.13080539 -0.07667902 -0.21650547 0.18042123 0.094721146 -0.07216849 0.022552654 -0.094721146
0.022552654 -0.040594775 -0.07667902 0.018042123 0.054126367 0.022552654 0.027063183 -0.1759107
-0.13982645 -0.040594775 0.06314743 0.0090210615 -0.06765796 -0.09021062 -0.0586369 -0.054126367
0.013531592 -0.20297389 0.13080539 -0.04510531 0.07667902 0.17140017 0.103742205 0.049615838
-0.0045105307 0.031573717 -0.040594775 -0.022552654 -0.07667902 0.049615838 -0.103742205 0.04510531
-0.13080539 0.0045105307 0.1172738 0.1172738 0.018042123 -0.1172738 -0.031573717 0.1172738
0.08570009 -0.16688964 -0.16688964 0.018042123 -0.054126367 0.1623791 -0.2931845 0.06314743
00000000: e2f2 0621 26ec d70d 0ff2 0311 d429 06dd
00000010: 1a1a 0e13 04ec d8f6 d011 e5fa ebd9 11c2
00000020: cfef daf8 0aee 1b04 faee fe01 35b1 e6f9
00000030: f7fd eee9 2b12 d12e c4eb e304 ecee fe06
00000040: 23fc e911 fdfe 1d1a dff6 fff3 fbec 0218
00000050: 2d47 27fa cdfe 45ca 0dc9 08e5 e117 f0e3
00000060: 10f7 1801 23fd 070b ed06 d9f5 30d3 e6fe
00000070: 2418 0c21 d30b f2c3 f1d3 e9f8 fb05 cd0f
00000080: 23e7 f1fc f215 e4d3 ff12 060a 39ca fee4
00000090: 06f8 25f4 de01 d8ff 081c ebe5 e207 f2e2
000000a0: f1fc dc07 fffc 15f9 0723 f7e4 eaba f20a
000000b0: e408 0afa e0f0 e4fa 0eec ecb4 1f05 0b04
000000c0: 09ef f2ec f1e6 050b 1def d028 15f0 05eb
000000d0: 05f7 ef04 0c05 06d9 e1f7 0e02 f1ec f3f4
000000e0: 03d3 1df6 1126 170b ff07 f7fb ef0b e90a
000000f0: e301 1a1a 04e6 f91a 13db db04 f424 bf0e

model/dense_1/MatMul i1 [64, 128] scale=0.0047938675 zero_point=0
-0.13422829 0.2205179 -0.11505282 0.01917547 0.052732542 0.15819763 -0.10067122 -0.23010564
0.10067122 -0.16778536 -0.14381602 -0.07190801 -0.1917547 0.13422829 -0.2205179 -0.062320277
-0.17257923 0.10067122 -0.05752641 0.11984669 -0.21572404 0.105465084 -0.023969337 -0.014381602
-0.07190801 -0.07190801 0.15819763 0.08149575 0.07190801 -0.0047938675 0.043144807 -0.01917547
0.086289614 -0.11984669 0.11984669 0.01917547 -0.028763205 -0.13902216 0.1629915 0.10067122
-0.105465084 -0.105465084 -0.03835094 -0.2205179 -0.07670188 0.19654857 0.09587735 0.014381602
-0.14381602 0.07670188 -0.067114145 0.11984669 0.014381602 0.17257923 0.30201364 0.03835094
-0.047938675 -0.043144807 -0.18696083 0.052732542 0.0047938675 -0.028763205 -0.12943442 0.15340376
-0.1773731 0.07670188 0.0047938675 0.009587735 -0.21572404 0.13422829 -0.03835094 0.028763205
-0.07190801 -0.105465084 -0.20134243 0.03835094 0.03835094 0.13422829 -0.047938675 -0.38830328
-0.067114145 -0.047938675 -0.09108348 0.105465084 0.01917547 0.023969337 -0.062320277 0.105465084
0.047938675 -0.09108348 -0.2205179 0.01917547 -0.14860989 0.033557072 -0.105465084 -0.11505282
-0.13422829 0.16778536 -0.12943442 -0.01917547 -0.14381602 -0.13902216 -0.19654857 -0.028763205
0.014381602 -0.03835094 -0.13902216 -0.07670188 -0.18696083 0.009587735 -0.043144807 -0.086289614
-0.10067122 -0.14860989 -0.124640554 -0.18696083 0.043144807 0.07190801 0.014381602 -0.01917547
-0.28283817 -0.047938675 -0.23969337 -0.033557072 -0.014381602 0.009587735 0.08149575 -0.014381602
0.062320277 0.086289614 -0.1917547 -0.009587735 -0.17257923 -0.052732542 0.15340376 0.043144807
-0.17257923 -0.07190801 -0.009587735 -0.12943442 -0.014381602 0.047938675 -0.15340376 0.11025895
0.10067122 0.03835094 0.07670188 -0.1917547 -0.0047938675 -0.047938675 -0.01917547 -0.03835094
0.13902216 -0.10067122 -0.105465084 0.086289614 -0.14381602 -0.14381602 -0.18696083 -0.014381602
0.124640554 -0.052732542 0.07670188 -0.20134243 0.14381602 -0.09587735 -0.047938675 -0.17257923
0.0 0.043144807 -0.09108348 -0.03835094 -0.1773731 -0.09108348 -0.0047938675 0.15340376
-0.009587735 -0.052732542 0.13422829 0.009587735 -0.028763205 0.086289614 -0.16778536 -0.067114145
-0.15819763 -0.062320277 0.047938675 -0.086289614 -0.10067122 -0.023969337 -0.07670188 0.03835094
-0.062320277 -0.023969337 0.033557072 0.033557072 -0.11505282 0.009587735 -0.13422829 0.052732542
-0.07190801 0.067114145 -0.11984669 -0.12943442 0.067114145 -0.067114145 0.014381602 0.0047938675
0.105465084 -0.08149575 -0.052732542 0.105465084 -0.11505282 0.05752641 -0.0047938675 0.124640554
-0.14860989 0.07190801 -0.18696083 0.13902216 -0.1917547 0.009587735 -0.067114145 0.052732542
-0.067114145 -0.11505282 -0.0047938675 0.01917547 -0.086289614 0.05752641 0.033557072 0.01917547
-0.22531177 0.052732542 -0.14381602 -0.043144807 -0.15819763 -0.028763205 -0.11505282 -0.033557072
0.014381602 0.052732542 -0.11984669 -0.2061363 -0.15340376 -0.105465084 -0.1773731 -0.028763205
0.09108348 0.05752641 0.124640554 -0.15340376 -0.05752641 -0.1917547 -0.03835094 -0.009587735
00000000: e42e e804 0b21 ebd0 15dd e2f1 d81c d2f3
00000010: dc15 f419 d316 fbfd f1f1 2111 0fff 09fc
00000020: 12e7 1904 fae3 2215 eaea f8d2 f029 1403
00000030: e210 f219 0324 3f08 f6f7 d90b 01fa e520
00000040: db10 0102 d31c f806 f1ea d608 081c f6af
00000050: f2f6 ed16 0405 f316 0aed d204 e107 eae8
00000060: e423 e5fc e2e3 d7fa 03f8 e3f0 d902 f7ee
00000070: ebe1 e6d9 090f 03fc c5f6 cef9 fd02 11fd
00000080: 0d12 d8fe dcf5 2009 dcf1 fee5 fd0a e017
00000090: 1508 10d8 fff6 fcf8 1deb ea12 e2e2 d9fd
000000a0: 1af5 10d6 1eec f6dc 0009 edf8 dbed ff20
000000b0: fef5 1c02 fa12 ddf2 dff3 0aee ebfb f008
000000c0: f3fb 0707 e802 e40b f10e e7e5 0ef2 0301
000000d0: 16ef f516 e80c ff1a e10f d91d d802 f20b
000000e0: f2e8 ff04 ee0c 0704 d10b e2f7 dffa e8f9
000000f0: 030b e7d5 e0ea dbfa 130c 1ae0 f4d8 f8fe

model/dense_2/MatMul i1 [2, 64] scale=0.0021908975 zero_point=0
-0.019718077 0.06572692 0.15993552 -0.11611757 0.24976231 -0.09420859 -0.19279897 0.0065726927
-0.041627053 -0.10954487 0.041627053 -0.096399486 -0.18403539 0.1752718 -0.050390642 0.06572692
-0.072299615 0.09420859 0.09420859 0.21032616 0.13145384 -0.05258154 0.21251705 0.07010872
0.046008848 -0.030672565 -0.013145385 0.09420859 0.067917824 -0.004381795 0.0810632 -0.15993552
0.13583565 0.0065726927 -0.021908974 0.20156257 -0.14679013 0.11611757 0.10735398 -0.19718078
-0.13583565 0.06572692 -0.03505436 0.18403539 -0.18622628 -0.030672565 0.13364474 -0.041627053
0.12707205 -0.039436154 0.10297218 -0.056963336 0.03286346 0.03724526 -0.07010872 -0.04381795
-0.0876359 0.041627053 -0.278244 -0.07887231 0.041627053 -0.08325411 -0.20813526 0.03724526
0.092017695 -0.24099872 -0.10516308 0.20594436 0.18622628 -0.13364474 0.02629077 0.041627053
-0.09859039 0.046008848 -0.06572692 0.26948038 -0.00876359 0.06134513 0.06572692 0.0810632
-0.14679013 0.22128065 0.05258154 -0.23223513 0.072299615 -0.23661692 -0.072299615 0.12926295
0.12926295 -0.15774462 -0.06134513 -0.13802654 -0.11611757 0.085445 -0.067917824 -0.14240834
0.16650821 0.046008848 -0.03286346 0.085445 -0.019718077 0.12049936 0.0 -0.004381795
-0.028481668 -0.11173577 0.10516308 0.12926295 0.12049936 0.11830846 0.010954487 0.030672565
-0.02629077 0.05915423 0.02629077 -0.06572692 -0.100781284 0.02629077 0.13145384 -0.14898103
0.2672895 0.041627053 0.046008848 -0.013145385 -0.048199743 -0.050390642 -0.050390642 0.013145385
00000000: f71e 49cb 72d5 a803 edce 13d4 ac50 e91e
00000010: df2b 2b60 3ce8 6120 15f2 fa2b 1ffe 25b7
00000020: 3e03 f65c bd35 31a6 c21e f054 abf2 3ded
00000030: 3aee 2fe6 0f11 e0ec d813 81dc 13da a111
00000040: 2a92 d05e 55c3 0c13 d315 e27b fc1c 1e25
00000050: bd65 1896 2194 df3b 3bb8 e4c1 cb27 e1bf
00000060: 4c15 f127 f737 00fe f3cd 303b 3736 050e
00000070: f41b 0ce2 d20c 3cbc 7a13 15fa eae9 e906
