sd-card/config/ana-class100_0169_s1_q.tflite (tflite, 133784 bytes, 17 tensors)

model_1/dense_1/MatMul i1 [100, 32] scale=0.0059322775 zero_point=0
00000000: e6c2 8924 0616 0b11 bed2 b7c7 21af 04c0
00000010: 2027 2ad3 c6ce eebc ad0d a91c 2110 34d3
00000020: 00cb 89f9 d316 11fb d8bc 97a8 20a3 d9a7
00000030: 2c19 0206 b8d1 f4b9 b3f2 e122 0624 38e0
00000040: d7b5 a9d6 ec04 140b c9b6 99af 19be a8b1
00000050: 2f29 cdde b7d0 ebdc afd8 e61a fc2d 35ac
00000060: d7ac def7 16f9 0bfc ccc2 a8b5 0ec6 94d6
00000070: 262a aa07 aede e2fd bbaf f325 d537 38c4
00000080: bea8 f10c 2ab7 0dfc bbb9 bcc6 efee a1d9
00000090: 2729 b0dc c2bc cf12 bdb9 0716 fb30 29b0
000000a0: b5ca 001a 32ca 05fa c8d9 afde cf0a bef9
000000b0: 201d afee e7db aa14 b6aa ec1d 1433 22aa
000000c0: cdf9 0525 3501 0e14 c2c5 c6df b910 c9e7
000000d0: 2115 b5c1 00d3 a81a c2b4 f311 1c2d 13b8
000000e0: d113 fe28 2f15 1019 bbbb c5dc a316 bfdd
000000f0: 1d0d bea7 0ec1 b020 dec2 f605 182b f3d6
-0.15423922 -0.36780122 -0.705941 0.213562 0.035593666 0.1305101 0.06525505 0.10084872
-0.3915303 -0.27288476 -0.43305627 -0.33813983 0.19576515 -0.48051447 0.02372911 -0.37966576
0.18983288 0.23135883 0.24915566 -0.26695248 -0.3440721 -0.29661387 -0.106781 -0.40339488
-0.49237904 0.07711961 -0.51610816 0.16610377 0.19576515 0.09491644 0.30847844 -0.26695248
0.0 -0.31441072 -0.705941 -0.04152594 -0.26695248 0.1305101 0.10084872 -0.029661387
-0.2372911 -0.40339488 -0.62288916 -0.5220404 0.18983288 -0.5517018 -0.23135883 -0.5279727
0.2610202 0.14830694 0.011864555 0.035593666 -0.427124 -0.27881706 -0.07118733 -0.4211917
-0.45678538 -0.08305188 -0.18390061 0.20169744 0.035593666 0.213562 0.33220753 -0.18983288
-0.24322338 -0.4449208 -0.51610816 -0.24915566 -0.11864555 0.02372911 0.11864555 0.06525505
-0.32627526 -0.43898854 -0.61102456 -0.48051447 0.14830694 -0.3915303 -0.5220404 -0.46864992
0.27881706 0.24322338 -0.30254614 -0.20169744 -0.43305627 -0.28474933 -0.12457783 -0.213562
-0.48051447 -0.2372911 -0.15423922 0.15423922 -0.02372911 0.26695248 0.31441072 -0.4983113
-0.24322338 -0.4983113 -0.20169744 -0.0533905 0.1305101 -0.04152594 0.06525505 -0.02372911
-0.30847844 -0.36780122 -0.5220404 -0.4449208 0.08305188 -0.3440721 -0.640686 -0.24915566
0.22542654 0.24915566 -0.5101759 0.04152594 -0.48644677 -0.20169744 -0.17796832 -0.017796833
-0.40932715 -0.48051447 -0.07711961 0.21949427 -0.25508794 0.32627526 0.33220753 -0.35593665
-0.3915303 -0.5220404 -0.08898416 0.07118733 0.24915566 -0.43305627 0.07711961 -0.02372911
-0.40932715 -0.4211917 -0.40339488 -0.3440721 -0.10084872 -0.106781 -0.5635664 -0.23135883
0.23135883 0.24322338 -0.4745822 -0.213562 -0.36780122 -0.40339488 -0.2906816 0.106781
-0.3974626 -0.4211917 0.04152594 0.1305101 -0.029661387 0.28474933 0.24322338 -0.4745822
-0.4449208 -0.320343 0.0 0.15423922 0.29661387 -0.320343 0.029661387 -0.035593666
-0.33220753 -0.23135883 -0.48051447 -0.20169744 -0.2906816 0.059322774 -0.3915303 -0.04152594
0.18983288 0.17203605 -0.48051447 -0.106781 -0.14830694 -0.21949427 -0.5101759 0.11864555
-0.43898854 -0.5101759 -0.11864555 0.17203605 0.11864555 0.30254614 0.20169744 -0.5101759
-0.30254614 -0.04152594 0.029661387 0.21949427 0.31441072 0.0059322775 0.08305188 0.11864555
-0.36780122 -0.35000437 -0.3440721 -0.19576515 -0.4211917 0.09491644 -0.32627526 -0.14830694
0.19576515 0.12457783 -0.4449208 -0.3737335 0.0 -0.26695248 -0.5220404 0.15423922
-0.36780122 -0.45085308 -0.07711961 0.10084872 0.16610377 0.26695248 0.11271327 -0.427124
-0.27881706 0.11271327 -0.011864555 0.2372911 0.27881706 0.12457783 0.09491644 0.14830694
-0.40932715 -0.40932715 -0.35000437 -0.213562 -0.5517018 0.1305101 -0.38559803 -0.20762971
0.17203605 0.07711961 -0.3915303 -0.5279727 0.08305188 -0.3737335 -0.4745822 0.18983288
-0.20169744 -0.36780122 -0.059322774 0.029661387 0.14237466 0.25508794 -0.07711961 -0.24915566

model_1/batch_normalization_11/FusedBatchNormV31 i1 [32] scale=0.011950844 zero_point=127
00000000: eea6 dda9 e3ee d5e1 e2e5 e298 c6b4 cd80
00000010: cec1 b1bf 010a c6ae c5ce e1cc b9c7 d2d2
-1.7328724 -2.5933332 -1.9360367 -2.5574806 -1.8643316 -1.7328724 -2.0316434 -1.8882333
-1.8762825 -1.84043 -1.8762825 -2.760645 -2.210906 -2.4260213 -2.1272502 -3.0474653
-2.1152995 -2.2706604 -2.4618738 -2.294562 -1.5058063 -1.3982488 -2.210906 -2.4977264
-2.222857 -2.1152995 -1.8882333 -2.1392012 -2.3662672 -2.1989553 -2.067496 -2.067496

model_1/batch_normalization_11/FusedBatchNormV3 i1 [32] scale=0.009831958 zero_point=-128
00000000: 4f60 267f 494a 5159 1f4a 4967 2c5b 6d67
00000010: 6459 6842 4126 4160 7042 3148 3b64 5a36
2.0352154 2.2023587 1.6321051 2.5071495 1.9762237 1.9860556 2.0548794 2.133535
1.5632814 1.9860556 1.9762237 2.2711823 1.6910969 2.153199 2.3301742 2.2711823
2.2416866 2.133535 2.2810144 1.9073999 1.897568 1.6321051 1.897568 2.2023587
2.35967 1.9073999 1.7402567 1.9663917 1.8385762 2.2416866 2.143367 1.7894164

model_1/conv2d_11/Conv2D i1 [32, 3, 3, 32]
00000000: 0f37 2f07 05f5 f40c dc01 1698 c206 0ff4
00000010: ef0d 1404 13f7 ecf5 3113 d2fc 1de1 f3c2
00000020: fdf0 edea d6eb f81b dd0c d125 db0c f941
00000030: ffbb 2ee0 d40d e20e deec 0712 1de9 f1c0
00000040: f2eb b9ea 191a 35dd 0e19 1d81 fc11 fff3
00000050: bbcb efc6 04d3 00cc 1df6 d029 11f1 dcf2
00000060: 0c2a 0717 0afa 21dc e71f f526 b923 aae7
00000070: c102 0023 0c05 3fe3 e702 e9ed 132a eaf5
00000080: 1314 27f0 d4ec 030f d700 25d5 1eef 1de8
00000090: f2e0 05c1 d9e9 ea0a e3e4 f3e8 c10b 3b1d
000000a0: 1709 f103 11fb 17e8 e4e2 eaf5 1ccc 4b25
000000b0: fecb 09f5 dfbc f40b f7d7 bfc9 d9cd d8e5
000000c0: 0acd ee02 d9fd 2303 f50f e21d c819 0fe5
000000d0: e5c4 fb17 d500 f416 2235 dae6 2702 f727
000000e0: 24ef f13a e7c9 0bc2 0c30 db18 d7f4 ebe2
000000f0: b1e4 fd26 e103 e4ff 3b0a c3f4 28f9 fa15
15 55 47 7 5 -11 -12 12
-36 1 22 -104 -62 6 15 -12
-17 13 20 4 19 -9 -20 -11
49 19 -46 -4 29 -31 -13 -62
-3 -16 -19 -22 -42 -21 -8 27
-35 12 -47 37 -37 12 -7 65
-1 -69 46 -32 -44 13 -30 14
-34 -20 7 18 29 -23 -15 -64
-14 -21 -71 -22 25 26 53 -35
14 25 29 -127 -4 17 -1 -13
-69 -53 -17 -58 4 -45 0 -52
29 -10 -48 41 17 -15 -36 -14
12 42 7 23 10 -6 33 -36
-25 31 -11 38 -71 35 -86 -25
-63 2 0 35 12 5 63 -29
-25 2 -23 -19 19 42 -22 -11
19 20 39 -16 -44 -20 3 15
-41 0 37 -43 30 -17 29 -24
-14 -32 5 -63 -39 -23 -22 10
-29 -28 -13 -24 -63 11 59 29
23 9 -15 3 17 -5 23 -24
-28 -30 -22 -11 28 -52 75 37
-2 -53 9 -11 -33 -68 -12 11
-9 -41 -65 -55 -39 -51 -40 -27
10 -51 -18 2 -39 -3 35 3
-11 15 -30 29 -56 25 15 -27
-27 -60 -5 23 -43 0 -12 22
34 53 -38 -26 39 2 -9 39
36 -17 -15 58 -25 -55 11 -62
12 48 -37 24 -41 -12 -21 -30
-79 -28 -3 38 -31 3 -28 -1
59 10 -61 -12 40 -7 -6 21

model_1/batch_normalization_10/FusedBatchNormV31 i1 [32] scale=0.0028008036 zero_point=127
00000000: 0d2c 4420 80d3 aef0 b9fb cce5 ba52 d60f
00000010: d302 f3d1 e8fa 9ae1 ccdf b9f0 33cd 43cf
-0.31929162 -0.2324667 -0.16524741 -0.26607636 -0.7142049 -0.4817382 -0.585368 -0.40051493
-0.5545591 -0.3697061 -0.50134385 -0.43132377 -0.5517583 -0.12603617 -0.4733358 -0.31369
-0.4817382 -0.35010046 -0.3921125 -0.48733982 -0.42292136 -0.3725069 -0.641384 -0.44252697
-0.50134385 -0.44812858 -0.5545591 -0.40051493 -0.21286108 -0.49854305 -0.16804822 -0.49294144

model_1/batch_normalization_10/FusedBatchNormV3 i1 [32] scale=0.0013423045 zero_point=-128
00000000: 537d 7654 161e fe3a 2d3e 2226 224a 265a
00000010: 0003 4629 252e 2114 0e46 1839 7f41 481b
0.28322625 0.33960304 0.3302069 0.28456855 0.20134568 0.21208411 0.16913037 0.24966864
0.23221868 0.25503784 0.21745333 0.22282255 0.21745333 0.27114552 0.22282255 0.2926224
0.17181498 0.1758419 0.2657763 0.22684947 0.22148025 0.23356098 0.21611103 0.19866107
0.19060723 0.2657763 0.20403029 0.24832633 0.34228766 0.25906476 0.2684609 0.2080572

model_1/conv2d_10/Conv2D i1 [32, 3, 3, 64]
00000000: cf00 00f3 ddde e0de f3fc d732 10f6 b0e8
00000010: dd18 becb e7e4 cad6 d5f7 d4f7 edf9 d118
00000020: ff05 ead2 c216 d1ef cb13 c9ec 03e1 fae8
00000030: e3ca dfe9 01fb ca21 f3eb cde4 e40f 10fe
00000040: d3ee ee02 edf5 ffc6 02e9 cfce 0ade f1d5
00000050: e4e8 f4ca d5f2 f4e9 04d7 fd0e ded6 cce1
00000060: eef6 f3bb fde0 04d7 ead8 02e9 e1b8 f4e0
00000070: 0abc ddc5 d0c9 daea b813 d2f4 ede6 c0ed
00000080: ca07 ffe1 ed08 f504 02fb 05e6 f8e1 11f7
00000090: 05f1 eee0 ebf0 f1fc 01e9 feed 040c e6e0
000000a0: faee fdfa d303 fe10 f6e3 e5ec 22f0 1ade
000000b0: e20a fc11 060b 1504 0604 140d 00ef 06f1
000000c0: 0c02 e8fe 19d0 0438 bd0d 0e0d eeaa f3e7
000000d0: c7be 0a07 1a3c f127 c001 00f4 18ec 2ee7
000000e0: d3f9 391b bf55 dc07 01e5 300d eb50 3424
000000f0: e021 fc18 dff9 1410 2f14 e150 f613 92c4
-49 0 0 -13 -35 -34 -32 -34
-13 -4 -41 50 16 -10 -80 -24
-35 24 -66 -53 -25 -28 -54 -42
-43 -9 -44 -9 -19 -7 -47 24
-1 5 -22 -46 -62 22 -47 -17
-53 19 -55 -20 3 -31 -6 -24
-29 -54 -33 -23 1 -5 -54 33
-13 -21 -51 -28 -28 15 16 -2
-45 -18 -18 2 -19 -11 -1 -58
2 -23 -49 -50 10 -34 -15 -43
-28 -24 -12 -54 -43 -14 -12 -23
4 -41 -3 14 -34 -42 -52 -31
-18 -10 -13 -69 -3 -32 4 -41
-22 -40 2 -23 -31 -72 -12 -32
10 -68 -35 -59 -48 -55 -38 -22
-72 19 -46 -12 -19 -26 -64 -19
-54 7 -1 -31 -19 8 -11 4
2 -5 5 -26 -8 -31 17 -9
5 -15 -18 -32 -21 -16 -15 -4
1 -23 -2 -19 4 12 -26 -32
-6 -18 -3 -6 -45 3 -2 16
-10 -29 -27 -20 34 -16 26 -34
-30 10 -4 17 6 11 21 4
6 4 20 13 0 -17 6 -15
12 2 -24 -2 25 -48 4 56
-67 13 14 13 -18 -86 -13 -25
-57 -66 10 7 26 60 -15 39
-64 1 0 -12 24 -20 46 -25
-45 -7 57 27 -65 85 -36 7
1 -27 48 13 -21 80 52 36
-32 33 -4 24 -33 -7 20 16
47 20 -31 80 -10 19 -110 -60

model_1/batch_normalization_9/FusedBatchNormV31 i1 [64] scale=0.0050629224 zero_point=127
00000000: 80df ada9 9ec3 97af 9da5 c4ae bc94 b3e3
00000010: d0a9 b1be d0c2 9fc9 b7c6 c0b7 9fac a7ac
00000020: b8a3 be84 c6ab c3b2 c280 97c6 bcb0 c7c1
00000030: c4bd c3c8 d39f b7a1 9aa3 aac2 c4d1 c0dc
-1.2910452 -0.8100676 -1.0632137 -1.0834653 -1.1391575 -0.95182943 -1.174598 -1.0530878
-1.1442205 -1.1037171 -0.9467665 -1.0581508 -0.9872699 -1.1897868 -1.0328362 -0.7898159
-0.8860114 -1.0834653 -1.042962 -0.977144 -0.8860114 -0.9568923 -1.1340946 -0.92145187
-1.0125844 -0.9366406 -0.9670182 -1.0125844 -1.1340946 -1.0682766 -1.0935912 -1.0682766
-1.0075215 -1.113843 -0.977144 -1.2707936 -0.9366406 -1.0733396 -0.95182943 -1.0378991
-0.9568923 -1.2910452 -1.174598 -0.9366406 -0.9872699 -1.0480249 -0.93157774 -0.96195525
-0.9467665 -0.98220694 -0.95182943 -0.9265148 -0.87082267 -1.1340946 -1.0125844 -1.1239687
-1.1594092 -1.113843 -1.0784025 -0.9568923 -0.9467665 -0.8809485 -0.9670182 -0.82525635

model_1/batch_normalization_9/FusedBatchNormV3 i1 [64] scale=0.0021972293 zero_point=-128
00000000: 2c69 3e41 2f4b 0f1a 3e45 2832 0b55 2354
00000010: 7d2c 3f37 735b 4e45 1931 2928 3c4c 3740
00000020: 3077 3a22 127f 2b1c 0216 2a47 661c 5b29
00000030: 0d2e 2c44 4e36 2954 2e1d 244e 773e 484d
0.37792343 0.5119544 0.41747355 0.42406526 0.38451514 0.44603756 0.3142038 0.3383733
0.41747355 0.43285418 0.36913452 0.3911068 0.3054149 0.46800983 0.35814837 0.46581262
0.555899 0.37792343 0.4196708 0.40209296 0.5339267 0.4811932 0.45262924 0.43285418
0.3361761 0.38890958 0.37133175 0.36913452 0.4130791 0.44823477 0.40209296 0.42186803
0.38671237 0.5427156 0.40868464 0.35595116 0.32079548 0.5602935 0.37572622 0.34276778
0.28563982 0.3295844 0.373529 0.43724862 0.50536275 0.34276778 0.4811932 0.37133175
0.30980933 0.3823179 0.37792343 0.43065694 0.45262924 0.39989573 0.37133175 0.46581262
0.3823179 0.344965 0.3603456 0.45262924 0.5427156 0.41747355 0.43944585 0.450432

model_1/conv2d_9/Conv2D i1 [64, 3, 3, 64]
00000000: 0526 0feb f4e3 e10c d83f fee5 4808 0c01
00000010: 27ee 0805 e6e1 23c7 fefd 1235 f8e1 f7c4
00000020: 09f1 e2ed f6d1 23eb 11f0 1317 cffc 3ef2
00000030: e7e8 401c ccb0 19cf 0e41 f9b7 19f4 eefa
00000040: 3ef0 1cf9 e9e6 172c 0ccc 20e7 43e6 1717
00000050: 0cc5 174a e7d0 04e2 28e8 1ff9 dcd8 ede5
00000060: f8fc 30f1 bbd7 0e1c 3be1 f7c4 06fb 26a5
00000070: 08d6 00ff 2e5d 24d1 0fef 15de 331c 1aef
00000080: 1c29 4aef 05e1 dff6 21e2 e30a fadb 0324
00000090: ebf1 beda 2c01 20e5 f4f8 11f8 fbeb ede3
000000a0: 18f6 d3fa 2513 17de b61c b601 17de 33d0
000000b0: 0103 cf0a ec3d f6d4 2ebd 113c d4f3 f403
000000c0: d838 0418 23c2 d50b fa40 20e8 1201 00d1
000000d0: 1927 f92f 19f8 ba18 1ee9 112b fcd8 d0d6
000000e0: dedd 4816 1b29 fd3b fada da23 fc01 d5f5
000000f0: 09e1 00cf 0dec 1624 1629 0a09 05d6 27c9
5 38 15 -21 -12 -29 -31 12
-40 63 -2 -27 72 8 12 1
39 -18 8 5 -26 -31 35 -57
-2 -3 18 53 -8 -31 -9 -60
9 -15 -30 -19 -10 -47 35 -21
17 -16 19 23 -49 -4 62 -14
-25 -24 64 28 -52 -80 25 -49
14 65 -7 -73 25 -12 -18 -6
62 -16 28 -7 -23 -26 23 44
12 -52 32 -25 67 -26 23 23
12 -59 23 74 -25 -48 4 -30
40 -24 31 -7 -36 -40 -19 -27
-8 -4 48 -15 -69 -41 14 28
59 -31 -9 -60 6 -5 38 -91
8 -42 0 -1 46 93 36 -47
15 -17 21 -34 51 28 26 -17
28 41 74 -17 5 -31 -33 -10
33 -30 -29 10 -6 -37 3 36
-21 -15 -66 -38 44 1 32 -27
-12 -8 17 -8 -5 -21 -19 -29
24 -10 -45 -6 37 19 23 -34
-74 28 -74 1 23 -34 51 -48
1 3 -49 10 -20 61 -10 -44
46 -67 17 60 -44 -13 -12 3
-40 56 4 24 35 -62 -43 11
-6 64 32 -24 18 1 0 -47
25 39 -7 47 25 -8 -70 24
30 -23 17 43 -4 -40 -48 -42
-34 -35 72 22 27 41 -3 59
-6 -38 -38 35 -4 1 -43 -11
9 -31 0 -49 13 -20 22 36
22 41 10 9 5 -42 39 -55

model_1/batch_normalization_8/FusedBatchNormV31 i1 [64] scale=0.0028939247 zero_point=127
00000000: 12ec 6878 3e2f 9156 e7cf 66f8 8030 fbf8
00000010: 0f86 0bd0 1f17 ed47 1403 00c0 5e4c 85ee
00000020: 40ca 23ec 92cf bdeb ca47 f7c3 0324 d420
00000030: 3442 4324 fc65 b027 aaf2 d81c 0830 4b5e
-0.3154378 -0.42540693 -0.06656027 -0.020257473 -0.1881051 -0.23151398 -0.6887541 -0.11865091
-0.43987656 -0.50933075 -0.07234812 -0.39067984 -0.7379508 -0.22862005 -0.38199806 -0.39067984
-0.32411957 -0.72058725 -0.33569527 -0.5064368 -0.27781677 -0.30096817 -0.422513 -0.16205978
-0.30964994 -0.35884666 -0.36752844 -0.5527396 -0.095499516 -0.14759016 -0.7234812 -0.41961908
-0.18231726 -0.5238004 -0.26624107 -0.42540693 -0.68586016 -0.50933075 -0.5614214 -0.42830086
-0.5238004 -0.16205978 -0.39357376 -0.54405785 -0.35884666 -0.26334715 -0.49486113 -0.27492285
-0.21704435 -0.17652941 -0.17363548 -0.26334715 -0.37910414 -0.07524204 -0.5990424 -0.25466537
-0.61640596 -0.40804338 -0.48328543 -0.28649855 -0.34437704 -0.22862005 -0.15048409 -0.095499516

model_1/batch_normalization_8/FusedBatchNormV3 i1 [64] scale=0.0016188537 zero_point=-128
00000000: 44f5 210e 1ef8 c97f 30f7 3f02 0312 15ff
00000010: f8e1 57e7 0f0d ec3c 38e5 f066 2413 e534
00000020: 2bee 1c15 d739 010a f36d 10e3 071d 026f
00000030: 745c 191d 5e4e f053 f421 0044 fd51 fb32
0.3172953 0.18940587 0.26063544 0.22987722 0.25577888 0.19426244 0.11817632 0.41280767
0.28491825 0.19264358 0.30920106 0.21045098 0.21206982 0.23635264 0.2412092 0.20559442
0.19426244 0.15702881 0.34805354 0.16674192 0.23149607 0.22825837 0.17483619 0.30434448
0.2978691 0.16350421 0.1813116 0.37233633 0.265492 0.23797148 0.16350421 0.29139367
0.27682397 0.1780739 0.25254118 0.2412092 0.14084026 0.29948792 0.20883211 0.2234018
0.18616816 0.3836683 0.23311493 0.16026652 0.21854524 0.25416002 0.21045098 0.38690603
0.39500028 0.3561478 0.24768461 0.25416002 0.35938552 0.33348384 0.1813116 0.34157813
0.18778703 0.26063544 0.20721327 0.3172953 0.20235671 0.3383404 0.199119 0.28815594

model_1/conv2d_8/Conv2D i1 [64, 3, 3, 64]
00000000: 1de8 0023 0003 0541 eebd 1211 14e5 d4ac
00000010: c42a e7d4 cf05 34e4 43fa 3eae 11ce 2deb
00000020: 02f8 f571 cc11 fde0 1328 fc3b efb9 26f7
00000030: 1508 0bef ca71 60e3 1921 f307 0408 a5e9
00000040: 6b2f 46f3 0a3d 14bb 12e6 ee05 14d6 b8ae
00000050: e120 d0ae 1511 20f7 4802 15f3 dcf9 cab1
00000060: e212 ba09 3eef c500 f712 011d 16e1 f505
00000070: 17f0 202b 2ce0 c0fd 1de9 ff2d fdff 0e22
00000080: 0e17 eb0e 2a32 e211 483f fa0c 92dc f9c2
00000090: 22f0 f2ec 17d8 191d f500 1a19 e80c 15b4
000000a0: 18e0 d1cc f11c 26ff a123 07c1 e6fb b508
000000b0: cef5 1c27 f2e4 06e3 dfc9 2807 e2ec 0e1f
000000c0: f5e7 f443 f9fd f614 c7bb d3f3 0f0a c800
000000d0: c5b5 0cfa c1fa d614 2c18 4207 efde daea
000000e0: f7cb b132 2ed9 1116 dec8 0929 e6d7 eacf
000000f0: d908 ec88 0832 f4d8 ac11 ddc0 b910 c3d5
29 -24 0 35 0 3 5 65
-18 -67 18 17 20 -27 -44 -84
-60 42 -25 -44 -49 5 52 -28
67 -6 62 -82 17 -50 45 -21
2 -8 -11 113 -52 17 -3 -32
19 40 -4 59 -17 -71 38 -9
21 8 11 -17 -54 113 96 -29
25 33 -13 7 4 8 -91 -23
107 47 70 -13 10 61 20 -69
18 -26 -18 5 20 -42 -72 -82
-31 32 -48 -82 21 17 32 -9
72 2 21 -13 -36 -7 -54 -79
-30 18 -70 9 62 -17 -59 0
-9 18 1 29 22 -31 -11 5
23 -16 32 43 44 -32 -64 -3
29 -23 -1 45 -3 -1 14 34
14 23 -21 14 42 50 -30 17
72 63 -6 12 -110 -36 -7 -62
34 -16 -14 -20 23 -40 25 29
-11 0 26 25 -24 12 21 -76
24 -32 -47 -52 -15 28 38 -1
-95 35 7 -63 -26 -5 -75 8
-50 -11 28 39 -14 -28 6 -29
-33 -55 40 7 -30 -20 14 31
-11 -25 -12 67 -7 -3 -10 20
-57 -69 -45 -13 15 10 -56 0
-59 -75 12 -6 -63 -6 -42 20
44 24 66 7 -17 -34 -38 -22
-9 -53 -79 50 46 -39 17 22
-34 -56 9 41 -26 -41 -22 -49
-39 8 -20 -120 8 50 -12 -40
-84 17 -35 -64 -71 16 -61 -43

model_1/batch_normalization_7/FusedBatchNormV31 i1 [64] scale=0.0047244867 zero_point=127
00000000: ed35 0ec5 2a2f 0e9c 0ad7 260d f3ee aa1d
00000010: 0aff 19fe f3ea 2c25 f2b5 d1b5 041c 8031
00000020: def0 afc0 e024 f0a0 dcf6 eefc e83e 44c0
00000030: d00d 1dea dec7 ecbe 17dd 080c c527 e31e
-0.68977505 -0.34961203 -0.533867 -0.87875456 -0.40158138 -0.37795895 -0.533867 -1.0724585
-0.55276495 -0.79371375 -0.42047933 -0.5385915 -0.66142815 -0.68505055 -1.0063157 -0.4629997
-0.55276495 -0.6047343 -0.48189765 -0.6094588 -0.66142815 -0.7039485 -0.3921324 -0.4252038
-0.66615266 -0.9543463 -0.8220607 -0.9543463 -0.58111185 -0.46772417 -1.2047441 -0.36850998
-0.76064235 -0.6756016 -0.98269325 -0.90237695 -0.7511934 -0.4299283 -0.6756016 -1.0535605
-0.77009135 -0.6472547 -0.68505055 -0.61890775 -0.7133975 -0.30709162 -0.27874473 -0.90237695
-0.8267852 -0.5385915 -0.4629997 -0.7039485 -0.76064235 -0.86930555 -0.69449955 -0.91182595
-0.49134663 -0.76536685 -0.5622139 -0.54331595 -0.87875456 -0.41575482 -0.73701996 -0.4582752

model_1/batch_normalization_7/FusedBatchNormV3 i1 [64] scale=0.030936435 zero_point=-128
00000000: da2c c2da d970 ddac aeca df2b e3df a81d
00000010: dcaa 7fb4 a7df 2937 e4af acc2 2fd8 a3f6
00000020: d4b1 a6cb e8ce d8bd efac c5d7 bb35 eea1
00000030: c302 b8b3 c6d1 d7e4 daea 1fbf c828 a8a3
2.784279 5.321067 2.0418048 2.784279 2.7533426 7.4247446 2.8770885 1.3612032
1.423076 2.2892962 2.9389613 5.29013 3.062707 2.9389613 1.2374574 4.8570204
2.846152 1.2993302 7.888791 1.6086946 1.2065209 2.9389613 5.2282577 5.6613674
3.0936434 1.4540124 1.3612032 2.0418048 5.413876 2.7224064 1.0827752 3.6504993
2.5986605 1.5158854 1.1755846 2.3202326 3.217389 2.4130418 2.7224064 1.8871225
3.4339442 1.3612032 2.134614 2.69147 1.8252497 5.599495 3.4030077 1.0209024
2.072741 4.0217366 1.7324404 1.5777582 2.1655505 2.5058513 2.69147 3.0936434
2.784279 3.279262 4.9188933 1.9489954 2.2274232 5.197321 1.2374574 1.0827752

model_1/conv2d_7/Conv2D i1 [64, 1, 1, 64]
00000000: 9fc9 dc0d ead5 b446 f15d e1f1 f0d3 d32a
00000010: dfe8 0b31 a7c0 1dab 93bf e2d2 3334 a2c6
00000020: e250 20cd 0a2a cb29 11fe 2499 b6ed 41dc
00000030: 0fe0 1610 181a b2bd ebe5 11e7 c47f 05e4
00000040: f6f7 1f22 d2d1 cfb9 dbd1 ff22 c757 ef07
00000050: 91d5 2211 e6d3 083c d486 0fe7 edad ee35
00000060: 22dc 190e e208 cf37 db81 2604 d721 19ca
00000070: d0eb 32e9 0e29 cfb9 deec e9ee f3bb 2909
00000080: c9ca 1a0e ceaa dd63 f2c6 c11b 2197 c3bc
00000090: e137 0935 03cb abd2 dec0 0217 dd2e 0114
000000a0: 12c4 05bf 81b1 fecc e6fb dacb 1235 dcca
000000b0: ec05 0d18 0e1c e13e 9df5 fed2 c366 0411
000000c0: fe88 241f f895 f239 0316 67b0 f221 f7b9
000000d0: d223 9d3e eec6 c112 1cf3 ff22 a2b1 f7c9
000000e0: ae0e cd13 ceee eda5 b92d dd81 3a21 54ea
000000f0: e510 a5cb eaca ec21 12d8 e4f1 ec0c e1fb
-97 -55 -36 13 -22 -43 -76 70
-15 93 -31 -15 -16 -45 -45 42
-33 -24 11 49 -89 -64 29 -85
-109 -65 -30 -46 51 52 -94 -58
-30 80 32 -51 10 42 -53 41
17 -2 36 -103 -74 -19 65 -36
15 -32 22 16 24 26 -78 -67
-21 -27 17 -25 -60 127 5 -28
-10 -9 31 34 -46 -47 -49 -71
-37 -47 -1 34 -57 87 -17 7
-111 -43 34 17 -26 -45 8 60
-44 -122 15 -25 -19 -83 -18 53
34 -36 25 14 -30 8 -49 55
-37 -127 38 4 -41 33 25 -54
-48 -21 50 -23 14 41 -49 -71
-34 -20 -23 -18 -13 -69 41 9
-55 -54 26 14 -50 -86 -35 99
-14 -58 -63 27 33 -105 -61 -68
-31 55 9 53 3 -53 -85 -46
-34 -64 2 23 -35 46 1 20
18 -60 5 -65 -127 -79 -2 -52
-26 -5 -38 -53 18 53 -36 -54
-20 5 13 24 14 28 -31 62
-99 -11 -2 -46 -61 102 4 17
-2 -120 36 31 -8 -107 -14 57
3 22 103 -80 -14 33 -9 -71
-46 35 -99 62 -18 -58 -63 18
28 -13 -1 34 -94 -79 -9 -55
-82 14 -51 19 -50 -18 -19 -91
-71 45 -35 -127 58 33 84 -22
-27 16 -91 -53 -22 -54 -20 33
18 -40 -28 -15 -20 12 -31 -5

model_1/conv2d_6/Conv2D i1 [64, 5, 5, 3]
00000000: a313 e7ab e6e1 fefa 071f f50d 818f 8cc9
00000010: 697d 0137 4d56 1143 5114 e8ee e2ea 9332
00000020: 4409 3a52 2011 2f69 fc2a 34be dbd3 1528
00000030: f72b 140e dafe 36c2 e319 97d6 02e9 f904
00000040: c2d4 10d4 eb6b d6de 3dc7 db25 a4b3 15e1
00000050: e015 e1d9 f6f3 e2e6 eb02 561b 2812 cef4
00000060: eddb b3e5 091b c871 4f29 442a 4a0a 1bfd
00000070: c39c ab18 f095 413b 2733 3044 ed0f 2dc9
00000080: eb1e 1703 c13f 170e 3335 27dc ea63 fff7
00000090: f1ad d8bc 818c e242 152a 3f26 462a febf
000000a0: d5e1 b5ea e4fa f0be f6d1 b63b f4f6 f7ea
000000b0: e3fd 0fe8 b2c0 9faf b7a0 fb12 fbea e6f0
000000c0: 1702 2fe0 dbb5 f202 0047 7f78 1859 3e1a
000000d0: 152e ee10 fafb 2f27 3447 57d8 1904 17da
000000e0: 110a 2610 f2e4 109c cadd e5fa d341 2012
000000f0: caf1 f9f4 02f3 f0dd ee07 1b18 1a2a 21d9
-93 19 -25 -85 -26 -31 -2 -6
7 31 -11 13 -127 -113 -116 -55
105 125 1 55 77 86 17 67
81 20 -24 -18 -30 -22 -109 50
68 9 58 82 32 17 47 105
-4 42 52 -66 -37 -45 21 40
-9 43 20 14 -38 -2 54 -62
-29 25 -105 -42 2 -23 -7 4
-62 -44 16 -44 -21 107 -42 -34
61 -57 -37 37 -92 -77 21 -31
-32 21 -31 -39 -10 -13 -30 -26
-21 2 86 27 40 18 -50 -12
-19 -37 -77 -27 9 27 -56 113
79 41 68 42 74 10 27 -3
-61 -100 -85 24 -16 -107 65 59
39 51 48 68 -19 15 45 -55
-21 30 23 3 -63 63 23 14
51 53 39 -36 -22 99 -1 -9
-15 -83 -40 -68 -127 -116 -30 66
21 42 63 38 70 42 -2 -65
-43 -31 -75 -22 -28 -6 -16 -66
-10 -47 -74 59 -12 -10 -9 -22
-29 -3 15 -24 -78 -64 -97 -81
-73 -96 -5 18 -5 -22 -26 -16
23 2 47 -32 -37 -75 -14 2
0 71 127 120 24 89 62 26
21 46 -18 16 -6 -5 47 39
52 71 87 -40 25 4 23 -38
17 10 38 16 -14 -28 16 -100
-54 -35 -27 -6 -45 65 32 18
-54 -15 -7 -12 2 -13 -16 -35
-18 7 27 24 26 42 33 -39
