sd-card/config/ana-cont_1105_s2_q.tflite (tflite, 53328 bytes, 6 tensors)

model/conv2d/Conv2D i1 [32, 5, 5, 3]
-5 34 63 -20 55 50 -107 -8
-26 -127 -56 -24 43 88 -1 -17
54 70 13 33 49 14 2 28
-52 -4 -8 -66 -72 -87 -13 -26
76 6 44 106 40 20 44 -58
-49 -9 -112 -56 -54 -69 -38 -22
-11 -8 -22 33 15 85 34 43
39 59 5 25 -51 -49 -36 0
-36 19 53 -10 9 36 37 4
38 10 -48 -32 59 40 -23 -1
10 30 -9 2 66 -63 -73 72
-11 10 -41 12 34 34 -40 -22
79 -80 -24 119 -65 -63 72 -74
-70 -15 -19 35 70 -73 -7 81
-59 -72 106 -94 -49 111 -85 -37
-1 -26 1 68 -71 2 75 -90
-19 127 -87 -69 73 -87 -84 20
34 88 4 -9 12 40 -51 2
18 -37 -24 20 -14 25 81 -25
-50 120 -92 -60 53 -85 -68 7
-76 -36 15 -54 14 45 -53 -43
65 -97 -46 66 -48 -51 56 -18
35 19 -29 12 33 -42 -75 10
-27 -40 27 27 23 5 19 32
-46 1 41 22 -50 -26 41 3
50 -43 56 31 -67 37 70 -75
70 66 7 -6 3 -99 38 61
-49 54 95 -127 84 88 -96 90
56 45 14 31 -55 10 47 -84
-3 -52 -41 51 59 -71 8 -24
31 14 7 -5 60 71 -28 41
67 -20 56 85 -54 19 19 -88
00000000: fb22 3fec 3732 95f8 e681 c8e8 2b58 ffef
00000010: 3646 0d21 310e 021c ccfc f8be b8a9 f3e6
00000020: 4c06 2c6a 2814 2cc6 cff7 90c8 cabb daea
00000030: f5f8 ea21 0f55 222b 273b 0519 cdcf dc00
00000040: dc13 35f6 0924 2504 260a d0e0 3b28 e9ff
00000050: 0a1e f702 42c1 b748 f50a d70c 2222 d8ea
00000060: 4fb0 e877 bfc1 48b6 baf1 ed23 46b7 f951
00000070: c5b8 6aa2 cf6f abdb ffe6 0144 b902 4ba6
00000080: ed7f a9bb 49a9 ac14 2258 04f7 0c28 cd02
00000090: 12db e814 f219 51e7 ce78 a4c4 35ab bc07
000000a0: b4dc 0fca 0e2d cbd5 419f d242 d0cd 38ee
000000b0: 2313 e30c 21d6 b50a e5d8 1b1b 1705 1320
000000c0: d201 2916 cee6 2903 32d5 381f bd25 46b5
000000d0: 4642 07fa 039d 263d cf36 5f81 5458 a05a
000000e0: 382d 0e1f c90a 2fac fdcc d733 3bb9 08e8
000000f0: 1f0e 07fb 3c47 e429 43ec 3855 ca13 13a8

model/conv2d_1/Conv2D i1 [16, 5, 5, 32]
-44 0 12 11 56 -80 67 -72
-71 55 23 51 47 23 40 -1
52 61 79 11 92 -95 -19 -24
-4 24 31 -100 -79 7 -89 -21
70 -87 72 -11 -72 27 -25 -42
-107 -77 -47 38 -5 -7 -46 -66
-76 -83 -61 73 46 -94 33 35
-101 -74 -55 -109 -100 4 -80 -82
-85 15 -97 -40 49 -113 -88 -108
-45 -70 44 -127 77 -93 -58 57
-65 3 33 47 -41 -104 28 -35
-19 -57 -77 -13 -21 94 23 37
-53 -96 -20 -82 -38 -22 32 -83
55 48 -78 -15 -6 -60 -17 53
91 -37 51 -98 38 -99 -102 -47
-27 -21 48 -46 75 19 -35 65
55 -44 -28 -66 -52 9 75 -9
36 -99 -89 60 -10 71 76 -56
-22 23 -42 -28 -77 77 -6 -27
85 88 70 68 65 -68 -52 -77
-46 -33 -48 90 28 -25 -86 68
-72 83 77 -53 -50 21 -26 -53
-12 -64 6 -7 76 -80 -10 -55
61 -58 53 -19 42 20 -50 50
-95 35 -57 8 19 -9 39 -53
25 0 -77 -78 58 -23 -89 2
-25 50 14 -44 96 31 -109 -62
56 -63 -57 -26 57 -17 -77 -38
-71 80 -39 -39 -1 1 -49 21
-47 -63 4 54 61 -107 -6 -105
-2 18 4 31 -34 50 34 40
-75 45 -46 -82 64 75 -47 78
00000000: d400 0c0b 38b0 43b8 b937 1733 2f17 28ff
00000010: 343d 4f0b 5ca1 ede8 fc18 1f9c b107 a7eb
00000020: 46a9 48f5 b81b e7d6 95b3 d126 fbf9 d2be
00000030: b4ad c349 2ea2 2123 9bb6 c993 9c04 b0ae
00000040: ab0f 9fd8 318f a894 d3ba 2c81 4da3 c639
00000050: bf03 212f d798 1cdd edc7 b3f3 eb5e 1725
00000060: cba0 ecae daea 20ad 3730 b2f1 fac4 ef35
00000070: 5bdb 339e 269d 9ad1 e5eb 30d2 4b13 dd41
00000080: 37d4 e4be cc09 4bf7 249d a73c f647 4cc8
00000090: ea17 d6e4 b34d fae5 5558 4644 41bc ccb3
000000a0: d2df d05a 1ce7 aa44 b853 4dcb ce15 e6cb
000000b0: f4c0 06f9 4cb0 f6c9 3dc6 35ed 2a14 ce32
000000c0: a123 c708 13f7 27cb 1900 b3b2 3ae9 a702
000000d0: e732 0ed4 601f 93c2 38c1 c7e6 39ef b3da
000000e0: b950 d9d9 ff01 cf15 d1c1 0436 3d95 fa97
000000f0: fe12 041f de32 2228 b52d d2ae 404b d14e

model/conv2d_2/Conv2D i1 [32, 3, 3, 16]
-13 34 -3 16 -31 -34 13 41
26 28 55 -7 -57 -15 -23 -51
26 14 -63 11 -3 38 3 -86
-50 -17 29 11 -27 -21 -32 -30
-22 -44 19 -27 -80 -32 24 -51
0 15 -10 12 -12 -25 -2 -43
-15 4 25 12 57 -66 -48 -41
40 20 -10 -27 -56 35 14 -85
19 -31 13 47 8 -32 6 56
-21 -16 -1 2 34 -30 16 -23
-15 16 1 -27 5 49 -34 -127
-41 4 25 2 9 -8 8 -34
-24 -2 15 39 37 -1 -10 -51
-19 7 12 -33 20 -61 27 -12
-17 -23 7 -5 -15 -24 -10 -68
-19 5 -21 16 -8 -10 22 -4
-31 -16 -2 -20 -25 61 51 61
-44 -19 6 -10 -34 -16 -6 42
24 -52 10 9 -52 -42 33 45
-21 -11 -46 25 -34 5 23 37
-29 -10 -31 -58 -5 33 18 -59
56 22 11 -6 -127 -20 26 6
31 31 -5 33 26 31 46 7
-62 -41 32 30 21 52 1 -57
34 73 -78 -30 -96 -9 63 64
-82 -12 -50 -19 25 40 -6 -31
35 77 -21 -11 -28 -13 -122 -70
35 -21 -62 11 53 -25 -23 -55
-3 -31 -37 -41 -105 -4 48 25
-14 -35 -24 -24 -17 -14 38 -2
4 10 -11 1 70 -2 -67 -97
51 26 20 -8 -36 -52 -10 28
00000000: f322 fd10 e1de 0d29 1a1c 37f9 c7f1 e9cd
00000010: 1a0e c10b fd26 03aa ceef 1d0b e5eb e0e2
00000020: ead4 13e5 b0e0 18cd 000f f60c f4e7 fed5
00000030: f104 190c 39be d0d7 2814 f6e5 c823 0eab
00000040: 13e1 0d2f 08e0 0638 ebf0 ff02 22e2 10e9
00000050: f110 01e5 0531 de81 d704 1902 09f8 08de
00000060: e8fe 0f27 25ff f6cd ed07 0cdf 14c3 1bf4
00000070: efe9 07fb f1e8 f6bc ed05 eb10 f8f6 16fc
00000080: e1f0 feec e73d 333d d4ed 06f6 def0 fa2a
00000090: 18cc 0a09 ccd6 212d ebf5 d219 de05 1725
000000a0: e3f6 e1c6 fb21 12c5 3816 0bfa 81ec 1a06
000000b0: 1f1f fb21 1a1f 2e07 c2d7 201e 1534 01c7
000000c0: 2249 b2e2 a0f7 3f40 aef4 ceed 1928 fae1
000000d0: 234d ebf5 e4f3 86ba 23eb c20b 35e7 e9c9
000000e0: fde1 dbd7 97fc 3019 f2dd e8e8 eff2 26fe
000000f0: 040a f501 46fe bd9f 331a 14f8 dccc f61c

model/dense/MatMul i1 [128, 128] scale=0.0033190888 zero_point=0
-0.07633904 -0.14272082 -0.1460399 -0.11284902 0.096253574 -0.25225076 -0.059743598 -0.16927353
-0.07633904 -0.21905987 -0.16927353 -0.20246442 -0.11616811 0.02655271 0.029871799 -0.05310542
0.109529935 0.16263536 -0.013276355 -0.0896154 -0.079658136 -0.033190887 0.0896154 0.09293449
-0.15931627 -0.016595444 0.019914534 0.2057835 0.0033190888 -0.023233622 -0.23897439 -0.12944447
-0.0066381777 0.009957267 -0.15931627 -0.08629631 0.023233622 -0.059743598 0.046467245 0.043148156
0.009957267 -0.13608265 -0.099572666 -0.13940173 0.05310542 -0.119487196 -0.043148156 0.2091026
0.05642451 -0.18586898 -0.2057835 0.016595444 -0.039829068 -0.08297722 -0.17591171 0.08629631
-0.21905987 -0.14272082 0.05642451 0.049786333 -0.19250715 -0.06306269 -0.049786333 -0.039829068
0.12280629 0.10289175 -0.19250715 -0.0033190888 -0.17259263 -0.09293449 0.096253574 0.05642451
-0.05310542 -0.22901712 0.009957267 0.0033190888 -0.06970087 -0.10621084 0.11284902 -0.16927353
0.0896154 -0.02655271 0.06306269 -0.08297722 -0.26884618 -0.07633904 0.10621084 0.109529935
0.043148156 -0.02655271 0.05642451 0.11284902 -0.06970087 0.07633904 -0.06306269 0.109529935
0.096253574 0.013276355 -0.119487196 0.11284902 -0.016595444 0.039829068 -0.029871799 0.09293449
-0.06306269 -0.036509976 -0.039829068 -0.2721653 0.10289175 0.15931627 -0.10621084 -0.109529935
-0.0033190888 0.119487196 -0.16595444 0.059743598 -0.119487196 0.036509976 -0.066381775 -0.13608265
-0.17259263 -0.17259263 -0.06970087 0.16927353 0.079658136 0.0066381777 -0.1460399 0.013276355
0.05310542 -0.16927353 -0.119487196 0.1460399 -0.14272082 0.049786333 0.013276355 -0.11616811
0.13276355 0.046467245 0.0033190888 -0.05642451 0.043148156 -0.08629631 -0.15599717 -0.10289175
0.14272082 0.22569804 0.12280629 -0.07301995 -0.05310542 -0.05310542 -0.119487196 0.029871799
-0.029871799 0.11284902 0.0066381777 -0.12944447 -0.036509976 0.10289175 -0.096253574 -0.10621084
0.0066381777 -0.0066381777 -0.043148156 -0.12944447 0.023233622 -0.11616811 0.13276355 0.0033190888
0.096253574 -0.06306269 -0.06306269 -0.019914534 -0.06970087 -0.15599717 -0.13940173 -0.096253574
-0.109529935 0.11616811 -0.033190887 -0.023233622 -0.12944447 -0.10289175 -0.05310542 -0.08297722
0.02655271 -0.043148156 -0.023233622 -0.109529935 0.149359 0.119487196 -0.0033190888 -0.029871799
0.02655271 0.036509976 -0.033190887 -0.06970087 -0.08629631 -0.096253574 0.09293449 0.0896154
0.08297722 -0.10621084 -0.12612538 0.036509976 -0.0033190888 -0.05642451 -0.023233622 -0.046467245
-0.08297722 -0.10289175 -0.119487196 0.016595444 0.14272082 -0.049786333 -0.0033190888 0.059743598
-0.08629631 -0.109529935 0.06970087 -0.07301995 -0.149359 -0.09293449 -0.016595444 0.12944447
0.06306269 -0.0896154 0.0 -0.066381775 0.036509976 0.06306269 0.109529935 0.039829068
0.009957267 0.02655271 -0.059743598 -0.119487196 -0.066381775 0.10289175 -0.019914534 0.05310542
-0.12944447 -0.05310542 0.06306269 0.06306269 -0.096253574 -0.096253574 -0.039829068 0.07633904
0.08297722 -0.079658136 -0.11616811 0.046467245 -0.06970087 0.099572666 -0.099572666 0.066381775
00000000: e9d5 d4de 1db4 eecd e9be cdc3 dd08 09f0
00000010: 2131 fce5 e8f6 1b1c d0fb 063e 01f9 b8d9
00000020: fe03 d0e6 07ee 0e0d 03d7 e2d6 10dc f33f
00000030: 11c8 c205 f4e7 cb1a bed5 110f c6ed f1f4
00000040: 251f c6ff cce4 1d11 f0bb 0301 ebe0 22cd
00000050: 1bf8 13e7 afe9 2021 0df8 1122 eb17 ed21
00000060: 1d04 dc22 fb0c f71c edf5 f4ae 1f30 e0df
00000070: ff24 ce12 dc0b ecd7 cccc eb33 1802 d404
00000080: 10cd dc2c d50f 04dd 280e 01ef 0de6 d1e1
00000090: 2b44 25ea f0f0 dc09 f722 02d9 f51f e3e0
000000a0: 02fe f3d9 07dd 2801 1ded edfa ebd1 d6e3
000000b0: df23 f6f9 d9e1 f0e7 08f3 f9df 2d24 fff7
000000c0: 080b f6eb e6e3 1c1b 19e0 da0b ffef f9f2
000000d0: e7e1 dc05 2bf1 ff12 e6df 15ea d3e4 fb27
000000e0: 13e5 00ec 0b13 210c 0308 eedc ec1f fa10
000000f0: d9f0 1313 e3e3 f417 19e8 dd0e eb1e e214

model/dense_1/MatMul i1 [64, 128] scale=0.00460929 zero_point=0
-0.11523225 0.0921858 -0.10601367 0.050702192 0.06453006 0.06453006 0.101404384 -0.07374864
0.11523225 -0.08296722 -0.17515302 -0.08296722 -0.101404384 0.08757651 -0.12445083 -0.1336694
-0.16593444 0.101404384 -0.0921858 0.17515302 -0.08757651 -0.07835793 -0.14749728 -0.04148361
-0.12906012 -0.050702192 0.10601367 0.0460929 0.35030603 -0.02765574 -0.02304645 -0.02304645
-0.0460929 -0.11523225 0.05531148 -0.00921858 -0.0921858 -0.069139354 0.142888 -0.03226503
-0.069139354 0.050702192 -0.11062296 -0.09679509 -0.069139354 0.2304645 0.11984154 0.05531148
-0.13827871 0.07374864 0.05531148 0.04148361 -0.17054373 0.0 0.11062296 0.11523225
-0.08296722 -0.04148361 -0.07374864 0.07835793 0.069139354 0.01382787 -0.07374864 0.142888
-0.22585522 0.17054373 -0.05992077 0.08757651 -0.15210657 0.17515302 0.02765574 -0.10601367
-0.17515302 -0.14749728 -0.25351095 -0.05531148 0.0460929 0.08757651 0.01843716 -0.21202734
0.0 0.15671586 -0.20741805 0.03687432 -0.08757651 -0.0921858 -0.04148361 0.17054373
0.00921858 -0.0460929 -0.12445083 -0.03687432 -0.00921858 0.04148361 0.08296722 -0.069139354
0.08757651 0.12906012 -0.17515302 0.01382787 -0.19819947 -0.03687432 0.0 -0.03687432
0.00460929 -0.12445083 -0.11062296 -0.07374864 -0.16593444 -0.00460929 0.12906012 -0.02304645
-0.14749728 -0.1843716 -0.31804103 -0.08296722 0.050702192 0.09679509 0.10601367 -0.05992077
-0.23507379 -0.19359018 0.02765574 0.01382787 -0.02304645 -0.02765574 -0.00460929 -0.03687432
0.142888 0.21202734 -0.19819947 -0.00460929 0.0 -0.23507379 0.01843716 0.05992077
-0.23507379 -0.27655742 0.08757651 -0.069139354 0.07835793 0.08296722 0.03687432 -0.04148361
-0.05992077 0.03226503 0.04148361 -0.15210657 0.02765574 -0.01382787 -0.05992077 -0.1843716
0.21202734 -0.39639893 -0.10601367 -0.15671586 -0.02765574 -0.39639893 -0.1336694 0.02765574
0.20280877 -0.24429238 0.01382787 -0.16132516 0.15671586 -0.00460929 -0.05531148 -0.29960385
0.01843716 0.16132516 -0.11523225 0.08757651 -0.44710115 -0.15671586 0.02304645 0.09679509
-0.0460929 0.0 0.09679509 -0.02304645 -0.3687432 0.1336694 -0.14749728 -0.050702192
-0.11062296 0.07835793 0.08757651 -0.07374864 -0.0460929 0.09679509 -0.050702192 0.01382787
0.0 -0.02304645 0.0 0.00460929 -0.24429238 0.03687432 -0.0921858 -0.03226503
-0.21663663 -0.09679509 -0.02304645 -0.06453006 0.08296722 -0.00460929 -0.06453006 0.0921858
-0.050702192 -0.08757651 0.02765574 0.08296722 -0.1336694 0.03687432 -0.15210657 0.05992077
-0.25351095 0.07374864 -0.10601367 0.07374864 -0.15210657 0.02765574 -0.07835793 -0.0921858
0.05531148 -0.03687432 -0.0460929 0.10601367 0.050702192 0.07835793 0.069139354 -0.00460929
-0.17976232 0.16132516 -0.00921858 -0.02765574 -0.02765574 -0.17515302 -0.050702192 -0.11984154
0.11523225 0.06453006 -0.11062296 -0.05992077 -0.10601367 -0.0460929 -0.142888 -0.02304645
-0.101404384 0.12906012 0.21663663 -0.08757651 -0.06453006 -0.07374864 0.00460929 -0.25812024
00000000: e714 e90b 0e0e 16f0 19ee daee ea13 e5e3
00000010: dc16 ec26 edef e0f7 e4f5 170a 4cfa fbfb
00000020: f6e7 0cfe ecf1 1ff9 f10b e8eb f132 1a0c
00000030: e210 0c09 db00 1819 eef7 f011 0f03 f01f
00000040: cf25 f313 df26 06e9 dae0 c9f4 0a13 04d2
00000050: 0022 d308 edec f725 02f6 e5f8 fe09 12f1
00000060: 131c da03 d5f8 00f8 01e5 e8f0 dcff 1cfb
00000070: e0d8 bbee 0b15 17f3 cdd6 0603 fbfa fff8
00000080: 1f2e d5ff 00cd 040d cdc4 13f1 1112 08f7
00000090: f307 09df 06fd f3d8 2eaa e9de faaa e306
000000a0: 2ccb 03dd 22ff f4bf 0423 e713 9fde 0515
000000b0: f600 15fb b01d e0f5 e811 13f0 f615 f503
000000c0: 00fb 0001 cb08 ecf9 d1eb fbf2 12ff f214
000000d0: f5ed 0612 e308 df0d c910 e910 df06 efec
000000e0: 0cf8 f617 0b11 0fff d923 fefa fada f5e6
000000f0: 190e e8f3 e9f6 e1fb ea1c 2fed f2f0 01c8

model/dense_2/MatMul i1 [2, 64] scale=0.004171009 zero_point=0
-0.095933214 0.1835244 0.07924917 0.029197063 0.2252345 -0.24608955 -0.30448368 -0.041710094
0.2335765 -0.06256514 -0.07924917 -0.0917622 -0.07924917 0.11261725 -0.15849835 0.25026056
0.0 -0.10844624 0.0917622 0.17101137 0.095933214 -0.08342019 0.25860256 0.15015633
0.0917622 0.2669446 0.1376433 0.041710094 0.058394127 0.07924917 0.25443155 -0.095933214
0.12513028 -0.08759119 -0.07090715 0.16266936 -0.1334723 0.0125130275 0.25026056 -0.1418143
-0.15849835 0.029197063 -0.10844624 0.15849835 -0.2252345 -0.041710094 0.2711156 -0.18769541
0.2335765 -0.12095927 0.3545358 -0.0917622 0.0125130275 0.05005211 -0.1334723 -0.43378496
-0.0458811 0.05005211 -0.08759119 -0.10427523 0.016684037 -0.21689248 -0.30031267 0.19186643
0.2252345 -0.24191853 -0.0458811 0.1334723 -0.004171009 -0.15849835 -0.025026055 -0.29197064
-0.31282568 0.06256514 -0.07090715 0.041710094 -0.0458811 0.0 0.1376433 0.1334723
-0.3211677 0.16266936 0.12095927 -0.10844624 -0.0125130275 -0.21689248 0.0 0.34619376
0.2294055 -0.20437945 0.20437945 -0.14598532 -0.10427523 -0.17101137 -0.12513028 -0.15849835
0.38373286 0.08759119 -0.020855047 0.12930128 0.15849835 0.16266936 0.041710094 -0.029197063
-0.008342018 -0.06256514 0.52971816 0.3545358 0.21272147 0.3545358 -0.15849835 0.18769541
-0.07090715 0.058394127 0.033368073 -0.28779963 -0.12513028 0.12513028 0.1793534 -0.18769541
0.20437945 -0.004171009 0.08759119 -0.05422312 -0.15015633 -0.17101137 0.08342019 0.095933214
00000000: e92c 1307 36c5 b7f6 38f1 edea ed1b da3c
00000010: 00e6 1629 17ec 3e24 1640 210a 0e13 3de9
00000020: 1eeb ef27 e003 3cde da07 e626 caf6 41d3
00000030: 38e3 55ea 030c e098 f50c ebe7 04cc b82e
00000040: 36c6 f520 ffda faba b50f ef0a f500 2120
00000050: b327 1de6 fdcc 0053 37cf 31dd e7d7 e2da
00000060: 5c15 fb1f 2627 0af9 fef1 7f55 3355 da2d
00000070: ef0e 08bb e21e 2bd3 31ff 15f3 dcd7 1417
