sd-card/config/ana-cont_1208_s2_q.tflite (tflite, 47232 bytes, 12 tensors)

model/conv2d/Conv2D i1 [32, 5, 5, 3]
000000 33 b0 c5 6f a0 aa 36 dd ce 56 cd bd 40 ae a2 2e
       51 -80 -59 111 -96 -86 54 -35 -50 86 -51 -67 64 -82 -94 46
000010 dd c7 44 cd e4 28 ec 92 48 ed 9f 7f 8a 8e 02 01
       -35 -57 68 -51 -28 40 -20 -110 72 -19 -97 127 -118 -114 2 1
000020 0b 0c 35 e3 f4 df d5 e6 e4 d1 ea df fb cc 4a 71
       11 12 53 -29 -12 -33 -43 -26 -28 -47 -22 -33 -5 -52 74 113
000030 c7 37 ff a9 31 0b c6 37 28 28 fc 1b fd 60 49 c7
       -57 55 -1 -87 49 11 -58 55 40 40 -4 27 -3 96 73 -57
000040 0b 36 bc 34 f3 ca 21 17 30 26 1c f2 ef 09 0c c5
       11 54 -68 52 -13 -54 33 23 48 38 28 -14 -17 9 12 -59
000050 0e 1b e1 e0 1c f0 04 f9 0a 25 4f e8 07 51 bb ca
       14 27 -31 -32 28 -16 4 -7 10 37 79 -24 7 81 -69 -54
000060 35 81 cb 07 b2 dd fd 17 1d 57 18 4d 4d e6 06 39
       53 -127 -53 7 -78 -35 -3 23 29 87 24 77 77 -26 6 57
000070 b5 d8 1a c6 c8 de ee ec d3 04 19 4b cc f0 2b d6
       -75 -40 26 -58 -56 -34 -18 -20 -45 4 25 75 -52 -16 43 -42
000080 1d e2 11 26 ed 0a fb bc 03 1c 1c f4 f8 ea 01 2a
       29 -30 17 38 -19 10 -5 -68 3 28 28 -12 -8 -22 1 42
000090 d4 26 36 e4 ff 33 e3 33 f9 e2 26 00 f6 f8 20 00
       -44 38 54 -28 -1 51 -29 51 -7 -30 38 0 -10 -8 32 0
0000a0 e9 22 fb f8 16 cd 38 0b 06 dc 23 18 e3 fe fd f4
       -23 34 -5 -8 22 -51 56 11 6 -36 35 24 -29 -2 -3 -12
0000b0 0c dd 1b 12 d7 1a 18 45 b7 f2 7e 88 d9 ff f5 12
       12 -35 27 18 -41 26 24 69 -73 -14 126 -120 -39 -1 -11 18
0000c0 df 09 2f 04 04 f2 4f b2 ec 7f 8d ca 22 d5 02 e5
       -33 9 47 4 4 -14 79 -78 -20 127 -115 -54 34 -43 2 -27
0000d0 04 2a c5 32 08 df 09 20 01 0e e4 08 e4 25 c0 28
       4 42 -59 50 8 -33 9 32 1 14 -28 8 -28 37 -64 40
0000e0 2f cf 6c 14 39 23 12 28 5c cf f5 50 e3 3c 49 eb
       47 -49 108 20 57 35 18 40 92 -49 -11 80 -29 60 73 -21
0000f0 d8 21 1b ca 21 ba 29 3f e0 dc fa d0 d7 e5 b2 1b
       -40 33 27 -54 33 -70 41 63 -32 -36 -6 -48 -41 -27 -78 27

model/batch_normalization_1/FusedBatchNormV3 i1 [32] scale=0.035489973 zero_point=-128
000000 b7 af 26 a8 eb cf be bd d9 ae af cc b5 b2 be c7
       1.9519485 1.6680287 5.8913355 1.4195989 3.7974272 2.8037078 2.2003784 2.1648884 3.1586075 1.6325388 1.6680287 2.697238 1.8809686 1.7744986 2.2003784 2.519788
000010 b9 be b0 f9 d6 0b b3 e0 7f b0 be d1 bd c3 ed af
       2.0229285 2.2003784 1.7035186 4.2942867 3.0521376 4.9331064 1.8099886 3.4070373 9.049943 1.7035186 2.2003784 2.8746877 2.1648884 2.3778281 3.868407 1.6680287

model/batch_normalization_1/FusedBatchNormV31 i1 [32] scale=0.005148537 zero_point=127
000000 1c e9 0f 2b 1b 0b d5 a8 e5 06 ec d6 f1 02 80 df
       -0.5097052 -0.7722806 -0.57663614 -0.43247712 -0.5148537 -0.5972303 -0.8752513 -1.1069355 -0.7928747 -0.62297297 -0.7568349 -0.87010276 -0.7310923 -0.64356714 -1.3128769 -0.82376593
000010 e6 ad e8 10 e6 13 f5 17 1b f3 c6 f7 ee b9 2c be
       -0.78772616 -1.0811927 -0.7774291 -0.5714876 -0.78772616 -0.556042 -0.7104981 -0.53544784 -0.5148537 -0.72079515 -0.95247936 -0.70020103 -0.74653786 -1.0194104 -0.42732856 -0.99366766

model/conv2d_1/Conv2D i1 [16, 3, 3, 32]
000000 e8 eb d7 1e d8 fe 13 fc 01 38 fa 46 0c 25 10 22
       -24 -21 -41 30 -40 -2 19 -4 1 56 -6 70 12 37 16 34
000010 05 33 f3 f3 1d b9 37 dc f7 d4 36 df d9 19 d9 00
       5 51 -13 -13 29 -71 55 -36 -9 -44 54 -33 -39 25 -39 0
000020 2c bd 96 02 02 16 ee e4 81 16 fb cf f7 ef 06 28
       44 -67 -106 2 2 22 -18 -28 -127 22 -5 -49 -9 -17 6 40
000030 11 c0 da bc ee 97 0f 33 d4 aa de 05 b8 f7 f6 ce
       17 -64 -38 -68 -18 -105 15 51 -44 -86 -34 5 -72 -9 -10 -50
000040 3a bb be ec 4e 32 ed ce d6 d8 f6 d5 03 cb e2 26
       58 -69 -66 -20 78 50 -19 -50 -42 -40 -10 -43 3 -53 -30 38
000050 f0 e4 38 f5 a2 e7 ef 24 04 ce fe 37 0f 35 45 01
       -16 -28 56 -11 -94 -25 -17 36 4 -50 -2 55 15 53 69 1
000060 22 0f 27 ed 1b f0 1b c5 31 02 fc 2e 16 13 c9 ed
       34 15 39 -19 27 -16 27 -59 49 2 -4 46 22 19 -55 -19
000070 dd 03 d9 1b 2b e8 de 1c 14 25 1f 10 06 bc 00 19
       -35 3 -39 27 43 -24 -34 28 20 37 31 16 6 -68 0 25
000080 d9 16 0b e8 d3 16 0a da c4 f3 ea 24 12 2b 41 f5
       -39 22 11 -24 -45 22 10 -38 -60 -13 -22 36 18 43 65 -11
000090 f7 ee d0 0d 06 e4 07 c6 0f 12 14 22 e0 df a8 e9
       -9 -18 -48 13 6 -28 7 -58 15 18 20 34 -32 -33 -88 -23
0000a0 c2 e9 ba 20 97 0b dc 2f c7 21 01 16 f2 f0 f7 00
       -62 -23 -70 32 -105 11 -36 47 -57 33 1 22 -14 -16 -9 0
0000b0 dd fb 08 07 17 cc 4b da dc b2 51 18 00 22 0c 01
       -35 -5 8 7 23 -52 75 -38 -36 -78 81 24 0 34 12 1
0000c0 0e 0a 0f 12 20 d8 ef e1 09 f4 f5 d0 17 f1 fe 06
       14 10 15 18 32 -40 -17 -31 9 -12 -11 -48 23 -15 -2 6
0000d0 05 fa ec e4 10 06 fe 0f 28 05 ed 24 10 fd 16 09
       5 -6 -20 -28 16 6 -2 15 40 5 -19 36 16 -3 22 9
0000e0 08 36 14 e1 e0 e4 04 07 e1 03 02 0b 26 e8 fc ea
       8 54 20 -31 -32 -28 4 7 -31 3 2 11 38 -24 -4 -22
0000f0 03 0a 20 fc 16 27 1b 09 0c 07 fb da 16 f6 3d 1a
       3 10 32 -4 22 39 27 9 12 7 -5 -38 22 -10 61 26

model/batch_normalization_2/FusedBatchNormV3 i1 [16] scale=0.0019764185 zero_point=-128
000000 58 3b 2f 3d 57 2a 4b 7f 33 22 74 78 5f 32 2c 3c
       0.4269064 0.36959025 0.34587324 0.3735431 0.42492998 0.33599114 0.40121296 0.5039867 0.35377893 0.3201798 0.48224613 0.4901518 0.44074133 0.3518025 0.33994398 0.37156668

model/batch_normalization_2/FusedBatchNormV31 i1 [16] scale=0.0036745945 zero_point=127
000000 8e b2 f8 16 94 80 85 ad da c5 87 9c c6 c9 be d3
       -0.88557726 -0.75329185 -0.49607027 -0.38583243 -0.8635297 -0.9370216 -0.9186486 -0.77166486 -0.6063081 -0.68347454 -0.9112994 -0.83413297 -0.6798 -0.6687762 -0.70919675 -0.63203025

model/conv2d_2/Conv2D i1 [32, 3, 3, 16]
000000 1a d4 fc 2e 09 2d 06 28 53 3c 25 25 0f d7 db f5
       26 -44 -4 46 9 45 6 40 83 60 37 37 15 -41 -37 -11
000010 38 1a d4 1a a4 f6 dc 20 14 f0 7f 23 d4 e8 e7 0b
       56 26 -44 26 -92 -10 -36 32 20 -16 127 35 -44 -24 -25 11
000020 c9 c2 b5 da 33 de 1b ae d9 d2 4c 40 4c 9e d7 1b
       -55 -62 -75 -38 51 -34 27 -82 -39 -46 76 64 76 -98 -41 27
000030 dc 36 f5 12 31 0f d2 15 2c 0a 1a 13 fc e6 54 e6
       -36 54 -11 18 49 15 -46 21 44 10 26 19 -4 -26 84 -26
000040 1c ed 0c 1a 4d ed b9 1e e9 ff 22 2e eb 21 4e ed
       28 -19 12 26 77 -19 -71 30 -23 -1 34 46 -21 33 78 -19
000050 be ec c0 aa c8 b6 e8 fa e1 f5 14 f6 1c fd dd db
       -66 -20 -64 -86 -56 -74 -24 -6 -31 -11 20 -10 28 -3 -35 -37
000060 8a 22 43 1a 25 fa 0a 1a 47 29 52 e1 0d fa 05 0d
       -118 34 67 26 37 -6 10 26 71 41 82 -31 13 -6 5 13
000070 f7 f3 38 3d dc 10 ed bf 48 ff 13 d9 2a 58 13 11
       -9 -13 56 61 -36 16 -19 -65 72 -1 19 -39 42 88 19 17
000080 08 00 6e d6 0f 42 0d 20 fb 17 07 3c 0f e4 a9 cf
       8 0 110 -42 15 66 13 32 -5 23 7 60 15 -28 -87 -49
000090 f0 ea ca 01 38 8e f4 25 e5 2e 0e 42 39 d0 f3 09
       -16 -22 -54 1 56 -114 -12 37 -27 46 14 66 57 -48 -13 9
0000a0 07 3f ff 01 dc ff 81 1c 22 00 f6 41 a8 fc 30 5a
       7 63 -1 1 -36 -1 -127 28 34 0 -10 65 -88 -4 48 90
0000b0 3a f7 f7 17 16 04 df 16 ec cb df 48 ef f6 d7 3a
       58 -9 -9 23 22 4 -33 22 -20 -53 -33 72 -17 -10 -41 58
0000c0 16 33 02 d7 e5 fe ec 08 e2 c6 21 f6 e0 ef ff c0
       22 51 2 -41 -27 -2 -20 8 -30 -58 33 -10 -32 -17 -1 -64
0000d0 c6 2b 21 fd fb cd cc f2 2c fe f0 07 de fd 07 f8
       -58 43 33 -3 -5 -51 -52 -14 44 -2 -16 7 -34 -3 7 -8
0000e0 d9 fe e5 b9 d7 f1 bf db e5 ec fd ce 08 f5 39 30
       -39 -2 -27 -71 -41 -15 -65 -37 -27 -20 -3 -50 8 -11 57 48
0000f0 94 f3 3e 1f 1d 42 40 4e 1a 18 db 15 08 17 ed 00
       -108 -13 62 31 29 66 64 78 26 24 -37 21 8 23 -19 0

model/batch_normalization_3/FusedBatchNormV3 i1 [32] scale=0.0027943198 zero_point=-128
000000 e0 f8 f9 fd 33 08 14 1c f6 15 7f 5c fc 47 e5 77
       0.2682547 0.3353184 0.33811268 0.34928998 0.5001832 0.38002747 0.41355932 0.4359139 0.32972974 0.41635364 0.71255153 0.6147503 0.34649566 0.5560696 0.2822263 0.690197
000010 e7 4d dc 17 23 e0 db 2b 2a d9 ef 45 0b 0c 04 f0
       0.28781494 0.57283556 0.25707743 0.4219423 0.4554741 0.2682547 0.2542831 0.47782868 0.47503436 0.24869446 0.3101695 0.550481 0.38841045 0.39120477 0.3688502 0.3129638

model/batch_normalization_3/FusedBatchNormV31 i1 [32] scale=0.0026429733 zero_point=127
000000 f1 c3 89 a8 f7 bd dc f6 ae 96 0b 0f 80 16 ba 0f
       -0.37530223 -0.49687898 -0.65017146 -0.5682393 -0.35944438 -0.5127368 -0.43080464 -0.36208734 -0.5523814 -0.6158128 -0.3065849 -0.296013 -0.6739582 -0.2775122 -0.52066576 -0.296013
000010 97 04 f3 cf c2 ca a1 ea a2 cd 01 dd c0 b1 da d8
       -0.6131698 -0.32508573 -0.37001628 -0.4651633 -0.49952197 -0.47837818 -0.5867401 -0.39380303 -0.5840971 -0.47044924 -0.33301464 -0.42816168 -0.5048079 -0.5444525 -0.4360906 -0.44137654

model/dense/MatMul i1 [128, 128] scale=0.003730944 zero_point=0
000000 de ba 14 f9 2c d5 e4 dd da 09 e9 f9 d5 11 19 ef
       -0.1268521 -0.26116607 0.074618876 -0.026116608 0.16416153 -0.16043058 -0.10446643 -0.13058303 -0.14177586 0.033578496 -0.08581171 -0.026116608 -0.16043058 0.06342605 0.093273595 -0.06342605
000010 fc ff 01 1b fb d9 ef ea bb db fb 08 e9 0d f8 f2
       -0.014923776 -0.003730944 0.003730944 0.100735486 -0.018654719 -0.14550681 -0.06342605 -0.08208077 -0.25743514 -0.13804492 -0.018654719 0.029847551 -0.08581171 0.04850227 -0.029847551 -0.052233215
000020 03 d5 bf da 0e ab 0f 1a e4 1b e8 05 3f dd fe f0
       0.011192832 -0.16043058 -0.24251135 -0.14177586 0.052233215 -0.31713024 0.055964157 0.09700454 -0.10446643 0.100735486 -0.08954266 0.018654719 0.23504947 -0.13058303 -0.007461888 -0.059695102
000030 ec d5 bc 0f 08 e0 e0 24 08 e0 0b 0e 03 f8 f4 e5
       -0.074618876 -0.16043058 -0.2537042 0.055964157 0.029847551 -0.119390205 -0.119390205 0.13431399 0.029847551 -0.119390205 0.041040383 0.052233215 0.011192832 -0.029847551 -0.04477133 -0.100735486
000040 14 0c 06 f0 e5 e7 e8 0b 06 f8 2b e2 f9 d4 3f e0
       0.074618876 0.04477133 0.022385664 -0.059695102 -0.100735486 -0.093273595 -0.08954266 0.041040383 0.022385664 -0.029847551 0.16043058 -0.111928314 -0.026116608 -0.16416153 0.23504947 -0.119390205
000050 06 2d ff ed dc ed 06 b2 12 f3 09 f5 09 0c ec 08
       0.022385664 0.16789247 -0.003730944 -0.07088793 -0.13431399 -0.07088793 0.022385664 -0.29101363 0.06715699 -0.04850227 0.033578496 -0.041040383 0.033578496 0.04477133 -0.074618876 0.029847551
000060 04 06 15 19 f2 0d 0b e9 e2 e1 e7 f0 39 f1 e8 e8
       0.014923776 0.022385664 0.07834982 0.093273595 -0.052233215 0.04850227 0.041040383 -0.08581171 -0.111928314 -0.11565926 -0.093273595 -0.059695102 0.2126638 -0.055964157 -0.08954266 -0.08954266
000070 20 f9 db 26 e7 08 e6 f3 e9 d1 d9 1b 07 17 e3 fb
       0.119390205 -0.026116608 -0.13804492 0.14177586 -0.093273595 0.029847551 -0.09700454 -0.04850227 -0.08581171 -0.17535436 -0.14550681 0.100735486 0.026116608 0.08581171 -0.108197376 -0.018654719
000080 1b bf d5 1e f6 1f 04 e8 01 39 05 09 0b cd cd e4
       0.100735486 -0.24251135 -0.16043058 0.111928314 -0.037309438 0.11565926 0.014923776 -0.08954266 0.003730944 0.2126638 0.018654719 0.033578496 0.041040383 -0.19027814 -0.19027814 -0.10446643
000090 06 02 33 f0 16 ea da 1d 03 f9 05 c5 e9 29 e2 f7
       0.022385664 0.007461888 0.19027814 -0.059695102 0.08208077 -0.08208077 -0.14177586 0.108197376 0.011192832 -0.026116608 0.018654719 -0.22012569 -0.08581171 0.1529687 -0.111928314 -0.033578496
0000a0 0e 0e eb dc f9 c5 0a 0e 29 28 ef 01 f9 d2 e7 da
       0.052233215 0.052233215 -0.07834982 -0.13431399 -0.026116608 -0.22012569 0.037309438 0.052233215 0.1529687 0.14923775 -0.06342605 0.003730944 -0.026116608 -0.17162342 -0.093273595 -0.14177586
0000b0 f0 12 df 07 e6 e1 e6 eb 14 cc de ee 21 f7 0c 05
       -0.059695102 0.06715699 -0.12312115 0.026116608 -0.09700454 -0.11565926 -0.09700454 -0.07834982 0.074618876 -0.19400908 -0.1268521 -0.06715699 0.12312115 -0.033578496 0.04477133 0.018654719
0000c0 f8 03 11 ef f8 09 ff 1b 0f e6 e1 f4 07 20 eb 1e
       -0.029847551 0.011192832 0.06342605 -0.06342605 -0.029847551 0.033578496 -0.003730944 0.100735486 0.055964157 -0.09700454 -0.11565926 -0.04477133 0.026116608 0.119390205 -0.07834982 0.111928314
0000d0 f3 02 d1 fc 22 d9 19 ec dc de fb f3 da f8 e7 0a
       -0.04850227 0.007461888 -0.17535436 -0.014923776 0.1268521 -0.14550681 0.093273595 -0.074618876 -0.13431399 -0.1268521 -0.018654719 -0.04850227 -0.14177586 -0.029847551 -0.093273595 0.037309438
0000e0 ee df 1d ea 08 fd 15 0a 03 06 0e f7 f3 0a fd 01
       -0.06715699 -0.12312115 0.108197376 -0.08208077 0.029847551 -0.011192832 0.07834982 0.037309438 0.011192832 0.022385664 0.052233215 -0.033578496 -0.04850227 0.037309438 -0.011192832 0.003730944
0000f0 fc 02 08 1a b8 dc fc 24 1b fc c6 03 0d 20 f6 ff
       -0.014923776 0.007461888 0.029847551 0.09700454 -0.26862797 -0.13431399 -0.014923776 0.13431399 0.100735486 -0.014923776 -0.21639475 0.011192832 0.04850227 0.119390205 -0.037309438 -0.003730944

model/dense_1/MatMul i1 [64, 128] scale=0.0047624405 zero_point=0
000000 e7 1a f5 c8 15 32 d9 0d f3 ce f2 f2 e3 00 a7 eb
       -0.11906101 0.12382345 -0.052386846 -0.26669666 0.10001125 0.23812202 -0.18573518 0.061911725 -0.061911725 -0.23812202 -0.066674165 -0.066674165 -0.13811077 0.0 -0.4238572 -0.10001125
000010 e1 08 eb f1 c0 f8 f6 05 e1 f1 23 f6 13 02 f3 16
       -0.14763565 0.038099524 -0.10001125 -0.07143661 -0.3047962 -0.038099524 -0.047624405 0.023812203 -0.14763565 -0.07143661 0.16668542 -0.047624405 0.09048637 0.009524881 -0.061911725 0.10477369
000020 fa eb 13 00 c2 ea 39 0c d4 08 e5 ff dd 1f 0f 0c
       -0.028574642 -0.10001125 0.09048637 0.0 -0.2952713 -0.10477369 0.2714591 0.057149284 -0.20954739 0.038099524 -0.12858589 -0.0047624405 -0.16668542 0.14763565 0.07143661 0.057149284
000030 f8 15 0b f6 e3 0a 03 14 f4 ff 11 12 02 e9 ee 12
       -0.038099524 0.10001125 0.052386846 -0.047624405 -0.13811077 0.047624405 0.014287321 0.09524881 -0.057149284 -0.0047624405 0.08096149 0.08572393 0.009524881 -0.10953613 -0.08572393 0.08572393
000040 f4 1f f9 11 f6 13 f4 13 ef ea f5 f6 1e 0d 11 e8
       -0.057149284 0.14763565 -0.033337083 0.08096149 -0.047624405 0.09048637 -0.057149284 0.09048637 -0.08096149 -0.10477369 -0.052386846 -0.047624405 0.14287321 0.061911725 0.08096149 -0.11429857
000050 fc 04 d6 11 f0 d7 fa 21 0e f6 bf 03 de ca d0 f3
       -0.019049762 0.019049762 -0.2000225 0.08096149 -0.07619905 -0.19526006 -0.028574642 0.15716054 0.066674165 -0.047624405 -0.30955863 0.014287321 -0.16192298 -0.25717178 -0.22859713 -0.061911725
000060 df f5 da ef e8 df 02 0c 0d d6 db c9 f8 0b 2c 0d
       -0.15716054 -0.052386846 -0.18097274 -0.08096149 -0.11429857 -0.15716054 0.009524881 0.057149284 0.061911725 -0.2000225 -0.1762103 -0.26193422 -0.038099524 0.052386846 0.20954739 0.061911725
000070 e1 d6 d0 c3 28 f5 18 e7 e9 e3 f8 13 ee 9f f4 1a
       -0.14763565 -0.2000225 -0.22859713 -0.29050887 0.19049762 -0.052386846 0.11429857 -0.11906101 -0.10953613 -0.13811077 -0.038099524 0.09048637 -0.08572393 -0.4619567 -0.057149284 0.12382345
000080 15 15 d7 fd e4 f3 20 08 d9 e9 0a e2 08 15 e4 1d
       0.10001125 0.10001125 -0.19526006 -0.014287321 -0.13334833 -0.061911725 0.1523981 0.038099524 -0.18573518 -0.10953613 0.047624405 -0.14287321 0.038099524 0.10001125 -0.13334833 0.13811077
000090 0e 07 0b e2 fd f3 fd fe 15 ee e6 0d e4 dc e0 fd
       0.066674165 0.033337083 0.052386846 -0.14287321 -0.014287321 -0.061911725 -0.014287321 -0.009524881 0.10001125 -0.08572393 -0.12382345 0.061911725 -0.13334833 -0.17144786 -0.1523981 -0.014287321
0000a0 1b f3 0b d3 1b ec f6 da f4 0c f2 fc e5 da 04 27
       0.12858589 -0.061911725 0.052386846 -0.21430983 0.12858589 -0.09524881 -0.047624405 -0.18097274 -0.057149284 0.057149284 -0.066674165 -0.019049762 -0.12858589 -0.18097274 0.019049762 0.18573518
0000b0 02 f3 1d fc 01 16 df f5 dc f5 09 eb e4 fc f5 0b
       0.009524881 -0.061911725 0.13811077 -0.019049762 0.0047624405 0.10477369 -0.15716054 -0.052386846 -0.17144786 -0.052386846 0.042861965 -0.10001125 -0.13334833 -0.019049762 -0.052386846 0.052386846
0000c0 f7 f6 0b 11 e6 0e de 0a fa 12 e7 ee 04 f3 03 09
       -0.042861965 -0.047624405 0.052386846 0.08096149 -0.12382345 0.066674165 -0.16192298 0.047624405 -0.028574642 0.08572393 -0.11906101 -0.08572393 0.019049762 -0.061911725 0.014287321 0.042861965
0000d0 21 e7 ee 10 e2 06 fd 1b e3 11 d9 21 dd 07 ee 0b
       0.15716054 -0.11906101 -0.08572393 0.07619905 -0.14287321 0.028574642 -0.014287321 0.12858589 -0.13811077 0.08096149 -0.18573518 0.15716054 -0.16668542 0.033337083 -0.08572393 0.052386846
0000e0 ed e7 07 02 f4 0e 06 04 d9 11 e6 f4 e2 03 e7 ff
       -0.09048637 -0.11906101 0.033337083 0.009524881 -0.057149284 0.066674165 0.028574642 0.019049762 -0.18573518 0.08096149 -0.12382345 -0.057149284 -0.14287321 0.014287321 -0.11906101 -0.0047624405
0000f0 ff 09 e4 dd e0 ef e8 fc 0d 0b 24 e3 ed d4 08 fb
       -0.0047624405 0.042861965 -0.13334833 -0.16668542 -0.1523981 -0.08096149 -0.11429857 -0.019049762 0.061911725 0.052386846 0.17144786 -0.13811077 -0.09048637 -0.20954739 0.038099524 -0.023812203

model/dense_2/MatMul i1 [2, 64] scale=0.0019560338 zero_point=0
000000 ab 49 65 f4 53 cd f0 1c 07 0e 11 c3 e5 3a e0 20
       -0.16626287 0.14279047 0.19755942 -0.023472406 0.1623508 -0.09975772 -0.03129654 0.054768946 0.0136922365 0.027384473 0.033252575 -0.11931806 -0.05281291 0.11344996 -0.06259308 0.06259308
000010 03 07 26 72 4b ea 4c 38 14 f6 18 34 1a 04 2e ce
       0.0058681015 0.0136922365 0.07432928 0.22298785 0.14670253 -0.043032743 0.14865856 0.10953789 0.039120674 -0.019560337 0.046944812 0.101713754 0.050856877 0.007824135 0.089977555 -0.097801685
000020 74 01 d6 31 b4 18 30 b0 a1 43 da 48 b2 33 6c e8
       0.22689992 0.0019560338 -0.08215342 0.095845655 -0.14865856 0.046944812 0.093889624 -0.1564827 -0.1858232 0.13105427 -0.07432928 0.14083444 -0.15257064 0.09975772 0.21125165 -0.046944812
000030 40 b9 76 e8 f9 16 e9 ad a6 0d a6 e8 23 a8 91 1d
       0.12518616 -0.13887839 0.23081198 -0.046944812 -0.0136922365 0.043032743 -0.044988777 -0.1623508 -0.17604303 0.025428439 -0.17604303 -0.046944812 0.06846118 -0.17213097 -0.21711975 0.05672498
000040 3a a1 f0 36 fb b4 16 fe dd fd bd 56 e8 23 48 30
       0.11344996 -0.1858232 -0.03129654 0.10562582 -0.0097801685 -0.14865856 0.043032743 -0.0039120675 -0.06846118 -0.0058681015 -0.13105427 0.1682189 -0.046944812 0.06846118 0.14083444 0.093889624
000050 c2 7f 09 96 11 94 f1 5f 4b c3 d6 c5 b3 14 ca da
       -0.12127409 0.24841629 0.017604304 -0.20733958 0.033252575 -0.21125165 -0.029340506 0.1858232 0.14670253 -0.11931806 -0.08215342 -0.11540599 -0.1506146 0.039120674 -0.10562582 -0.07432928
000060 45 16 e9 13 15 6f 30 d2 d5 c3 44 42 4b 4d b7 25
       0.13496633 0.043032743 -0.044988777 0.03716464 0.04107671 0.21711975 0.093889624 -0.089977555 -0.08410945 -0.11931806 0.1330103 0.12909822 0.14670253 0.1506146 -0.14279047 0.07237325
000070 05 0d 00 ef a3 0c 50 b6 5b 05 38 bf cf fe de 0b
       0.0097801685 0.025428439 0.0 -0.033252575 -0.18191114 0.023472406 0.1564827 -0.1447465 0.17799906 0.0097801685 0.10953789 -0.12714219 -0.095845655 -0.0039120675 -0.06650515 0.021516372
