sd-card/config/ana-class100_0120_s1_q.tflite (tflite, 132144 bytes, 13 tensors)

sequential/conv2d/Conv2D i1 [64, 5, 5, 3]
4 -54 -30 -33 -11 -7 16 34
-14 -35 -44 -33 32 -22 -23 -10
-8 -9 -20 -4 12 -35 8 21
-33 -15 11 23 1 3 23 31
34 0 29 20 95 127 125 51
62 74 14 33 14 -6 11 -19
-52 -58 -42 75 92 92 25 54
26 -60 -14 -4 -48 -102 -101 -29
-70 -94 -26 -37 -31 -18 0 22
-37 -21 -22 -33 94 86 -17 74
92 -20 38 40 -21 49 46 -50
-31 -34 -5 29 66 8 25 41
63 -9 28 5 -12 -4 -39 -79
-62 50 10 -6 55 -49 -35 51
-102 -44 -3 -75 -62 -7 -53 -37
-14 -61 -54 25 -82 -52 32 -102
-70 27 -55 -25 -23 5 12 -36
-12 -27 42 -37 -19 37 2 1
20 57 83 -19 106 127 -9 52
65 -86 2 1 -61 -2 0 -91
-4 -24 -127 -89 -81 -29 -20 -22
-12 -13 27 20 78 80 -24 57
65 -58 -22 0 38 -1 16 51
-3 24 60 24 42 40 15 40
9 -39 -25 57 -42 6 65 -43
-35 39 -47 -3 21 -12 20 -6
-54 -61 100 22 19 73 -12 38
33 -42 4 -10 -10 -11 -21 -22
-30 -42 -46 -4 24 -32 -44 -12
-35 -51 -18 14 32 -48 72 101
12 -13 -21 84 -54 -67 86 -99
-79 37 -104 -86 58 -5 -4 -10
00000000: 04ca e2df f5f9 1022 f2dd d4df 20ea e9f6
00000010: f8f7 ecfc 0cdd 0815 dff1 0b17 0103 171f
00000020: 2200 1d14 5f7f 7d33 3e4a 0e21 0efa 0bed
00000030: ccc6 d64b 5c5c 1936 1ac4 f2fc d09a 9be3
00000040: baa2 e6db e1ee 0016 dbeb eadf 5e56 ef4a
00000050: 5cec 2628 eb31 2ece e1de fb1d 4208 1929
00000060: 3ff7 1c05 f4fc d9b1 c232 0afa 37cf dd33
00000070: 9ad4 fdb5 c2f9 cbdb f2c3 ca19 aecc 209a
00000080: ba1b c9e7 e905 0cdc f4e5 2adb ed25 0201
00000090: 1439 53ed 6a7f f734 41aa 0201 c3fe 00a5
000000a0: fce8 81a7 afe3 ecea f4f3 1b14 4e50 e839
000000b0: 41c6 ea00 26ff 1033 fd18 3c18 2a28 0f28
000000c0: 09d9 e739 d606 41d5 dd27 d1fd 15f4 14fa
000000d0: cac3 6416 1349 f426 21d6 04f6 f6f5 ebea
000000e0: e2d6 d2fc 18e0 d4f4 ddcd ee0e 20d0 4865
000000f0: 0cf3 eb54 cabd 569d b125 98aa 3afb fcf6

sequential/conv2d_1/Conv2D i1 [64, 1, 1, 64]
-82 -67 20 -60 8 56 -71 -72
-120 -65 80 -90 -5 46 16 1
-71 4 -44 -55 -42 -11 65 -23
-70 -70 -18 -88 -8 -11 35 -127
-47 23 -6 -28 40 -40 -34 72
-13 -15 -69 64 85 -108 -49 -102
45 8 -22 9 44 -37 7 -68
-27 -96 16 30 13 -82 30 28
-16 -18 -10 8 -69 11 -11 35
-59 -4 71 -11 -48 -14 8 16
-25 -5 -22 -31 -56 51 -25 -26
-19 1 -90 67 -72 0 -34 -32
29 37 -58 14 -12 -17 -39 58
-53 14 8 -22 -79 -54 -98 -37
-43 -53 0 -12 10 -127 -42 -41
-71 -16 44 41 -46 -102 -24 14
-35 -36 57 4 -45 88 -42 -127
-80 -31 33 -22 -30 15 65 23
-71 -34 13 39 -39 -20 15 -34
-72 -7 -31 -37 -119 64 18 -40
-32 53 52 -74 18 43 -13 37
-58 38 31 -57 -49 -32 -34 -26
-56 2 -38 -33 -63 -53 -108 -31
-44 -14 -47 -4 3 -6 27 -42
33 -47 23 -127 26 -54 69 -38
28 -24 51 83 0 2 -40 -76
37 34 24 40 86 -49 46 42
-104 -39 -24 -51 56 13 -117 74
32 -29 -2 -20 12 -35 -49 1
2 -68 15 -13 -111 12 42 -17
-76 -36 12 -16 21 -32 -31 -55
40 -36 -50 2 -55 77 -30 -45
00000000: aebd 14c4 0838 b9b8 88bf 50a6 fb2e 1001
00000010: b904 d4c9 d6f5 41e9 baba eea8 f8f5 2381
00000020: d117 fae4 28d8 de48 f3f1 bb40 5594 cf9a
00000030: 2d08 ea09 2cdb 07bc e5a0 101e 0dae 1e1c
00000040: f0ee f608 bb0b f523 c5fc 47f5 d0f2 0810
00000050: e7fb eae1 c833 e7e6 ed01 a643 b800 dee0
00000060: 1d25 c60e f4ef d93a cb0e 08ea b1ca 9edb
00000070: d5cb 00f4 0a81 d6d7 b9f0 2c29 d29a e80e
00000080: dddc 3904 d358 d681 b0e1 21ea e20f 4117
00000090: b9de 0d27 d9ec 0fde b8f9 e1db 8940 12d8
000000a0: e035 34b6 122b f325 c626 1fc7 cfe0 dee6
000000b0: c802 dadf c1cb 94e1 d4f2 d1fc 03fa 1bd6
000000c0: 21d1 1781 1aca 45da 1ce8 3353 0002 d8b4
000000d0: 2522 1828 56cf 2e2a 98d9 e8cd 380d 8b4a
000000e0: 20e3 feec 0cdd cf01 02bc 0ff3 910c 2aef
000000f0: b4dc 0cf0 15e0 e1c9 28dc ce02 c94d e2d3

sequential/batch_normalization_1/FusedBatchNormV3 i1 [64] scale=0.018202169 zero_point=-128
2.3298776 3.3856034 2.693921 1.4925778 2.384484 3.4766142 2.9669535 2.8395383
1.5835887 0.6552781 2.5118992 0.89190626 1.3651626 2.0204408 1.8930255 2.9851556
1.5471843 0.94651276 0.5824694 1.9294299 4.2775097 1.6928017 1.3651626 1.5653865
2.5301015 1.7110039 1.4743757 1.9840364 1.0011193 2.2570689 2.2934732 2.4208884
1.9112277 1.401567 4.332116 2.4026864 2.6393144 1.0557258 1.3651626 2.147856
3.8042533 2.1842604 2.60291 2.5483036 2.0022385 0.5824694 2.8213363 0.89190626
1.073928 3.130773 1.7474082 2.4208884 1.2377474 0.6916824 2.1842604 3.2763903
2.2388668 2.8759427 3.9316685 1.4561735 2.8941448 1.2741518 4.641553 3.0397623
00000000: 003a 14d2 033f 231c d7a4 0ab1 cbef e824
00000010: d5b4 a0ea 6bdd cbd6 0bde d1ed b7fc fe05
00000020: e9cd 6e04 11ba cbf6 51f8 0f0c eea0 1bb1
00000030: bb2c e005 c4a6 f834 fb1e 58d0 1fc6 7f27

sequential/batch_normalization_1/FusedBatchNormV31 i1 [64] scale=0.0058071297 zero_point=127
-0.85364807 -0.76073396 -0.9175265 -0.7665411 -0.9001051 -1.1498116 -0.79557675 -0.59813434
-0.8362267 -1.0336691 -1.207883 -1.480818 -0.52264166 -0.9755978 -1.1323903 -0.6097486
-0.9755978 -1.480818 -1.0452833 -0.6794342 -0.8768766 -1.0568976 -1.3066041 -0.88849086
-1.161426 -1.0104406 -0.9523693 -0.66201276 -0.66201276 -1.1962687 -0.9059122 -0.7839625
-0.9059122 -1.0685118 -0.9059122 -1.1672331 -0.7026627 -0.75492686 -0.7433126 -0.93494785
-0.92333364 -0.96398354 -1.0627047 -0.8652623 -1.0627047 -1.2020758 -0.83041954 -1.027862
-1.0220548 -0.59813434 -0.87106943 -1.1440046 -1.3240255 -1.2659543 -0.79557675 -0.9581764
-0.88849086 -0.7839625 -0.79557675 -0.76073396 -0.61555576 -1.21369 -0.7723482 -0.8768766
00000000: ecfc e1fb e4b9 f618 efcd af80 25d7 bc16
00000010: d780 cb0a e8c9 9ee6 b7d1 db0d 0db1 e3f8
00000020: e3c7 e3b6 06fd ffde e0d9 c8ea c8b0 f0ce
00000030: cf18 e9ba 9ba5 f6da e6f8 f6fc 15ae fae8

sequential/conv2d_2/Conv2D i1 [64, 3, 3, 64]
8 -9 -7 26 8 -4 -17 -28
14 -58 33 -53 -62 5 -34 44
-13 47 -70 -22 20 -58 6 25
22 -5 -35 -61 -76 24 -18 -75
-15 3 -16 -11 -62 -54 -14 -6
-13 -18 -13 26 47 -43 -22 -38
-71 -8 -27 15 -1 -7 -38 57
-34 -67 5 -20 21 -20 -10 -76
9 -39 31 -8 19 9 21 -51
-57 -70 -10 -27 -35 43 -34 3
-34 25 -59 -11 -31 -14 -39 7
47 -18 -14 30 -47 17 -18 -2
14 -34 9 -12 -66 -13 37 -13
-34 27 9 -46 -7 -18 -42 -58
-20 -5 -84 41 8 -27 -35 29
-31 -29 16 -30 -4 -28 5 -52
13 48 0 -83 -29 -14 -38 50
9 -74 0 29 -22 -28 15 -77
65 -41 40 -67 -7 -6 46 37
-46 45 -41 34 7 -9 -8 59
51 48 -28 -47 18 -48 34 34
-22 -82 -38 10 -61 22 13 -23
44 31 12 -44 23 -65 -36 -3
-25 51 9 -63 -22 -101 -38 14
-1 -33 23 26 13 21 1 -1
-9 -72 -40 -23 -59 28 -17 -57
-56 7 0 -59 -49 -26 -48 21
13 30 -95 -14 16 16 -49 -23
-35 -41 -5 -9 -47 -11 -41 -40
6 1 37 13 -87 -32 -87 5
-6 72 -57 27 -20 -21 39 -11
3 5 -38 -46 7 -69 -2 -76
00000000: 08f7 f91a 08fc efe4 0ec6 21cb c205 de2c
00000010: f32f baea 14c6 0619 16fb ddc3 b418 eeb5
00000020: f103 f0f5 c2ca f2fa f3ee f31a 2fd5 eada
00000030: b9f8 e50f fff9 da39 debd 05ec 15ec f6b4
00000040: 09d9 1ff8 1309 15cd c7ba f6e5 dd2b de03
00000050: de19 c5f5 e1f2 d907 2fee f21e d111 eefe
00000060: 0ede 09f4 bef3 25f3 de1b 09d2 f9ee d6c6
00000070: ecfb ac29 08e5 dd1d e1e3 10e2 fce4 05cc
00000080: 0d30 00ad e3f2 da32 09b6 001d eae4 0fb3
00000090: 41d7 28bd f9fa 2e25 d22d d722 07f7 f83b
000000a0: 3330 e4d1 12d0 2222 eaae da0a c316 0de9
000000b0: 2c1f 0cd4 17bf dcfd e733 09c1 ea9b da0e
000000c0: ffdf 171a 0d15 01ff f7b8 d8e9 c51c efc7
000000d0: c807 00c5 cfe6 d015 0d1e a1f2 1010 cfe9
000000e0: ddd7 fbf7 d1f5 d7d8 0601 250d a9e0 a905
000000f0: fa48 c71b eceb 27f5 0305 dad2 07bb feb4

sequential/conv2d_3/Conv2D i1 [64, 3, 3, 64]
4 16 39 -34 68 -59 40 -118
-38 31 -23 -45 -61 -39 2 44
23 -45 -1 24 4 -12 14 37
15 -3 -52 -45 16 -56 20 -15
38 30 -39 -26 41 -24 52 -41
-20 14 -61 -5 35 -60 40 -21
23 -44 -127 -111 48 7 -54 -34
-47 -54 34 -54 -33 38 -38 -71
-16 -28 14 -62 -12 -22 -37 26
-22 -18 -42 -30 20 -19 1 -40
18 -49 -65 33 87 41 -29 44
30 -102 -36 25 0 -71 51 -33
47 -46 45 56 -28 -16 -25 30
5 -1 -72 -84 -3 55 -10 -33
-41 30 27 -27 14 -16 38 -50
-35 -14 -2 -21 25 -41 -23 -10
-6 -1 -62 13 28 53 -50 -7
-16 -21 -40 -6 13 -15 -48 -23
-13 6 26 -8 -32 -33 -1 -8
-4 18 59 -7 -44 1 -17 85
-3 -26 -48 -4 -2 26 5 8
-54 41 -23 11 -27 15 3 -15
-45 16 39 16 -14 17 36 103
2 -51 46 7 30 -53 -45 19
-50 -21 17 49 19 -44 25 -84
106 21 -18 18 -16 -19 19 16
-19 54 -22 0 -19 -62 -33 -10
11 -54 -7 -27 -4 11 -29 -59
22 49 7 -63 12 -33 48 -7
-31 -7 -40 -4 -1 -79 -38 5
9 25 -75 -77 -55 -3 -82 -29
6 -77 -31 -101 -24 -37 -11 4
00000000: 0410 27de 44c5 288a da1f e9d3 c3d9 022c
00000010: 17d3 ff18 04f4 0e25 0ffd ccd3 10c8 14f1
00000020: 261e d9e6 29e8 34d7 ec0e c3fb 23c4 28eb
00000030: 17d4 8191 3007 cade d1ca 22ca df26 dab9
00000040: f0e4 0ec2 f4ea db1a eaee d6e2 14ed 01d8
00000050: 12cf bf21 5729 e32c 1e9a dc19 00b9 33df
00000060: 2fd2 2d38 e4f0 e71e 05ff b8ac fd37 f6df
00000070: d71e 1be5 0ef0 26ce ddf2 feeb 19d7 e9f6
00000080: faff c20d 1c35 cef9 f0eb d8fa 0df1 d0e9
00000090: f306 1af8 e0df fff8 fc12 3bf9 d401 ef55
000000a0: fde6 d0fc fe1a 0508 ca29 e90b e50f 03f1
000000b0: d310 2710 f211 2467 02cd 2e07 1ecb d313
000000c0: ceeb 1131 13d4 19ac 6a15 ee12 f0ed 1310
000000d0: ed36 ea00 edc2 dff6 0bca f9e5 fc0b e3c5
000000e0: 1631 07c1 0cdf 30f9 e1f9 d8fc ffb1 da05
000000f0: 0919 b5b3 c9fd aee3 06b3 e19b e8db f504

sequential/batch_normalization_2/FusedBatchNormV3 i1 [64] scale=0.12233162 zero_point=-128
0.24466324 0.12233162 31.194563 0.24466324 0.12233162 0.12233162 0.24466324 0.12233162
0.12233162 25.68964 0.12233162 0.12233162 0.24466324 0.24466324 0.12233162 0.12233162
0.12233162 28.625599 0.12233162 27.035288 0.12233162 0.12233162 0.24466324 0.24466324
0.24466324 0.12233162 0.12233162 0.12233162 0.12233162 0.12233162 0.24466324 0.12233162
0.12233162 0.12233162 0.24466324 0.24466324 0.12233162 0.7339897 0.12233162 0.12233162
0.12233162 0.12233162 0.12233162 0.12233162 27.646946 0.12233162 0.12233162 0.12233162
0.24466324 0.12233162 29.48192 0.12233162 0.24466324 0.12233162 0.12233162 0.12233162
0.12233162 0.12233162 0.12233162 0.24466324 0.12233162 0.12233162 0.12233162 0.24466324
00000000: 8281 7f82 8181 8281 8152 8181 8282 8181
00000010: 816a 815d 8181 8282 8281 8181 8181 8281
00000020: 8181 8282 8186 8181 8181 8181 6281 8181
00000030: 8281 7181 8281 8181 8181 8182 8181 8182

sequential/batch_normalization_2/FusedBatchNormV31 i1 [64] scale=0.007528526 zero_point=95
-0.6248676 -1.046465 0.112927884 -0.7904952 -1.0841078 -1.2497352 -0.73779553 -1.445477
-1.159393 0.060228206 -1.0765792 -0.5796965 -0.8808375 -0.79802376 -1.2798494 -1.0615221
-1.2196212 -0.25596988 -1.3099635 0.097870834 -0.9787083 -1.2497352 -0.95612276 -0.63239616
-0.8130808 -0.7227385 -1.2045641 -1.1368074 -1.3250206 -1.3476061 -0.8808375 -1.1970356
-1.0916362 -1.2647923 -0.9410657 -0.92600864 -0.8130808 -0.33878365 -1.1142218 -1.0314081
-1.0389366 -0.9485943 -0.9109516 -0.83566636 -0.12045641 -1.0916362 -1.2045641 -1.1669215
-0.8808375 -1.6788613 0.24091282 -1.0991647 -0.9410657 -0.9636513 -1.0690507 -1.0238795
-1.1066933 -0.88836604 -1.17445 -0.82060933 -1.4003057 -1.4530054 -1.2045641 -0.8130808
00000000: 0cd4 6ef6 cfb9 fd9f c567 d012 eaf5 b5d2
00000010: bd3d b16c ddb9 e00b f3ff bfc8 afac eac0
00000020: ceb7 e2e4 f332 cbd6 d5e1 e6f0 4fce bfc4
00000030: ea80 7fcd e2df d1d7 cce9 c3f2 a59e bff3

sequential/conv2d_4/Conv2D i1 [32, 3, 3, 64]
-4 -41 -57 -5 -20 -36 29 -38
25 -1 6 -40 -47 21 30 -26
-30 4 -55 -28 8 -32 15 35
20 -54 -11 -38 -1 -54 -11 -9
-10 27 -20 14 47 23 49 -6
-34 -47 -38 -64 23 -37 2 -43
-32 -59 -32 50 -46 46 -21 8
-10 37 12 -19 -44 -7 47 2
38 -24 -64 31 -4 -29 -31 1
-12 -43 62 30 74 18 -46 -45
23 23 -59 -40 6 -44 -42 18
8 20 -66 -38 -9 -27 1 -24
-58 -63 -83 23 18 8 49 -25
-31 -4 -86 -13 45 -11 38 -75
22 -1 -74 14 3 -12 -28 -1
-2 -11 -27 0 -17 17 -34 11
-36 25 -6 -94 -27 -31 -18 52
3 -20 27 -48 -25 -46 -69 -46
-44 22 -43 0 -34 18 -72 41
-111 -12 -9 -65 8 19 49 39
-34 14 -37 -75 -39 8 33 46
49 -23 -46 -35 37 -61 15 -57
-49 -72 -18 13 -13 -24 -4 -51
-74 -1 40 40 61 24 43 -21
-30 -53 -16 -53 -60 1 30 3
37 1 -55 45 1 -36 15 13
-82 18 -7 -14 35 -11 -63 35
-8 12 -61 1 -4 -59 2 34
-47 -19 -57 26 -16 56 -75 -92
24 12 -33 9 42 -8 -30 17
-23 6 -27 -52 -28 38 -56 -51
-51 6 17 -22 -7 -17 -82 -2
00000000: fcd7 c7fb ecdc 1dda 19ff 06d8 d115 1ee6
00000010: e204 c9e4 08e0 0f23 14ca f5da ffca f5f7
00000020: f61b ec0e 2f17 31fa ded1 dac0 17db 02d5
00000030: e0c5 e032 d22e eb08 f625 0ced d4f9 2f02
00000040: 26e8 c01f fce3 e101 f4d5 3e1e 4a12 d2d3
00000050: 1717 c5d8 06d4 d612 0814 beda f7e5 01e8
00000060: c6c1 ad17 1208 31e7 e1fc aaf3 2df5 26b5
00000070: 16ff b60e 03f4 e4ff fef5 e500 ef11 de0b
00000080: dc19 faa2 e5e1 ee34 03ec 1bd0 e7d2 bbd2
00000090: d416 d500 de12 b829 91f4 f7bf 0813 3127
000000a0: de0e dbb5 d908 212e 31e9 d2dd 25c3 0fc7
000000b0: cfb8 ee0d f3e8 fccd b6ff 2828 3d18 2beb
000000c0: e2cb f0cb c401 1e03 2501 c92d 01dc 0f0d
000000d0: ae12 f9f2 23f5 c123 f80c c301 fcc5 0222
000000e0: d1ed c71a f038 b5a4 180c df09 2af8 e211
000000f0: e906 e5cc e426 c8cd cd06 11ea f9ef aefe

sequential/conv2d_5/Conv2D i1 [32, 3, 3, 32]
-16 -5 -17 -20 -4 -23 -17 24
-29 -31 -4 -38 -2 -13 -29 -2
-37 -3 -26 -16 -17 -62 10 2
10 19 -53 1 -18 -23 -21 -33
31 -45 -29 22 8 30 -12 -18
-41 -25 0 19 17 -66 -27 -57
-48 -23 -69 -38 -39 -40 1 8
41 13 -22 -14 -10 1 1 -8
39 39 0 -4 29 49 28 33
25 11 19 -22 -6 -17 39 -5
-16 -30 -66 -22 20 23 28 -35
-3 -127 -32 5 -40 1 -6 12
13 -30 -66 48 -61 -89 9 27
-8 28 -13 19 15 10 27 10
9 4 33 21 9 5 2 76
-25 43 42 -6 15 -23 -37 22
-9 -17 -8 0 26 46 -11 -1
-19 -6 -31 -8 31 8 4 19
29 -13 22 -34 -22 -25 -57 11
-23 31 -118 3 -17 2 21 -20
-8 -65 -15 9 -65 26 29 18
24 -60 18 -23 -11 4 -7 -43
-10 -43 -42 -8 -7 17 -3 -31
-21 2 7 20 37 21 11 -9
7 16 -30 -7 -26 29 -41 35
11 18 -51 12 54 -42 -7 32
16 -18 10 -25 15 30 -30 15
-42 -13 13 1 9 25 8 -2
47 14 18 -34 -53 35 22 -31
-3 37 13 -15 46 -68 -21 -8
28 20 -18 26 -2 6 -50 -73
12 45 17 -47 40 -15 34 54
00000000: f0fb efec fce9 ef18 e3e1 fcda fef3 e3fe
00000010: dbfd e6f0 efc2 0a02 0a13 cb01 eee9 ebdf
00000020: 1fd3 e316 081e f4ee d7e7 0013 11be e5c7
00000030: d0e9 bbda d9d8 0108 290d eaf2 f601 01f8
00000040: 2727 00fc 1d31 1c21 190b 13ea faef 27fb
00000050: f0e2 beea 1417 1cdd fd81 e005 d801 fa0c
00000060: 0de2 be30 c3a7 091b f81c f313 0f0a 1b0a
00000070: 0904 2115 0905 024c e72b 2afa 0fe9 db16
00000080: f7ef f800 1a2e f5ff edfa e1f8 1f08 0413
00000090: 1df3 16de eae7 c70b e91f 8a03 ef02 15ec
000000a0: f8bf f109 bf1a 1d12 18c4 12e9 f504 f9d5
000000b0: f6d5 d6f8 f911 fde1 eb02 0714 2515 0bf7
000000c0: 0710 e2f9 e61d d723 0b12 cd0c 36d6 f920
000000d0: 10ee 0ae7 0f1e e20f d6f3 0d01 0919 08fe
000000e0: 2f0e 12de cb23 16e1 fd25 0df1 2ebc ebf8
000000f0: 1c14 ee1a fe06 ceb7 0c2d 11d1 28f1 2236

sequential/batch_normalization_3/FusedBatchNormV3 i1 [32] scale=0.09895767 zero_point=-128
0.3958307 0.3958307 0.3958307 0.3958307 0.3958307 0.3958307 0.3958307 0.3958307
0.3958307 0.3958307 0.3958307 0.3958307 0.3958307 0.3958307 0.3958307 0.29687303
0.3958307 0.3958307 0.3958307 0.3958307 0.3958307 0.3958307 0.3958307 0.3958307
0.3958307 0.29687303 0.49478835 0.29687303 0.3958307 0.3958307 25.234207 0.3958307
00000000: 8484 8484 8484 8484 8484 8484 8484 8483
00000010: 8484 8484 8484 8484 8483 8583 8484 7f84

sequential/batch_normalization_3/FusedBatchNormV31 i1 [32] scale=0.009283359 zero_point=127
-2.0887558 -2.2837064 -2.1537392 -2.2372897 -2.2187228 -2.0887558 -2.0794725 -2.0794725
-2.3579733 -2.0794725 -2.1908727 -2.1630228 -2.2094395 -2.0237722 -2.3672566 -2.1815894
-2.0980392 -2.0887558 -2.0237722 -2.172306 -2.2929897 -2.2558563 -2.2001562 -1.9866389
-2.0887558 -1.9587888 -2.144456 -2.2094395 -2.2187228 -1.8195384 0.0 -2.3672566
00000000: 9e89 978e 909e 9f9f 819f 9396 91a5 8094
00000010: 9d9e a595 888c 92a9 9eac 9891 90bb 7f80

sequential/dense/MatMul i1 [100, 32] scale=0.0039892853 zero_point=0
-0.3869607 -0.41887495 0.26728213 0.047871426 0.16754998 0.17153926 0.11967856 0.19547498
-0.36302495 -0.33908924 0.107710704 -0.3829714 0.11169999 0.03590357 -0.3271214 0.15957141
-0.37499282 -0.45477852 0.21143213 -0.3510571 -0.30318567 -0.36302495 0.17951784 0.17552856
0.17153926 0.09973213 -0.34307852 -0.33908924 0.22339998 0.19547498 -0.107710704 0.063828565
-0.39493924 -0.42685354 0.25930354 0.16754998 0.15558213 0.16754998 -0.2712714 0.19946426
-0.39493924 -0.3271214 -0.33908924 -0.39493924 -0.31515354 -0.09973213 -0.3271214 0.17153926
-0.36701426 -0.43882138 0.23137856 -0.33908924 -0.34706783 -0.33509997 0.17552856 0.1914857
0.1635607 -0.2991964 -0.28323925 -0.3231321 0.21143213 0.17951784 -0.11169999 -0.091753565
-0.39892852 -0.09574285 0.25132498 0.107710704 0.04388214 0.1914857 -0.35903567 0.21143213
-0.36302495 -0.33509997 -0.39094996 -0.34307852 -0.34307852 0.04388214 -0.2712714 0.15957141
-0.36302495 0.08377499 0.25132498 -0.34706783 -0.34307852 -0.31515354 0.1635607 0.17153926
0.17951784 -0.33908924 0.13164641 -0.31116426 0.18749641 0.107710704 0.08776428 -0.0039892853
-0.37499282 0.091753565 0.24334641 0.19547498 -0.39493924 0.20744283 -0.36701426 0.22738926
-0.37499282 -0.3271214 -0.3869607 -0.39094996 -0.3510571 -0.14760356 0.17951784 0.17951784
-0.34706783 0.11967856 0.25930354 -0.3550464 -0.33509997 -0.3271214 0.13164641 0.17951784
0.091753565 -0.34307852 0.14361428 -0.30717498 0.17552856 -0.40291783 -0.13962498 0.0
-0.3829714 0.12366784 0.21941069 0.1914857 -0.42286426 0.22339998 -0.23935711 0.21941069
-0.3829714 -0.3271214 -0.3829714 0.039892852 -0.18749641 -0.25132498 0.21143213 0.1635607
-0.3311107 0.1635607 0.24334641 -0.31515354 -0.34307852 -0.28722855 -0.055849995 0.1914857
0.11568928 -0.31515354 0.16754998 -0.30318567 -0.43084282 -0.42286426 0.11169999 -0.24334641
-0.3829714 0.11169999 0.21143213 0.18749641 -0.41887495 0.24334641 -0.027924998 0.21941069
-0.39892852 -0.3231321 -0.36701426 0.007978571 0.13962498 -0.2752607 0.22738926 0.1635607
-0.3550464 0.17552856 0.24334641 0.09574285 -0.06781785 -0.2991964 -0.40291783 0.18749641
-0.13962498 -0.3231321 0.17552856 -0.2952071 -0.43084282 -0.40291783 0.011967856 -0.29121783
-0.4108964 0.091753565 0.063828565 0.18749641 -0.41887495 0.23536783 -0.19547498 0.21542141
-0.31515354 -0.33908924 -0.37100354 -0.04388214 0.1914857 -0.26728213 0.21542141 0.12366784
-0.37100354 0.17153926 0.22339998 0.17153926 0.019946426 0.10372142 -0.41488567 0.17552856
-0.0039892853 -0.30318567 0.18749641 -0.30318567 -0.45477852 0.047871426 -0.06781785 -0.34706783
-0.37100354 0.039892852 -0.2991964 0.17552856 -0.42685354 0.23137856 -0.2712714 0.20744283
0.05983928 -0.3311107 -0.36302495 -0.027924998 0.20744283 -0.2952071 0.21143213 0.011967856
-0.36701426 0.17153926 0.11967856 0.19946426 0.031914283 0.1914857 -0.39094996 0.17951784
0.05186071 -0.31515354 0.18350713 -0.31914282 -0.31116426 0.14760356 -0.09574285 -0.3550464
00000000: 9f97 430c 2a2b 1e31 a5ab 1ba0 1c09 ae28
00000010: a28e 35a8 b4a5 2d2c 2b19 aaab 3831 e510
00000020: 9d95 412a 272a bc32 9dae ab9d b1e7 ae2b
00000030: a492 3aab a9ac 2c30 29b5 b9af 352d e4e9
00000040: 9ce8 3f1b 0b30 a635 a5ac 9eaa aa0b bc28
00000050: a515 3fa9 aab1 292b 2dab 21b2 2f1b 16ff
00000060: a217 3d31 9d34 a439 a2ae 9f9e a8db 2d2d
00000070: a91e 41a7 acae 212d 17aa 24b3 2c9b dd00
00000080: a01f 3730 9638 c437 a0ae a00a d1c1 3529
00000090: ad29 3db1 aab8 f230 1db1 2ab4 9496 1cc3
000000a0: a01c 352f 973d f937 9caf a402 23bb 3929
000000b0: a72c 3d18 efb5 9b2f ddaf 2cb6 949b 03b7
000000c0: 9917 102f 973b cf36 b1ab a3f5 30bd 361f
000000d0: a32b 382b 051a 982c ffb4 2fb4 8e0c efa9
000000e0: a30a b52c 953a bc34 0fad a5f9 34b6 3503
000000f0: a42b 1e32 0830 9e2d 0db1 2eb0 b225 e8a7
