sd-card/config/ana-cont_1400_s2_q.tflite (tflite, 53576 bytes, 6 tensors)

tfl.pseudo_qconst1 i1 [2, 64] scale=0.0033131114 zero_point=0
0	0xd6	-0.13915068
1	0x22	0.11264579
2	0x5b	0.30149314
3	0x26	0.12589823
4	0x56	0.28492758
5	0x0c	0.039757337
6	0xa0	-0.3180587
7	0x81	-0.42076513
8	0xab	-0.28161445
9	0x33	0.16896868
10	0x93	-0.36112913
11	0x69	0.3478767
12	0xf1	-0.04969667
13	0xef	-0.056322895
14	0xd4	-0.1457769
15	0x48	0.23854402
16	0x99	-0.34125048
17	0xd4	-0.1457769
18	0x1c	0.09276712
19	0x38	0.18553424
20	0xe2	-0.09939334
21	0x3e	0.20541291
22	0xe7	-0.082827784
23	0x0b	0.036444224
24	0x04	0.0132524455
25	0x44	0.22529158
26	0xd2	-0.15240312
27	0xeb	-0.06957534
28	0xb9	-0.23523091
29	0xe7	-0.082827784
30	0x59	0.29486692
31	0x4b	0.24848336
32	0xb7	-0.24185713
33	0xb9	-0.23523091
34	0x1e	0.09939334
35	0x11	0.056322895
36	0x5e	0.31143248
37	0x21	0.10933267
38	0x74	0.3843209
39	0x1f	0.102706455
40	0x20	0.106019564
41	0xe4	-0.09276712
42	0x25	0.12258512
43	0x0b	0.036444224
44	0x33	0.16896868
45	0x1f	0.102706455
46	0xfa	-0.019878669
47	0x51	0.26836202
48	0xb8	-0.23854402
49	0x5e	0.31143248
50	0x1c	0.09276712
51	0xc9	-0.18222113
52	0xe4	-0.09276712
53	0x73	0.38100782
54	0xcb	-0.1755949
55	0xb4	-0.25179645
56	0xce	-0.16565557
57	0x43	0.22197846
58	0x34	0.17228179
59	0xd9	-0.12921134
60	0xc4	-0.19878668
61	0xb5	-0.24848336
62	0xd2	-0.15240312
63	0xf9	-0.02319178
64	0xca	-0.17890802
65	0xcb	-0.1755949
66	0x20	0.106019564
67	0x2d	0.14909
68	0xb1	-0.2617358
69	0x90	-0.37106848
70	0x1c	0.09276712
71	0xfa	-0.019878669
72	0x2f	0.15571624
73	0x31	0.16234246
74	0xe4	-0.09276712
75	0xc6	-0.19216046
76	0xdd	-0.1159589
77	0x22	0.11264579
78	0x45	0.22860469
79	0x25	0.12258512
80	0x3f	0.20872602
81	0xa5	-0.30149314
82	0x11	0.056322895
83	0x0f	0.04969667
84	0x51	0.26836202
85	0x58	0.2915538
86	0xc1	-0.20872602
87	0xa1	-0.31474558
88	0xc0	-0.21203913
89	0xdd	-0.1159589
90	0x08	0.026504891
91	0x9e	-0.32468492
92	0x7f	0.42076513
93	0x2b	0.14246379
94	0xde	-0.11264579
95	0xd3	-0.14909
96	0x07	0.02319178
97	0xe3	-0.09608023
98	0xe5	-0.08945401
99	0x06	0.019878669
100	0x5b	0.30149314
101	0xb3	-0.25510958
102	0x13	0.06294911
103	0xbf	-0.21535224
104	0xab	-0.28161445
105	0x06	0.019878669
106	0x05	0.016565558
107	0xd2	-0.15240312
108	0x56	0.28492758
109	0x57	0.2882407
110	0x9e	-0.32468492
111	0x06	0.019878669
112	0xcc	-0.17228179
113	0x9d	-0.327998
114	0x3b	0.19547357
115	0xcc	-0.17228179
116	0x43	0.22197846
117	0xea	-0.07288845
118	0xcd	-0.16896868
119	0x13	0.06294911
120	0x4a	0.24517024
121	0xff	-0.0033131114
122	0xf2	-0.04638356
123	0xb3	-0.25510958
124	0x96	-0.3511898
125	0x31	0.16234246
126	0x66	0.33793736
127	0x21	0.10933267

tfl.pseudo_qconst3 i1 [64, 128] scale=0.004038102 zero_point=0
0	0xf9	-0.028266713
1	0xed	-0.07672394
2	0xd9	-0.15748598
3	0x06	0.024228612
4	0x13	0.07672394
5	0x0f	0.06057153
6	0x01	0.004038102
7	0x0c	0.048457224
8	0x21	0.13325736
9	0xea	-0.08883824
10	0xf6	-0.04038102
11	0x01	0.004038102
12	0x12	0.07268584
13	0xdd	-0.14133357
14	0x0d	0.052495327
15	0x1f	0.12518117
16	0x1c	0.11306685
17	0x14	0.08076204
18	0x06	0.024228612
19	0x11	0.068647735
20	0x01	0.004038102
21	0x03	0.012114306
22	0x15	0.08480014
23	0x19	0.10095255
24	0xf5	-0.04441912
25	0xae	-0.33112437
26	0xfa	-0.024228612
27	0xda	-0.15344788
28	0xdf	-0.13325736
29	0x1a	0.10499065
30	0x27	0.15748598
31	0xb5	-0.30285764
32	0x06	0.024228612
33	0xdb	-0.14940977
34	0xdc	-0.14537168
35	0x1c	0.11306685
36	0x04	0.016152408
37	0xf0	-0.06460963
38	0xb7	-0.29478145
39	0xda	-0.15344788
40	0xcb	-0.2140194
41	0x09	0.03634292
42	0xfe	-0.008076204
43	0x0c	0.048457224
44	0xf7	-0.03634292
45	0x12	0.07268584
46	0xff	-0.004038102
47	0x02	0.008076204
48	0xec	-0.08076204
49	0xda	-0.15344788
50	0x0d	0.052495327
51	0x10	0.06460963
52	0xe0	-0.12921926
53	0xf0	-0.06460963
54	0x00	0.0
55	0xf7	-0.03634292
56	0x07	0.028266713
57	0x0d	0.052495327
58	0xe8	-0.09691445
59	0xf7	-0.03634292
60	0x25	0.14940977
61	0xe0	-0.12921926
62	0x1c	0.11306685
63	0x1b	0.10902876
64	0x12	0.07268584
65	0xf1	-0.06057153
66	0xf7	-0.03634292
67	0x1b	0.10902876
68	0x07	0.028266713
69	0xda	-0.15344788
70	0xdd	-0.14133357
71	0x16	0.08883824
72	0x2f	0.1897908
73	0x20	0.12921926
74	0x00	0.0
75	0xdf	-0.13325736
76	0xd6	-0.16960028
77	0x02	0.008076204
78	0x06	0.024228612
79	0xfb	-0.02019051
80	0xf2	-0.056533426
81	0x13	0.07672394
82	0x1b	0.10902876
83	0xee	-0.07268584
84	0x0b	0.04441912
85	0xf3	-0.052495327
86	0x19	0.10095255
87	0x05	0.02019051
88	0xd3	-0.1817146
89	0xfd	-0.012114306
90	0xd4	-0.17767648
91	0xf8	-0.032304816
92	0xeb	-0.08480014
93	0xfa	-0.024228612
94	0x13	0.07672394
95	0xe8	-0.09691445
96	0xec	-0.08076204
97	0x05	0.02019051
98	0xe4	-0.11306685
99	0x2d	0.1817146
100	0x1a	0.10499065
101	0x1c	0.11306685
102	0x00	0.0
103	0xd7	-0.16556218
104	0xd5	-0.17363839
105	0xda	-0.15344788
106	0x22	0.13729547
107	0xe1	-0.12518117
108	0x0d	0.052495327
109	0x05	0.02019051
110	0xf8	-0.032304816
111	0x15	0.08480014
112	0x00	0.0
113	0xe9	-0.092876345
114	0x27	0.15748598
115	0x00	0.0
116	0xdc	-0.14537168
117	0xf7	-0.03634292
118	0xd2	-0.18575269
119	0x00	0.0
120	0x0f	0.06057153
121	0x11	0.068647735
122	0xf8	-0.032304816
123	0xd9	-0.15748598
124	0x20	0.12921926
125	0x1b	0.10902876
126	0xe0	-0.12921926
127	0xda	-0.15344788
128	0xdb	-0.14940977
129	0xe2	-0.12114306
130	0xf1	-0.06057153
131	0x0f	0.06057153
132	0xe2	-0.12114306
133	0x20	0.12921926
134	0xf2	-0.056533426
135	0xe2	-0.12114306
136	0x10	0.06460963
137	0xe1	-0.12518117
138	0x17	0.092876345
139	0xce	-0.2019051
140	0x08	0.032304816
141	0x01	0.004038102
142	0x02	0.008076204
143	0xda	-0.15344788
144	0xe0	-0.12921926
145	0xdb	-0.14940977
146	0xd9	-0.15748598
147	0x23	0.14133357
148	0xf5	-0.04441912
149	0x26	0.15344788
150	0xd5	-0.17363839
151	0x23	0.14133357
152	0xf7	-0.03634292
153	0xe1	-0.12518117
154	0xdf	-0.13325736
155	0xe9	-0.092876345
156	0xfa	-0.024228612
157	0xf3	-0.052495327
158	0x06	0.024228612
159	0xef	-0.068647735
160	0xf6	-0.04038102
161	0x23	0.14133357
162	0x21	0.13325736
163	0x19	0.10095255
164	0xf2	-0.056533426
165	0x11	0.068647735
166	0xe1	-0.12518117
167	0x0e	0.056533426
168	0x24	0.14537168
169	0x03	0.012114306
170	0xea	-0.08883824
171	0xf6	-0.04038102
172	0x08	0.032304816
173	0x02	0.008076204
174	0x26	0.15344788
175	0x08	0.032304816
176	0x1c	0.11306685
177	0x1c	0.11306685
178	0xf1	-0.06057153
179	0x0b	0.04441912
180	0xee	-0.07268584
181	0x1a	0.10499065
182	0xd7	-0.16556218
183	0x1a	0.10499065
184	0xd0	-0.1938289
185	0xea	-0.08883824
186	0xde	-0.13729547
187	0xd3	-0.1817146
188	0x26	0.15344788
189	0x0d	0.052495327
190	0xee	-0.07268584
191	0x2b	0.17363839
192	0xf8	-0.032304816
193	0xe4	-0.11306685
194	0xe1	-0.12518117
195	0xfb	-0.02019051
196	0x0a	0.04038102
197	0xe9	-0.092876345
198	0x1d	0.117104955
199	0x18	0.09691445
200	0x06	0.024228612
201	0x13	0.07672394
202	0xff	-0.004038102
203	0xe8	-0.09691445
204	0x05	0.02019051
205	0xf2	-0.056533426
206	0x01	0.004038102
207	0x23	0.14133357
208	0x0b	0.04441912
209	0xe1	-0.12518117
210	0xfc	-0.016152408
211	0x21	0.13325736
212	0x2a	0.16960028
213	0xd9	-0.15748598
214	0x18	0.09691445
215	0x16	0.08883824
216	0xdb	-0.14940977
217	0xfc	-0.016152408
218	0xf4	-0.048457224
219	0x1e	0.12114306
220	0x13	0.07672394
221	0xeb	-0.08480014
222	0xdc	-0.14537168
223	0x02	0.008076204
224	0xd1	-0.1897908
225	0xda	-0.15344788
226	0x09	0.03634292
227	0xde	-0.13729547
228	0xd1	-0.1897908
229	0x1b	0.10902876
230	0x2b	0.17363839
231	0x05	0.02019051
232	0xe5	-0.10902876
233	0xe8	-0.09691445
234	0xe2	-0.12114306
235	0x18	0.09691445
236	0x0f	0.06057153
237	0x06	0.024228612
238	0xeb	-0.08480014
239	0x1b	0.10902876
240	0x16	0.08883824
241	0x18	0.09691445
242	0x27	0.15748598
243	0x2a	0.16960028
244	0x0c	0.048457224
245	0xd6	-0.16960028
246	0x00	0.0
247	0x22	0.13729547
248	0xde	-0.13729547
249	0x17	0.092876345
250	0xe1	-0.12518117
251	0x13	0.07672394
252	0xf1	-0.06057153
253	0x01	0.004038102
254	0xf6	-0.04038102
255	0xd4	-0.17767648

tfl.pseudo_qconst5 i1 [128, 128] scale=0.0028950872 zero_point=0
0	0x08	0.023160698
1	0x29	0.118698575
2	0x07	0.02026561
3	0x0a	0.028950872
4	0x37	0.1592298
5	0x0c	0.034741048
6	0xc4	-0.17370524
7	0x19	0.07237718
8	0x18	0.069482096
9	0x0d	0.037636135
10	0xb7	-0.21134137
11	0xed	-0.055006657
12	0xfc	-0.011580349
13	0xf8	-0.023160698
14	0xb9	-0.20555119
15	0x49	0.21134137
16	0xed	-0.055006657
17	0x12	0.05211157
18	0xe0	-0.09264279
19	0xdc	-0.10422314
20	0x16	0.06369192
21	0xfe	-0.0057901745
22	0xc7	-0.16501997
23	0x11	0.049216483
24	0x41	0.18818067
25	0x1d	0.08395753
26	0x1e	0.08685262
27	0xfd	-0.008685262
28	0x1b	0.07816736
29	0xbe	-0.19107576
30	0xe6	-0.07527227
31	0x38	0.16212489
32	0x1a	0.07527227
33	0xe3	-0.08395753
34	0xdb	-0.10711823
35	0xe4	-0.08106244
36	0x1d	0.08395753
37	0xbe	-0.19107576
38	0x01	0.0028950872
39	0xe4	-0.08106244
40	0x00	0.0
41	0x10	0.046321396
42	0xe3	-0.08395753
43	0x1e	0.08685262
44	0x20	0.09264279
45	0x10	0.046321396
46	0x25	0.10711823
47	0xbe	-0.19107576
48	0xc3	-0.17660032
49	0xd3	-0.13027893
50	0x13	0.055006657
51	0x0b	0.03184596
52	0x21	0.09553788
53	0xba	-0.2026561
54	0x07	0.02026561
55	0xe9	-0.06658701
56	0x01	0.0028950872
57	0xd5	-0.12448875
58	0xe5	-0.07816736
59	0x02	0.0057901745
60	0x16	0.06369192
61	0x34	0.15054454
62	0xfc	-0.011580349
63	0xc9	-0.1592298
64	0xa2	-0.2721382
65	0xc4	-0.17370524
66	0xff	-0.0028950872
67	0x1f	0.089747705
68	0x12	0.05211157
69	0x3c	0.17370524
70	0x09	0.026055785
71	0x19	0.07237718
72	0x03	0.008685262
73	0x0f	0.04342631
74	0xdb	-0.10711823
75	0xec	-0.057901744
76	0xd9	-0.1129084
77	0xfb	-0.014475436
78	0x26	0.11001331
79	0xbd	-0.19397084
80	0xf7	-0.026055785
81	0x27	0.1129084
82	0x03	0.008685262
83	0xe5	-0.07816736
84	0xf6	-0.028950872
85	0x15	0.06079683
86	0xfb	-0.014475436
87	0xde	-0.098432966
88	0x11	0.049216483
89	0x39	0.16501997
90	0x20	0.09264279
91	0xe1	-0.089747705
92	0xd9	-0.1129084
93	0xd3	-0.13027893
94	0xfc	-0.011580349
95	0xc3	-0.17660032
96	0x34	0.15054454
97	0xf1	-0.04342631
98	0xaa	-0.2489775
99	0x16	0.06369192
100	0xf1	-0.04342631
101	0xd1	-0.1360691
102	0x0d	0.037636135
103	0xf5	-0.03184596
104	0x30	0.13896419
105	0xfb	-0.014475436
106	0xf8	-0.023160698
107	0xba	-0.2026561
108	0x0d	0.037636135
109	0xf8	-0.023160698
110	0x50	0.23160698
111	0x00	0.0
112	0x03	0.008685262
113	0xda	-0.11001331
114	0xe0	-0.09264279
115	0x2e	0.13317402
116	0xe9	-0.06658701
117	0xcd	-0.14764945
118	0xb6	-0.21423645
119	0xec	-0.057901744
120	0xdc	-0.10422314
121	0xc3	-0.17660032
122	0x1d	0.08395753
123	0x12	0.05211157
124	0x4b	0.21713154
125	0x26	0.11001331
126	0x09	0.026055785
127	0xfa	-0.017370524
128	0xf4	-0.034741048
129	0xd9	-0.1129084
130	0xf7	-0.026055785
131	0x10	0.046321396
132	0xd4	-0.12738384
133	0xfc	-0.011580349
134	0xe4	-0.08106244
135	0x01	0.0028950872
136	0x1a	0.07527227
137	0xe6	-0.07527227
138	0x00	0.0
139	0x1c	0.08106244
140	0xee	-0.05211157
141	0x20	0.09264279
142	0xe7	-0.07237718
143	0x0d	0.037636135
144	0xf4	-0.034741048
145	0xf1	-0.04342631
146	0xff	-0.0028950872
147	0x32	0.14475437
148	0xf8	-0.023160698
149	0xe5	-0.07816736
150	0x1b	0.07816736
151	0x20	0.09264279
152	0xf2	-0.04053122
153	0x0b	0.03184596
154	0xf4	-0.034741048
155	0xca	-0.15633471
156	0xee	-0.05211157
157	0x28	0.11580349
158	0xf2	-0.04053122
159	0xd6	-0.12159366
160	0x32	0.14475437
161	0xd5	-0.12448875
162	0x37	0.1592298
163	0xd6	-0.12159366
164	0xbf	-0.18818067
165	0x22	0.098432966
166	0xf5	-0.03184596
167	0x13	0.055006657
168	0xf3	-0.037636135
169	0x0d	0.037636135
170	0xff	-0.0028950872
171	0xd1	-0.1360691
172	0xaa	-0.2489775
173	0x13	0.055006657
174	0x32	0.14475437
175	0xe8	-0.069482096
176	0x07	0.02026561
177	0x0b	0.03184596
178	0xcf	-0.14185928
179	0xd7	-0.118698575
180	0x25	0.10711823
181	0xef	-0.049216483
182	0xff	-0.0028950872
183	0x1a	0.07527227
184	0xe9	-0.06658701
185	0x03	0.008685262
186	0x31	0.14185928
187	0xde	-0.098432966
188	0xf4	-0.034741048
189	0xfd	-0.008685262
190	0x08	0.023160698
191	0xee	-0.05211157
192	0xe5	-0.07816736
193	0xd3	-0.13027893
194	0x06	0.017370524
195	0x04	0.011580349
196	0x2b	0.12448875
197	0xc7	-0.16501997
198	0xcc	-0.15054454
199	0xc6	-0.16791506
200	0x08	0.023160698
201	0x2f	0.1360691
202	0xf0	-0.046321396
203	0x25	0.10711823
204	0x0e	0.04053122
205	0xf5	-0.03184596
206	0x05	0.014475436
207	0xf9	-0.02026561
208	0x2a	0.12159366
209	0xf4	-0.034741048
210	0xfe	-0.0057901745
211	0xeb	-0.06079683
212	0xca	-0.15633471
213	0xf7	-0.026055785
214	0xde	-0.098432966
215	0xdd	-0.10132805
216	0x05	0.014475436
217	0xdc	-0.10422314
218	0x1d	0.08395753
219	0xe3	-0.08395753
220	0xbb	-0.19976102
221	0xee	-0.05211157
222	0x15	0.06079683
223	0x1c	0.08106244
224	0xe5	-0.07816736
225	0x1c	0.08106244
226	0x15	0.06079683
227	0xb0	-0.23160698
228	0x19	0.07237718
229	0x06	0.017370524
230	0xec	-0.057901744
231	0x16	0.06369192
232	0xfc	-0.011580349
233	0xfa	-0.017370524
234	0xbd	-0.19397084
235	0x2e	0.13317402
236	0xe6	-0.07527227
237	0x06	0.017370524
238	0x0e	0.04053122
239	0x03	0.008685262
240	0xc7	-0.16501997
241	0x1b	0.07816736
242	0xfc	-0.011580349
243	0xcf	-0.14185928
244	0x0d	0.037636135
245	0xda	-0.11001331
246	0xfd	-0.008685262
247	0x29	0.118698575
248	0xd7	-0.118698575
249	0xe5	-0.07816736
250	0x1b	0.07816736
251	0x02	0.0057901745
252	0xe8	-0.069482096
253	0xfa	-0.017370524
254	0xf1	-0.04342631
255	0x09	0.026055785

tfl.pseudo_qconst7 i1 [32, 3, 3, 16]
0	0x16	22
1	0x33	51
2	0xe3	-29
3	0x0c	12
4	0xd7	-41
5	0xf2	-14
6	0xf7	-9
7	0xf3	-13
8	0xdd	-35
9	0xfe	-2
10	0x24	36
11	0xf3	-13
12	0xbe	-66
13	0xa8	-88
14	0xf9	-7
15	0x1d	29
16	0x10	16
17	0x30	48
18	0xee	-18
19	0xf5	-11
20	0xd3	-45
21	0x0c	12
22	0x81	-127
23	0xd5	-43
24	0xa7	-89
25	0xd0	-48
26	0x2c	44
27	0x20	32
28	0x0f	15
29	0xe1	-31
30	0xd5	-43
31	0x04	4
32	0x14	20
33	0x2e	46
34	0xdf	-33
35	0xdb	-37
36	0xf7	-9
37	0xf2	-14
38	0x53	83
39	0x0d	13
40	0x12	18
41	0x2c	44
42	0xfe	-2
43	0xdc	-36
44	0x18	24
45	0x29	41
46	0x20	32
47	0x0f	15
48	0x3d	61
49	0x0a	10
50	0xc5	-59
51	0x34	52
52	0xd6	-42
53	0x06	6
54	0xfe	-2
55	0xf6	-10
56	0x26	38
57	0xe1	-31
58	0x27	39
59	0x18	24
60	0x02	2
61	0xd4	-44
62	0x1b	27
63	0x18	24
64	0x09	9
65	0xde	-34
66	0x09	9
67	0xb7	-73
68	0xe2	-30
69	0x24	36
70	0xe3	-29
71	0x04	4
72	0x1a	26
73	0x28	40
74	0xe4	-28
75	0xff	-1
76	0x01	1
77	0xe5	-27
78	0x20	32
79	0x01	1
80	0xf6	-10
81	0x06	6
82	0xf3	-13
83	0x1a	26
84	0x05	5
85	0x2b	43
86	0x0d	13
87	0x3e	62
88	0x35	53
89	0x1a	26
90	0x1a	26
91	0x22	34
92	0x0a	10
93	0x1b	27
94	0x2b	43
95	0x05	5
96	0x0b	11
97	0x08	8
98	0x11	17
99	0xea	-22
100	0xe0	-32
101	0x03	3
102	0xf6	-10
103	0xe6	-26
104	0xed	-19
105	0x30	48
106	0x05	5
107	0x02	2
108	0x24	36
109	0x1f	31
110	0x0f	15
111	0xc9	-55
112	0x24	36
113	0x05	5
114	0x0b	11
115	0x0d	13
116	0xf6	-10
117	0x0c	12
118	0xbc	-68
119	0xf8	-8
120	0xfe	-2
121	0xf5	-11
122	0x14	20
123	0x27	39
124	0xe1	-31
125	0xf4	-12
126	0xe4	-28
127	0xc2	-62
128	0xfb	-5
129	0x24	36
130	0x09	9
131	0x14	20
132	0x25	37
133	0xf0	-16
134	0xf5	-11
135	0x07	7
136	0xec	-20
137	0xef	-17
138	0x11	17
139	0x1a	26
140	0x0f	15
141	0x30	48
142	0x18	24
143	0xef	-17
144	0x19	25
145	0xdd	-35
146	0x0b	11
147	0xf3	-13
148	0x24	36
149	0x2d	45
150	0xe1	-31
151	0xe8	-24
152	0x85	-123
153	0xfd	-3
154	0x11	17
155	0xe6	-26
156	0xec	-20
157	0x48	72
158	0x0f	15
159	0xed	-19
160	0x26	38
161	0x16	22
162	0x22	34
163	0x23	35
164	0xda	-38
165	0xd8	-40
166	0xd3	-45
167	0x28	40
168	0x2d	45
169	0xba	-70
170	0x01	1
171	0x1d	29
172	0xf9	-7
173	0xe5	-27
174	0xf1	-15
175	0xec	-20
176	0xff	-1
177	0xf5	-11
178	0xd7	-41
179	0xd1	-47
180	0x22	34
181	0xde	-34
182	0x1a	26
183	0x13	19
184	0x58	88
185	0xdd	-35
186	0xe2	-30
187	0xfa	-6
188	0xcb	-53
189	0x14	20
190	0x12	18
191	0x49	73
192	0xf6	-10
193	0xce	-50
194	0xe2	-30
195	0xea	-22
196	0xbf	-65
197	0xd7	-41
198	0xeb	-21
199	0x07	7
200	0xe0	-32
201	0x01	1
202	0x15	21
203	0xe3	-29
204	0x13	19
205	0x24	36
206	0xee	-18
207	0x38	56
208	0xa5	-91
209	0xf2	-14
210	0xda	-38
211	0xb8	-72
212	0x32	50
213	0x21	33
214	0x97	-105
215	0xa3	-93
216	0xde	-34
217	0xde	-34
218	0xe0	-32
219	0x44	68
220	0xbc	-68
221	0xb7	-73
222	0xd5	-43
223	0xbd	-67
224	0xed	-19
225	0xff	-1
226	0x3e	62
227	0x0d	13
228	0xef	-17
229	0x1d	29
230	0x08	8
231	0x08	8
232	0x1e	30
233	0x15	21
234	0xcc	-52
235	0x28	40
236	0x21	33
237	0x23	35
238	0xfa	-6
239	0xf2	-14
240	0x39	57
241	0x28	40
242	0x19	25
243	0xfb	-5
244	0xf3	-13
245	0xc5	-59
246	0x5e	94
247	0xe9	-23
248	0x1b	27
249	0x7f	127
250	0x0e	14
251	0xcb	-53
252	0x0e	14
253	0x1e	30
254	0xf5	-11
255	0x0d	13

tfl.pseudo_qconst9 i1 [16, 5, 5, 32]
0	0xbe	-66
1	0x0d	13
2	0xe2	-30
3	0xf3	-13
4	0xc4	-60
5	0x0d	13
6	0xf7	-9
7	0xdb	-37
8	0xfe	-2
9	0x03	3
10	0xf2	-14
11	0x0b	11
12	0xdc	-36
13	0xcd	-51
14	0xca	-54
15	0xf8	-8
16	0xf6	-10
17	0xea	-22
18	0xda	-38
19	0x22	34
20	0xd0	-48
21	0x00	0
22	0xef	-17
23	0xea	-22
24	0x0e	14
25	0x01	1
26	0xcf	-49
27	0xc1	-63
28	0x11	17
29	0xe9	-23
30	0xf8	-8
31	0xd6	-42
32	0xf2	-14
33	0xde	-34
34	0xf5	-11
35	0x23	35
36	0xed	-19
37	0xe6	-26
38	0xfd	-3
39	0x09	9
40	0xf3	-13
41	0xdd	-35
42	0x12	18
43	0xf9	-7
44	0xf3	-13
45	0xe7	-25
46	0x01	1
47	0xc3	-61
48	0xca	-54
49	0xd2	-46
50	0xdf	-33
51	0x10	16
52	0xbe	-66
53	0xd4	-44
54	0xd5	-43
55	0xd3	-45
56	0x0c	12
57	0xee	-18
58	0xe2	-30
59	0x12	18
60	0xc0	-64
61	0xcb	-53
62	0x04	4
63	0xd4	-44
64	0xe3	-29
65	0xbf	-65
66	0xf1	-15
67	0xf5	-11
68	0xeb	-21
69	0x10	16
70	0x15	21
71	0xdb	-37
72	0x15	21
73	0xf5	-11
74	0xf8	-8
75	0xdd	-35
76	0xe5	-27
77	0xf6	-10
78	0xd9	-39
79	0xc9	-55
80	0xb6	-74
81	0x0d	13
82	0xe0	-32
83	0xe9	-23
84	0xec	-20
85	0x0d	13
86	0x0f	15
87	0xcb	-53
88	0xd3	-45
89	0x06	6
90	0xcd	-51
91	0xe6	-26
92	0xd7	-41
93	0xc2	-62
94	0xf4	-12
95	0x1e	30
96	0x16	22
97	0xd9	-39
98	0x29	41
99	0xda	-38
100	0x1d	29
101	0xff	-1
102	0x05	5
103	0xe1	-31
104	0x09	9
105	0xca	-54
106	0xe2	-30
107	0xd5	-43
108	0xd5	-43
109	0x1e	30
110	0xca	-54
111	0x14	20
112	0xdc	-36
113	0x1e	30
114	0xf8	-8
115	0x29	41
116	0xf5	-11
117	0x20	32
118	0xe7	-25
119	0xfd	-3
120	0xfb	-5
121	0xcb	-53
122	0x09	9
123	0xe2	-30
124	0xd7	-41
125	0x2c	44
126	0xf4	-12
127	0xf0	-16
128	0xc2	-62
129	0x04	4
130	0xf9	-7
131	0xfc	-4
132	0x2e	46
133	0x05	5
134	0xfa	-6
135	0x03	3
136	0x03	3
137	0xf5	-11
138	0xe8	-24
139	0xd4	-44
140	0x23	35
141	0xf5	-11
142	0xed	-19
143	0xe8	-24
144	0x1c	28
145	0x2b	43
146	0x2d	45
147	0x11	17
148	0xe4	-28
149	0x40	64
150	0x2f	47
151	0xbf	-65
152	0xef	-17
153	0xce	-50
154	0x01	1
155	0xfd	-3
156	0xfc	-4
157	0xfa	-6
158	0x27	39
159	0x0f	15
160	0xf4	-12
161	0xf6	-10
162	0x15	21
163	0xdb	-37
164	0x01	1
165	0xfd	-3
166	0xdc	-36
167	0x11	17
168	0xce	-50
169	0x08	8
170	0xbf	-65
171	0x0f	15
172	0x1e	30
173	0xae	-82
174	0xc7	-57
175	0xd7	-41
176	0xfd	-3
177	0x17	23
178	0xcb	-53
179	0xf6	-10
180	0x11	17
181	0x0c	12
182	0xfc	-4
183	0xd5	-43
184	0xbf	-65
185	0xdb	-37
186	0xe2	-30
187	0xce	-50
188	0x04	4
189	0x27	39
190	0xf4	-12
191	0x10	16
192	0xc5	-59
193	0x00	0
194	0x22	34
195	0xe9	-23
196	0xcf	-49
197	0x0c	12
198	0x1f	31
199	0xeb	-21
200	0xd5	-43
201	0x17	23
202	0x0f	15
203	0x1c	28
204	0xeb	-21
205	0xfc	-4
206	0xc1	-63
207	0xc4	-60
208	0xc6	-58
209	0x07	7
210	0x04	4
211	0xed	-19
212	0xd9	-39
213	0x05	5
214	0x17	23
215	0x16	22
216	0xf7	-9
217	0xf3	-13
218	0x0a	10
219	0xd8	-40
220	0xdc	-36
221	0xc9	-55
222	0xe7	-25
223	0x10	16
224	0xfa	-6
225	0xdc	-36
226	0x00	0
227	0x0e	14
228	0xd4	-44
229	0x0a	10
230	0xd8	-40
231	0xc8	-56
232	0xed	-19
233	0x36	54
234	0xfa	-6
235	0xeb	-21
236	0x04	4
237	0xd1	-47
238	0xfc	-4
239	0x24	36
240	0xf0	-16
241	0xc4	-60
242	0x07	7
243	0xe3	-29
244	0xd2	-46
245	0x24	36
246	0x31	49
247	0x4a	74
248	0xeb	-21
249	0xc7	-57
250	0x13	19
251	0x27	39
252	0xd7	-41
253	0x00	0
254	0xce	-50
255	0xdd	-35

tfl.pseudo_qconst11 i1 [32, 5, 5, 3]
0	0x2f	47
1	0xb8	-72
2	0xcb	-53
3	0x0a	10
4	0xf0	-16
5	0xe8	-24
6	0x19	25
7	0x02	2
8	0x17	23
9	0xe2	-30
10	0x04	4
11	0xff	-1
12	0xf4	-12
13	0x50	80
14	0x38	56
15	0x2e	46
16	0x9b	-101
17	0xf3	-13
18	0xf5	-11
19	0xf6	-10
20	0xda	-38
21	0x00	0
22	0x16	22
23	0x32	50
24	0xa4	-92
25	0x1b	27
26	0x0f	15
27	0xe2	-30
28	0x40	64
29	0x25	37
30	0x2b	43
31	0xc2	-62
32	0xaa	-86
33	0xea	-22
34	0xef	-17
35	0xf0	-16
36	0xfa	-6
37	0x41	65
38	0x55	85
39	0x9f	-97
40	0x09	9
41	0x1a	26
42	0xce	-50
43	0x17	23
44	0x41	65
45	0x62	98
46	0xad	-83
47	0x9c	-100
48	0xf7	-9
49	0xd0	-48
50	0xfb	-5
51	0x07	7
52	0x30	48
53	0x34	52
54	0xb4	-76
55	0x55	85
56	0x30	48
57	0xcf	-49
58	0x0e	14
59	0x19	25
60	0x7f	127
61	0x97	-105
62	0x98	-104
63	0x3b	59
64	0xc7	-57
65	0xb1	-79
66	0x13	19
67	0x19	25
68	0xdc	-36
69	0xe9	-23
70	0x48	72
71	0x2f	47
72	0xf7	-9
73	0x11	17
74	0x32	50
75	0xd4	-44
76	0x81	-127
77	0xa8	-88
78	0x1d	29
79	0xfd	-3
80	0x57	87
81	0xed	-19
82	0x4d	77
83	0x23	35
84	0x50	80
85	0x0b	11
86	0x36	54
87	0xff	-1
88	0x0f	15
89	0xf7	-9
90	0x0d	13
91	0xf9	-7
92	0xe7	-25
93	0xca	-54
94	0xb3	-77
95	0xdb	-37
96	0xe3	-29
97	0x0d	13
98	0x16	22
99	0x06	6
100	0x39	57
101	0x57	87
102	0x0b	11
103	0x0b	11
104	0x28	40
105	0x12	18
106	0x12	18
107	0x06	6
108	0x08	8
109	0xcf	-49
110	0xd3	-45
111	0xc9	-55
112	0xa0	-96
113	0xef	-17
114	0xf2	-14
115	0x20	32
116	0x48	72
117	0x1a	26
118	0x37	55
119	0x61	97
120	0x55	85
121	0x0b	11
122	0xee	-18
123	0x13	19
124	0xf1	-15
125	0xf9	-7
126	0x10	16
127	0xff	-1
128	0x27	39
129	0x81	-127
130	0xb4	-76
131	0xcb	-53
132	0x02	2
133	0x2e	46
134	0xf5	-11
135	0x3a	58
136	0x29	41
137	0xe6	-26
138	0x13	19
139	0xee	-18
140	0x29	41
141	0xf9	-7
142	0xc2	-62
143	0x04	4
144	0xe6	-26
145	0xd4	-44
146	0xcb	-53
147	0xd7	-41
148	0xe9	-23
149	0xfb	-5
150	0xc5	-59
151	0x2b	43
152	0x04	4
153	0xb8	-72
154	0x27	39
155	0xf7	-9
156	0xed	-19
157	0x7f	127
158	0x77	119
159	0xbf	-65
160	0x4e	78
161	0x32	50
162	0xdf	-33
163	0x2e	46
164	0x23	35
165	0xd1	-47
166	0x1b	27
167	0x03	3
168	0xb6	-74
169	0x20	32
170	0x0c	12
171	0xd0	-48
172	0xe2	-30
173	0xfc	-4
174	0x9e	-98
175	0x15	21
176	0xdd	-35
177	0xd0	-48
178	0x19	25
179	0x0a	10
180	0x02	2
181	0x20	32
182	0x38	56
183	0xdd	-35
184	0x4e	78
185	0x02	2
186	0xa2	-94
187	0x30	48
188	0x2a	42
189	0x15	21
190	0x21	33
191	0x3b	59
192	0x13	19
193	0xe8	-24
194	0xfa	-6
195	0x14	20
196	0x1f	31
197	0x26	38
198	0xee	-18
199	0x06	6
200	0x04	4
201	0x1a	26
202	0x01	1
203	0x0e	14
204	0xee	-18
205	0xdf	-33
206	0xe2	-30
207	0xfe	-2
208	0xd0	-48
209	0xc0	-64
210	0x1c	28
211	0xff	-1
212	0x0e	14
213	0xf1	-15
214	0x11	17
215	0xc5	-59
216	0x51	81
217	0xc0	-64
218	0xf5	-11
219	0x4f	79
220	0xbe	-66
221	0xaa	-86
222	0x6e	110
223	0x87	-121
224	0xc1	-63
225	0xc2	-62
226	0x1c	28
227	0x2e	46
228	0xd2	-46
229	0x03	3
230	0xe6	-26
231	0xd1	-47
232	0xf2	-14
233	0x0e	14
234	0x01	1
235	0x08	8
236	0x11	17
237	0x19	25
238	0x18	24
239	0x58	88
240	0xcb	-53
241	0x2e	46
242	0x49	73
243	0xd6	-42
244	0x1e	30
245	0x1a	26
246	0xd8	-40
247	0xf7	-9
248	0xe5	-27
249	0x00	0
250	0x48	72
251	0x31	49
252	0x0c	12
253	0x12	18
254	0x38	56
255	0x07	7
