sd-card/config/ana-cont_1101_s2_q.tflite (tflite, 53328 bytes, 6 tensors)

model/conv2d/Conv2D i1 [32, 5, 5, 3]
-18 -61 -80 44 -78 -43 83 -31
0 109 -10 45 70 -20 1 20
-17 -21 -11 -104 -61 35 -111 -43
76 -44 50 75 -19 15 12 86
28 -24 -60 -25 -56 -103 -116 -35
-59 -63 42 33 -13 -2 73 54
16 96 120 15 8 -30 -98 -92
-45 -38 -82 -23 -105 80 95 -47
70 127 37 116 91 -9 -29 30
-89 -26 -49 -65 63 127 -55 65
47 -80 2 -15 -78 -16 -16 18
46 71 -23 93 92 -42 32 17
-66 -31 -23 -15 29 -10 45 -8
18 -38 21 26 24 13 14 52
20 -5 65 -39 -17 67 -37 25
-46 -55 -53 5 -26 1 104 -27
2 36 -67 -36 72 -98 -21 -17
-10 -29 68 -43 1 73 -62 -26
-5 -95 -50 38 -74 -42 2 26
4 8 62 14 -17 -12 4 -57
-74 -62 -13 -81 -46 -35 16 -33
10 26 38 -127 -39 -46 -42 -53
-17 22 72 68 3 4 -15 -9
30 -19 32 44 11 84 64 85
53 19 61 -10 -91 -29 72 1
-11 63 24 70 -29 -11 -50 -38
-22 39 36 -56 -61 62 28 -6
100 -9 -10 23 -39 -46 22 -70
0 -60 41 -12 13 -4 13 43
1 29 -1 4 -10 17 -33 -48
-61 28 -35 -127 -62 -94 -47 -69
-52 -37 -31 -78 -5 6 -45 43
00000000: eec3 b02c b2d5 53e1 006d f62d 46ec 0114
00000010: efeb f598 c323 91d5 4cd4 324b ed0f 0c56
00000020: 1ce8 c4e7 c899 8cdd c5c1 2a21 f3fe 4936
00000030: 1060 780f 08e2 9ea4 d3da aee9 9750 5fd1
00000040: 467f 2574 5bf7 e31e a7e6 cfbf 3f7f c941
00000050: 2fb0 02f1 b2f0 f012 2e47 e95d 5cd6 2011
00000060: bee1 e9f1 1df6 2df8 12da 151a 180d 0e34
00000070: 14fb 41d9 ef43 db19 d2c9 cb05 e601 68e5
00000080: 0224 bddc 489e ebef f6e3 44d5 0149 c2e6
00000090: fba1 ce26 b6d6 021a 0408 3e0e eff4 04c7
000000a0: b6c2 f3af d2dd 10df 0a1a 2681 d9d2 d6cb
000000b0: ef16 4844 0304 f1f7 1eed 202c 0b54 4055
000000c0: 3513 3df6 a5e3 4801 f53f 1846 e3f5 ceda
000000d0: ea27 24c8 c33e 1cfa 64f7 f617 d9d2 16ba
000000e0: 00c4 29f4 0dfc 0d2b 011d ff04 f611 dfd0
000000f0: c31c dd81 c2a2 d1bb ccdb e1b2 fb06 d32b

model/conv2d_1/Conv2D i1 [16, 5, 5, 32]
59 -58 24 -2 19 3 26 56
20 34 15 -3 -30 -35 10 -31
-28 57 -1 -22 -47 -38 -44 24
-7 21 52 -42 -7 -33 -14 23
-23 30 1 -21 2 47 4 -10
-27 28 -28 2 -38 25 -6 -40
40 12 -6 43 -6 35 57 -59
27 -38 52 -45 -49 -32 -50 -42
-37 40 -23 40 33 -50 -67 -27
-2 41 -4 -41 -37 -4 -14 -20
101 -66 10 -38 50 -85 -61 39
-75 40 8 -92 -21 -19 -29 9
-11 -25 -2 5 -8 -76 29 -52
3 -22 14 -71 -22 50 38 19
-2 -14 13 15 38 -22 0 -49
8 18 -86 -18 -1 66 16 -26
8 -34 -45 19 62 21 -19 -26
36 35 49 51 80 14 -54 -21
44 -2 11 -6 74 -50 59 30
-6 -14 62 93 72 -17 89 -26
-31 5 -50 -30 -28 -25 24 27
3 -3 -46 14 -50 -11 46 14
-51 -14 3 7 22 28 -2 -54
8 10 16 -4 -40 38 -45 -36
9 24 57 -51 -40 23 -37 -7
-13 64 -22 -59 -11 61 4 -31
39 -70 24 -7 73 -34 20 10
0 -33 48 16 11 -50 -4 -63
-40 19 35 -41 0 55 -45 -34
-27 -4 -16 -24 14 25 -5 -11
-57 10 -43 29 19 7 26 -54
26 -48 13 24 63 -35 -33 -9
00000000: 3bc6 18fe 1303 1a38 1422 0ffd e2dd 0ae1
00000010: e439 ffea d1da d418 f915 34d6 f9df f217
00000020: e91e 01eb 022f 04f6 e51c e402 da19 fad8
00000030: 280c fa2b fa23 39c5 1bda 34d3 cfe0 ced6
00000040: db28 e928 21ce bde5 fe29 fcd7 dbfc f2ec
00000050: 65be 0ada 32ab c327 b528 08a4 ebed e309
00000060: f5e7 fe05 f8b4 1dcc 03ea 0eb9 ea32 2613
00000070: fef2 0d0f 26ea 00cf 0812 aaee ff42 10e6
00000080: 08de d313 3e15 ede6 2423 3133 500e caeb
00000090: 2cfe 0bfa 4ace 3b1e faf2 3e5d 48ef 59e6
000000a0: e105 cee2 e4e7 181b 03fd d20e cef5 2e0e
000000b0: cdf2 0307 161c feca 080a 10fc d826 d3dc
000000c0: 0918 39cd d817 dbf9 f340 eac5 f53d 04e1
000000d0: 27ba 18f9 49de 140a 00df 3010 0bce fcc1
000000e0: d813 23d7 0037 d3de e5fc f0e8 0e19 fbf5
000000f0: c70a d51d 1307 1aca 1ad0 0d18 3fdd dff7

model/conv2d_2/Conv2D i1 [32, 3, 3, 16]
-52 108 -8 80 26 -28 11 11
-11 48 -14 39 -9 10 -51 55
19 -3 -44 -34 26 17 -35 -25
-99 -40 -37 -33 18 -39 30 20
29 -68 -54 -76 -17 43 32 -58
-56 -1 70 41 62 20 6 -60
52 -37 -18 -47 113 -24 13 79
-5 14 -97 -24 -34 -46 -4 11
15 -1 -6 -77 16 -68 -30 98
58 3 -36 23 22 25 -35 12
-22 29 7 47 -42 43 25 2
39 -4 -20 -7 29 46 -34 -53
-31 -18 -18 -66 -39 14 -21 75
-39 -40 -2 -49 -1 -29 -3 23
22 66 -7 -43 21 -17 -33 41
1 24 9 37 -18 3 23 -11
23 -20 11 -127 -25 -10 -31 -15
-42 27 -25 42 12 -50 44 -48
4 -1 8 -15 1 20 4 -6
-4 -14 29 -14 11 -14 8 -28
-19 36 -38 22 1 11 23 4
-14 -3 14 21 -25 14 -2 -15
2 -26 -21 -8 -35 -11 -15 7
-11 -25 12 -13 11 -2 -7 -11
46 -13 15 5 1 -26 28 -23
-5 25 1 -3 24 44 -46 -3
25 0 10 15 127 -31 23 -9
-6 24 -32 24 -27 -4 29 -13
-23 -25 -14 -28 5 10 -8 30
-10 6 -17 9 -12 12 36 -11
-21 -41 2 -10 -26 -46 19 21
-21 -24 18 13 -5 -42 -9 20
00000000: cc6c f850 1ae4 0b0b f530 f227 f70a cd37
00000010: 13fd d4de 1a11 dde7 9dd8 dbdf 12d9 1e14
00000020: 1dbc cab4 ef2b 20c6 c8ff 4629 3e14 06c4
00000030: 34db eed1 71e8 0d4f fb0e 9fe8 ded2 fc0b
00000040: 0fff fab3 10bc e262 3a03 dc17 1619 dd0c
00000050: ea1d 072f d62b 1902 27fc ecf9 1d2e decb
00000060: e1ee eebe d90e eb4b d9d8 fecf ffe3 fd17
00000070: 1642 f9d5 15ef df29 0118 0925 ee03 17f5
00000080: 17ec 0b81 e7f6 e1f1 d61b e72a 0cce 2cd0
00000090: 04ff 08f1 0114 04fa fcf2 1df2 0bf2 08e4
000000a0: ed24 da16 010b 1704 f2fd 0e15 e70e fef1
000000b0: 02e6 ebf8 ddf5 f107 f5e7 0cf3 0bfe f9f5
000000c0: 2ef3 0f05 01e6 1ce9 fb19 01fd 182c d2fd
000000d0: 1900 0a0f 7fe1 17f7 fa18 e018 e5fc 1df3
000000e0: e9e7 f2e4 050a f81e f606 ef09 f40c 24f5
000000f0: ebd7 02f6 e6d2 1315 ebe8 120d fbd6 f714

model/dense/MatMul i1 [128, 128] scale=0.002679271 zero_point=0
0.06698177 0.026792709 0.11252938 0.14468063 0.02947198 -0.016075626 -0.06966104 0.026792709
0.07769886 -0.06966104 0.042868335 -0.03483052 0.08037813 -0.07769886 -0.06698177 0.053585418
0.08037813 0.16611479 -0.14735991 -0.05626469 -0.06966104 0.045547605 -0.013396354 -0.048226878
-0.05894396 0.018754896 0.12592573 -0.07234032 0.09913302 -0.107170835 -0.120567195 0.101812296
0.16611479 0.045547605 0.053585418 -0.20094532 0.09913302 -0.11520865 -0.16343553 0.03483052
-0.20094532 0.08841594 -0.13932209 0.17683189 0.08573667 0.02947198 0.18486969 -0.11252938
0.045547605 0.05894396 0.03483052 -0.09913302 -0.021434167 0.14468063 0.040189065 0.08841594
0.008037813 -0.002679271 -0.13128428 0.096453756 0.018754896 0.008037813 0.14200136 -0.05894396
-0.16879407 -0.11788792 -0.06966104 -0.053585418 0.101812296 -0.042868335 0.016075626 -0.026792709
-0.026792709 0.08573667 0.008037813 -0.010717084 0.06162323 -0.03750979 -0.15003917 -0.010717084
-0.032151252 -0.09377448 -0.10449157 -0.13396354 0.064302504 -0.002679271 0.15271844 -0.03483052
-0.07501958 -0.12324646 0.024113439 0.07769886 0.03483052 -0.026792709 -0.06966104 0.02947198
-0.08573667 0.06698177 -0.21970022 -0.14735991 -0.19558677 -0.120567195 -0.024113439 0.07769886
0.11520865 -0.15807699 -0.040189065 -0.14200136 -0.03483052 -0.03483052 0.09109521 0.107170835
-0.018754896 0.120567195 -0.18486969 -0.024113439 -0.08841594 -0.08841594 -0.03750979 -0.016075626
-0.10985011 -0.19022824 0.15003917 -0.13128428 -0.016075626 0.08841594 0.050906148 -0.040189065
-0.12860501 0.026792709 -0.13932209 0.18754897 -0.03483052 0.083057396 -0.06698177 -0.010717084
0.08841594 -0.02947198 -0.11252938 0.040189065 0.08573667 -0.06698177 -0.03483052 -0.048226878
0.101812296 -0.040189065 -0.101812296 -0.16611479 -0.16879407 0.010717084 0.09377448 0.053585418
0.09913302 0.002679271 0.0 0.064302504 -0.07769886 0.013396354 0.07501958 0.09109521
0.17683189 -0.024113439 -0.048226878 -0.083057396 -0.06966104 0.002679271 0.05894396 -0.02947198
0.005358542 0.15271844 0.005358542 -0.19826604 0.08841594 0.15807699 -0.18486969 0.005358542
-0.045547605 -0.11788792 -0.13664281 -0.09109521 -0.026792709 0.08037813 0.05626469 0.16343553
-0.12860501 -0.083057396 -0.11788792 -0.14735991 0.008037813 0.11788792 0.11788792 -0.15807699
-0.013396354 -0.032151252 -0.048226878 -0.11520865 0.050906148 -0.032151252 0.0 0.10985011
-0.22773802 0.11252938 -0.042868335 0.120567195 0.026792709 0.016075626 -0.096453756 0.101812296
0.2116624 -0.045547605 -0.053585418 -0.08841594 -0.11520865 -0.10985011 -0.11520865 -0.008037813
-0.15271844 -0.053585418 0.09913302 -0.10985011 0.02947198 0.14735991 -0.013396354 0.040189065
0.002679271 0.021434167 -0.045547605 -0.018754896 -0.09377448 -0.09109521 0.026792709 -0.03750979
-0.06966104 -0.13664281 0.09109521 -0.08841594 0.07501958 -0.09377448 0.064302504 0.120567195
-0.040189065 0.07234032 -0.083057396 -0.048226878 -0.06698177 0.05894396 0.018754896 0.08037813
0.053585418 -0.002679271 -0.07501958 0.101812296 -0.040189065 -0.021434167 -0.08573667 -0.13396354
00000000: 190a 2a36 0bfa e60a 1de6 10f3 1ee3 e714
00000010: 1e3e c9eb e611 fbee ea07 2fe5 25d8 d326
00000020: 3e11 14b5 25d5 c30d b521 cc42 200b 45d6
00000030: 1116 0ddb f836 0f21 03ff cf24 0703 35ea
00000040: c1d4 e6ec 26f0 06f6 f620 03fc 17f2 c8fc
00000050: f4dd d9ce 18ff 39f3 e4d2 091d 0df6 e60b
00000060: e019 aec9 b7d3 f71d 2bc5 f1cb f3f3 2228
00000070: f92d bbf7 dfdf f2fa d7b9 38cf fa21 13f1
00000080: d00a cc46 f31f e7fc 21f5 d60f 20e7 f3ee
00000090: 26f1 dac2 c104 2314 2501 0018 e305 1c22
000000a0: 42f7 eee1 e601 16f5 0239 02b6 213b bb02
000000b0: efd4 cdde f61e 153d d0e1 d4c9 032c 2cc5
000000c0: fbf4 eed5 13f4 0029 ab2a f02d 0a06 dc26
000000d0: 4fef ecdf d5d7 d5fd c7ec 25d7 0b37 fb0f
000000e0: 0108 eff9 ddde 0af2 e6cd 22df 1cdd 182d
000000f0: f11b e1ee e716 071e 14ff e426 f1f8 e0ce

model/dense_1/MatMul i1 [64, 128] scale=0.0041168076 zero_point=0
-0.17290592 0.020584038 0.074102536 -0.18525635 -0.01646723 0.041168075 -0.14820507 0.020584038
-0.0535185 0.1605555 0.10292019 -0.012350423 -0.111153804 -0.14408827 0.08233615 -0.12762104
-0.18113953 0.012350423 -0.115270615 -0.024700847 -0.115270615 -0.01646723 0.1646723 -0.19348995
-0.08233615 -0.07821935 0.020584038 -0.08233615 0.0041168076 0.10292019 0.13173784 0.008233615
0.037051268 0.028817654 -0.115270615 -0.14408827 -0.15232188 -0.06586892 -0.115270615 0.090569764
-0.12762104 -0.13585465 -0.090569764 -0.15232188 -0.16878912 0.028817654 -0.107037 -0.20584038
0.08645296 -0.074102536 -0.098803386 -0.08233615 0.18113953 -0.18525635 0.115270615 -0.061752114
-0.10292019 0.107037 -0.16878912 -0.18113953 0.012350423 0.098803386 -0.037051268 -0.10292019
-0.15232188 0.037051268 -0.1564387 -0.12350423 -0.16878912 -0.17702273 0.098803386 -0.041168075
-0.111153804 0.0535185 0.13173784 -0.13585465 -0.13997146 0.13997146 -0.0535185 -0.20172358
0.061752114 0.15232188 -0.13173784 -0.008233615 -0.03293446 -0.16878912 -0.06998573 -0.0535185
-0.074102536 -0.037051268 0.0535185 -0.028817654 0.1564387 -0.098803386 0.11938742 -0.037051268
-0.1646723 0.16878912 -0.13585465 -0.115270615 0.090569764 -0.13173784 0.115270615 0.14408827
0.14408827 -0.111153804 -0.11938742 0.090569764 -0.1646723 -0.061752114 0.15232188 -0.14820507
-0.14408827 0.012350423 0.01646723 0.107037 -0.16878912 0.115270615 0.061752114 -0.01646723
0.045284882 -0.024700847 0.037051268 0.14408827 0.037051268 -0.08645296 0.1605555 -0.15232188
-0.45696566 0.06998573 -0.12350423 0.12350423 0.10292019 0.028817654 0.06586892 0.094686575
0.020584038 -0.020584038 0.037051268 -0.037051268 0.14408827 -0.19348995 -0.1646723 0.020584038
-0.08233615 -0.17290592 0.107037 0.18525635 0.15232188 -0.074102536 0.14820507 -0.35816225
-0.1646723 0.115270615 0.008233615 0.0041168076 0.0 -0.25112528 -0.074102536 -0.0041168076
-0.115270615 0.10292019 -0.28405973 0.0041168076 0.11938742 0.08233615 -0.045284882 -0.13585465
-0.020584038 -0.020584038 0.07821935 -0.098803386 -0.115270615 -0.2675925 -0.094686575 -0.057635307
-0.16878912 0.008233615 0.0 -0.1564387 0.111153804 0.049401693 -0.18113953 -0.0041168076
-0.028817654 0.098803386 -0.1646723 0.13997146 -0.115270615 -0.24700846 -0.098803386 -0.17290592
-0.041168075 -0.23877484 0.07821935 -0.049401693 0.024700847 -0.41579756 -0.08233615 0.061752114
0.107037 -0.1605555 0.1605555 0.115270615 -0.16878912 0.037051268 0.12350423 -0.1605555
-0.16878912 -0.06998573 -0.024700847 0.0 -0.107037 0.0535185 -0.10292019 -0.008233615
0.045284882 0.12350423 -0.23465803 0.037051268 0.028817654 0.15232188 0.18937315 -0.111153804
0.012350423 0.037051268 -0.2634757 -0.049401693 -0.012350423 0.14820507 0.041168075 0.074102536
0.024700847 -0.074102536 -0.13173784 -0.074102536 -0.07821935 0.094686575 -0.03293446 0.12350423
0.07821935 0.061752114 -0.08233615 -0.041168075 -0.35816225 -0.045284882 0.061752114 0.115270615
0.13585465 0.14408827 -0.08233615 -0.20172358 -0.11938742 -0.14820507 -0.19348995 -0.098803386
00000000: d605 12d3 fc0a dc05 f327 19fd e5dd 14e1
00000010: d403 e4fa e4fc 28d1 eced 05ec 0119 2002
00000020: 0907 e4dd dbf0 e416 e1df eadb d707 e6ce
00000030: 15ee e8ec 2cd3 1cf1 e71a d7d4 0318 f7e7
00000040: db09 dae2 d7d5 18f6 e50d 20df de22 f3cf
00000050: 0f25 e0fe f8d7 eff3 eef7 0df9 26e8 1df7
00000060: d829 dfe4 16e0 1c23 23e5 e316 d8f1 25dc
00000070: dd03 041a d71c 0ffc 0bfa 0923 09eb 27db
00000080: 9111 e21e 1907 1017 05fb 09f7 23d1 d805
00000090: ecd6 1a2d 25ee 24a9 d81c 0201 00c3 eeff
000000a0: e419 bb01 1d14 f5df fbfb 13e8 e4bf e9f2
000000b0: d702 00da 1b0c d4ff f918 d822 e4c4 e8d6
000000c0: f6c6 13f4 069b ec0f 1ad9 271c d709 1ed9
000000d0: d7ef fa00 e60d e7fe 0b1e c709 0725 2ee5
000000e0: 0309 c0f4 fd24 0a12 06ee e0ee ed17 f81e
000000f0: 130f ecf6 a9f5 0f1c 2123 eccf e3dc d1e8

model/dense_2/MatMul i1 [2, 64] scale=0.004145775 zero_point=0
0.0165831 -0.15339367 -0.2984958 -0.165831 -0.1989972 0.053895075 -0.29020426 0.09120705
0.1824141 0.331662 -0.12851903 -0.36068243 -0.1492479 0.062186625 0.17826833 -0.3979944
-0.17826833 -0.19070566 -0.16997677 0.1160817 -0.17826833 -0.26118383 0.00829155 0.21972607
0.36897397 0.13681057 -0.029020425 0.28191268 0.053895075 -0.1492479 0.19485143 -0.27362114
0.004145775 0.24460073 0.24460073 0.24460073 -0.17412254 0.13681057 0.19070566 0.165831
0.0165831 -0.28191268 -0.053895075 0.04145775 0.3150789 0.14510213 -0.19070566 -0.07876973
-0.10364437 -0.05804085 0.11193593 -0.1824141 0.34824508 -0.12851903 -0.24045494 0.3523909
0.08706127 -0.32751623 0.21972607 0.020728875 0.12437325 0.10779015 0.0 -0.32751623
0.09120705 -0.38970286 0.15753946 0.19070566 0.1492479 0.19485143 -0.36897397 0.19485143
-0.24045494 0.331662 0.2155803 -0.0663324 -0.12022747 0.3855571 -0.0497493 0.07462395
0.19485143 -0.04145775 0.3772655 0.0829155 0.004145775 0.3523909 0.23630917 0.0663324
-0.029020425 -0.1492479 0.2528923 -0.0663324 -0.19070566 -0.2487465 -0.28191268 -0.27362114
-0.07876973 -0.21972607 -0.5265134 0.22387186 -0.020728875 -0.037311975 0.1824141 -0.37311974
-0.17412254 -0.24460073 -0.21143453 -0.2487465 0.21972607 -0.053895075 -0.19485143 -0.1326648
0.165831 -0.27362114 0.07462395 -0.1824141 0.012437325 -0.3109331 0.0331662 -0.02487465
0.12851903 0.24045494 0.0165831 -0.36897397 -0.1326648 0.12437325 0.11193593 0.062186625
00000000: 04db b8d8 d00d ba16 2c50 e1a9 dc0f 2ba0
00000010: d5d2 d71c d5c1 0235 5921 f944 0ddc 2fbe
00000020: 013b 3b3b d621 2e28 04bc f30a 4c23 d2ed
00000030: e7f2 1bd4 54e1 c655 15b1 3505 1e1a 00b1
00000040: 16a2 262e 242f a72f c650 34f0 e35d f412
00000050: 2ff6 5b14 0155 3910 f9dc 3df0 d2c4 bcbe
00000060: edcb 8136 fbf7 2ca6 d6c5 cdc4 35f3 d1e0
00000070: 28be 12d4 03b5 08fa 1f3a 04a7 e01e 1b0f
