sd-card/config/ana0630s2.tflite (tflite, 134180 bytes, 14 tensors)

sequential/conv2d/BiasAdd/ReadVariableOp f4 [32]
-0.15643103 -0.12968223 -0.10775978 -0.111718714 -0.17815202 -0.11717269 -0.115604095 -0.2226505
-0.13408186 -0.1600677 -0.0763401 -0.1521289 -0.15909345 -0.18304694 -0.09042437 -0.1308316
-0.14753172 -0.07815933 -0.04861775 -0.20929971 -0.077416584 -0.19295532 -0.12680602 -0.11923235
-0.092754856 -0.181716 -0.12207693 -0.13110499 -0.17537569 -0.1290763 -0.1405434 -0.13506176
00000000: 752f 20be 6bcb 04be 29b1 dcbd c8cc e4bd
00000010: 7c6d 36be 3cf8 efbd d7c1 ecbd 7efe 63be
00000020: c14c 09be cae8 23be 3358 9cbd aec7 1bbe
00000030: 65e9 22be a870 3bbe 6930 b9bd b8f8 05be
00000040: 8e12 17be 0012 a0bd 6823 47bd aa52 56be
00000050: 968c 9ebd 1496 45be 70d9 01be 1730 f4bd
00000060: 42f6 bdbd c213 3abe 7803 fabd 6340 06be
00000070: af95 33be 942c 04be 9cea 0fbe a14d 0abe

sequential/conv2d_1/BiasAdd/ReadVariableOp f4 [16]
-0.049251597 0.09121333 -0.035628084 0.0101208985 0.0010215562 -0.08012019 -0.102464385 -0.10316537
-0.054911125 -0.14452054 -0.006064345 -0.019409351 -0.169163 -0.18487328 0.023374174 -0.034209777
00000000: 0bbc 49bd 0ece ba3d c1ee 11bd 20d2 253c
00000010: bde5 853a 0e16 a4bd d9d8 d1bd 5e48 d3bd
00000020: 7dea 60bd 31fd 13be 6ab7 c6bb 5c00 9fbc
00000030: 1139 2dbe 6c4f 3dbe 327b bf3c 8d1f 0cbd

sequential/conv2d_2/BiasAdd/ReadVariableOp f4 [32]
0.046190646 -0.016301574 0.008840723 -0.028787637 0.101419225 0.06008246 -0.049429454 0.09187893
-0.0022943753 0.07052077 0.012607396 0.09451859 0.019344224 -0.060082152 0.03549213 -0.011692921
-0.000626027 0.051236875 0.084270395 0.017911373 -0.000959667 0.05603175 0.06331387 0.07283426
0.009356484 0.05347781 -0.056743838 0.09091815 0.05685419 0.050004028 -0.0018038301 0.12354988
00000000: 6732 3d3d e18a 85bc aed8 103c 0dd4 ebbc
00000010: e2b4 cf3d 0719 763d 8a76 4abd 052b bc3d
00000020: 3b5d 16bb 326d 903d 408f 4e3c f692 c13d
00000030: c777 9e3c b418 76bd 3260 113d aa93 3fbc
00000040: f61b 24ba c2dd 513d f595 ac3d dfba 923c
00000050: 2a92 7bba 8c81 653d b4aa 813d 212a 953d
00000060: f04b 193c 8c0b 5b3d 3a6c 68bd 4c33 ba3d
00000070: f0df 683d 06d1 4c3d 7f6e ecba b807 fd3d

sequential/dense/BiasAdd/ReadVariableOp f4 [128]
0.075847544 -0.09208007 -0.047979116 -0.020874891 0.054093014 -0.08985038 0.029962508 0.11520872
-0.03162641 -0.13999519 0.07977474 -0.110695094 0.12659818 0.049374912 -0.08817981 0.009067129
0.03852834 0.1637455 -0.051193275 0.054379527 -0.09344932 0.038095757 -0.071028665 -0.06682251
-0.071856916 0.029994434 -0.03851542 -0.06043794 0.12463056 -0.11334433 0.11315267 0.09216247
-0.1117441 -0.098547846 -0.09195737 0.20011225 0.078484766 0.10387217 -0.07137452 -0.044020336
0.0991576 0.095880166 0.15161026 0.07113888 0.11781618 0.13241585 -0.13054845 -0.02153007
0.044335306 -0.13378571 -0.08875656 0.07942402 -0.13573189 -0.0052523385 0.1186687 0.020486536
0.07439139 -0.0139314355 -0.03791862 0.099090844 0.06530238 0.11577163 0.058387473 -0.09129996
0.06227934 0.20267342 -0.060179535 0.046668354 -0.03180497 -0.13634245 -0.0318068 -0.03544071
0.100222066 -0.081216365 0.101379335 -0.057927735 -0.105137385 -0.0011725301 -0.00043418398 0.08242262
-0.040776752 0.13325956 0.17101699 -0.05751566 -0.05883118 -0.0772971 -0.053376608 -0.018776663
0.028356753 0.15143874 -0.0063280035 0.049739245 0.12694275 -0.0011677521 -0.06654662 0.1678572
0.09959653 0.08164662 0.10175947 -0.06693226 0.0736648 -0.069112115 0.11867923 0.043379556
-0.012933706 -0.02096927 0.10251424 0.10856097 -0.12475523 0.09593606 0.09109277 0.035367858
-0.15287507 -0.05611543 -0.00039642258 0.0647345 -0.025482213 -0.00601644 0.053724024 0.1515965
0.14516616 0.07794092 0.11433684 0.08363176 -0.066927165 -0.13893677 -0.15055464 -0.012694
00000000: f555 9b3d 7a94 bcbd c085 44bd d201 abbc
00000010: a390 5d3d 7a03 b8bd ef73 f53c 8df2 eb3d
00000020: b28a 01bd e65a 0fbe f060 a33d 1cb4 e2bd
00000030: f4a2 013e 593d 4a3d 9e97 b4bd 4c8e 143c
00000040: e5cf 1d3d e6ac 273e 0ab0 51bd 11bd 5e3d
00000050: 5b62 bfbd 4c0a 1c3d 7a77 91bd 3dda 88bd
00000060: b829 93bd e3b6 f53c 58c2 1dbd c68d 77bd
00000070: 4f3e ff3d 1221 e8bd 96bc e73d adbf bc3d
00000080: 17da e4bd 74d3 c9bd 2554 bcbd 3aea 4c3e
00000090: 9fbc a03d efba d43d ce2c 92bd ab4e 34bd
000000a0: 2413 cb3d d25c c43d b83f 1b3e 43b1 913d
000000b0: 9c49 f13d 0598 073e 7eae 05be d45f b0bc
000000c0: f098 353d 1fff 08be 00c6 b5bd 10a9 a23d
000000d0: 4dfd 0abe cf1b acbb 9308 f33d 61d3 a73c
000000e0: 835a 983d ad40 64bc 8e50 1bbd 24f0 ca3d
000000f0: 41bd 853d ad19 ed3d b427 6f3d 79fb babd
00000100: 9f18 7f3d 9f89 4f3e d17e 76bd 5127 3f3d
00000110: ee45 02bd 5b9d 0bbe d947 02bd 472a 11bd
00000120: 3a41 cd3d c454 a6bd f89f cf3d a245 6dbd
00000130: 4552 d7bd 95af 99ba 30a3 e3b9 31cd a83d
00000140: 8605 27bd 3275 083e 141f 2f3e 8a95 6bbd
00000150: f7f8 70bd f14d 9ebd 6ea1 5abd 84d1 99bc
00000160: 6c4c e83c c212 1b3e 245b cfbb 61bb 4b3d
00000170: 48fd 013e 420f 99ba 9849 88bd c2e2 2b3e
00000180: 44f9 cb3d 5836 a73d 4567 d03d c813 89bd
00000190: 92dd 963d a78a 8dbd 190e f33d c3ae 313d
000001a0: e5e7 53bc bfc7 abbc fcf2 d13d 3755 de3d
000001b0: ac7f ffbd 207a c43d d98e ba3d e3dd 103d
000001c0: 488b 1cbe 4bd9 65bd f0d6 cfb9 8693 843d
000001d0: 13c0 d0bc 8f25 c5bb b90d 5c3d 1d3c 1b3e
000001e0: 70a6 143e 7d9f 9f3d 6f29 ea3d 2147 ab3d
000001f0: 1c11 89bd 7145 0ebe ff2a 1abe 7ffa 4fbc

sequential/dense_1/BiasAdd/ReadVariableOp f4 [64]
-0.02810501 -0.022284912 0.29733795 0.08941963 0.22292656 0.27137092 -0.04735695 -0.19476682
0.12700151 0.17473496 -0.18419366 0.2683516 -0.23359558 -0.17884709 0.22117399 -0.09036016
0.20996171 -0.03383857 -0.050230112 -0.044672016 0.2171822 -0.13606057 0.09881734 0.19860059
0.28019392 -0.05837742 -0.06640724 0.12796125 0.122941405 0.047357526 -0.16201806 0.15786609
-0.06022931 -0.08729408 -0.044588957 0.21730122 0.22232215 -0.13502395 -0.104349755 -0.01968672
0.2435236 0.15234634 0.18734945 -0.048688255 -0.20808536 0.2533841 0.2947318 0.19213004
0.29511935 -0.035881333 0.18428908 0.08889358 0.25328407 0.25101942 0.28292412 0.23298109
0.14010106 -0.047510058 0.22739214 -0.071503185 0.19540824 0.24792548 -0.035727613 -0.03481732
00000000: 7a3c e6bc d98e b6bc ae3c 983e a421 b73d
00000010: dc46 643e 21f1 8a3e 5cf9 41bd f470 47be
00000020: af0c 023e b9ed 323e 439d 3cbe 6265 893e
00000030: ae33 6fbe b123 37be 6f7b 623e bf0e b9bd
00000040: 3400 573e 509a 0abd 17be 4dbd 01fa 36bd
00000050: 0365 5e3e 7653 0bbe bf60 ca3d f45d 4b3e
00000060: 9475 8f3e 291d 6fbd 8500 88bd 4608 033e
00000070: b4c8 fb3d f7f9 413d 10e8 25be a6a7 213e
00000080: 02b3 76bd 3dc7 b2bd e9a2 36bd 3684 5e3e
00000090: 6ba8 633e b843 0abe 53b5 d5bd 0b46 a1bc
000000a0: 405e 793e ae00 1c3e 89d8 3f3e 566d 47bd
000000b0: 5414 55be 90bb 813e 16e7 963e bdbd 443e
000000c0: e219 973e 4ef8 12bd 47b6 3c3e d60d b63d
000000d0: 73ae 813e 9e85 803e 6edb 903e 9892 6e3e
000000e0: a776 0f3e e899 42bd 7cd9 683e 4370 92bd
000000f0: 1919 483e 2de0 7d3e 1e57 12bd 9b9c 0ebd

sequential/dense_2/BiasAdd/ReadVariableOp f4 [2]
0.0753199 0.06445011
00000000: 5241 9a3d 6bfe 833d

sequential/batch_normalization/FusedBatchNormV3 f4 [3]
0.0034906825 0.0028457465 0.0024576334
00000000: efc3 643b b47f 3a3b 3f10 213b

sequential/batch_normalization/FusedBatchNormV31 f4 [3]
-0.47530797 -0.33226562 -0.28967053
00000000: 915b f3be b81e aabe b24f 94be

sequential/dense/MatMul f4 [128, 32]
-0.19156697 -0.18882841 -0.037249163 0.015255681 0.06586961 -0.079269215 -0.16164568 0.038134843
-0.21215181 -0.0027308785 0.02820245 -0.017285598 -0.13164237 0.04684164 0.06135105 0.2048248
0.07810251 0.17314833 -0.22647718 -0.16538961 -0.33403403 -0.23370333 -0.113434866 0.08871595
0.06112579 0.04778551 0.18089095 0.12107754 -0.10229808 0.1567699 -0.037257966 -0.12153702
0.029506011 0.09264099 -0.11079996 -0.021316199 -0.06061354 0.19117832 0.0731572 0.23508485
0.10828474 -0.18186547 -0.08119533 0.06361776 -0.012771685 -0.029547608 -0.18670605 0.12089128
-0.16784911 0.008972842 0.12196564 0.025878754 -0.0768629 -0.08789376 0.17167686 -0.009397456
0.10810942 -0.052145977 0.14744611 0.016018337 0.0051633706 -0.28106022 -0.013243876 0.1705151
0.13431622 -0.031300575 0.21507439 -0.073036365 -0.20023963 0.11762233 -0.09376828 -0.11604178
-0.10317169 -0.08212944 -0.18886818 0.17475326 -0.12775835 0.06859955 0.12144067 -0.21933615
0.13670963 -0.08509996 0.25448146 -0.20876527 -0.05463474 -0.04794711 0.037496217 -0.07992074
-0.09377248 0.1988949 -0.13815193 -0.13698122 -0.11024465 -0.10374752 -0.065611206 0.04883674
-0.008247837 -0.13163304 -0.15403731 -0.12707813 0.195503 -0.08262596 -0.18028575 0.077370726
0.09603425 0.189593 -0.06728605 -0.15107584 -0.1112615 0.00320835 0.107335724 0.015786089
0.08999175 -0.007007444 0.15292533 -0.2240509 -0.06833391 0.08182758 -0.1427327 -0.024114853
0.09127548 -0.089826845 -0.14410858 0.022094958 0.07480252 0.0367275 -0.115758814 0.09069058
-0.26203513 -0.05291971 0.046290837 -0.22768843 0.07611532 -0.14643398 0.19237374 0.14546826
-0.06280937 -0.20143457 0.19224924 0.051920447 -0.1584837 -0.08971659 -0.10388491 0.10089209
-0.11308926 -0.27294692 -0.24357027 0.033294894 0.25717098 0.12794726 -0.13770546 0.105867095
0.10988594 -0.41082674 -0.011079666 0.07518033 0.115132295 -0.059650198 0.08709313 -0.014642577
-0.09349563 -0.17718068 0.057631925 0.02679344 -0.076803744 0.14043646 -0.02512126 -0.07946631
-0.08292509 -0.10780894 0.046938825 -0.1250215 -0.1568674 -0.029045893 0.05231507 -0.005348807
-0.16950126 -0.14830333 -0.05689151 -0.04370652 0.027737921 0.08829959 -0.06799986 -0.16566433
0.004220297 0.01334391 -0.19906387 0.04753663 0.08884038 -0.17125925 -0.14822112 -0.05884847
-0.0041008717 0.15834692 0.055842638 -0.078710854 -0.011422409 0.22450712 -0.15496735 -0.08836497
-0.23360549 -0.13522348 -0.031521592 -0.22203416 0.028172858 0.1546618 0.08229943 -0.08100452
-0.09468475 0.05817793 -0.19151495 -0.011852734 -0.054872192 0.12736216 -0.21007793 0.19432625
-0.013001619 -0.109254345 -0.015028787 -0.07454092 -0.02809364 -0.2878228 0.033604126 0.2322975
-0.030905705 0.03624455 -0.2119047 -0.08587011 -0.11936045 0.05116023 -0.08044471 -0.0043254057
0.10502012 0.09966056 -0.15511216 -0.03505929 0.16115202 -0.2238226 0.06293482 -0.26411787
0.09428856 -0.14262739 0.11213877 0.12083518 -0.07340382 -0.24797891 0.2123416 0.05413118
-0.15284969 0.17537223 -0.044462267 -0.0062536146 -0.16397579 0.025662724 0.005225197 0.05744109
00000000: 222a 44be 3c5c 41be 9492 18bd f7f2 793c
00000010: a5e6 863d e657 a2bd 7286 25be 4833 1c3d
00000020: 533e 59be 8af8 32bb d308 e73c 879a 8dbc
00000030: 42cd 06be 05dd 3f3d 3d4b 7b3d 98bd 513e
00000040: 35f4 9f3d cc4d 313e a2e9 67be e55b 29be
00000050: 8206 abbe ed4f 6fbe 8a50 e8bd b5b0 b53d
00000060: 095f 7a3d bdba 433d 7a3b 393e 80f7 f73d
00000070: a881 d1bd 4a88 203e cf9b 18bd 67e8 f8bd
00000080: 97b6 f13c 8fba bd3d 17eb e2bd 4f9f aebc
00000090: e745 78bd 40c4 433e 71d3 953d 15ba 703e
000000a0: 64c4 dd3d f13a 3abe bd49 a6bd 074a 823d
000000b0: 5440 51bc d30d f2bc df2f 3fbe d995 f73d
000000c0: a3e0 2bbe d402 133c 1fc9 f93d aeff d33c
000000d0: 4c6a 9dbd a501 b4bd 0fcc 2f3e caf7 19bc
000000e0: 7968 dd3d 0597 55bd 1dfc 163e e338 833c
000000f0: 7e31 a93b 20e7 8fbe d8fc 58bc 839b 2e3e
00000100: 318a 093e 0835 00bd 763c 5c3e 1794 95bd
00000110: 9e0b 4dbe fae3 f03d 9609 c0bd 50a7 edbd
00000120: ae4b d3bd 7b33 a8bd a966 41be 85f2 323e
00000130: 16d3 02be ec7d 8c3d e3b5 f83d a899 60be
00000140: 9cfd 0b3e e348 aebd 654b 823e 90c6 55be
00000150: adc8 5fbd 3064 44bd a295 193d 7cad a3bd
00000160: c90b c0bd 1bab 4b3e b377 0dbe ce44 0cbe
00000170: f2c7 e1bd 9479 d4bd 2b5f 86bd 0909 483d
00000180: f021 07bc d0ca 06be f5bb 1dbe c520 02be
00000190: f031 483e cd37 a9bd d49c 38be 8b74 9e3d
000001a0: 9bad c43d ab24 423e 45cd 89bd a0b3 1abe
000001b0: 12dd e3bd 2e43 523b d5d2 db3d d451 813c
000001c0: 984d b83d b39e e5bb 7598 1c3e 996d 65be
000001d0: a6f2 8bbd 3895 a73d 8528 12be 838c c5bc
000001e0: a4ee ba3d 23f7 b7bd 3391 13be 7c00 b53c
000001f0: 1032 993d 936f 163d f512 edbd fcbb b93d
00000200: 7829 86be 56c2 58bd 769b 3d3d 2827 69be
00000210: 59e2 9b3d caf2 15be 9ffd 443e a2f5 143e
00000220: 33a2 80bd dd44 4ebe fcdc 443e 89aa 543d
00000230: 8d49 22be 55bd b7bd 9dc1 d4bd 83a0 ce3d
00000240: 589b e7bd b3bf 8bbe 7c6a 79be 3a60 083d
00000250: eaab 833e 9b04 033e a902 0dbe d9d0 d83d
00000260: e10b e13d e257 d2be 7d87 35bc 25f8 993d
00000270: 7bca eb3d c453 74bd e25d b23d 6be7 6fbc
00000280: a37a bfbd da6e 35be 740f 6c3d eb7d db3c
00000290: 484b 9dbd 93ce 0f3e 1acb cdbc 3cbf a2bd
000002a0: a1d4 a9bd efca dcbd ed42 403d a305 00be
000002b0: d9a1 20be a7f1 edbc 5448 563d 0c45 afbb
000002c0: bd91 2dbe d4dc 17be 1207 69bd 9c05 33bd
000002d0: a33a e33c 6ad6 b43d 8343 8bbd e9a3 29be
000002e0: 6b4a 8a3b 6aa0 5a3c 66d7 4bbe c5b5 423d
000002f0: f2f1 b53d 965e 2fbe 47c7 17be 180b 71bd
00000300: 9b60 86bb b225 223e 40bb 643d 2833 a1bd
00000310: 0e25 3bbc 32e5 653e c3af 1ebe b2f8 b4bd
00000320: 4736 6fbe 0678 0abe c91c 01bd ec5c 63be
00000330: c4ca e63c aa5f 1e3e 9b8c a83d b3e5 a5bd
00000340: 14ea c1bd fb4b 6e3d 7f1c 44be f831 42bc
00000350: aac1 60bd 3a6b 023e ab1e 57be 76fd 463e
00000360: be04 55bc bec0 dfbd 4d3b 76bc e9a8 98bd
00000370: a224 e6bc 835d 93be 7ba4 093d 65df 6d3e
00000380: f62d fdbc 2a75 143d 8cfd 58be abdc afbd
00000390: 4073 f4bd 648d 513d 32c0 a4bd 22bc 8dbb
000003a0: ca14 d73d d61a cc3d b9d5 1ebe 549a 0fbd
000003b0: 0905 253e c031 65be f9e3 803d 753a 87be
000003c0: 5c1a c13d ea0c 12be 03a9 e53d 6f78 f73d
000003d0: be54 96bd 2fee 7dbe 1470 593e a8b8 5d3d
000003e0: a184 1cbe c794 333e 111e 36bd 1feb ccbb
000003f0: 45e9 27be a23a d23c 2138 ab3b 5947 6b3d

sequential/dense_1/MatMul f4 [64, 128]
0.0487872 0.06728378 0.07767525 0.03212429 -0.13886404 -0.14664435 0.13063444 -0.0986593
0.017950429 -0.08846322 -0.12030792 0.15645659 0.031923003 -0.094167076 0.15201093 0.100010395
-0.1746611 -0.08794519 -0.08926824 -0.121668875 0.043907598 -0.10147251 -0.10963203 0.07375299
-0.027609881 0.1050283 -0.1507955 -0.057799727 -0.15749809 -0.20324922 0.15547521 0.1275874
0.020130971 0.06716626 -0.07691484 -0.0326567 0.06377214 -0.14080916 0.0781251 0.05103485
-0.030050365 0.034879327 0.18844998 0.13551538 0.031034382 0.08717835 0.0648247 0.16305925
0.012195859 0.069669776 -0.13110287 0.06592098 0.07269359 -0.11909188 0.029137278 -0.16592866
0.021975692 0.08798248 0.16130538 -0.022023123 0.041135136 -0.15323828 -0.15014564 0.005311462
-0.03884957 0.15199602 0.07504876 0.159818 -0.09412441 -0.18988556 0.015607104 0.13544048
0.1008418 0.046390727 0.085565336 0.029267963 0.08552359 0.03214819 -0.03460352 0.11224988
0.11217096 -0.117517345 0.08784399 0.1494182 0.10760743 0.08472475 0.014725406 -0.06969143
-0.084285334 -0.047523357 0.120125376 -0.18741022 -0.14525713 0.08802989 -0.192641 0.025979131
0.13357306 -0.077555716 -0.09653494 -0.04507502 0.11032698 -0.15440308 0.0045455056 -0.11966314
-0.009002783 0.05341396 -0.084280275 -0.11199858 0.011724807 -0.08204928 0.03562081 0.03172807
-0.15103188 0.020214822 0.10062017 -0.09419411 0.025259968 -0.1705821 -0.1561368 0.08396791
-0.0085306745 0.090374716 -0.037367243 -0.09493936 -0.17494638 -0.21480389 0.094460376 0.07942931
-0.16196738 0.020118367 0.11852288 -0.030658474 -0.017637989 -0.020429462 0.09512129 -0.07308738
0.076392934 -0.14141895 0.042649824 -0.09009177 0.09111534 -0.05490315 -0.1438734 0.037338413
-0.13284089 -0.1452207 -0.0146918725 0.097431585 -0.12076834 -0.080179825 0.027372006 0.072991304
-0.10980815 0.109551586 0.036118142 -0.10189262 -0.10176733 0.100872494 0.022344077 -0.13686831
0.13826801 -0.152898 -0.0641333 -0.06740785 0.11301799 -0.014293792 0.076109275 0.032148875
-0.18715648 -0.07794794 0.15752801 -0.09703948 0.04769628 0.14070818 0.10418573 -0.08085482
-0.06376315 0.10478329 0.0550898 0.08104791 -0.051698 0.11223082 -0.128453 0.11254961
-0.06743521 0.047842253 -0.05018139 -0.09598305 0.12759192 0.10488127 -0.13125555 0.039839536
-0.045782253 0.14032112 0.025775883 0.03211923 0.1318265 -0.1276277 0.15927626 0.13735494
-0.035137948 -0.018467696 -0.08615562 -0.028044082 -0.047781993 0.014696723 -0.17032129 -0.041551974
-0.168797 -0.13188763 -0.01109204 -0.037191093 -0.045956053 -0.16246456 0.054063663 0.06961355
-0.06332248 -0.086381964 -0.010139937 -0.106696956 0.07860974 -0.118223205 -0.00603238 -0.18828365
0.1420434 -0.05343683 -0.13472565 -0.1169712 -0.057755243 0.11041912 -0.08577143 -0.015348468
0.12346471 -0.03195227 0.16764551 -0.026356703 0.014201642 -0.11393982 -0.05423486 0.119390376
-0.06490054 0.006475359 -0.063504465 -0.12631825 -0.02244638 0.0837743 0.0035040951 -0.17423615
-0.15877955 0.027347175 -0.0030761526 0.09638701 -0.1727391 0.07247308 0.06783875 -0.11387186
00000000: 16d5 473d 14cc 893d 3414 9f3d c294 033d
00000010: 6032 0ebe f029 16be 09c5 053e e30d cabd
00000020: c70c 933c 342c b5bd 0064 f6bd 2836 203e
00000030: b2c1 023d abda c0bd c1a8 1b3e 40d2 cc3d
00000040: 5cda 32be 9c1c b4bd 44d2 b6bd 882d f9bd
00000050: 74d8 333d d2d0 cfbd c286 e0bd cf0b 973d
00000060: 1e2e e2bc 1419 d73d 236a 1abe 68bf 6cbd
00000070: 2e47 21be 9020 50be e534 1f3e 45a6 023e
00000080: b5e9 a43c 778e 893d 8785 9dbd 08c3 05bd
00000090: f89a 823d 4730 10be 0d00 a03d eb09 513d
000000a0: 2f2c f6bc a0dd 0e3d 08f9 403e 8bc4 0a3e
000000b0: d13b fe3c 908a b23d d0c2 843d 01f9 263e
000000c0: 24d1 473c 07af 8e3d d53f 06be 9401 873d
000000d0: 60e0 943d 72e6 f3bd 4db1 ee3c 34e9 29be
000000e0: 5e06 b43c 2930 b43d 3d2d 253e d669 b4bc
000000f0: 517d 283d 7fea 1cbe c7bf 19be c60b ae3b
00000100: ba20 1fbd d8a4 1b3e 2ab3 993d 54a7 233e
00000110: 4cc4 c0bd 5c71 42be f0b4 7f3c e9b0 0a3e
00000120: 2586 ce3d 3404 3e3d e13c af3d 5ec3 ef3c
00000130: fe26 af3d d2ad 033d 6cbc 0dbd 44e3 e53d
00000140: e3b9 e53d efac f0bd 8de7 b33d 1601 193e
00000150: 4961 dc3d 2b84 ad3d d442 713c 61ba 8ebd
00000160: ca9d acbd daa7 42bd 4b04 f63d 77e8 3fbe
00000170: 49be 14be 0449 b43d af43 45be 30d2 d43c
00000180: 60c7 083e 88d5 9ebd 1cb4 c5bd 96a0 38bd
00000190: 1df3 e13d d71b 1ebe 77f2 943b f311 f5bd
000001a0: 6980 13bc 99c8 5a3d 239b acbd 835f e5bd
000001b0: 6819 403c 7409 a8bd 20e7 113d 4bf5 013d
000001c0: 1aa8 1abe 8e99 a53c f311 ce3d d7e8 c0bd
000001d0: feed ce3c 13ad 2ebe 53e2 1fbe 5ef7 ab3d
000001e0: 3ec4 0bbc 6116 b93d 650e 19bd 916f c2bd
000001f0: 2525 33be 8df5 5bbe 7174 c13d d6ab a23d
00000200: c7da 25be 46cf a43c 20bc f23d 7b27 fbbc
00000210: 8b7d 90bc b05b a7bc f3ce c23d d6ae 95bd
00000220: e673 9c3d 21d0 10be 95b1 2e3d 0982 b8bd
00000230: ae9a ba3d 20e2 60bd 8c53 13be 2af0 183d
00000240: 7107 08be bcb4 14be 2eb6 70bc 368a c73d
00000250: 6455 f7bd 5235 a4bd 423b e03c 777c 953d
00000260: 18e3 e0bd 955c e03d 9ef0 133d 14ad d0bd
00000270: 646b d0bd 3d96 ce3d ed0a b73c 3527 0cbe
00000280: 2196 0d3e 4b91 1cbe 5258 83bd 200d 8abd
00000290: fa75 e73d 8230 6abc 2edf 9b3d 8aae 033d
000002a0: f3a5 3fbe 2ba3 9fbd 064f 213e a3bc c6bd
000002b0: 2d5d 433d ce15 103e 545f d53d 3697 a5bd
000002c0: 4196 82bd 9f98 d63d d8a5 613d 72fc a53d
000002d0: 48c1 53bd 46d9 e53d 2f89 03be 6980 e63d
000002e0: 791b 8abd 3df6 433d 008b 4dbd c392 c4bd
000002f0: 75a7 023e fecb d63d db67 06be c82e 233d
00000300: 2c86 3bbd 57b0 0f3e f227 d33c 748f 033d
00000310: 87fd 063e d6b0 02be 5119 233e c6a6 0c3e
00000320: cfec 0fbd 9149 97bc 5c72 b0bd b4bc e5bc
00000330: 0db7 43bd 86ca 703c b468 2ebe 6732 2abd
00000340: 1fd9 2cbe 8d0d 07be 63bb 35bc b055 18bd
00000350: 6a3c 3cbd 1c5d 26be dc71 5d3d 8d91 8e3d
00000360: 37af 81bd 07e9 b0bd fa21 26bc ef83 dabd
00000370: 25fe a03d 021f f2bd 45ab c5bb 6ecd 40be
00000380: d373 113e 94e0 5abd 85f5 09be 998e efbd
00000390: c390 6cbd 6b23 e23d eea8 afbd 2478 7bbc
000003a0: 11db fc3d 62e0 02bd 44ab 2b3e 03ea d7bc
000003b0: 01ae 683c 4859 e9bd 5f25 5ebd f182 f43d
000003c0: 93ea 84bd 402f d43b a10e 82bd 9259 01be
000003d0: 79e1 b7bc dc91 ab3d f6a4 653b f66a 32be
000003e0: 1b97 22be 2f07 e03c 4799 49bb 8d66 c53d
000003f0: 85e2 30be c46c 943d 0bef 8a3d a635 e9bd

sequential/dense_2/MatMul f4 [2, 64]
0.21581422 0.21564294 -0.21742423 0.054222703 -0.27899724 -0.20345536 0.26689535 -0.053678796
-0.023470188 -0.10432608 -0.12831837 -0.3311054 -0.08816901 0.17296813 0.1800987 -0.09199982
-0.01685068 0.051402654 0.24962768 -0.033985816 -0.25996515 0.14321724 0.14897174 0.112022735
-0.012680443 0.1655468 0.06643562 -0.025080467 0.12408308 0.048361905 0.07407385 0.11870041
0.143298 -0.031955656 -0.22540279 -0.085163675 -0.025474729 -0.048262503 -0.019520983 -0.02774093
0.2247208 -0.18355508 0.019734045 -0.03822849 0.17859721 0.11391911 -0.31647927 0.026372261
0.34725577 -0.2791869 -0.15842405 -0.07570352 0.050094515 0.1830034 -0.32334617 0.16956176
0.19254032 -0.038246572 -0.33458436 -0.10465768 -0.21098383 0.37607226 -0.026522484 0.28866675
-0.1975988 0.10965658 -0.35342282 0.009830724 -0.028464891 -0.11687257 -0.24642187 0.23341326
0.20428455 0.26102385 -0.14352353 -0.18326503 0.21655488 -0.012123987 0.1561248 0.15716307
0.22348998 0.051001478 0.016486606 -0.08063951 0.13519923 0.045462444 -0.061637513 0.13585714
-0.37008587 0.19878173 0.07424001 -0.11565048 -0.018323338 -0.015240933 -0.099993706 0.06560817
-0.094392166 -0.06593332 -0.086607866 -0.33467975 0.3292444 0.15820757 0.1972352 0.010046275
-0.052902747 0.0789861 -0.16167705 -0.2797216 -0.1437131 0.4141481 -0.16347444 -0.15021902
-0.2624802 0.27385047 0.09452307 0.017355926 -0.27011383 -0.14487794 -0.04685545 -0.31929082
0.09639562 -0.044875253 0.24494225 -0.18946406 0.22108269 0.15032041 0.04995709 -0.06945454
00000000: 67fe 5c3e 81d1 5c3e 75a4 5ebe a018 5e3d
00000010: bad8 8ebe 9a56 50be 82a6 883e 4cde 5bbd
00000020: 8d44 c0bc e9a8 d5bd e465 03be a686 a9be
00000030: f491 b4bd 8f1e 313e cb6b 383e 676a bcbd
00000040: 700a 8abc 978b 523d 669e 7f3e b634 0bbd
00000050: 271a 85be 8aa7 123e 0c8c 183e 2d6c e53d
00000060: a2c1 4fbc 1a85 293e 660f 883d 8d75 cdbc
00000070: 451f fe3d 2217 463d 08b4 973d 3319 f33d
00000080: b6bc 123e efe3 02bd fdcf 66be 4b6a aebd
00000090: 61b0 d0bc e7ae 45bd 78ea 9fbc f240 e3bc
000000a0: 361d 663e ddf5 3bbe 4ba9 a13c 7a95 1cbd
000000b0: 30e2 363e 6c4e e93d 9209 a2be a40a d83c
000000c0: 82cb b13e 96f1 8ebe ea39 22be 720a 9bbd
000000d0: e82f 4d3d 3e65 3b3e a18d a5be 99a1 2d3e
000000e0: 4a29 453e 70a8 1cbd a44e abbe c456 d6bd
000000f0: 250c 58be 8b8c c03e ae45 d9bc 21cc 933e
00000100: 5757 4abe a193 e03d d6f3 b4be 0c11 213c
00000110: 342f e9bc e35a efbd 0456 7cbe e303 6f3e
00000120: f82f 513e eba4 853e d5f7 12be d4a9 3bbe
00000130: 90c0 5d3e b0a3 46bc 2edf 1f3e 5bef 203e
00000140: 8fda 643e ede6 503d eb0e 873c 5426 a5bd
00000150: ab71 0a3e d436 3a3d 9e77 7cbd 221e 0b3e
00000160: e57b bdbe 708d 4b3e 250b 983d 29da ecbd
00000170: d31a 96bc 1bb5 79bc 80c9 ccbd 945d 863d
00000180: ae50 c1bd 0c08 87bd 775f b1bd 255b abbe
00000190: b992 a83e 2a01 223e 06f8 493e 2299 243c
000001a0: 8db0 58bd 77c3 a13d ab8e 25be ab37 8fbe
000001b0: 8729 13be 380b d43e d865 27be 04d3 19be
000001c0: ce63 86be 2136 8c3e 5095 c13d 042e 8e3c
000001d0: 5c4c 8abe e25a 14be 80eb 3fbd 167a a3be
000001e0: 116b c53d 1dcf 37bd 24d2 7a3e de02 42be
000001f0: 8063 623e 98ed 193e ce9f 4c3d 2f3e 8ebd

sequential/conv2d/Conv2D f4 [32, 5, 5, 3]
-0.07212111 0.17269558 0.16505055 -0.07621715 0.08128893 0.079244405 -0.09400073 -0.065315604
-0.04893163 -0.15075602 -0.004890092 -0.057710532 -0.036787592 0.023948416 0.010367453 -0.049024813
0.13221303 0.1251598 -0.011740408 0.016163874 0.12292043 0.035197075 0.009235461 -0.039216872
-0.041879863 0.034438435 0.08920322 -0.11842271 -0.036481764 -0.14079022 -0.10294681 -0.06349041
-0.09607171 -0.07914636 -0.01300792 -0.059912063 0.09804369 0.035034735 0.16586444 0.09719005
0.028876267 0.10152181 -0.18075323 -0.120235965 -0.08170626 -0.15445302 -0.041313156 -0.05932781
0.10895299 -0.031994775 0.052239902 -0.0491371 -0.011494986 0.013373743 0.041100882 0.084344886
0.10012997 -0.11581101 -0.006179144 -0.121046156 -0.06271953 -0.1907889 -0.18041225 -0.07796004
0.022247573 -0.060614727 0.1498586 0.06418439 0.11677827 0.00504286 -0.02938042 0.07498079
0.14699078 0.14477955 0.09480311 0.03470899 -0.099721536 -0.09719121 -0.16486219 -0.029667605
-0.106914416 0.05031601 0.019757183 0.058244262 0.0447413 0.11736424 -0.062399656 0.047864847
-0.00946878 -0.047726795 -0.22315985 -0.18522039 -0.13582109 0.015233161 0.09578509 0.10686215
0.090426974 0.02800301 -0.008386389 0.06823113 -0.06416175 0.031479362 -0.14329976 -0.07900408
-0.19750693 -0.17755795 -0.11583924 -0.073302336 0.11418383 0.087074995 0.07745387 0.073783055
0.13868031 0.10040706 0.027647039 -0.059195194 -0.0025716408 -0.07615853 -0.029484248 -0.06766967
0.09722289 -0.0015173531 0.07803681 -0.019767934 0.08233102 0.025796028 -0.0138221225 0.09472985
-0.08155536 -0.066710986 -0.0023652837 0.0020521865 0.088290595 0.07388228 -0.07303836 0.044939697
-0.020488944 0.08974601 -0.036929514 0.07052272 0.09964602 0.1785839 0.06929048 0.09427993
0.061083406 0.0049065496 -0.03925589 -0.17797686 -0.13546169 -0.23777415 0.113326706 -0.08477839
-0.19457518 0.01546461 -0.1363643 -0.014224225 -0.06260364 -0.053289384 -0.029709015 -0.07837665
0.044239704 0.034147147 0.03543362 0.12601416 0.16007458 0.048932314 -0.21852571 -0.18217799
0.18119387 -0.060214177 0.010172431 -0.012766243 -0.05848758 -0.1399629 -0.15388736 -0.04057922
-0.10279197 0.06771309 0.16716804 0.09152929 0.25092715 -0.007317556 -0.04464127 0.07310139
-0.06816198 -0.04262432 -0.15556553 -0.20661779 -0.14866911 -0.1320555 -0.0020580094 0.076578036
-0.028648429 0.22299606 0.16728964 0.116695434 -0.07010733 -0.030836655 -0.05394899 0.040920902
-0.041487362 0.075572126 0.10967901 0.16404314 -0.094839096 0.008103545 0.009280293 -0.033971217
0.017798696 0.10229872 0.07186118 -0.030896416 0.042041726 -0.09918196 -0.06715759 -0.054855928
0.020759841 0.043486807 0.11381107 -0.15368018 -0.030302001 0.07467696 -0.102556415 0.039040875
0.111004904 0.011962808 -0.012787203 0.020938424 -0.08255697 -0.26514396 -0.2239018 0.06921171
-0.063290305 -0.0960341 0.1421766 -0.03647402 -0.1267793 -0.07576872 -0.21179008 -0.16904078
0.13200495 -0.07415243 -0.09343295 0.12357908 -0.041324288 0.013377168 0.09923667 -0.019979034
-0.0941638 0.04273569 -0.10290538 -0.15123917 0.051798087 -0.12656716 -0.09805251 0.09884281
00000000: 3cb4 93bd 1cd7 303e 0303 293e bd17 9cbd
00000010: cf7a a63d e44a a23d 7483 c0bd 30c4 85bd
00000020: 886c 48bd c95f 1abe 113d a0bb e161 6cbd
00000030: 96ae 16bd 782f c43c 40dc 293c 3ece 48bd
00000040: da62 073e e429 003e d75a 40bc 1a6a 843c
00000050: b5bd fb3d cf2a 103d 5550 173c dfa1 20bd
00000060: 388a 2bbd 510f 0d3d 2eb0 b63d 9b87 f2bd
00000070: e76d 15bd 502b 10be c7d5 d2bd 4307 82bd
00000080: 3fc1 c4bd 7d17 a2bd 2c1f 55bc 5a66 75bd
00000090: 21cb c83d 9580 0f3d 5ed8 293e 940b c73d
000000a0: ec8d ec3c abea cf3d 6017 39be 463e f6bd
000000b0: 9d55 a7bd ef28 1ebe fc37 29bd b801 73bd
000000c0: bf22 df3d f40c 03bd 82f9 553d fc43 49bd
000000d0: 7755 3cbc 8b1d 5b3c 6659 283d 03bd ac3d
000000e0: f110 cd3d 532e edbd 6b7a cabb 0ce7 f7bd
000000f0: 1973 80bd 2a5e 43be fdbd 38be 83a9 9fbd
00000100: 8b40 b63c 2647 78bd 8874 193e 1b73 833d
00000110: 7229 ef3d 933e a53b 35af f0bc 878f 993d
00000120: c084 163e 1741 143e 2228 c23d 042b 0e3d
00000130: ce3a ccbd 2f0c c7bd a2d1 28be 7a09 f3bc
00000140: f2f5 dabd 2918 4e3d d1d9 a13c 8991 6e3d
00000150: a742 373d aa5c f03d c896 7fbd ee0d 443d
00000160: f122 1bbc 2c7d 43bd 0484 64be 6aaa 3dbe
00000170: af14 0bbe 8294 793c f92a c43d 8bda da3d
00000180: c731 b93d 9266 e53c 1167 09bc c3bc 8b3d
00000190: 3c67 83bd 81f0 003d 2cbd 12be e4cc a1bd
000001a0: 423f 4abe c0d1 35be 203d edbd 891f 96bd
000001b0: 36d9 e93d 6054 b23d 22a0 9e3d 921b 973d
000001c0: 3602 0e3e 37a2 cd3d 0b7c e23c a976 72bd
000001d0: f988 28bb 01f9 9bbd f388 f1bc 6596 8abd
000001e0: cb1c c73d ece1 c6ba c3d1 9f3d 5df0 a1bc
000001f0: 2a9d a83d 3152 d33c 2f76 62bc b901 c23d
00000200: 7f06 a7bd c59f 88bd e002 1bbb fa7d 063b
00000210: b3d1 b43d 984f 973d 2395 95bd b012 383d
00000220: 6ed8 a7bc c2cc b73d 6743 17bd 376e 903d
00000230: 3613 cc3d b3de 363e 2be8 8d3d d615 c13d
00000240: 9832 7a3d 1fc7 a03b c9ca 20bd 913f 36be
00000250: 78b6 0abe 117b 73be d517 e83d 4ba0 adbd
00000260: b73e 47be 475f 7d3c 15a3 0bbe b90c 69bc
00000270: 5636 80bd f845 5abd 5260 f3bc f083 a0bd
00000280: b134 353d e1dd 0b3d d822 113d db09 013e
00000290: 97ea 233e 406d 483d 34c5 5fbe de8c 3abe
000002a0: e38a 393e 24a3 76bd 45aa 263c 8129 51bc
000002b0: ac90 6fbd 6f52 0fbe a694 1dbe 6536 26bd
000002c0: 9984 d2bd 29ad 8a3d 192e 2b3e b573 bb3d
000002d0: 8679 803e 1cc8 efbb c4d9 36bd 2eb6 953d
000002e0: 8298 8bbd d796 2ebd 924c 1fbe 9d93 53be
000002f0: b73c 18be 8f39 07be abdf 06bb f2d4 9c3d
00000300: 1cb0 eabc 1459 643e fa4d 2b3e 04fe ee3d
00000310: 6f94 8fbd 279d fcbc 9ef9 5cbd ad9c 273d
00000320: a7ee 29bd 8fc5 9a3d 649f e03d edfa 273e
00000330: 003b c2bd bbc4 043c 5f0c 183c 6725 0bbd
00000340: 92ce 913c fe81 d13d f42b 933d 7b1a fdbc
00000350: f233 2c3d e91f cbbd eb89 89bd 9cb0 60bd
00000360: 8b10 aa3c 391f 323d c715 e93d 565e 1dbe
00000370: e73b f8bc 3cf0 983d 1909 d2bd 53e9 1f3d
00000380: 8a56 e33d a7ff 433c 6b81 51bc 0f87 ab3c
00000390: a113 a9bd f3c0 87be 8346 65be debe 8d3d
000003a0: 599e 81bd 87ad c4bd be96 113e c865 15bd
000003b0: 6fd2 01be a12c 9bbd 80df 58be 0719 2dbe
000003c0: 4e2c 073e 3bdd 97bd c659 bfbd 0717 fd3d
000003d0: a843 29bd e92b 5b3c 983c cb3d 12ab a3bc
000003e0: f3d8 c0bd 9e0b 2f3d 0ec0 d2bd 71de 1abe
000003f0: 3b2a 543d d29a 01be c1cf c8bd 196e ca3d

sequential/conv2d_1/Conv2D f4 [16, 5, 5, 32]
-0.09011407 -0.021341057 -0.007206586 -0.022290604 -0.049984917 0.0018060665 -0.028429829 0.048227668
0.0024032372 -0.07298587 0.11880345 -0.08270713 -0.10055125 0.013689491 -0.11934745 0.06419909
0.016754206 -0.062849626 0.005641817 -0.027810175 -0.16028991 -0.11711136 0.108919375 0.05252453
0.09258072 -0.018898401 -0.0128948875 0.059270833 0.0112953875 -0.031114655 0.030738458 -0.14027503
-0.0460832 0.11358132 -0.0043404796 -0.26399374 -0.014678146 0.026609758 -0.18419485 -0.14955842
-0.033096902 -0.0989683 0.048965108 -0.009451849 -0.029749643 0.060454614 -0.071038425 0.007275465
0.1787385 -0.16116787 0.08091197 0.00021264408 -0.13320044 0.06374064 0.0566255 0.13186876
-0.09837849 0.15140414 -0.020569742 -0.019860027 0.0683193 -0.07789772 0.023234338 -0.03196207
-0.0584041 0.101054 -0.30330208 -0.20218553 0.004868908 -0.08458604 -0.12517385 0.024299985
0.084551185 -0.10157411 -0.095741875 0.10252232 0.06916749 0.17164056 0.24386092 -0.044853617
0.13443717 0.015850335 -0.12625276 -0.096921384 0.091595225 -0.09949745 -0.0021458343 -0.04546737
-0.21513443 0.12851822 0.024861947 -0.12061325 -0.09644327 -0.03524119 -0.08969494 -0.07530057
-0.024088722 -0.12274284 -0.00015990372 -0.14298262 0.024213517 -0.052753758 -0.110589236 -0.07580949
0.07921466 0.064357646 -0.13298358 0.0087989 0.07176049 -0.19646512 -0.034016434 -0.08325896
-0.0053370185 0.25944784 -0.047346253 0.051956445 0.0999042 -0.02227728 0.0018211108 -0.05128526
0.019109778 0.029807117 -0.10110357 -0.0015166812 -0.07857648 0.18740886 0.13915028 0.1808595
-0.08240701 -0.06418336 0.0984959 0.2683923 0.12674515 0.0124986395 0.015002555 -0.058463164
-0.04646238 -0.0033050426 -0.028879924 -0.052681077 -0.080590814 -0.1329428 -0.15855043 -0.0070986184
-0.1087589 -0.10479731 0.004091452 0.1851881 0.093338825 -0.14377642 -0.058120158 -0.15687048
0.12954761 -0.019958163 -0.12761825 0.08936418 -0.11967917 -0.01001965 0.06822407 -0.053460985
0.13866276 -0.058640577 -0.025627496 -0.07765052 0.011006389 -0.02592313 0.020099765 0.028012577
-0.09259631 0.023816062 -0.03269654 -0.044565108 0.005639337 -0.00020117285 -0.0022686408 0.01770613
-0.07529109 0.03867463 0.016373552 0.09332327 -0.08357778 0.033419926 0.013213488 -0.020184526
-0.27283373 0.051988523 0.027180465 -0.077380106 -0.017284619 -0.09411721 0.18134332 -0.1451471
0.05246122 0.11181312 -0.13357452 -0.021039978 0.040637385 0.08906767 -0.06698451 0.114791974
0.013162054 -0.02957269 0.18305978 0.058293488 -0.07103992 0.019540722 -0.07996748 0.0318306
-0.053052373 0.105411604 -0.04381678 -0.013050388 -0.13121517 0.025336605 0.065298304 0.019109253
-0.19020994 -0.048809677 0.03798872 0.08092225 -0.008094767 -0.006240779 0.06211981 -0.10413607
0.041103896 -0.069247715 -0.06138938 0.018729774 -0.06432798 -0.18343538 0.019500032 0.035944782
0.056770097 -0.0021991688 0.05242849 0.13915414 0.04517761 0.078164235 0.12757348 0.08000802
0.04552434 -0.064821556 -0.13726258 -0.12696785 0.11698716 -0.13852169 -0.16813016 -0.18105742
-0.005274296 -0.16604908 -0.011154869 -0.19699685 0.08395054 -0.02836497 -0.030440865 0.12974165
00000000: ba8d b8bd 71d3 aebc 3a25 ecbb c99a b6bc
00000010: fcbc 4cbd 89b9 ec3a ace5 e8bc 608a 453d
00000020: a17f 1d3b 9e79 95bd 394f f33d 5b62 a9bd
00000030: d0ed cdbd e349 603c 706c f4bd d07a 833d
00000040: 1e40 893c 4eb7 80bd fede b83b 2ad2 e3bc
00000050: 0a23 24be 15d8 efbd 1f11 df3d f623 573d
00000060: f69a bd3d d2d0 9abc 1445 53bc f9c5 723d
00000070: 4a10 393c 29e4 febc 38cf fb3c 42a4 0fbe
00000080: bdc1 3cbd 539d e83d 953a 8ebb 302a 87be
00000090: 9b7c 70bc b5fc d93c 939d 3cbe d825 19be
000000a0: 9e90 07bd e4af cabd a38f 483d eedb 1abc
000000b0: 86b5 f3bc 429f 773d 987c 91bd 0667 ee3b
000000c0: 3a07 373e 3109 25be 2db5 a53d 36f9 5e39
000000d0: b265 08be 748a 823d 24f0 673d 9b08 073e
000000e0: a97a c9bd b009 1b3e e081 a8bc 7fb1 a2bc
000000f0: fdea 8b3d d788 9fbd f055 be3c a9ea 02bd
00000100: 2339 6fbd 66f5 ce3d 694a 9bbe b909 4fbe
00000110: 5c8b 9f3b 723b adbd 932d 00be c310 c73c
00000120: 2c29 ad3d 1606 d0bd 5114 c4bd 39f7 d13d
00000130: afa7 8d3d 8bc2 2f3e adb6 793e 6db8 37bd
00000140: e6a9 093e 90d8 813c 6748 01be b87e c6bd
00000150: 4796 bb3d 52c5 cbbd 20a1 0cbb fe3b 3abd
00000160: 334c 5cbe 489a 033e 48ab cb3c 1404 f7bd
00000170: 0d84 c5bd 1159 10bd fbb1 b7bd 2f37 9abd
00000180: b655 c5bc 9960 fbbd d4ab 27b9 096a 12be
00000190: 6d5b c63c 5314 58bd 9c7c e2bd 0242 9bbd
000001a0: 4c3b a23d f1cd 833d d92c 08be 4329 103c
000001b0: 2af7 923d 272e 49be d154 0bbd ac83 aabd
000001c0: 28e2 aebb 59d6 843e 25ee 41bd 48d0 543d
000001d0: 939a cc3d d87e b6bc 57b2 ee3a 7e10 52bd
000001e0: 1c8c 9c3c 0e2e f43c 630f cfbd 60cb c6ba
000001f0: b5ec a0bd 1ce8 3f3e 697d 0e3e 3c33 393e
00000200: 02c5 a8bd 9172 83bd 38b8 c93d b76a 893e
00000210: 7bc9 013e 18c7 4c3c 47cd 753c 1277 6fbd
00000220: 564f 3ebd 6a99 58bb 9795 ecbc 1dc8 57bd
00000230: cc0c a5bd 2822 08be 0b5b 22be 879b e8bb
00000240: fcbc debd f99f d6bd 9611 863b f3a1 3d3e
00000250: 6d28 bf3d 203a 13be 670f 6ebd a8a2 20be
00000260: 21a8 043e 4d7f a3bc 5cae 02be 9104 b73d
00000270: 5a1a f5bd 7529 24bc 10b9 8b3d e8f9 5abd
00000280: 9cfd 0d3e 1a31 70bd c1f0 d1bc 3c07 9fbd
00000290: 2454 343c be5c d4bc 43a8 a43c a27a e53c
000002a0: 22a3 bdbd e719 c33c cfec 05bd e789 36bd
000002b0: 30ca b83b edf1 52b9 7aad 14bb 720c 913c
000002c0: 3732 9abd 4a69 1e3d d421 863c 4520 bf3d
000002d0: d42a abbd 55e3 083d 637d 583c 055a a5bc
000002e0: ddb0 8bbe ebf1 543d 91a9 de3c 7679 9ebd
000002f0: 7998 8dbc 86c0 c0bd 10b2 393e 71a1 14be
00000300: 94e1 563d 47fe e43d c2c7 08be 085c acbc
00000310: 6373 263d 1c69 b63d 2d2f 89bd 0e18 eb3d
00000320: a8a5 573c 6d42 f2bc 0674 3b3e 27c5 6e3d
00000330: 617d 91bd dd13 a03c fdc5 a3bd ce60 023d
00000340: 724d 59bd 0ae2 d73d 3979 33bd 4bd1 55bc
00000350: 455d 06be b68e cf3c 1ebb 853d 028b 9c3c
00000360: 65c6 42be a8ec 47bd 0f9a 1b3d 91ba a53d
00000370: ea9f 04bc 737f ccbb 5871 7e3d 4b45 d5bd
00000380: 8f5c 283d bfd1 8dbd 6e73 7bbd 2f6f 993c
00000390: 63be 83bd 7cd6 3bbe 88be 9f3c d63a 133d
000003a0: c387 683d ee1f 10bb 42bf 563d 6c7e 0e3e
000003b0: 280c 393d 9214 a03d 9fa2 023e 3fdb a33d
000003c0: bb77 3a3d 2ac1 84bd 908e 0cbe dc03 02be
000003d0: f796 ef3d a1d8 0dbe 502a 2cbe 1e67 39be
000003e0: 00d4 acbb c508 2abe e9c2 36bc 8bb9 49be
000003f0: 43ee ab3d a75d e8bc 1f5f f9bc ffda 043e

sequential/conv2d_2/Conv2D f4 [32, 3, 3, 16]
-0.07570979 0.034200992 -0.10437024 0.04776599 0.043062683 0.09532679 0.07378211 0.17039053
-0.007474658 0.22371924 0.012053727 -0.110536605 -0.04698431 0.13998526 -0.13322558 -0.1020877
-0.01211429 -0.017767193 0.015604441 -0.05776778 -0.0057318565 -0.13458058 -0.046158697 -0.13850524
0.0105457045 -0.13168891 -0.055322815 0.037266273 -0.017113123 -0.14216043 -0.029986013 -0.014088415
-0.15630735 0.0848357 -0.07976598 0.11123473 0.03876868 0.03437334 -0.051001176 0.07521689
-0.008066496 -0.08106661 -0.003683161 -0.10179597 -0.001621062 0.009836799 -0.008934014 -0.09021803
-0.18149288 -0.011903675 -0.0015132041 -0.11555589 0.003963529 0.23866904 0.09184968 0.10085362
0.0052848114 -0.012061329 -0.076769985 -0.11929537 0.1774942 0.018380184 0.03851151 -0.0830695
-0.036355905 -0.09736949 -0.091710724 0.06209787 0.12822457 -0.026744036 -0.0035698193 -0.0002138473
0.060173243 -0.1299044 -0.081908405 0.10034205 -0.15038832 -0.104170404 0.031963117 0.094962105
-0.10816296 -0.08684322 -0.091013 0.05142147 -0.04639964 -0.055273406 -0.01466879 -0.09580178
-0.05252285 -0.06539794 -0.07583627 -0.05233487 0.06990708 0.012883571 -0.052519925 -0.07417487
-0.07918165 -0.0072701313 0.059432093 0.06365551 -0.019352624 0.116513975 0.04067115 -0.13735606
-0.0052887835 0.022839062 0.1043168 -0.045031242 -0.08175551 0.016374817 -0.044867776 0.0045949994
-0.05514519 -0.07124899 -0.09515442 -0.03166306 -0.026840886 0.045663565 -0.119605996 -0.06868502
0.024319451 0.007248959 0.05863854 -0.036034107 0.017542047 -0.015429931 -0.028830074 -0.11694383
-0.11166162 0.09206583 -0.0725034 0.0855952 -0.028302174 -0.030285913 0.042851705 -0.072966784
-0.011859871 -0.034969825 0.06262929 0.04642561 -0.04494513 -0.10113099 -0.07632761 -0.002208105
-0.099339835 0.012921805 -0.04285219 -0.08270898 -0.016377535 -0.032430336 0.05510198 0.012896609
-0.08555874 0.03127608 0.10630346 0.049751077 0.11638879 0.012820063 -0.119773075 -0.07272261
0.022630662 0.09209007 -0.07655265 -0.09407297 0.10620127 0.023085667 0.022860687 -0.035508443
-0.10337248 -0.09587821 0.014790187 0.07814467 0.052291516 -0.051404815 0.0834089 0.049526587
-0.00012827347 -0.114019565 -0.0558548 -0.10617457 -0.070348956 0.014151192 0.0018605574 -0.050588805
-0.116991505 -0.08141117 0.052753232 -0.049043544 -0.0011016243 -0.046633877 -0.00048588077 -0.081695616
-0.08626109 -0.029535059 0.03256506 -0.056810543 0.0036690796 0.069446705 0.06798543 -0.11769458
0.08804079 -0.013411586 -0.019752622 0.08309681 -0.005727052 -0.113949135 0.04266723 -0.002338855
0.068071134 -0.109996326 0.03846919 -0.07602458 0.013917522 -0.10345266 0.07524892 -0.06564855
0.008589854 -0.106559165 -0.1246519 0.08959156 -0.031136733 -0.024121901 0.065434664 -0.11105886
0.11488194 -0.027622124 0.08102288 -0.10091797 -0.018655322 -0.027156962 -0.08257197 -0.081220545
-0.07451037 -0.08247232 0.046339534 0.046299722 -0.11268383 0.061535835 -0.01644243 -0.11777558
-0.11444926 -0.005337253 0.047564916 -0.02980937 -0.11454024 -0.02809076 -0.084360234 -0.067485645
-0.040828913 0.046765976 0.054361798 -0.0642275 -0.09010075 -0.07390231 -0.0047192127 0.0036324412
00000000: bc0d 9bbd 5716 0c3d 10c0 d5bd 45a6 433d
00000010: 7f62 303d b13a c33d 131b 973d db7a 2e3e
00000020: faed f4bb a816 653e ff7c 453c 0461 e2bd
00000030: 9f72 40bd 4c58 0f3e 496c 08be 5b13 d1bd
00000040: 047b 46bc 818c 91bc c5a9 7f3c e89d 6cbd
00000050: 4cd2 bbbb 7ecf 09be e710 3dbd 51d4 0dbe
00000060: e4c7 2c3c 75d9 06be 2d9a 62bd 85a4 183d
00000070: d230 8cbc 8192 11be 3aa5 f5bc 18d3 66bc
00000080: 090f 20be 57be ad3d 595c a3bd 09cf e33d
00000090: e8cb 1e3d 0fcb 0c3d 9ce6 50bd 500b 9a3d
000000a0: 5629 04bc 4006 a6bd 3061 71bb 687a d0bd
000000b0: d179 d4ba 872a 213c f85f 12bc 3bc4 b8bd
000000c0: 45d9 39be a207 43bc b456 c6ba 91a8 ecbd
000000d0: 7ee0 813b a865 743e af1b bc3d 588c ce3d
000000e0: 362c ad3b e19c 45bc 9539 9dbd 2251 f4bd
000000f0: 0ac1 353e 0a92 963c 3fbe 1d3d 5820 aabd
00000100: eee9 14bd a869 c7bd d5d2 bbbd 565a 7e3d
00000110: 4d4d 033e 4f16 dbbc a1f3 69bb 333c 60b9
00000120: 3878 763d a905 05be 98bf a7bd 2280 cd3d
00000130: 65ff 19be 4b57 d5bd c2eb 023d 7e7b c23d
00000140: 8b84 ddbd dcda b1bd 0665 babd 529f 523d
00000150: 8d0d 3ebd 5e66 62bd 5d55 70bc b933 c4bd
00000160: 3322 57bd 5bef 85bd 0c50 9bbd 175d 56bd
00000170: 712b 8f3d 9d15 533c 221f 57bd ffe8 97bd
00000180: fd29 a2bd 483a eebb 116f 733d d25d 823d
00000190: 6589 9ebc e19e ee3d cb96 263d 11a7 0cbe
000001a0: 884d adbb fc18 bb3c 0ca4 d53d ae72 38bd
000001b0: 6f6f a7bd 7b24 863c 46c7 37bd a691 963b
000001c0: ecdf 61bd feea 91bd 52e0 c2bd 20b1 01bd
000001d0: 6be1 dbbc b809 3b3d fdf3 f4bd bbaa 8cbd
000001e0: 9639 c73c ad88 ed3b f72e 703d 8098 13bd
000001f0: 57b4 8f3c d2cd 7cbc 0c2d ecbc 3f80 efbd
00000200: d9ae e4bd 038d bc3d aa7c 94bd 894c af3d
00000210: f6d9 e7bc 2a1a f8bc 4585 2f3d 9c6f 95bd
00000220: e84f 42bc 853c 0fbd c943 803d c828 3e3d
00000230: 6218 38bd c41d cfbd a651 9cbd dbb5 10bb
00000240: af72 cbbd fab5 533c c785 2fbd 5363 a9bd
00000250: 2e2a 86bc acd5 04bd 9db2 613d 4c4c 533c
00000260: 6c39 afbd 591b 003d a1b5 d93d c9c7 4b3d
00000270: 3f5d ee3d 3e0b 523c 964b f5bd 97ef 94bd
00000280: f063 b93c b899 bc3d a3c7 9cbd 54a9 c0bd
00000290: 0d80 d93d 271e bd3c 5646 bb3c 4d71 11bd
000002a0: f3b4 d3bd cc5b c4bd 8a52 723c 500a a03d
000002b0: a12f 563d db8d 52bd 49d2 aa3d 64dc 4a3d
000002c0: 2681 06b9 1783 e9bd 01c8 64bd 0e72 d9bd
000002d0: 1d13 90bd 67da 673c f2dd f33a 3536 4fbd
000002e0: 3e99 efbd e6ba a6bd c613 583d e2e1 48bd
000002f0: 6164 90ba 2a03 3fbd d0bd feb9 0850 a7bd
00000300: a8a9 b0bd 82f3 f1bc f162 053d 2cb2 68bd
00000310: f174 703b 133a 8e3d f23b 8b3d db09 f1bd
00000320: bb4e b43d 45bc 5bbc 40d0 a1bc a92e aa3d
00000330: ffa9 bbbb 2a5e e9bd d5c3 2e3d 7a47 19bb
00000340: e168 8b3d c145 e1bd df91 1d3d c6b2 9bbd
00000350: 5106 643c fdde d3bd 1b1c 9a3d bf72 86bd
00000360: 76bc 0c3c b13b dabd 7f49 ffbd c87b b73d
00000370: 7612 ffbc 4b9b c5bc 9c02 863d d472 e3bd
00000380: 3947 eb3d cb47 e2bc 53ef a53d 15ae cebd
00000390: 0cd3 98bc 4778 debc 7e1b a9bd f556 a6bd
000003a0: e598 98bd 3fe7 a8bd 86ce 3d3d c7a4 3d3d
000003b0: c8c6 e6bd 000d 7c3d 46b2 86bc 5334 f1bd
000003c0: 6064 eabd 20e4 aebb 6ed3 423d c832 f4bc
000003d0: 1394 eabd 981e e6bc 0fc5 acbd ea35 8abd
000003e0: 383c 27bd ae8d 3f3d 7aaa 5e3d b589 83bd
000003f0: be86 b8bd 185a 97bd a0a3 9abb 400e 6e3b
