sd-card/config/ana0910s3_longq.tflite (tflite, 33808 bytes, 6 tensors)

sequential/dense/MatMul i1 [64, 32] scale=0.0036681294 zero_point=0
000000 bb 27 c1 c8 23 ca d8 cb 04 04 09 0a ef d6 20 f0
       -0.25310093 0.14305705 -0.23109215 -0.20541525 0.12838453 -0.19807899 -0.14672518 -0.19441086 0.014672518 0.014672518 0.033013165 0.036681294 -0.0623582 -0.15406144 0.11738014 -0.05869007
000010 21 1c 29 08 0a 05 f9 ff bc e7 d2 f9 d3 19 29 ec
       0.12104827 0.102707624 0.1503933 0.029345036 0.036681294 0.018340647 -0.025676906 -0.0036681294 -0.2494328 -0.091703236 -0.16873395 -0.025676906 -0.16506582 0.091703236 0.1503933 -0.07336259
000020 11 11 0f 25 35 f8 f5 fe ec 05 f4 03 03 f7 03 fa
       0.0623582 0.0623582 0.05502194 0.13572079 0.19441086 -0.029345036 -0.040349424 -0.007336259 -0.07336259 0.018340647 -0.044017553 0.011004388 0.011004388 -0.033013165 0.011004388 -0.022008777
000030 c8 dd 27 1b fe bf e6 13 c5 d8 48 e8 2b d4 f9 e4
       -0.20541525 -0.12838453 0.14305705 0.099039495 -0.007336259 -0.23842841 -0.095371366 0.06969446 -0.21641964 -0.14672518 0.26410532 -0.08803511 0.15772957 -0.1613977 -0.025676906 -0.102707624
000040 d3 16 52 dc 62 01 e5 17 29 9c 2c fc e0 b3 09 d8
       -0.16506582 0.08069885 0.3007866 -0.13205266 0.3594767 0.0036681294 -0.099039495 0.08436698 0.1503933 -0.36681294 0.1613977 -0.014672518 -0.11738014 -0.28244597 0.033013165 -0.14672518
000050 fe fe c5 ef cc 5a f2 e5 19 f3 e5 1c e3 ce fb e2
       -0.007336259 -0.007336259 -0.21641964 -0.0623582 -0.19074273 0.33013165 -0.051353812 -0.099039495 0.091703236 -0.047685683 -0.099039495 0.102707624 -0.106375754 -0.18340647 -0.018340647 -0.11004388
000060 f3 06 d5 d0 3f f0 1f f1 2c ec 01 42 18 cb b8 df
       -0.047685683 0.022008777 -0.15772957 -0.17607021 0.23109215 -0.05869007 0.11371201 -0.05502194 0.1613977 -0.07336259 0.0036681294 0.24209654 0.08803511 -0.19441086 -0.26410532 -0.12104827
000070 d9 f1 32 33 e6 2c b6 42 ca 10 f0 11 45 4b 0e 26
       -0.14305705 -0.05502194 0.18340647 0.1870746 -0.095371366 0.1613977 -0.27144158 0.24209654 -0.19807899 0.05869007 -0.05869007 0.0623582 0.25310093 0.2751097 0.051353812 0.13938892
000080 2d e2 d6 2e 04 01 e2 e6 0d e6 07 ac 06 15 16 2d
       0.16506582 -0.11004388 -0.15406144 0.16873395 0.014672518 0.0036681294 -0.11004388 -0.095371366 0.047685683 -0.095371366 0.025676906 -0.30812287 0.022008777 0.07703072 0.08069885 0.16506582
000090 03 02 65 06 dc b6 db e8 f9 03 56 f4 16 40 c1 c2
       0.011004388 0.007336259 0.37048107 0.022008777 -0.13205266 -0.27144158 -0.13572079 -0.08803511 -0.025676906 0.011004388 0.31545913 -0.044017553 0.08069885 0.23476028 -0.23109215 -0.22742403
0000a0 fe f5 81 47 d3 38 d8 90 ec d3 a3 08 dc 05 f1 ca
       -0.007336259 -0.040349424 -0.46585244 0.2604372 -0.16506582 0.20541525 -0.14672518 -0.4108305 -0.07336259 -0.16506582 -0.34113604 0.029345036 -0.13205266 0.018340647 -0.05502194 -0.19807899
0000b0 1f e6 3c f8 26 24 e3 46 0b 0c d1 0c fc 20 b7 02
       0.11371201 -0.095371366 0.22008777 -0.029345036 0.13938892 0.13205266 -0.106375754 0.25676906 0.040349424 0.044017553 -0.17240208 0.044017553 -0.014672518 0.11738014 -0.26777345 0.007336259
0000c0 91 51 e0 bf 04 af ca 1d 25 c0 eb 18 00 c8 e1 00
       -0.40716237 0.29711848 -0.11738014 -0.23842841 0.014672518 -0.29711848 -0.19807899 0.106375754 0.13572079 -0.23476028 -0.07703072 0.08803511 0.0 -0.20541525 -0.11371201 0.0
0000d0 e7 fa fd ef 2b 59 56 e3 05 d1 0b c6 22 b8 33 c8
       -0.091703236 -0.022008777 -0.011004388 -0.0623582 0.15772957 0.32646352 0.31545913 -0.106375754 0.018340647 -0.17240208 0.040349424 -0.21275151 0.1247164 -0.26410532 0.1870746 -0.20541525
0000e0 e1 eb b3 39 de 30 f0 d0 35 cf 19 07 db 07 28 d3
       -0.11371201 -0.07703072 -0.28244597 0.20908338 -0.1247164 0.17607021 -0.05869007 -0.17607021 0.19441086 -0.17973834 0.091703236 0.025676906 -0.13572079 0.025676906 0.14672518 -0.16506582
0000f0 15 f4 74 0e 02 e8 a9 2b fe fc 2b 04 de dd f0 bf
       0.07703072 -0.044017553 0.42550302 0.051353812 0.007336259 -0.08803511 -0.31912726 0.15772957 -0.007336259 -0.014672518 0.15772957 0.014672518 -0.1247164 -0.12838453 -0.05869007 -0.23842841

sequential/dense_1/MatMul i1 [32, 64] scale=0.007006914 zero_point=0
000000 fa f1 00 f1 de f4 cf b6 e7 fd d5 ea fc 0f fa ed
       -0.042041484 -0.10510371 0.0 -0.10510371 -0.23823507 -0.08408297 -0.3433388 -0.51851165 -0.17517285 -0.021020742 -0.3012973 -0.15415211 -0.028027656 0.10510371 -0.042041484 -0.13313137
000010 db f4 07 e4 07 08 fe ef fd e5 15 cf fc e4 e3 e6
       -0.25925583 -0.08408297 0.049048398 -0.19619359 0.049048398 0.05605531 -0.014013828 -0.119117536 -0.021020742 -0.18918668 0.1471452 -0.3433388 -0.028027656 -0.19619359 -0.2032005 -0.18217976
000020 2c f9 33 e0 f8 17 b4 e1 cf 18 dd ed bc e4 23 12
       0.30830422 -0.049048398 0.3573526 -0.22422124 -0.05605531 0.16115902 -0.5325255 -0.21721433 -0.3433388 0.16816594 -0.24524198 -0.13313137 -0.47647014 -0.19619359 0.24524198 0.12612446
000030 13 c9 26 07 fa ed eb ea c0 1d f5 ec f5 00 17 09
       0.13313137 -0.38538027 0.26626274 0.049048398 -0.042041484 -0.13313137 -0.1471452 -0.15415211 -0.4484425 0.2032005 -0.077076055 -0.14013828 -0.077076055 0.0 0.16115902 0.06306223
000040 15 1d f8 f6 dc ef fb e8 1a 05 d7 eb 08 1d f1 11
       0.1471452 0.2032005 -0.05605531 -0.07006914 -0.2522489 -0.119117536 -0.03503457 -0.16816594 0.18217976 0.03503457 -0.28728348 -0.1471452 0.05605531 0.2032005 -0.10510371 0.119117536
000050 0a 16 02 f5 db f3 e9 15 f9 fc 0d e6 e8 dd 0e e4
       0.07006914 0.15415211 0.014013828 -0.077076055 -0.25925583 -0.09108988 -0.16115902 0.1471452 -0.049048398 -0.028027656 0.09108988 -0.18217976 -0.16816594 -0.24524198 0.098096795 -0.19619359
000060 11 ee f7 dc 18 ea 0a 0c e1 dc de 0b e6 e8 03 f7
       0.119117536 -0.12612446 -0.06306223 -0.2522489 0.16816594 -0.15415211 0.07006914 0.08408297 -0.21721433 -0.2522489 -0.23823507 0.077076055 -0.18217976 -0.16816594 0.021020742 -0.06306223
000070 e2 04 df fa ff f3 f6 1a 12 e4 de 1c fa 0c e0 17
       -0.21020742 0.028027656 -0.23122816 -0.042041484 -0.007006914 -0.09108988 -0.07006914 0.18217976 0.12612446 -0.19619359 -0.23823507 0.19619359 -0.042041484 0.08408297 -0.22422124 0.16115902
000080 e2 1d f1 05 ae e0 06 e1 ff fe f0 14 eb ff d5 d7
       -0.21020742 0.2032005 -0.10510371 0.03503457 -0.57456696 -0.22422124 0.042041484 -0.21721433 -0.007006914 -0.014013828 -0.11211062 0.14013828 -0.1471452 -0.007006914 -0.3012973 -0.28728348
000090 f8 0b 11 e6 0e 0e e6 03 0c f4 18 ed ed 0e f8 eb
       -0.05605531 0.077076055 0.119117536 -0.18217976 0.098096795 0.098096795 -0.18217976 0.021020742 0.08408297 -0.08408297 0.16816594 -0.13313137 -0.13313137 0.098096795 -0.05605531 -0.1471452
0000a0 0f eb e8 07 c1 ff de 0f e7 d2 f9 22 e2 08 e1 12
       0.10510371 -0.1471452 -0.16816594 0.049048398 -0.44143558 -0.007006914 -0.23823507 0.10510371 -0.17517285 -0.32231805 -0.049048398 0.23823507 -0.21020742 0.05605531 -0.21721433 0.12612446
0000b0 03 a7 e6 0f 10 e0 0a f5 d6 e2 db 0b f4 ff 20 fa
       0.021020742 -0.6236153 -0.18217976 0.10510371 0.11211062 -0.22422124 0.07006914 -0.077076055 -0.2942904 -0.21020742 -0.25925583 0.077076055 -0.08408297 -0.007006914 0.22422124 -0.042041484
0000c0 1b e4 f7 0a 09 1b df e0 fa fe 1e fd 12 02 dd ed
       0.18918668 -0.19619359 -0.06306223 0.07006914 0.06306223 0.18918668 -0.23122816 -0.22422124 -0.042041484 -0.014013828 0.21020742 -0.021020742 0.12612446 0.014013828 -0.24524198 -0.13313137
0000d0 dc f7 1d de f2 fd e5 fd 01 17 12 d5 f1 30 f7 f1
       -0.2522489 -0.06306223 0.2032005 -0.23823507 -0.098096795 -0.021020742 -0.18918668 -0.021020742 0.007006914 0.16115902 0.12612446 -0.3012973 -0.10510371 0.33633187 -0.06306223 -0.10510371
0000e0 f7 24 f4 09 05 fe 10 e7 f0 21 13 07 01 0c 23 20
       -0.06306223 0.2522489 -0.08408297 0.06306223 0.03503457 -0.014013828 0.11211062 -0.17517285 -0.11211062 0.23122816 0.13313137 0.049048398 0.007006914 0.08408297 0.24524198 0.22422124
0000f0 09 e1 e4 02 de f1 f4 12 24 12 11 04 fe d7 ea e8
       0.06306223 -0.21721433 -0.19619359 0.014013828 -0.23823507 -0.10510371 -0.08408297 0.12612446 0.2522489 0.12612446 0.119117536 0.028027656 -0.014013828 -0.28728348 -0.15415211 -0.16816594

sequential/dense_2/MatMul i1 [2, 32] scale=0.0038516368 zero_point=0
000000 a7 4c ae 04 c7 b6 4c 6e dd 02 1b 2c e3 03 1f 4b
       -0.34279567 0.2927244 -0.31583422 0.015406547 -0.2195433 -0.28502113 0.2927244 0.42368004 -0.13480729 0.0077032736 0.10399419 0.16947202 -0.111697465 0.01155491 0.11940074 0.28887275
000010 10 41 56 a2 0f 90 3d 07 55 41 65 23 2f d5 cd 16
       0.06162619 0.25035638 0.33124077 -0.36205387 0.05777455 -0.4313833 0.23494984 0.026961457 0.32738912 0.25035638 0.38901532 0.13480729 0.18102694 -0.16562039 -0.19643347 0.08473601
000020 e7 e7 2c ec 7f 0d d4 0e 9e c1 65 1c 9e 6a ff e8
       -0.096290916 -0.096290916 0.16947202 -0.07703274 0.4891579 0.050071277 -0.16947202 0.053922914 -0.3774604 -0.24265312 0.38901532 0.10784583 -0.3774604 0.4082735 -0.0038516368 -0.09243928
000030 1d 31 00 2f c7 d9 9d e3 4b 0c 62 53 ea da 1d 29
       0.111697465 0.1887302 0.0 0.18102694 -0.2195433 -0.15021384 -0.38131204 -0.111697465 0.28887275 0.04621964 0.3774604 0.31968585 -0.08473601 -0.1463622 0.111697465 0.15791711

sequential/conv2d/Conv2D i1 [32, 5, 5, 3]
000000 02 ee f4 21 03 e9 44 f3 99 31 d8 d2 01 da e1 54
       2 -18 -12 33 3 -23 68 -13 -103 49 -40 -46 1 -38 -31 84
000010 da 14 38 d0 cb 44 d7 bc 79 af 81 53 c8 b6 11 00
       -38 20 56 -48 -53 68 -41 -68 121 -81 -127 83 -56 -74 17 0
000020 b3 5e c6 d0 48 aa c7 4d 9f c8 1a d8 ca de fb 2f
       -77 94 -58 -48 72 -86 -57 77 -97 -56 26 -40 -54 -34 -5 47
000030 0e 23 30 25 a9 f6 f4 d6 14 fb 04 29 aa 3c 2d 0d
       14 35 48 37 -87 -10 -12 -42 20 -5 4 41 -86 60 45 13
000040 30 33 e2 e6 62 c0 1d 23 a3 26 4e 07 74 7f ab 4e
       48 51 -30 -26 98 -64 29 35 -93 38 78 7 116 127 -85 78
000050 31 db 24 24 d6 0f 26 dc 05 17 1b 27 45 f2 04 f1
       49 -37 36 36 -42 15 38 -36 5 23 27 39 69 -14 4 -15
000060 e8 f3 f9 03 f9 e5 25 d7 db 1d f5 e4 27 e5 c5 19
       -24 -13 -7 3 -7 -27 37 -41 -37 29 -11 -28 39 -27 -59 25
000070 d3 b4 20 cd c6 33 e3 e1 0f df 00 28 ca ef 21 c8
       -45 -76 32 -51 -58 51 -29 -31 15 -33 0 40 -54 -17 33 -56
000080 da 0f cb f3 21 be f4 16 de c5 16 e0 cf 2b e3 d8
       -38 15 -53 -13 33 -66 -12 22 -34 -59 22 -32 -49 43 -29 -40
000090 12 f0 eb ec e5 1f 52 81 84 2c be c6 03 d0 f2 bc
       18 -16 -21 -20 -27 31 82 -127 -124 44 -66 -58 3 -48 -14 -68
0000a0 fb fe ad 27 19 47 b2 af 16 f5 ec 13 2e 24 ef 21
       -5 -2 -83 39 25 71 -78 -81 22 -11 -20 19 46 36 -17 33
0000b0 32 97 0c fd 4d 0f f0 14 19 f8 17 22 0b d0 ee 01
       50 -105 12 -3 77 15 -16 20 25 -8 23 34 11 -48 -18 1
0000c0 e3 4a 2a fd dc ef 26 2d 3d ed ed 12 fb 1d 2b c8
       -29 74 42 -3 -36 -17 38 45 61 -19 -19 18 -5 29 43 -56
0000d0 29 2a d9 ed ea 8d da d5 1c 2e 2a e7 03 24 ed 3d
       41 42 -39 -19 -22 -115 -38 -43 28 46 42 -25 3 36 -19 61
0000e0 63 5a cc a0 3b c4 d1 09 c7 f1 d5 11 2a de 34 48
       99 90 -52 -96 59 -60 -47 9 -57 -15 -43 17 42 -34 52 72
0000f0 40 b1 a0 02 e3 e2 fd d8 12 f4 26 31 a4 34 67 3c
       64 -79 -96 2 -29 -30 -3 -40 18 -12 38 49 -92 52 103 60

sequential/conv2d_1/Conv2D i1 [16, 5, 5, 32]
000000 24 03 23 ee 30 0b 05 f9 17 24 0b 09 ab 15 e9 07
       36 3 35 -18 48 11 5 -7 23 36 11 9 -85 21 -23 7
000010 f6 df 1d dc f5 f4 f8 22 e0 d3 de e1 ec ef 08 07
       -10 -33 29 -36 -11 -12 -8 34 -32 -45 -34 -31 -20 -17 8 7
000020 22 0e 2b ff 0e 1b 1a 16 20 fc fe f3 ea 25 fb dd
       34 14 43 -1 14 27 26 22 32 -4 -2 -13 -22 37 -5 -35
000030 de 09 f8 fe 1b f7 3b f4 0c 18 e2 f9 d5 fe fc e5
       -34 9 -8 -2 27 -9 59 -12 12 24 -30 -7 -43 -2 -4 -27
000040 ea 2d ea fa b2 fa ec f9 e9 16 08 ff f6 e0 ea da
       -22 45 -22 -6 -78 -6 -20 -7 -23 22 8 -1 -10 -32 -22 -38
000050 e3 ce 02 24 ed 0a 17 f1 fa 47 f0 07 d5 f9 0c f5
       -29 -50 2 36 -19 10 23 -15 -6 71 -16 7 -43 -7 12 -11
000060 f8 67 d7 fb 00 20 0f f1 be e6 f7 1e de d1 f4 16
       -8 103 -41 -5 0 32 15 -15 -66 -26 -9 30 -34 -47 -12 22
000070 f3 1d 25 66 d3 30 ec e2 2f 49 17 36 ff 18 0c e5
       -13 29 37 102 -45 48 -20 -30 47 73 23 54 -1 24 12 -27
000080 07 30 d7 21 e9 14 3e da 81 ff d4 f9 e3 fa 10 e3
       7 48 -41 33 -23 20 62 -38 -127 -1 -44 -7 -29 -6 16 -29
000090 e3 e9 1e 50 dc fc 08 d7 2e 76 da 22 37 f7 c9 fb
       -29 -23 30 80 -36 -4 8 -41 46 118 -38 34 55 -9 -55 -5
0000a0 f8 f3 bf 50 d8 03 e4 e3 01 f9 05 f1 e5 ff d8 f0
       -8 -13 -65 80 -40 3 -28 -29 1 -7 5 -15 -27 -1 -40 -16
0000b0 f3 11 04 e9 d5 02 12 fd fa f0 04 2f f9 0e 1e fc
       -13 17 4 -23 -43 2 18 -3 -6 -16 4 47 -7 14 30 -4
0000c0 38 ec d5 e6 d7 0b c4 29 e2 e1 09 f4 f3 28 0e 2b
       56 -20 -43 -26 -41 11 -60 41 -30 -31 9 -12 -13 40 14 43
0000d0 0f db ed f5 f7 f3 4b 1b e8 d0 f0 1f 09 be 05 dc
       15 -37 -19 -11 -9 -13 75 27 -24 -48 -16 31 9 -66 5 -36
0000e0 03 bb 01 d4 f6 d1 19 ea f3 09 e5 be 0d fe 27 27
       3 -69 1 -44 -10 -47 25 -22 -13 9 -27 -66 13 -2 39 39
0000f0 02 2a 23 f5 0d de 13 f7 1a e8 d5 df ea 20 59 e6
       2 42 35 -11 13 -34 19 -9 26 -24 -43 -33 -22 32 89 -26

sequential/conv2d_2/Conv2D i1 [32, 3, 3, 16]
000000 e5 17 e8 eb ef fa f6 fa 13 f0 f5 02 e4 0f e9 ff
       -27 23 -24 -21 -17 -6 -10 -6 19 -16 -11 2 -28 15 -23 -1
000010 10 f2 e8 03 15 1b ea 16 0d dd fc e3 fa fc fb 21
       16 -14 -24 3 21 27 -22 22 13 -35 -4 -29 -6 -4 -5 33
000020 15 04 24 da 23 23 0c 18 1d f2 f7 3e ff d4 0c f5
       21 4 36 -38 35 35 12 24 29 -14 -9 62 -1 -44 12 -11
000030 12 10 ea f4 f6 ed e3 f4 ff d7 f4 f4 fc e6 ed f2
       18 16 -22 -12 -10 -19 -29 -12 -1 -41 -12 -12 -4 -26 -19 -14
000040 a1 ea db d5 09 d6 fb f1 33 2f e7 1f 21 1d e2 08
       -95 -22 -37 -43 9 -42 -5 -15 51 47 -25 31 33 29 -30 8
000050 cf 58 81 0b f2 15 05 eb 2e e8 0c db 4e 36 fc de
       -49 88 -127 11 -14 21 5 -21 46 -24 12 -37 78 54 -4 -34
000060 f3 f7 07 ef ff ed 13 15 fe e5 fb 10 f3 f0 1b 0a
       -13 -9 7 -17 -1 -19 19 21 -2 -27 -5 16 -13 -16 27 10
000070 e3 ea 30 0c 00 e3 fb 47 10 d2 fc fe 05 30 19 c5
       -29 -22 48 12 0 -29 -5 71 16 -46 -4 -2 5 48 25 -59
000080 1a 30 cc 3c 08 12 00 f7 10 fb 05 fb 0c 32 f6 db
       26 48 -52 60 8 18 0 -9 16 -5 5 -5 12 50 -10 -37
000090 f3 0d e9 e6 12 e6 cc f7 f0 0e ee e1 e0 f7 fb d9
       -13 13 -23 -26 18 -26 -52 -9 -16 14 -18 -31 -32 -9 -5 -39
0000a0 07 e7 e2 eb f0 f0 ff eb ff fa 1c fd d8 ea 05 ef
       7 -25 -30 -21 -16 -16 -1 -21 -1 -6 28 -3 -40 -22 5 -17
0000b0 1a f3 fa 15 e4 de 14 19 19 fd 14 e6 e8 e3 08 e6
       26 -13 -6 21 -28 -34 20 25 25 -3 20 -26 -24 -29 8 -26
0000c0 ad f9 e6 ae 1c e9 fc 21 f6 15 e0 c7 e5 3c f9 81
       -83 -7 -26 -82 28 -23 -4 33 -10 21 -32 -57 -27 60 -7 -127
0000d0 07 c7 e7 df c0 f2 c6 07 08 0b ee 22 b7 0e f8 b0
       7 -57 -25 -33 -64 -14 -58 7 8 11 -18 34 -73 14 -8 -80
0000e0 ef f2 e2 db 10 d7 f5 fa 0f e4 0a 13 03 ef e2 e7
       -17 -14 -30 -37 16 -41 -11 -6 15 -28 10 19 3 -17 -30 -25
0000f0 18 ec e3 34 1e 0c 12 0d 25 12 fe f5 f2 db fb 23
       24 -20 -29 52 30 12 18 13 37 18 -2 -11 -14 -37 -5 35
