sd-card/config/ana0700s1lq.tflite (tflite, 59952 bytes, 6 tensors)

sequential/dense/MatMul i1 [128, 32] scale=0.003702561 zero_point=0
000000 f0 fd f8 f8 f5 2e 1e f5 14 ec fc 1b f3 f6 d6 20
       -0.059240974 -0.011107683 -0.029620487 -0.029620487 -0.04072817 0.1703178 0.111076824 -0.04072817 0.074051216 -0.074051216 -0.014810244 0.09996914 -0.04813329 -0.037025608 -0.15550756 0.11848195
000010 21 ca fc ad 10 03 cd 1f da f9 0c 2d 03 c3 fe f5
       0.12218451 -0.19993828 -0.014810244 -0.30731255 0.059240974 0.011107683 -0.1888306 0.11477939 -0.14069732 -0.025917927 0.044430733 0.16661525 0.011107683 -0.22585621 -0.007405122 -0.04072817
000020 25 f8 0c f8 06 16 13 1e ea d5 1d 29 fd df 25 db
       0.13699475 -0.029620487 0.044430733 -0.029620487 0.022215366 0.08145634 0.07034866 0.111076824 -0.08145634 -0.15921012 0.107374266 0.151805 -0.011107683 -0.12218451 0.13699475 -0.13699475
000030 bf de 1f 31 25 ea f3 18 f0 d6 e8 d3 01 2a 01 25
       -0.24066646 -0.12588707 0.11477939 0.18142548 0.13699475 -0.08145634 -0.04813329 0.088861465 -0.059240974 -0.15550756 -0.088861465 -0.16661525 0.003702561 0.15550756 0.003702561 0.13699475
000040 c3 06 ed fa 0c c2 3c 17 f6 eb ea ef 19 f5 fc ef
       -0.22585621 0.022215366 -0.07034866 -0.022215366 0.044430733 -0.22955878 0.22215365 0.0851589 -0.037025608 -0.07775378 -0.08145634 -0.06294353 0.092564024 -0.04072817 -0.014810244 -0.06294353
000050 fd e7 15 c4 e9 07 ff f6 d8 df 2f 00 0b ee fa 18
       -0.011107683 -0.092564024 0.07775378 -0.22215365 -0.0851589 0.025917927 -0.003702561 -0.037025608 -0.14810243 -0.12218451 0.17402036 0.0 0.04072817 -0.0666461 -0.022215366 0.088861465
000060 f2 d9 3f 12 f7 28 fb d7 d9 fd 0f e9 02 cb eb c5
       -0.051835854 -0.14439988 0.23326133 0.0666461 -0.03332305 0.14810243 -0.018512804 -0.151805 -0.14439988 -0.011107683 0.055538412 -0.0851589 0.007405122 -0.19623573 -0.07775378 -0.2184511
000070 dc 0a ee 1f 15 16 14 13 db ee 2a cb 1b 02 17 1a
       -0.1332922 0.037025608 -0.0666461 0.11477939 0.07775378 0.08145634 0.074051216 0.07034866 -0.13699475 -0.0666461 0.15550756 -0.19623573 0.09996914 0.007405122 0.0851589 0.09626658
000080 d0 01 f6 ce 3b ea 17 18 2c 1d e3 d6 03 e5 a8 19
       -0.17772293 0.003702561 -0.037025608 -0.18512805 0.2184511 -0.08145634 0.0851589 0.088861465 0.16291268 0.107374266 -0.107374266 -0.15550756 0.011107683 -0.09996914 -0.32582536 0.092564024
000090 c1 09 e4 f7 15 22 08 f1 d4 00 d0 e9 fe 05 f5 d3
       -0.23326133 0.03332305 -0.10367171 -0.03332305 0.07775378 0.12588707 0.029620487 -0.055538412 -0.16291268 0.0 -0.17772293 -0.0851589 -0.007405122 0.018512804 -0.04072817 -0.16661525
0000a0 15 2f 0c 24 d1 e0 c4 e6 f7 ce 12 cc e8 f9 10 d8
       0.07775378 0.17402036 0.044430733 0.1332922 -0.17402036 -0.11848195 -0.22215365 -0.09626658 -0.03332305 -0.18512805 0.0666461 -0.19253317 -0.088861465 -0.025917927 0.059240974 -0.14810243
0000b0 da e7 fe f1 bf ea 00 d7 ef e7 12 29 0c e5 fb 31
       -0.14069732 -0.092564024 -0.007405122 -0.055538412 -0.24066646 -0.08145634 0.0 -0.151805 -0.06294353 -0.092564024 0.0666461 0.151805 0.044430733 -0.09996914 -0.018512804 0.18142548
0000c0 00 bb d0 d6 3d 2d fe 0b 26 12 e4 e8 2a c8 17 37
       0.0 -0.2554767 -0.17772293 -0.15550756 0.22585621 0.16661525 -0.007405122 0.04072817 0.14069732 0.0666461 -0.10367171 -0.088861465 0.15550756 -0.20734341 0.0851589 0.20364085
0000d0 52 bb 2f c5 d3 2b d8 fe 82 16 de 46 cd ea 27 d1
       0.30361 -0.2554767 0.17402036 -0.2184511 -0.16661525 0.15921012 -0.14810243 -0.007405122 -0.46652266 0.08145634 -0.12588707 0.25917926 -0.1888306 -0.08145634 0.14439988 -0.17402036
0000e0 23 fb fe db ed 12 e9 15 d9 d8 fb d3 23 04 fe be
       0.12958963 -0.018512804 -0.007405122 -0.13699475 -0.07034866 0.0666461 -0.0851589 0.07775378 -0.14439988 -0.14810243 -0.018512804 -0.16661525 0.12958963 0.014810244 -0.007405122 -0.24436902
0000f0 2d c2 1c 1e 19 2b e1 1a 1d dc cc 36 e1 0a e2 25
       0.16661525 -0.22955878 0.10367171 0.111076824 0.092564024 0.15921012 -0.11477939 0.09626658 0.107374266 -0.1332922 -0.19253317 0.19993828 -0.11477939 0.037025608 -0.111076824 0.13699475

sequential/dense_1/MatMul i1 [64, 128] scale=0.0041625714 zero_point=0
000000 ca 02 eb ef 00 12 af 08 ef 27 04 ec e8 e4 c1 bd
       -0.22477886 0.008325143 -0.087414 -0.070763715 0.0 0.07492629 -0.33716828 0.03330057 -0.070763715 0.16234028 0.016650286 -0.08325143 -0.09990171 -0.116551995 -0.262242 -0.27889228
000010 0b df 24 06 bf 1b e3 05 0e 05 cc 29 e2 cc 02 18
       0.045788284 -0.13736485 0.14985257 0.024975428 -0.27056715 0.11238943 -0.12071457 0.020812858 0.058275998 0.020812858 -0.21645372 0.17066543 -0.12487714 -0.21645372 0.008325143 0.09990171
000020 db 10 f2 f2 01 1f ee e8 00 1a 1b ab ce da e8 1d
       -0.15401514 0.06660114 -0.058275998 -0.058275998 0.0041625714 0.12903972 -0.07492629 -0.09990171 0.0 0.10822686 0.11238943 -0.35381857 -0.20812857 -0.15817772 -0.09990171 0.12071457
000030 1f 08 22 2a dc 0d 09 07 0f f5 04 06 ed 21 21 21
       0.12903972 0.03330057 0.14152743 0.174828 -0.14985257 0.05411343 0.037463143 0.029137999 0.06243857 -0.045788284 0.016650286 0.024975428 -0.07908886 0.13736485 0.13736485 0.13736485
000040 e7 ff c4 f8 ff 19 0f d5 db 04 19 ab fc be da fa
       -0.104064286 -0.0041625714 -0.24975428 -0.03330057 -0.0041625714 0.104064286 0.06243857 -0.17899057 -0.15401514 0.016650286 0.104064286 -0.35381857 -0.016650286 -0.2747297 -0.15817772 -0.024975428
000050 f5 cc da fd 09 f7 1e 12 fc f0 f9 ef 26 1b fe 18
       -0.045788284 -0.21645372 -0.15817772 -0.012487714 0.037463143 -0.037463143 0.12487714 0.07492629 -0.016650286 -0.06660114 -0.029137999 -0.070763715 0.15817772 0.11238943 -0.008325143 0.09990171
000060 df 12 d1 01 ed de dc 1e 18 fa f7 0e 12 1e 20 01
       -0.13736485 0.07492629 -0.19564086 0.0041625714 -0.07908886 -0.14152743 -0.14985257 0.12487714 0.09990171 -0.024975428 -0.037463143 0.058275998 0.07492629 0.12487714 0.13320228 0.0041625714
000070 e8 f9 25 fb 26 f6 ec c1 e8 e8 0c f9 06 d6 d5 d5
       -0.09990171 -0.029137999 0.15401514 -0.020812858 0.15817772 -0.041625716 -0.08325143 -0.262242 -0.09990171 -0.09990171 0.049950857 -0.029137999 0.024975428 -0.174828 -0.17899057 -0.17899057
000080 e2 de df 0f d3 e0 ec 19 da f8 e1 fe ec d9 e3 fa
       -0.12487714 -0.14152743 -0.13736485 0.06243857 -0.18731572 -0.13320228 -0.08325143 0.104064286 -0.15817772 -0.03330057 -0.12903972 -0.008325143 -0.08325143 -0.16234028 -0.12071457 -0.024975428
000090 db da fc 19 0e 16 0e 06 07 0e e3 0f fc 19 27 f7
       -0.15401514 -0.15817772 -0.016650286 0.104064286 0.058275998 0.09157657 0.058275998 0.024975428 0.029137999 0.058275998 -0.12071457 0.06243857 -0.016650286 0.104064286 0.16234028 -0.037463143
0000a0 da f6 1f fe 0a 28 f2 ee e5 16 20 0a ea ee 18 1f
       -0.15817772 -0.041625716 0.12903972 -0.008325143 0.041625716 0.16650286 -0.058275998 -0.07492629 -0.11238943 0.09157657 0.13320228 0.041625716 -0.09157657 -0.07492629 0.09990171 0.12903972
0000b0 17 2a 20 e1 15 14 00 fc 0d e8 1a 1f ff e7 f0 f8
       0.09573914 0.174828 0.13320228 -0.12903972 0.087414 0.08325143 0.0 -0.016650286 0.05411343 -0.09990171 0.10822686 0.12903972 -0.0041625714 -0.104064286 -0.06660114 -0.03330057
0000c0 01 f6 fd e0 f2 06 13 de 12 26 01 1e ff df 06 f9
       0.0041625714 -0.041625716 -0.012487714 -0.13320228 -0.058275998 0.024975428 0.07908886 -0.14152743 0.07492629 0.15817772 0.0041625714 0.12487714 -0.0041625714 -0.13736485 0.024975428 -0.029137999
0000d0 1c de db fb de df e7 f6 e4 0b fa 00 0a 0e d4 0d
       0.116551995 -0.14152743 -0.15401514 -0.020812858 -0.14152743 -0.13736485 -0.104064286 -0.041625716 -0.116551995 0.045788284 -0.024975428 0.0 0.041625716 0.058275998 -0.18315314 0.05411343
0000e0 f2 dc 25 df 09 22 16 0f d9 f8 e5 e1 0e dc 13 f4
       -0.058275998 -0.14985257 0.15401514 -0.13736485 0.037463143 0.14152743 0.09157657 0.06243857 -0.16234028 -0.03330057 -0.11238943 -0.12903972 0.058275998 -0.14985257 0.07908886 -0.049950857
0000f0 fe d9 d8 e7 fd 00 05 0f f9 15 17 fd 26 f0 f3 0b
       -0.008325143 -0.16234028 -0.16650286 -0.104064286 -0.012487714 0.0 0.020812858 0.06243857 -0.029137999 0.087414 0.09573914 -0.012487714 0.15817772 -0.06660114 -0.05411343 0.045788284

sequential/dense_2/MatMul i1 [2, 64] scale=0.0035179504 zero_point=0
000000 27 43 dd c6 22 45 eb bd 41 c4 3d 42 dd ae 7f 35
       0.13720007 0.23570268 -0.123128265 -0.20404112 0.11961032 0.24273857 -0.07387696 -0.23570268 0.22866678 -0.21107702 0.21459498 0.23218472 -0.123128265 -0.28847194 0.4467797 0.18645138
000010 bb e0 1a 50 0d 59 21 9b d6 b3 33 b1 f7 10 fb ce
       -0.24273857 -0.11257441 0.09146671 0.28143603 0.045733355 0.3130976 0.11609236 -0.355313 -0.14775392 -0.2708822 0.17941546 -0.27791807 -0.031661555 0.056287207 -0.017589752 -0.17589752
000020 67 38 08 f0 cb c4 8f ff 46 0d 0b ed fd ed ff 36
       0.36234888 0.19700523 0.028143603 -0.056287207 -0.18645138 -0.21107702 -0.3975284 -0.0035179504 0.24625653 0.045733355 0.038697455 -0.06684106 -0.010553852 -0.06684106 -0.0035179504 0.18996932
000030 16 09 ae e7 dc d1 c6 37 0d 34 23 38 4c d0 fe 0a
       0.07739491 0.031661555 -0.28847194 -0.08794876 -0.12664622 -0.16534367 -0.20404112 0.19348727 0.045733355 0.18293342 0.123128265 0.19700523 0.26736423 -0.16886163 -0.007035901 0.035179503
000040 a8 f0 19 3a b1 e8 15 3e 46 b5 db e1 38 e0 2a d5
       -0.30957964 -0.056287207 0.08794876 0.20404112 -0.27791807 -0.084430814 0.07387696 0.21811293 0.24625653 -0.26384628 -0.13016416 -0.109056465 0.19700523 -0.11257441 0.14775392 -0.15127186
000050 f3 b2 f7 c2 dd b4 17 1a 23 11 0b 10 27 c9 04 e0
       -0.045733355 -0.27440014 -0.031661555 -0.21811293 -0.123128265 -0.26736423 0.08091286 0.09146671 0.123128265 0.05980516 0.038697455 0.056287207 0.13720007 -0.19348727 0.014071802 -0.11257441
000060 2c 9d f4 65 39 e9 ac e5 cf ca 2e fc 95 4a 15 ee
       0.15478982 -0.3482771 -0.042215407 0.355313 0.20052317 -0.08091286 -0.29550785 -0.09498466 -0.17237957 -0.18996932 0.16182572 -0.014071802 -0.3764207 0.26032832 0.07387696 -0.06332311
000070 38 f3 db a2 4d 42 29 2a 3b 29 79 2b 21 57 d8 2b
       0.19700523 -0.045733355 -0.13016416 -0.33068734 0.2708822 0.23218472 0.14423597 0.14775392 0.20755908 0.14423597 0.425672 0.15127186 0.11609236 0.30606169 -0.14071801 0.15127186

sequential/conv2d/Conv2D i1 [32, 5, 5, 3]
000000 e6 3c 48 fe 30 48 e4 4b 43 12 24 5c a6 50 7f 09
       -26 60 72 -2 48 72 -28 75 67 18 36 92 -90 80 127 9
000010 e0 0b 3c ed f4 20 04 f9 07 bb fd ec 11 04 e5 8d
       -32 11 60 -19 -12 32 4 -7 7 -69 -3 -20 17 4 -27 -115
000020 b7 0d ad e9 1d 85 c0 48 97 c6 de 1c 14 f4 e1 0f
       -73 13 -83 -23 29 -123 -64 72 -105 -58 -34 28 20 -12 -31 15
000030 fa 8c cf 36 df d1 3b b6 e5 d7 ef 04 26 4c 4c 1d
       -6 -116 -49 54 -33 -47 59 -74 -27 -41 -17 4 38 76 76 29
000040 e7 0a 50 ef d8 30 00 f3 b4 d7 f6 31 63 68 65 48
       -25 10 80 -17 -40 48 0 -13 -76 -41 -10 49 99 104 101 72
000050 2b b8 f0 ed 5c 54 f6 30 f5 d3 09 2a f1 81 b6 9f
       43 -72 -16 -19 92 84 -10 48 -11 -45 9 42 -15 -127 -74 -97
000060 c8 c6 ba d6 c1 b4 29 e1 ce ee 2d 17 fa e9 27 c8
       -56 -58 -70 -42 -63 -76 41 -31 -50 -18 45 23 -6 -23 39 -56
000070 f0 e6 6f 61 6b 9d 99 ae b4 e4 b9 e0 d1 f2 01 34
       -16 -26 111 97 107 -99 -103 -82 -76 -28 -71 -32 -47 -14 1 52
000080 32 29 16 14 29 e3 cf 4e 22 22 9b c6 d8 e6 22 30
       50 41 22 20 41 -29 -49 78 34 34 -101 -58 -40 -26 34 48
000090 9c fa fc 26 2f 0f e3 37 03 d2 9f e6 da eb 0c 87
       -100 -6 -4 38 47 15 -29 55 3 -46 -97 -26 -38 -21 12 -121
0000a0 b2 f8 2e 01 eb 37 55 08 a4 c3 1a 2a 6d 73 ee 1d
       -78 -8 46 1 -21 55 85 8 -92 -61 26 42 109 115 -18 29
0000b0 3f f7 4e 2e 1d 3a 2c ad b9 ed b4 e9 fc d9 da fb
       63 -9 78 46 29 58 44 -83 -71 -19 -76 -23 -4 -39 -38 -5
0000c0 81 bf 9c 33 13 14 0a 1c f6 e1 18 47 e7 38 2a fd
       -127 -65 -100 51 19 20 10 28 -10 -31 24 71 -25 56 42 -3
0000d0 2f 63 61 54 f4 ce f7 0d cd 29 df a4 cf e0 1c 5d
       47 99 97 84 -12 -50 -9 13 -51 41 -33 -92 -49 -32 28 93
0000e0 00 f1 13 2b c8 09 4a b0 f6 19 07 20 38 01 4d 46
       0 -15 19 43 -56 9 74 -80 -10 25 7 32 56 1 77 70
0000f0 81 c8 e4 ce 01 3b 2f fa 64 c3 e8 f2 d5 08 32 95
       -127 -56 -28 -50 1 59 47 -6 100 -61 -24 -14 -43 8 50 -107

sequential/conv2d_1/Conv2D i1 [32, 5, 5, 32]
000000 d2 df ff e3 fb 2e 0a ca f9 cf e6 ea 0d 27 f2 12
       -46 -33 -1 -29 -5 46 10 -54 -7 -49 -26 -22 13 39 -14 18
000010 06 02 f6 f3 1f 2e ed f2 e0 eb da 18 fa 22 f5 11
       6 2 -10 -13 31 46 -19 -14 -32 -21 -38 24 -6 34 -11 17
000020 cc ea 22 26 02 1c d8 0d 2b e4 09 ce fa f3 2d 1c
       -52 -22 34 38 2 28 -40 13 43 -28 9 -50 -6 -13 45 28
000030 ef f8 fa d5 f3 d8 d5 f6 f2 ed e3 cb 05 d0 08 c5
       -17 -8 -6 -43 -13 -40 -43 -10 -14 -19 -29 -53 5 -48 8 -59
000040 16 f9 1d cb 1d 18 db 05 c6 0c fd cf 2a f5 e1 15
       22 -7 29 -53 29 24 -37 5 -58 12 -3 -49 42 -11 -31 21
000050 f2 da d3 e4 24 da f4 d1 03 de 0a 09 ee c2 f0 fb
       -14 -38 -45 -28 36 -38 -12 -47 3 -34 10 9 -18 -62 -16 -5
000060 bc 1d cc 0c d4 28 0b ef fa fc ed e7 f2 04 12 df
       -68 29 -52 12 -44 40 11 -17 -6 -4 -19 -25 -14 4 18 -33
000070 f6 02 f3 ce 0f da 11 fb 07 e8 f2 04 f0 e1 0a ec
       -10 2 -13 -50 15 -38 17 -5 7 -24 -14 4 -16 -31 10 -20
000080 0d 03 1d 28 c9 23 dd 0b 03 f6 10 01 e0 1b 27 07
       13 3 29 40 -55 35 -35 11 3 -10 16 1 -32 27 39 7
000090 f8 e9 d1 dc cc ed e0 0e d9 03 dc 0c d7 1d 22 cb
       -8 -23 -47 -36 -52 -19 -32 14 -39 3 -36 12 -41 29 34 -53
0000a0 f9 22 dc fb cf de d8 e0 44 06 23 1a e9 2d d7 21
       -7 34 -36 -5 -49 -34 -40 -32 68 6 35 26 -23 45 -41 33
0000b0 0f db ea 13 12 2b ea 0d e1 f6 d6 0a 37 e2 10 f7
       15 -37 -22 19 18 43 -22 13 -31 -10 -42 10 55 -30 16 -9
0000c0 d5 c9 d4 e5 0e f7 11 0b 00 d7 e2 05 f1 da 39 e5
       -43 -55 -44 -27 14 -9 17 11 0 -41 -30 5 -15 -38 57 -27
0000d0 25 db 0c ef 16 e2 e0 0f 44 de 21 2b fa 17 11 d2
       37 -37 12 -17 22 -30 -32 15 68 -34 33 43 -6 23 17 -46
0000e0 b7 fd fd 14 13 ef 1a c7 d3 0f de f8 1c f2 df e7
       -73 -3 -3 20 19 -17 26 -57 -45 15 -34 -8 28 -14 -33 -25
0000f0 04 19 23 e4 12 01 d5 fe d2 d6 d2 eb fd ec 00 1e
       4 25 35 -28 18 1 -43 -2 -46 -42 -46 -21 -3 -20 0 30

sequential/conv2d_2/Conv2D i1 [32, 3, 3, 32]
000000 cc 09 e4 dd d5 6e f2 0d 2f 31 f2 22 0a de f8 79
       -52 9 -28 -35 -43 110 -14 13 47 49 -14 34 10 -34 -8 121
000010 dd 13 c8 06 13 05 20 0c c9 14 22 c2 08 f7 ca a1
       -35 19 -56 6 19 5 32 12 -55 20 34 -62 8 -9 -54 -95
000020 fb 28 fe c2 cf da c8 2f f2 1f a0 df ef 3b 34 fd
       -5 40 -2 -62 -49 -38 -56 47 -14 31 -96 -33 -17 59 52 -3
000030 07 d1 bf ca 07 ec fb 04 fc 2e b8 fd b2 0e d6 eb
       7 -47 -65 -54 7 -20 -5 4 -4 46 -72 -3 -78 14 -42 -21
000040 ff ce de f8 be 11 df f2 e9 05 ee f1 29 f1 d9 fd
       -1 -50 -34 -8 -66 17 -33 -14 -23 5 -18 -15 41 -15 -39 -3
000050 1e db d9 04 16 16 d0 21 c4 ce ea 01 e5 e6 fe cc
       30 -37 -39 4 22 22 -48 33 -60 -50 -22 1 -27 -26 -2 -52
000060 bf 07 14 8b 1a 05 31 07 1d 01 c0 b4 f1 28 02 c4
       -65 7 20 -117 26 5 49 7 29 1 -64 -76 -15 40 2 -60
000070 fa 1f b5 18 e2 a3 ee 14 d3 2f 27 26 c8 fc 56 f8
       -6 31 -75 24 -30 -93 -18 20 -45 47 39 38 -56 -4 86 -8
000080 d1 d9 ea 09 5e b0 a4 15 b4 db 1a 1f 09 ff cc eb
       -47 -39 -22 9 94 -80 -92 21 -76 -37 26 31 9 -1 -52 -21
000090 b2 a6 2f ce d9 0d f6 fd ed 00 a2 15 ab 7f ef 0c
       -78 -90 47 -50 -39 13 -10 -3 -19 0 -94 21 -85 127 -17 12
0000a0 d6 3a 19 d4 f9 d8 0b da ef e3 1d 08 3b f1 09 cc
       -42 58 25 -44 -7 -40 11 -38 -17 -29 29 8 59 -15 9 -52
0000b0 d8 c2 cb fe d2 e2 d8 dd 3b cf 14 c7 f2 12 f9 fa
       -40 -62 -53 -2 -46 -30 -40 -35 59 -49 20 -57 -14 18 -7 -6
0000c0 3b 1f c6 dc cc b7 fe 70 02 e3 f6 d5 dd da 2e fe
       59 31 -58 -36 -52 -73 -2 112 2 -29 -10 -43 -35 -38 46 -2
0000d0 1c d2 e4 65 5f 1e 05 03 04 28 21 3b 17 4c 11 02
       28 -46 -28 101 95 30 5 3 4 40 33 59 23 76 17 2
0000e0 3d f8 41 26 a3 9a 0e 25 bf d7 bd d6 22 3d 0b d3
       61 -8 65 38 -93 -102 14 37 -65 -41 -67 -42 34 61 11 -45
0000f0 dc cd d5 67 0b c7 01 a9 05 23 22 df e5 84 1d e0
       -36 -51 -43 103 11 -57 1 -87 5 35 34 -33 -27 -124 29 -32
