sd-card/config/ana1000s2.tflite (tflite, 53328 bytes, 6 tensors)

model/conv2d/Conv2D i1 [32, 5, 5, 3]
0	0x14	20
1	0xf1	-15
2	0x1e	30
3	0x2a	42
4	0xd2	-46
5	0xf5	-11
6	0x0e	14
7	0x0b	11
8	0x36	54
9	0xca	-54
10	0x09	9
11	0x0c	12
12	0x89	-119
13	0xe8	-24
14	0x81	-127
15	0x40	64
16	0x0c	12
17	0xf8	-8
18	0xdc	-36
19	0xfb	-5
20	0x26	38
21	0xfd	-3
22	0x05	5
23	0x24	36
24	0xd4	-44
25	0xf2	-14
26	0xf0	-16
27	0xea	-22
28	0x03	3
29	0xcc	-52
30	0x0d	13
31	0x14	20
32	0x11	17
33	0x47	71
34	0x44	68
35	0x14	20
36	0xda	-38
37	0x47	71
38	0x50	80
39	0xde	-34
40	0x4b	75
41	0xfc	-4
42	0xcf	-49
43	0xaf	-81
44	0xca	-54
45	0xae	-82
46	0xc4	-60
47	0xee	-18
48	0x32	50
49	0x1b	27
50	0x28	40
51	0xe7	-25
52	0x3e	62
53	0xfb	-5
54	0xca	-54
55	0xc9	-55
56	0xee	-18
57	0x9f	-97
58	0xb9	-71
59	0xcc	-52
60	0xdf	-33
61	0x85	-123
62	0xdb	-37
63	0x28	40
64	0xf1	-15
65	0x21	33
66	0x21	33
67	0x52	82
68	0x0d	13
69	0x6b	107
70	0x24	36
71	0x3d	61
72	0x12	18
73	0x34	52
74	0x37	55
75	0xd3	-45
76	0x2c	44
77	0x01	1
78	0xbe	-66
79	0xe8	-24
80	0xef	-17
81	0xc9	-55
82	0xb8	-72
83	0xc0	-64
84	0x15	21
85	0xba	-70
86	0xf1	-15
87	0x33	51
88	0xea	-22
89	0xd7	-41
90	0xe0	-32
91	0x0e	14
92	0x20	32
93	0xda	-38
94	0xe6	-26
95	0x1b	27
96	0xe6	-26
97	0xc9	-55
98	0xdb	-37
99	0xeb	-21
100	0xb7	-73
101	0xe7	-25
102	0xef	-17
103	0xc9	-55
104	0xd5	-43
105	0xf1	-15
106	0x3f	63
107	0x58	88
108	0xf9	-7
109	0x12	18
110	0x2a	42
111	0x32	50
112	0x18	24
113	0x09	9
114	0xf5	-11
115	0xe6	-26
116	0xc3	-61
117	0xda	-38
118	0xb0	-80
119	0xaa	-86
120	0xf5	-11
121	0x01	1
122	0x23	35
123	0xec	-20
124	0xe6	-26
125	0x1e	30
126	0x17	23
127	0x1d	29
128	0x24	36
129	0x2f	47
130	0x14	20
131	0x25	37
132	0xe9	-23
133	0xe9	-23
134	0xf9	-7
135	0xea	-22
136	0x0c	12
137	0x3e	62
138	0xe6	-26
139	0xf5	-11
140	0x41	65
141	0xda	-38
142	0xef	-17
143	0x08	8
144	0x25	37
145	0x2b	43
146	0x3e	62
147	0x44	68
148	0x7f	127
149	0x47	71
150	0xeb	-21
151	0x33	51
152	0x27	39
153	0xd0	-48
154	0x01	1
155	0x14	20
156	0xd1	-47
157	0xec	-20
158	0xde	-34
159	0xda	-38
160	0xd3	-45
161	0xf2	-14
162	0x44	68
163	0x4b	75
164	0x54	84
165	0xc2	-62
166	0x2f	47
167	0x55	85
168	0xb3	-77
169	0x17	23
170	0x07	7
171	0xe0	-32
172	0xfb	-5
173	0xcd	-51
174	0x06	6
175	0x11	17
176	0xf0	-16
177	0x00	0
178	0xf5	-11
179	0xfc	-4
180	0x26	38
181	0x7f	127
182	0x49	73
183	0xd9	-39
184	0x2c	44
185	0x2a	42
186	0xf3	-13
187	0xdd	-35
188	0xd5	-43
189	0x29	41
190	0xbe	-66
191	0xd3	-45
192	0x3f	63
193	0xf8	-8
194	0xfc	-4
195	0x07	7
196	0x47	71
197	0x33	51
198	0x0d	13
199	0x20	32
200	0x28	40
201	0x1e	30
202	0xcf	-49
203	0xe8	-24
204	0x36	54
205	0xa4	-92
206	0xd0	-48
207	0x17	23
208	0xb8	-72
209	0xcd	-51
210	0xfc	-4
211	0xf8	-8
212	0x20	32
213	0x07	7
214	0xd1	-47
215	0xf9	-7
216	0x16	22
217	0xc0	-64
218	0xc7	-57
219	0x2a	42
220	0xa7	-89
221	0xd4	-44
222	0x0f	15
223	0x01	1
224	0xf4	-12
225	0x6d	109
226	0x1a	26
227	0x34	52
228	0xd1	-47
229	0xa6	-90
230	0xa0	-96
231	0x1a	26
232	0xda	-38
233	0xf2	-14
234	0xae	-82
235	0xa4	-92
236	0xcb	-53
237	0xc1	-63
238	0x81	-127
239	0xc3	-61
240	0xf2	-14
241	0x2b	43
242	0xd7	-41
243	0xf0	-16
244	0x1f	31
245	0x2c	44
246	0xfa	-6
247	0x1d	29
248	0x34	52
249	0xf5	-11
250	0x25	37
251	0x27	39
252	0x1f	31
253	0x34	52
254	0x41	65
255	0x29	41

model/conv2d_1/Conv2D i1 [16, 5, 5, 32]
0	0x34	52
1	0xe1	-31
2	0x19	25
3	0x4c	76
4	0x39	57
5	0x03	3
6	0xdb	-37
7	0x27	39
8	0xe3	-29
9	0xe7	-25
10	0x02	2
11	0x05	5
12	0xfa	-6
13	0x01	1
14	0xf4	-12
15	0x21	33
16	0x06	6
17	0x0a	10
18	0x14	20
19	0xf7	-9
20	0xf8	-8
21	0xfc	-4
22	0x01	1
23	0x49	73
24	0x4c	76
25	0x05	5
26	0xfd	-3
27	0x2c	44
28	0x09	9
29	0x06	6
30	0x3b	59
31	0x0d	13
32	0xd2	-46
33	0xdf	-33
34	0xff	-1
35	0xf7	-9
36	0x08	8
37	0xfc	-4
38	0x10	16
39	0x05	5
40	0x4e	78
41	0x13	19
42	0xf8	-8
43	0xc4	-60
44	0x01	1
45	0xef	-17
46	0x0c	12
47	0xd6	-42
48	0x0b	11
49	0xe9	-23
50	0xb8	-72
51	0xf4	-12
52	0xee	-18
53	0x12	18
54	0xe7	-25
55	0xe1	-31
56	0xcb	-53
57	0xed	-19
58	0xe6	-26
59	0xef	-17
60	0xfd	-3
61	0xf9	-7
62	0xf5	-11
63	0xde	-34
64	0x13	19
65	0x0c	12
66	0xf7	-9
67	0x24	36
68	0x0a	10
69	0xf9	-7
70	0xe9	-23
71	0xf0	-16
72	0x14	20
73	0x1c	28
74	0xf6	-10
75	0xe8	-24
76	0xec	-20
77	0xc9	-55
78	0xf2	-14
79	0x25	37
80	0x1e	30
81	0xfc	-4
82	0xc9	-55
83	0xe8	-24
84	0x07	7
85	0xf8	-8
86	0xfc	-4
87	0xe7	-25
88	0x17	23
89	0x01	1
90	0xff	-1
91	0x1c	28
92	0x1a	26
93	0x28	40
94	0x11	17
95	0xfc	-4
96	0xe0	-32
97	0x0b	11
98	0xfe	-2
99	0x17	23
100	0xfc	-4
101	0x30	48
102	0xfd	-3
103	0xf9	-7
104	0xc6	-58
105	0x05	5
106	0xfe	-2
107	0x14	20
108	0xe9	-23
109	0x13	19
110	0xdc	-36
111	0xe9	-23
112	0x01	1
113	0x04	4
114	0xca	-54
115	0xef	-17
116	0x47	71
117	0xfc	-4
118	0x11	17
119	0x12	18
120	0x34	52
121	0xf2	-14
122	0x1e	30
123	0x0a	10
124	0xfa	-6
125	0x0b	11
126	0xe6	-26
127	0xf2	-14
128	0xf0	-16
129	0xdf	-33
130	0x0a	10
131	0xdf	-33
132	0x08	8
133	0xee	-18
134	0x19	25
135	0xef	-17
136	0xf0	-16
137	0xe6	-26
138	0x29	41
139	0xe3	-29
140	0xe0	-32
141	0xd1	-47
142	0x0a	10
143	0xaf	-81
144	0x02	2
145	0xf6	-10
146	0x01	1
147	0xe4	-28
148	0xe0	-32
149	0xe5	-27
150	0x52	82
151	0x3a	58
152	0x30	48
153	0xcf	-49
154	0xf3	-13
155	0xeb	-21
156	0xfa	-6
157	0x24	36
158	0x19	25
159	0xe8	-24
160	0x32	50
161	0xea	-22
162	0x3f	63
163	0x28	40
164	0xea	-22
165	0x17	23
166	0xe1	-31
167	0x1c	28
168	0x00	0
169	0xe7	-25
170	0xcc	-52
171	0x1e	30
172	0xf3	-13
173	0x02	2
174	0xe3	-29
175	0x0b	11
176	0xf3	-13
177	0x45	69
178	0x07	7
179	0x0d	13
180	0xd7	-41
181	0x40	64
182	0x0d	13
183	0x14	20
184	0xd8	-40
185	0xe9	-23
186	0x24	36
187	0x0d	13
188	0x22	34
189	0xea	-22
190	0x0f	15
191	0xee	-18
192	0xc0	-64
193	0xe4	-28
194	0xa0	-96
195	0xe1	-31
196	0xef	-17
197	0xf3	-13
198	0xfe	-2
199	0xbf	-65
200	0xf4	-12
201	0xc7	-57
202	0xe5	-27
203	0xb8	-72
204	0xcb	-53
205	0x0a	10
206	0xed	-19
207	0xa9	-87
208	0x94	-108
209	0xf0	-16
210	0x1b	27
211	0x18	24
212	0xd5	-43
213	0x14	20
214	0x0c	12
215	0xd8	-40
216	0xd8	-40
217	0xdc	-36
218	0xe1	-31
219	0x96	-106
220	0xdf	-33
221	0x0f	15
222	0xed	-19
223	0xe1	-31
224	0xf2	-14
225	0x0d	13
226	0xcf	-49
227	0xf8	-8
228	0xec	-20
229	0xe9	-23
230	0xd4	-44
231	0xf6	-10
232	0x04	4
233	0xea	-22
234	0x26	38
235	0xef	-17
236	0x0d	13
237	0x0c	12
238	0xf3	-13
239	0xbf	-65
240	0xd8	-40
241	0xeb	-21
242	0xbe	-66
243	0xd6	-42
244	0xd2	-46
245	0x01	1
246	0xba	-70
247	0xa6	-90
248	0xac	-84
249	0xf2	-14
250	0x00	0
251	0xe9	-23
252	0x00	0
253	0xe7	-25
254	0xf6	-10
255	0x07	7

model/conv2d_2/Conv2D i1 [32, 3, 3, 16]
0	0x03	3
1	0xf9	-7
2	0x32	50
3	0x18	24
4	0x05	5
5	0xbf	-65
6	0xf8	-8
7	0xfb	-5
8	0x0b	11
9	0xad	-83
10	0xf9	-7
11	0x7f	127
12	0xfc	-4
13	0xfc	-4
14	0xab	-85
15	0xbe	-66
16	0xf6	-10
17	0xfb	-5
18	0x22	34
19	0x00	0
20	0x42	66
21	0xc9	-55
22	0xf0	-16
23	0x12	18
24	0x17	23
25	0x05	5
26	0x02	2
27	0xa1	-95
28	0x2a	42
29	0xff	-1
30	0xdb	-37
31	0x02	2
32	0xf2	-14
33	0xcc	-52
34	0x37	55
35	0xfc	-4
36	0x4f	79
37	0xee	-18
38	0xe1	-31
39	0xe3	-29
40	0xe3	-29
41	0x14	20
42	0x03	3
43	0x17	23
44	0x1e	30
45	0x09	9
46	0xe6	-26
47	0xd5	-43
48	0xfa	-6
49	0xea	-22
50	0x28	40
51	0xe0	-32
52	0xd4	-44
53	0x06	6
54	0x0e	14
55	0xd4	-44
56	0x18	24
57	0xac	-84
58	0x24	36
59	0x04	4
60	0xce	-50
61	0x18	24
62	0xd5	-43
63	0x2d	45
64	0x3b	59
65	0x01	1
66	0xeb	-21
67	0x0a	10
68	0xf1	-15
69	0xd5	-43
70	0xfb	-5
71	0x17	23
72	0xd1	-47
73	0xd6	-42
74	0xd4	-44
75	0x1a	26
76	0xe8	-24
77	0x10	16
78	0xee	-18
79	0xea	-22
80	0x1a	26
81	0x1c	28
82	0xee	-18
83	0xba	-70
84	0xf9	-7
85	0xd7	-41
86	0x01	1
87	0xeb	-21
88	0x1e	30
89	0xe0	-32
90	0xdd	-35
91	0xb4	-76
92	0x00	0
93	0x00	0
94	0xde	-34
95	0xed	-19
96	0xdb	-37
97	0xf3	-13
98	0x0f	15
99	0xf9	-7
100	0x26	38
101	0x13	19
102	0xd9	-39
103	0xc7	-57
104	0xdf	-33
105	0x0a	10
106	0xf6	-10
107	0xcb	-53
108	0xee	-18
109	0xd0	-48
110	0x53	83
111	0x0e	14
112	0xec	-20
113	0x1f	31
114	0xfe	-2
115	0x01	1
116	0xfa	-6
117	0x67	103
118	0x22	34
119	0xe4	-28
120	0xe5	-27
121	0x12	18
122	0xf0	-16
123	0xfb	-5
124	0xc2	-62
125	0xed	-19
126	0x27	39
127	0xef	-17
128	0xff	-1
129	0x20	32
130	0xe7	-25
131	0xc6	-58
132	0xf1	-15
133	0xc6	-58
134	0xf0	-16
135	0xf7	-9
136	0x32	50
137	0xd6	-42
138	0x2e	46
139	0xf2	-14
140	0x00	0
141	0x0b	11
142	0xbb	-69
143	0x2c	44
144	0x33	51
145	0x13	19
146	0x01	1
147	0x24	36
148	0xe1	-31
149	0x11	17
150	0xe8	-24
151	0xe7	-25
152	0x15	21
153	0xdb	-37
154	0xe5	-27
155	0x07	7
156	0xe9	-23
157	0x24	36
158	0x01	1
159	0xd6	-42
160	0x33	51
161	0x03	3
162	0xfb	-5
163	0x19	25
164	0xe1	-31
165	0xdd	-35
166	0x21	33
167	0x1e	30
168	0xab	-85
169	0xa6	-90
170	0x26	38
171	0x30	48
172	0x1a	26
173	0xf8	-8
174	0xca	-54
175	0xfe	-2
176	0xe5	-27
177	0x1d	29
178	0xff	-1
179	0xf5	-11
180	0x13	19
181	0x22	34
182	0x1f	31
183	0xef	-17
184	0xc5	-59
185	0xe9	-23
186	0x24	36
187	0xbd	-67
188	0x35	53
189	0x21	33
190	0xe1	-31
191	0xfa	-6
192	0x03	3
193	0xcb	-53
194	0xdf	-33
195	0xe7	-25
196	0x4e	78
197	0xc5	-59
198	0xe7	-25
199	0xf1	-15
200	0xf9	-7
201	0xf0	-16
202	0x17	23
203	0xde	-34
204	0xd8	-40
205	0xf7	-9
206	0xdf	-33
207	0xec	-20
208	0xe4	-28
209	0xe9	-23
210	0xfa	-6
211	0xfb	-5
212	0xe5	-27
213	0xbe	-66
214	0x7f	127
215	0x1d	29
216	0xee	-18
217	0xed	-19
218	0x0c	12
219	0x08	8
220	0xe4	-28
221	0xf7	-9
222	0xd6	-42
223	0x3a	58
224	0xf9	-7
225	0x0a	10
226	0x18	24
227	0xf8	-8
228	0x00	0
229	0xe2	-30
230	0xde	-34
231	0xff	-1
232	0xe3	-29
233	0xe2	-30
234	0x17	23
235	0xf7	-9
236	0x04	4
237	0xf1	-15
238	0xc7	-57
239	0xd8	-40
240	0x47	71
241	0xef	-17
242	0x03	3
243	0x00	0
244	0x19	25
245	0xcb	-53
246	0x1e	30
247	0xd9	-39
248	0x04	4
249	0xe9	-23
250	0xfc	-4
251	0xe3	-29
252	0xf0	-16
253	0x2d	45
254	0x0b	11
255	0x01	1

model/dense/MatMul i1 [128, 128] scale=0.0025317173 zero_point=0
0	0x02	0.0050634346
1	0xfb	-0.012658587
2	0xc7	-0.14430788
3	0xd6	-0.10633212
4	0x1e	0.07595152
5	0x21	0.08354667
6	0xc8	-0.14177617
7	0x1b	0.068356365
8	0xfc	-0.010126869
9	0x15	0.05316606
10	0xff	-0.0025317173
11	0x03	0.0075951517
12	0xd1	-0.11899071
13	0xe7	-0.063292935
14	0x1b	0.068356365
15	0x05	0.012658587
16	0xdb	-0.09367354
17	0xe0	-0.08101495
18	0xbe	-0.16709334
19	0x1c	0.07088809
20	0x0a	0.025317173
21	0x0d	0.032912325
22	0xe2	-0.07595152
23	0x1a	0.06582465
24	0x0a	0.025317173
25	0x30	0.12152243
26	0xe5	-0.068356365
27	0xc8	-0.14177617
28	0x37	0.13924445
29	0xc3	-0.15443476
30	0x2b	0.108863845
31	0xb6	-0.18734708
32	0xf1	-0.03797576
33	0x32	0.12658587
34	0x05	0.012658587
35	0x2b	0.108863845
36	0xd6	-0.10633212
37	0xf3	-0.032912325
38	0xf7	-0.022785455
39	0xea	-0.05569778
40	0xb4	-0.19241051
41	0xd7	-0.10380041
42	0xf7	-0.022785455
43	0x04	0.010126869
44	0xea	-0.05569778
45	0x30	0.12152243
46	0xff	-0.0025317173
47	0xb6	-0.18734708
48	0x00	0.0
49	0xe7	-0.063292935
50	0x05	0.012658587
51	0xd7	-0.10380041
52	0x25	0.09367354
53	0xd3	-0.113927275
54	0xf3	-0.032912325
55	0x1a	0.06582465
56	0xf7	-0.022785455
57	0xe4	-0.07088809
58	0x31	0.12405415
59	0xfa	-0.015190303
60	0xf5	-0.02784889
61	0x27	0.09873697
62	0xf8	-0.020253738
63	0x36	0.13671273
64	0xe5	-0.068356365
65	0xc4	-0.15190303
66	0x10	0.040507477
67	0xe3	-0.0734198
68	0x06	0.015190303
69	0xd9	-0.09873697
70	0xeb	-0.05316606
71	0xe8	-0.060761213
72	0xc6	-0.1468396
73	0xcc	-0.1316493
74	0x52	0.20760082
75	0x01	0.0025317173
76	0xe8	-0.060761213
77	0xeb	-0.05316606
78	0xc6	-0.1468396
79	0x5b	0.23038627
80	0xd2	-0.116459
81	0x0b	0.02784889
82	0xed	-0.04810263
83	0x1c	0.07088809
84	0xc9	-0.13924445
85	0xc0	-0.1620299
86	0xeb	-0.05316606
87	0x0e	0.035444044
88	0x43	0.16962506
89	0x17	0.0582295
90	0xdf	-0.08354667
91	0x24	0.09114182
92	0xee	-0.04557091
93	0x1e	0.07595152
94	0x2f	0.11899071
95	0x07	0.017722022
96	0xe5	-0.068356365
97	0x01	0.0025317173
98	0x0e	0.035444044
99	0xe1	-0.07848324
100	0x34	0.1316493
101	0x03	0.0075951517
102	0xfc	-0.010126869
103	0xe7	-0.063292935
104	0x26	0.09620526
105	0x1c	0.07088809
106	0xe0	-0.08101495
107	0xcd	-0.12911758
108	0xe2	-0.07595152
109	0x13	0.04810263
110	0x06	0.015190303
111	0xe9	-0.0582295
112	0xd2	-0.116459
113	0xfa	-0.015190303
114	0x24	0.09114182
115	0x03	0.0075951517
116	0x09	0.022785455
117	0x2d	0.113927275
118	0x08	0.020253738
119	0x19	0.063292935
120	0xe7	-0.063292935
121	0xe4	-0.07088809
122	0x3d	0.15443476
123	0xdc	-0.09114182
124	0x00	0.0
125	0xf0	-0.040507477
126	0xfb	-0.012658587
127	0xc7	-0.14430788
128	0xd9	-0.09873697
129	0x1d	0.0734198
130	0xdf	-0.08354667
131	0xfa	-0.015190303
132	0x15	0.05316606
133	0xbd	-0.16962506
134	0x2d	0.113927275
135	0x24	0.09114182
136	0x1d	0.0734198
137	0x0a	0.025317173
138	0xfb	-0.012658587
139	0xe3	-0.0734198
140	0xe7	-0.063292935
141	0xba	-0.17722021
142	0xce	-0.12658587
143	0xd4	-0.11139556
144	0x24	0.09114182
145	0x14	0.050634347
146	0xf4	-0.030380607
147	0xec	-0.050634347
148	0x1d	0.0734198
149	0xc9	-0.13924445
150	0xc9	-0.13924445
151	0x45	0.17468849
152	0xc0	-0.1620299
153	0xd8	-0.101268694
154	0x2b	0.108863845
155	0xee	-0.04557091
156	0xd8	-0.101268694
157	0xd3	-0.113927275
158	0x21	0.08354667
159	0x19	0.063292935
160	0x37	0.13924445
161	0xdc	-0.09114182
162	0xff	-0.0025317173
163	0x20	0.08101495
164	0x1f	0.07848324
165	0x0b	0.02784889
166	0xd4	-0.11139556
167	0x10	0.040507477
168	0x08	0.020253738
169	0xe9	-0.0582295
170	0x02	0.0050634346
171	0xd8	-0.101268694
172	0x27	0.09873697
173	0x0a	0.025317173
174	0xc0	-0.1620299
175	0xff	-0.0025317173
176	0xb7	-0.18481536
177	0xdc	-0.09114182
178	0x0f	0.03797576
179	0x02	0.0050634346
180	0x3e	0.15696648
181	0xd0	-0.12152243
182	0xd0	-0.12152243
183	0xef	-0.043039195
184	0xef	-0.043039195
185	0x1c	0.07088809
186	0x1e	0.07595152
187	0xde	-0.08607839
188	0x17	0.0582295
189	0xee	-0.04557091
190	0x29	0.10380041
191	0xe7	-0.063292935
192	0x1d	0.0734198
193	0x0d	0.032912325
194	0xd1	-0.11899071
195	0xd0	-0.12152243
196	0xc7	-0.14430788
197	0x14	0.050634347
198	0x28	0.101268694
199	0x35	0.13418102
200	0xd8	-0.101268694
201	0xfe	-0.0050634346
202	0xed	-0.04810263
203	0xcd	-0.12911758
204	0xfe	-0.0050634346
205	0x15	0.05316606
206	0xf5	-0.02784889
207	0x04	0.010126869
208	0xd3	-0.113927275
209	0xd1	-0.11899071
210	0xfe	-0.0050634346
211	0xd8	-0.101268694
212	0x27	0.09873697
213	0x14	0.050634347
214	0xf1	-0.03797576
215	0xd4	-0.11139556
216	0x15	0.05316606
217	0x27	0.09873697
218	0x10	0.040507477
219	0xdf	-0.08354667
220	0xc8	-0.14177617
221	0xec	-0.050634347
222	0xd2	-0.116459
223	0xcb	-0.13418102
224	0xf8	-0.020253738
225	0x22	0.08607839
226	0xfe	-0.0050634346
227	0x17	0.0582295
228	0xf3	-0.032912325
229	0x2a	0.10633212
230	0x0d	0.032912325
231	0xe0	-0.08101495
232	0xdc	-0.09114182
233	0x00	0.0
234	0xd8	-0.101268694
235	0x31	0.12405415
236	0xbe	-0.16709334
237	0x1f	0.07848324
238	0xfa	-0.015190303
239	0xfa	-0.015190303
240	0x3b	0.14937133
241	0xea	-0.05569778
242	0xef	-0.043039195
243	0xee	-0.04557091
244	0xd0	-0.12152243
245	0x36	0.13671273
246	0x20	0.08101495
247	0xe0	-0.08101495
248	0xcd	-0.12911758
249	0x09	0.022785455
250	0xe3	-0.0734198
251	0x27	0.09873697
252	0xff	-0.0025317173
253	0x2c	0.11139556
254	0x16	0.05569778
255	0xef	-0.043039195

model/dense_1/MatMul i1 [64, 128] scale=0.0055668354 zero_point=0
0	0x0c	0.066802025
1	0x02	0.011133671
2	0x09	0.05010152
3	0xee	-0.10020304
4	0xe3	-0.16143823
5	0xf8	-0.044534683
6	0x00	0.0
7	0x13	0.10576987
8	0x07	0.038967848
9	0x0e	0.077935696
10	0xef	-0.0946362
11	0x0a	0.055668354
12	0xf9	-0.038967848
13	0x00	0.0
14	0xe5	-0.15030456
15	0xfc	-0.022267342
16	0xf7	-0.05010152
17	0xe7	-0.13917089
18	0x04	0.022267342
19	0x1e	0.16700506
20	0x16	0.12247038
21	0xf4	-0.066802025
22	0x03	0.016700506
23	0xe7	-0.13917089
24	0xe5	-0.15030456
25	0x0a	0.055668354
26	0x1c	0.15587139
27	0x21	0.18370557
28	0xed	-0.10576987
29	0xf6	-0.055668354
30	0x01	0.0055668354
31	0xf2	-0.077935696
32	0x11	0.0946362
33	0x1d	0.16143823
34	0xf7	-0.05010152
35	0xe5	-0.15030456
36	0x18	0.13360405
37	0xfb	-0.027834177
38	0x12	0.10020304
39	0xf1	-0.08350253
40	0xed	-0.10576987
41	0xec	-0.11133671
42	0x1c	0.15587139
43	0x16	0.12247038
44	0x11	0.0946362
45	0x17	0.12803721
46	0xe5	-0.15030456
47	0xf3	-0.07236886
48	0x13	0.10576987
49	0xfb	-0.027834177
50	0xf9	-0.038967848
51	0x0e	0.077935696
52	0x18	0.13360405
53	0x11	0.0946362
54	0xef	-0.0946362
55	0xfd	-0.016700506
56	0xec	-0.11133671
57	0xec	-0.11133671
58	0x08	0.044534683
59	0x09	0.05010152
60	0x06	0.033401012
61	0xf7	-0.05010152
62	0x05	0.027834177
63	0x17	0.12803721
64	0xe8	-0.13360405
65	0xe4	-0.15587139
66	0x0f	0.08350253
67	0xe9	-0.12803721
68	0x1c	0.15587139
69	0xed	-0.10576987
70	0x16	0.12247038
71	0xf4	-0.066802025
72	0xe8	-0.13360405
73	0xfe	-0.011133671
74	0xf5	-0.06123519
75	0xf6	-0.055668354
76	0x18	0.13360405
77	0x19	0.13917089
78	0xee	-0.10020304
79	0x03	0.016700506
80	0x16	0.12247038
81	0x08	0.044534683
82	0x08	0.044534683
83	0x00	0.0
84	0x1f	0.1725719
85	0xf2	-0.077935696
86	0xe8	-0.13360405
87	0xf9	-0.038967848
88	0x02	0.011133671
89	0xee	-0.10020304
90	0x0a	0.055668354
91	0xf5	-0.06123519
92	0xf4	-0.066802025
93	0x06	0.033401012
94	0x10	0.08906937
95	0xe5	-0.15030456
96	0x01	0.0055668354
97	0xfd	-0.016700506
98	0x10	0.08906937
99	0x1b	0.15030456
100	0xea	-0.12247038
101	0x0b	0.06123519
102	0xfe	-0.011133671
103	0xff	-0.0055668354
104	0x02	0.011133671
105	0xfb	-0.027834177
106	0xe8	-0.13360405
107	0x05	0.027834177
108	0xf0	-0.08906937
109	0x1f	0.1725719
110	0x15	0.11690354
111	0xfd	-0.016700506
112	0xe3	-0.16143823
113	0xf8	-0.044534683
114	0x07	0.038967848
115	0xe4	-0.15587139
116	0xe1	-0.1725719
117	0x1e	0.16700506
118	0x16	0.12247038
119	0x09	0.05010152
120	0x0f	0.08350253
121	0x02	0.011133671
122	0x03	0.016700506
123	0xf8	-0.044534683
124	0xef	-0.0946362
125	0xec	-0.11133671
126	0xfe	-0.011133671
127	0xfa	-0.033401012
128	0xf2	-0.077935696
129	0xff	-0.0055668354
130	0xd4	-0.24494076
131	0xfa	-0.033401012
132	0xf8	-0.044534683
133	0xde	-0.1892724
134	0x03	0.016700506
135	0xe7	-0.13917089
136	0xfe	-0.011133671
137	0xf3	-0.07236886
138	0x0c	0.066802025
139	0xd0	-0.2672081
140	0xe4	-0.15587139
141	0xdb	-0.20597291
142	0x15	0.11690354
143	0x0d	0.07236886
144	0x06	0.033401012
145	0x04	0.022267342
146	0x0b	0.06123519
147	0xe4	-0.15587139
148	0xf0	-0.08906937
149	0xe4	-0.15587139
150	0x09	0.05010152
151	0x03	0.016700506
152	0x05	0.027834177
153	0xdd	-0.19483924
154	0xf7	-0.05010152
155	0x1a	0.14473772
156	0xfb	-0.027834177
157	0x0e	0.077935696
158	0xf5	-0.06123519
159	0x10	0.08906937
160	0x11	0.0946362
161	0x0e	0.077935696
162	0x04	0.022267342
163	0xc5	-0.3284433
164	0x17	0.12803721
165	0x0a	0.055668354
166	0x23	0.19483924
167	0xe7	-0.13917089
168	0xfc	-0.022267342
169	0x1e	0.16700506
170	0xf3	-0.07236886
171	0xf1	-0.08350253
172	0xff	-0.0055668354
173	0xff	-0.0055668354
174	0xf0	-0.08906937
175	0xe5	-0.15030456
176	0xed	-0.10576987
177	0x04	0.022267342
178	0x05	0.027834177
179	0x03	0.016700506
180	0xfb	-0.027834177
181	0x06	0.033401012
182	0xe8	-0.13360405
183	0x0b	0.06123519
184	0xe0	-0.17813873
185	0x0b	0.06123519
186	0xe4	-0.15587139
187	0x1d	0.16143823
188	0x0c	0.066802025
189	0x11	0.0946362
190	0x18	0.13360405
191	0x07	0.038967848
192	0xf1	-0.08350253
193	0xff	-0.0055668354
194	0xf0	-0.08906937
195	0xff	-0.0055668354
196	0x0a	0.055668354
197	0x16	0.12247038
198	0xea	-0.12247038
199	0xe1	-0.1725719
200	0xf2	-0.077935696
201	0xe0	-0.17813873
202	0xe2	-0.16700506
203	0xe4	-0.15587139
204	0x05	0.027834177
205	0xfd	-0.016700506
206	0xf0	-0.08906937
207	0x04	0.022267342
208	0xc0	-0.35627747
209	0x19	0.13917089
210	0x0c	0.066802025
211	0xf2	-0.077935696
212	0xfd	-0.016700506
213	0xe0	-0.17813873
214	0x03	0.016700506
215	0xee	-0.10020304
216	0x2e	0.25607443
217	0xd5	-0.23937392
218	0xcb	-0.29504228
219	0xdc	-0.20040607
220	0x12	0.10020304
221	0x19	0.13917089
222	0xff	-0.0055668354
223	0x22	0.1892724
224	0xfe	-0.011133671
225	0x18	0.13360405
226	0xef	-0.0946362
227	0xe2	-0.16700506
228	0xf2	-0.077935696
229	0x04	0.022267342
230	0xf6	-0.055668354
231	0x0d	0.07236886
232	0x0f	0.08350253
233	0xdf	-0.18370557
234	0x08	0.044534683
235	0xff	-0.0055668354
236	0xef	-0.0946362
237	0x1d	0.16143823
238	0xcc	-0.28947544
239	0x03	0.016700506
240	0xdf	-0.18370557
241	0x0b	0.06123519
242	0x20	0.17813873
243	0x03	0.016700506
244	0xd4	-0.24494076
245	0x04	0.022267342
246	0xec	-0.11133671
247	0x01	0.0055668354
248	0xd8	-0.22267342
249	0x16	0.12247038
250	0xe6	-0.14473772
251	0x0d	0.07236886
252	0x00	0.0
253	0xd2	-0.25607443
254	0xf7	-0.05010152
255	0xe0	-0.17813873

model/dense_2/MatMul i1 [2, 64] scale=0.0035722149 zero_point=0
0	0x1d	0.10359423
1	0xb8	-0.25719947
2	0x2a	0.15003303
3	0xa8	-0.3143549
4	0xdb	-0.13217194
5	0xa1	-0.33936042
6	0x19	0.08930537
7	0xbb	-0.24648282
8	0x13	0.067872085
9	0x38	0.20004404
10	0x9a	-0.3643659
11	0x14	0.071444295
12	0x38	0.20004404
13	0x06	0.02143329
14	0x6b	0.382227
15	0xb9	-0.25362724
16	0x17	0.08216094
17	0xf8	-0.028577719
18	0x1e	0.10716645
19	0xd0	-0.17146632
20	0x1d	0.10359423
21	0x31	0.17503853
22	0x95	-0.382227
23	0x3a	0.20718846
24	0x1f	0.11073866
25	0x3c	0.2143329
26	0xfe	-0.0071444297
27	0xe1	-0.11073866
28	0xe1	-0.11073866
29	0x3a	0.20718846
30	0x25	0.13217194
31	0xd7	-0.14646082
32	0xaf	-0.2893494
33	0xac	-0.30006605
34	0xbc	-0.24291061
35	0xb3	-0.27506053
36	0xf8	-0.028577719
37	0x33	0.18218295
38	0x98	-0.37151036
39	0xdc	-0.12859973
40	0x2c	0.15717745
41	0x23	0.12502752
42	0x0f	0.053583223
43	0x14	0.071444295
44	0xdd	-0.12502752
45	0x26	0.13574417
46	0x00	0.0
47	0x22	0.121455304
48	0x01	0.0035722149
49	0xed	-0.067872085
50	0x3d	0.2179051
51	0x08	0.028577719
52	0x18	0.08573316
53	0x00	0.0
54	0x1d	0.10359423
55	0x3b	0.21076068
56	0xbc	-0.24291061
57	0xbe	-0.23576619
58	0x76	0.42152137
59	0xb3	-0.27506053
60	0x91	-0.39651585
61	0x01	0.0035722149
62	0x66	0.3643659
63	0xcd	-0.18218295
64	0x26	0.13574417
65	0xae	-0.29292163
66	0x6c	0.3857992
67	0xe2	-0.10716645
68	0x03	0.010716645
69	0x5f	0.33936042
70	0x52	0.29292163
71	0xb4	-0.27148834
72	0xd4	-0.15717745
73	0xc4	-0.2143329
74	0x36	0.1928996
75	0x29	0.14646082
76	0xc0	-0.22862175
77	0xe5	-0.0964498
78	0x12	0.06429987
79	0xda	-0.13574417
80	0xcf	-0.17503853
81	0xf2	-0.05001101
82	0x24	0.12859973
83	0xed	-0.067872085
84	0xdf	-0.11788309
85	0x81	-0.45367128
86	0x30	0.17146632
87	0xe7	-0.08930537
88	0xe6	-0.09287759
89	0xf3	-0.046438795
90	0x13	0.067872085
91	0x90	-0.40008807
92	0x75	0.41794914
93	0x2c	0.15717745
94	0xeb	-0.07501651
95	0x29	0.14646082
96	0xd6	-0.15003303
97	0xdd	-0.12502752
98	0xf1	-0.053583223
99	0x08	0.028577719
100	0xdb	-0.13217194
101	0x52	0.29292163
102	0x50	0.28577718
103	0x6d	0.38937142
104	0xac	-0.30006605
105	0xc7	-0.20361625
106	0xdb	-0.13217194
107	0xbd	-0.2393384
108	0xd0	-0.17146632
109	0x65	0.3607937
110	0xe6	-0.09287759
111	0xcf	-0.17503853
112	0x24	0.12859973
113	0x15	0.07501651
114	0xd2	-0.16432188
115	0x9c	-0.35722148
116	0x3f	0.22504954
117	0xce	-0.17861074
118	0x22	0.121455304
119	0x45	0.24648282
120	0xc6	-0.20718846
121	0xce	-0.17861074
122	0x38	0.20004404
123	0x11	0.060727652
124	0xd8	-0.14288859
125	0x11	0.060727652
126	0xb9	-0.25362724
127	0x08	0.028577719
