sd-card/config/ana_i32s100dr-v1.0-q.tflite (tflite, 132360 bytes, 13 tensors)

sequential_4/conv2d_24/Conv2D i1 [64, 5, 5, 3]
000000 eb e5 14 10 ea f3 d7 cf f4 a1 b0 d1 e4 ff 3f 0b
       -21 -27 20 16 -22 -13 -41 -49 -12 -95 -80 -47 -28 -1 63 11
000010 e3 ff 11 f9 13 ea e9 03 12 05 48 43 5b 6b 08 fd
       -29 -1 17 -7 19 -22 -23 3 18 5 72 67 91 107 8 -3
000020 16 3f 20 12 37 f1 2b 48 16 27 48 38 78 01 0d 1e
       22 63 32 18 55 -15 43 72 22 39 72 56 120 1 13 30
000030 2b e7 f3 0e f6 24 f6 f2 34 f0 07 32 b0 c6 fd c9
       43 -25 -13 14 -10 36 -10 -14 52 -16 7 50 -80 -58 -3 -55
000040 a7 bd ea cc ec f5 d2 1c 81 c1 07 ac 2a 0e e9 31
       -89 -67 -22 -52 -20 -11 -46 28 -127 -63 7 -84 42 14 -23 49
000050 3c e1 15 2f 15 25 4e ee 20 43 0e 0f 2c 25 0b fa
       60 -31 21 47 21 37 78 -18 32 67 14 15 44 37 11 -6
000060 4a f8 1b 1f e0 f5 08 00 0b fc 0a fb 43 c0 c1 42
       74 -8 27 31 -32 -11 8 0 11 -4 10 -5 67 -64 -63 66
000070 81 96 1e 84 a2 e0 c4 da 04 0a 26 0e e9 eb 34 ad
       -127 -106 30 -124 -94 -32 -60 -38 4 10 38 14 -23 -21 52 -83
000080 b0 3b a5 d7 ef ef 12 cb 2f 4e f9 12 32 e6 fc fe
       -80 59 -91 -41 -17 -17 18 -53 47 78 -7 18 50 -26 -4 -2
000090 d4 0f 03 c4 49 57 ee e2 fd 0a 0c 0a 39 08 1b 1e
       -44 15 3 -60 73 87 -18 -30 -3 10 12 10 57 8 27 30
0000a0 02 fe 1d 15 f7 e5 d9 02 f4 e9 11 4e 49 37 14 1d
       2 -2 29 21 -9 -27 -39 2 -12 -23 17 78 73 55 20 29
0000b0 21 ec 14 18 20 e4 12 00 f7 0b eb 00 fb f3 f9 03
       33 -20 20 24 32 -28 18 0 -9 11 -21 0 -5 -13 -7 3
0000c0 81 d7 c8 b6 c1 e6 02 ef ee 00 fd 1c 0b 45 28 ff
       -127 -41 -56 -74 -63 -26 2 -17 -18 0 -3 28 11 69 40 -1
0000d0 2a 3e b6 c8 f6 f4 09 2d d3 0f 10 bc 10 0a f6 25
       42 62 -74 -56 -10 -12 9 45 -45 15 16 -68 16 10 -10 37
0000e0 08 6b d1 f6 2f d1 a6 31 fb ce 5c dd f4 42 e3 f7
       8 107 -47 -10 47 -47 -90 49 -5 -50 92 -35 -12 66 -29 -9
0000f0 3f cb ce 2a b9 97 f2 bb ca 0d e7 c9 1a 10 13 10
       63 -53 -50 42 -71 -105 -14 -69 -54 13 -25 -55 26 16 19 16

sequential_4/conv2d_25/Conv2D i1 [64, 1, 1, 64]
000000 16 07 07 32 eb 35 58 17 3b 03 ef ee 02 06 2a e9
       22 7 7 50 -21 53 88 23 59 3 -17 -18 2 6 42 -23
000010 fc 09 08 ed 3d 34 f1 ed da 7f fe 13 d8 c3 f7 f3
       -4 9 8 -19 61 52 -15 -19 -38 127 -2 19 -40 -61 -9 -13
000020 32 37 0c f2 1d 20 fd eb 30 57 08 f7 d1 f1 14 12
       50 55 12 -14 29 32 -3 -21 48 87 8 -9 -47 -15 20 18
000030 c4 40 bb aa e1 05 e9 45 0c 4a fd 05 f2 30 ea 27
       -60 64 -69 -86 -31 5 -23 69 12 74 -3 5 -14 48 -22 39
000040 e0 ae 19 b1 ba c2 21 a7 ef 1e f6 dc fe c1 f7 be
       -32 -82 25 -79 -70 -62 33 -89 -17 30 -10 -36 -2 -63 -9 -66
000050 ef 38 30 12 dd 02 1b f3 3a 81 46 ee 0d 23 b1 bf
       -17 56 48 18 -35 2 27 -13 58 -127 70 -18 13 35 -79 -65
000060 ab ae bb cf f7 f5 e5 1f e9 d4 0e ce 14 d8 16 e1
       -85 -82 -69 -49 -9 -11 -27 31 -23 -44 14 -50 20 -40 22 -31
000070 2f e4 d0 c7 15 35 e8 47 01 41 dc c6 e8 e2 bb e4
       47 -28 -48 -57 21 53 -24 71 1 65 -36 -58 -24 -30 -69 -28
000080 de f1 1e b2 ee cb 10 e7 e4 f1 de 1f 03 dc 81 02
       -34 -15 30 -78 -18 -53 16 -25 -28 -15 -34 31 3 -36 -127 2
000090 22 0e ef e7 26 0c dc ee f3 2c d5 e0 4b c8 e4 fb
       34 14 -17 -25 38 12 -36 -18 -13 44 -43 -32 75 -56 -28 -5
0000a0 be 3e bb ec f9 19 ff fa 1c dd d2 d4 0f 00 d0 e9
       -66 62 -69 -20 -7 25 -1 -6 28 -35 -46 -44 15 0 -48 -23
0000b0 f6 2d 17 31 e4 e3 ed 29 e1 1a b9 22 fc 4e f1 d2
       -10 45 23 49 -28 -29 -19 41 -31 26 -71 34 -4 78 -15 -46
0000c0 42 55 34 fd 1e 0c 30 e4 07 99 b0 d8 d3 1c bf db
       66 85 52 -3 30 12 48 -28 7 -103 -80 -40 -45 28 -65 -37
0000d0 b8 23 18 ed 25 b3 12 d7 3f 2b 1a 08 eb 81 37 09
       -72 35 24 -19 37 -77 18 -41 63 43 26 8 -21 -127 55 9
0000e0 fd 4b fa cb d0 2b ff fe cf dd dd e7 08 f1 fc 13
       -3 75 -6 -53 -48 43 -1 -2 -49 -35 -35 -25 8 -15 -4 19
0000f0 d5 ef 9f e1 45 cb 50 1d e2 f9 d4 c3 ce 0b a5 05
       -43 -17 -97 -31 69 -53 80 29 -30 -7 -44 -61 -50 11 -91 5

sequential_4/batch_normalization_17/FusedBatchNormV3 i1 [64] scale=0.06984456 zero_point=-128
000000 8d c6 99 a3 a5 a8 99 9d 93 a9 cc 98 90 bf a2 99
       0.90797925 4.889119 1.746114 2.4445596 2.5842488 2.7937822 1.746114 2.0254922 1.3270466 2.863627 5.3081865 1.6762694 1.117513 4.400207 2.374715 1.746114
000010 97 b3 b4 8b c1 ab ab 8f 90 a0 9c a3 8f 95 96 94
       1.6064248 3.5620725 3.631917 0.76829016 4.5398965 3.003316 3.003316 1.0476683 1.117513 2.235026 1.9556477 2.4445596 1.0476683 1.4667357 1.5365803 1.3968911
000020 a8 8f a8 a6 a3 a3 9e 9d 9b a6 ad ab 8f 9e 91 ab
       2.7937822 1.0476683 2.7937822 2.6540933 2.4445596 2.4445596 2.0953367 2.0254922 1.8858031 2.6540933 3.1430051 3.003316 1.0476683 2.0953367 1.1873575 3.003316
000030 9d 91 a5 ad 7f 8f ad ab a8 99 b5 ad d7 93 aa 98
       2.0254922 1.1873575 2.5842488 3.1430051 17.810362 1.0476683 3.1430051 3.003316 2.7937822 1.746114 3.7017617 3.1430051 6.0764766 1.3270466 2.9334714 1.6762694

sequential_4/batch_normalization_17/FusedBatchNormV31 i1 [64] scale=0.008763664 zero_point=127
000000 d9 43 17 24 27 f3 24 28 1a 22 1b cd ea 3a 1e 2a
       -1.4547683 -0.52581984 -0.9114211 -0.79749346 -0.77120245 -1.226913 -0.79749346 -0.7624388 -0.8851301 -0.8150208 -0.87636644 -1.5599322 -1.305786 -0.6046928 -0.8500754 -0.7449115
000010 2f 18 1f 80 3e 1d 25 fc f2 fc 43 fa 03 28 09 19
       -0.70109314 -0.90265745 -0.8413118 -2.2347345 -0.5696382 -0.8588391 -0.7887298 -1.14804 -1.2356766 -1.14804 -0.52581984 -1.1655674 -1.0866944 -0.7624388 -1.0341125 -0.8938938
000020 14 14 36 2b fe 0b 38 28 35 29 25 35 09 33 04 3d
       -0.9377121 -0.9377121 -0.6397475 -0.7361478 -1.1305127 -1.0165851 -0.62222016 -0.7624388 -0.6485112 -0.75367516 -0.7887298 -0.6485112 -1.0341125 -0.6660385 -1.0779307 -0.57840186
000030 21 fb 21 18 73 18 1e 1d 17 f9 1a 2d 1e e4 23 25
       -0.8237845 -1.1568037 -0.8237845 -0.90265745 -0.10516398 -0.90265745 -0.8500754 -0.8588391 -0.9114211 -1.1743311 -0.8851301 -0.7186205 -0.8500754 -1.358368 -0.8062571 -0.7887298

sequential_4/conv2d_26/Conv2D i1 [64, 3, 3, 64]
000000 ee 07 de ec d2 fe d4 39 2a d7 31 e5 dd d6 fe 05
       -18 7 -34 -20 -46 -2 -44 57 42 -41 49 -27 -35 -42 -2 5
000010 ff bb 09 33 e7 14 03 f8 1f de ee e4 fc 38 f0 fb
       -1 -69 9 51 -25 20 3 -8 31 -34 -18 -28 -4 56 -16 -5
000020 a2 2c dd 05 20 23 0a e8 06 04 37 f8 49 2c 5f 0b
       -94 44 -35 5 32 35 10 -24 6 4 55 -8 73 44 95 11
000030 f0 03 f8 ce fc d2 f6 e0 c7 3c 11 db 09 f0 28 02
       -16 3 -8 -50 -4 -46 -10 -32 -57 60 17 -37 9 -16 40 2
000040 04 18 f4 35 fd f8 e6 26 1e 19 03 fd 10 0d f2 10
       4 24 -12 53 -3 -8 -26 38 30 25 3 -3 16 13 -14 16
000050 06 eb f1 ee f8 c6 11 09 f9 f0 fc 1b f3 f7 0e fa
       6 -21 -15 -18 -8 -58 17 9 -7 -16 -4 27 -13 -9 14 -6
000060 04 23 09 0d 06 0b ec 03 03 f1 0f bd 16 d0 f2 37
       4 35 9 13 6 11 -20 3 3 -15 15 -67 22 -48 -14 55
000070 e4 f3 1a fd 2a ef ec 25 eb 05 31 0e 19 fa 2b 22
       -28 -13 26 -3 42 -17 -20 37 -21 5 49 14 25 -6 43 34
000080 f2 33 27 00 18 ef bb 96 a8 f4 df 19 da 22 0c f1
       -14 51 39 0 24 -17 -69 -106 -88 -12 -33 25 -38 34 12 -15
000090 e9 01 39 e9 da d7 e7 3c be 0b 16 4a 0f 81 e7 1c
       -23 1 57 -23 -38 -41 -25 60 -66 11 22 74 15 -127 -25 28
0000a0 e3 cf 2b 20 11 d5 e6 16 16 18 c9 c1 d0 e8 d3 02
       -29 -49 43 32 17 -43 -26 22 22 24 -55 -63 -48 -24 -45 2
0000b0 07 d9 f5 d3 dd 9e cd dd 1f f9 f4 ef 07 0c e4 e8
       7 -39 -11 -45 -35 -98 -51 -35 31 -7 -12 -17 7 12 -28 -24
0000c0 ce 17 14 08 24 26 92 f0 0f f1 3b ff c4 17 10 19
       -50 23 20 8 36 38 -110 -16 15 -15 59 -1 -60 23 16 25
0000d0 f8 bc 12 0a 00 1c e3 f7 01 d8 f6 17 cf 38 e0 12
       -8 -68 18 10 0 28 -29 -9 1 -40 -10 23 -49 56 -32 18
0000e0 fb 06 27 19 2c 41 35 01 ee fd 1a ec 05 f7 15 17
       -5 6 39 25 44 65 53 1 -18 -3 26 -20 5 -9 21 23
0000f0 05 f5 09 ee 20 ad da f0 df 13 52 f8 e9 1c 1b 0b
       5 -11 9 -18 32 -83 -38 -16 -33 19 82 -8 -23 28 27 11

sequential_4/conv2d_27/Conv2D i1 [64, 3, 3, 64]
000000 0e 19 ea 37 02 df e7 1b 2a d6 f7 0e 08 df e0 16
       14 25 -22 55 2 -33 -25 27 42 -42 -9 14 8 -33 -32 22
000010 f0 cd 18 1a 1e f6 0a e4 2f 39 f4 1f e8 d1 e6 0f
       -16 -51 24 26 30 -10 10 -28 47 57 -12 31 -24 -47 -26 15
000020 df 06 db fa fd 03 c7 14 e9 0d 00 18 f6 29 02 da
       -33 6 -37 -6 -3 3 -57 20 -23 13 0 24 -10 41 2 -38
000030 2b 09 26 02 19 11 e6 2e f3 cb de dc 1c 0b be 2f
       43 9 38 2 25 17 -26 46 -13 -53 -34 -36 28 11 -66 47
000040 be 0e 20 15 f4 e1 f7 d0 02 fb 21 34 05 ec 30 2a
       -66 14 32 21 -12 -31 -9 -48 2 -5 33 52 5 -20 48 42
000050 26 d3 21 d5 ef 0b 08 19 17 df 1e 3e fe de e4 f7
       38 -45 33 -43 -17 11 8 25 23 -33 30 62 -2 -34 -28 -9
000060 00 15 da d2 1b cb 12 e1 ab e4 d3 0e d8 fe 04 f1
       0 21 -38 -46 27 -53 18 -31 -85 -28 -45 14 -40 -2 4 -15
000070 04 2f 26 10 31 eb d6 19 d4 e5 13 f2 20 fd d3 de
       4 47 38 16 49 -21 -42 25 -44 -27 19 -14 32 -3 -45 -34
000080 da 15 12 19 fb 0d fa 2e e8 0e 35 57 f1 08 ea 2b
       -38 21 18 25 -5 13 -6 46 -24 14 53 87 -15 8 -22 43
000090 fd c2 e2 13 fb 17 2c 31 30 0b 20 08 07 00 08 0b
       -3 -62 -30 19 -5 23 44 49 48 11 32 8 7 0 8 11
0000a0 d9 22 b9 18 0a 03 02 ea 11 f1 f1 2b eb 05 10 02
       -39 34 -71 24 10 3 2 -22 17 -15 -15 43 -21 5 16 2
0000b0 dc 52 14 01 ce fd 25 21 09 3f fb c3 05 10 d1 2e
       -36 82 20 1 -50 -3 37 33 9 63 -5 -61 5 16 -47 46
0000c0 05 e8 fa e8 ec 13 1b b8 dc 19 00 08 24 dd 0f d7
       5 -24 -6 -24 -20 19 27 -72 -36 25 0 8 36 -35 15 -41
0000d0 ea c7 fd 06 ed 41 25 0a e4 10 07 eb f7 a6 f2 02
       -22 -57 -3 6 -19 65 37 10 -28 16 7 -21 -9 -90 -14 2
0000e0 de 09 2f 11 ff 16 31 de c7 da e9 05 04 d5 0d 14
       -34 9 47 17 -1 22 49 -34 -57 -38 -23 5 4 -43 13 20
0000f0 ff f3 4f e4 0f 22 da 37 1b ed ec e2 fe ea c4 1f
       -1 -13 79 -28 15 34 -38 55 27 -19 -20 -30 -2 -22 -60 31

sequential_4/batch_normalization_18/FusedBatchNormV3 i1 [64] scale=0.12575215 zero_point=-128
000000 82 81 81 81 81 81 81 81 81 82 6c 81 81 72 82 5f
       0.2515043 0.12575215 0.12575215 0.12575215 0.12575215 0.12575215 0.12575215 0.12575215 0.12575215 0.2515043 29.677507 0.12575215 0.12575215 30.43202 0.2515043 28.04273
000010 81 82 81 81 81 81 81 81 81 81 81 81 81 81 7f 81
       0.12575215 0.2515043 0.12575215 0.12575215 0.12575215 0.12575215 0.12575215 0.12575215 0.12575215 0.12575215 0.12575215 0.12575215 0.12575215 0.12575215 32.0668 0.12575215
000020 81 81 83 81 81 50 75 81 81 81 71 81 35 81 82 81
       0.12575215 0.12575215 0.37725645 0.12575215 0.12575215 26.156448 30.809277 0.12575215 0.12575215 0.12575215 30.306269 0.12575215 22.761139 0.12575215 0.2515043 0.12575215
000030 82 82 81 61 82 81 81 81 81 81 81 81 81 82 81 82
       0.2515043 0.2515043 0.12575215 28.294233 0.2515043 0.12575215 0.12575215 0.12575215 0.12575215 0.12575215 0.12575215 0.12575215 0.12575215 0.2515043 0.12575215 0.2515043

sequential_4/batch_normalization_18/FusedBatchNormV31 i1 [64] scale=0.0057688514 zero_point=123
000000 b4 9e eb de b0 c7 cd c6 83 cc 76 d8 b2 7d b2 7b
       -1.1480014 -1.2749162 -0.8307146 -0.9057097 -1.1710768 -1.0383933 -1.0037801 -1.0441622 -1.4306751 -1.009549 -0.028844256 -0.94032276 -1.1595391 0.011537703 -1.1595391 0.0
000010 ce c5 e2 d3 a2 80 e8 9f b1 c6 ad ae 98 8d 78 cf
       -0.9980113 -1.0499309 -0.8826343 -0.96916705 -1.2518407 -1.4479817 -0.84802115 -1.2691473 -1.165308 -1.0441622 -1.1883833 -1.1826146 -1.3095293 -1.3729867 -0.017306555 -0.99224246
000020 b9 84 32 bd c0 7e 7c b8 bf aa 7f b3 79 c5 e1 c4
       -1.1191572 -1.4249063 -0.42112616 -1.0960817 -1.0787752 0.017306555 0.0057688514 -1.124926 -1.0845441 -1.2056899 0.023075406 -1.1537703 -0.011537703 -1.0499309 -0.8884031 -1.0556998
000030 d0 d4 df 7c e5 86 9f 99 a4 a7 8f bd a5 d7 a3 de
       -0.98647356 -0.96339816 -0.8999408 0.0057688514 -0.8653277 -1.4133686 -1.2691473 -1.3037604 -1.240303 -1.2229965 -1.3614489 -1.0960817 -1.2345341 -0.94609165 -1.2460719 -0.9057097

sequential_4/conv2d_28/Conv2D i1 [32, 3, 3, 64]
000000 00 04 2f 1c 21 e5 81 35 b1 15 ef d5 06 e7 e4 f0
       0 4 47 28 33 -27 -127 53 -79 21 -17 -43 6 -25 -28 -16
000010 26 07 1d 19 dc df e9 20 21 0c 0f 09 24 d2 0f b9
       38 7 29 25 -36 -33 -23 32 33 12 15 9 36 -46 15 -71
000020 27 28 fd 15 0c 05 ef 19 1c 1f ec 3c ed 1f ea db
       39 40 -3 21 12 5 -17 25 28 31 -20 60 -19 31 -22 -37
000030 c3 f6 e6 f1 2d d6 14 ec 2d a3 1d ce 23 16 12 1b
       -61 -10 -26 -15 45 -42 20 -20 45 -93 29 -50 35 22 18 27
000040 fd e7 df f6 e2 fb da f4 18 f0 fe 0f fe 0e 1d 0a
       -3 -25 -33 -10 -30 -5 -38 -12 24 -16 -2 15 -2 14 29 10
000050 d1 e4 ef 00 e3 e6 0b 15 01 f5 03 fa 12 13 e8 ed
       -47 -28 -17 0 -29 -26 11 21 1 -11 3 -6 18 19 -24 -19
000060 24 20 ef 12 04 e5 14 03 02 f6 09 16 0d f1 d0 f1
       36 32 -17 18 4 -27 20 3 2 -10 9 22 13 -15 -48 -15
000070 03 fc 0f fc e4 d7 f6 2f 07 13 f3 f3 dc d9 e6 bd
       3 -4 15 -4 -28 -41 -10 47 7 19 -13 -13 -36 -39 -26 -67
000080 e2 10 02 0f e7 17 f7 26 d8 d6 1d fd 03 fe 25 f9
       -30 16 2 15 -25 23 -9 38 -40 -42 29 -3 3 -2 37 -7
000090 21 02 0b 02 f9 f2 f9 24 fe ec 06 ed f9 e8 12 0e
       33 2 11 2 -7 -14 -7 36 -2 -20 6 -19 -7 -24 18 14
0000a0 ff f7 02 06 fb fd 06 fa fb 22 ed 08 f3 12 c9 f1
       -1 -9 2 6 -5 -3 6 -6 -5 34 -19 8 -13 18 -55 -15
0000b0 15 e3 10 f1 12 f2 0a ec 0d fc 1b ff 12 26 38 f8
       21 -29 16 -15 18 -14 10 -20 13 -4 27 -1 18 38 56 -8
0000c0 e5 b8 e2 9e e4 0d 16 12 ae c6 04 ff 8d dd 26 fb
       -27 -72 -30 -98 -28 13 22 18 -82 -58 4 -1 -115 -35 38 -5
0000d0 07 20 01 d4 a7 bb da d0 b2 09 03 fe ea fa e3 f1
       7 32 1 -44 -89 -69 -38 -48 -78 9 3 -2 -22 -6 -29 -15
0000e0 b6 c6 0f f5 df f2 ef c5 bc a7 e6 ee f8 e6 fd f2
       -74 -58 15 -11 -33 -14 -17 -59 -68 -89 -26 -18 -8 -26 -3 -14
0000f0 0f 18 1e f5 b1 19 f3 c9 f9 0e 03 17 00 11 11 23
       15 24 30 -11 -79 25 -13 -55 -7 14 3 23 0 17 17 35

sequential_4/conv2d_29/Conv2D i1 [32, 3, 3, 32]
000000 0a ad 0c f0 b6 06 36 3f 15 37 00 b7 05 ad ec cb
       10 -83 12 -16 -74 6 54 63 21 55 0 -73 5 -83 -20 -53
000010 f8 d3 1f 01 de 21 08 0c 20 c2 20 d5 23 28 c5 16
       -8 -45 31 1 -34 33 8 12 32 -62 32 -43 35 40 -59 22
000020 b7 f1 df da d1 d9 cc a5 f5 b1 b9 fa e3 bf bd dd
       -73 -15 -33 -38 -47 -39 -52 -91 -11 -79 -71 -6 -29 -65 -67 -35
000030 d2 07 df e5 bf c4 cd 1b 01 0a ee 33 05 18 c4 af
       -46 7 -33 -27 -65 -60 -51 27 1 10 -18 51 5 24 -60 -81
000040 26 1f b5 d6 dd f8 e2 27 00 b9 06 08 0b 0b c0 c6
       38 31 -75 -42 -35 -8 -30 39 0 -71 6 8 11 11 -64 -58
000050 29 d9 10 0f c0 d5 0d fd 4e c9 c3 0f b8 08 3f 26
       41 -39 16 15 -64 -43 13 -3 78 -55 -61 15 -72 8 63 38
000060 96 92 d7 d9 dc ce d0 0e ee e9 19 ec aa 18 10 23
       -106 -110 -41 -39 -36 -50 -48 14 -18 -23 25 -20 -86 24 16 35
000070 bf da c1 f5 0f 28 47 eb f1 0b 2b bf e8 f4 e3 b8
       -65 -38 -63 -11 15 40 71 -21 -15 11 43 -65 -24 -12 -29 -72
000080 b0 cd c3 ed 22 cc 9b 83 99 23 db a4 14 a4 cd af
       -80 -51 -61 -19 34 -52 -101 -125 -103 35 -37 -92 20 -92 -51 -81
000090 11 08 b8 c7 8e ef cd e8 03 a4 19 ea b9 81 ce f8
       17 8 -72 -57 -114 -17 -51 -24 3 -92 25 -22 -71 -127 -50 -8
0000a0 e9 24 a4 b2 16 d8 c5 b4 23 d2 df cd 15 13 e2 d4
       -23 36 -92 -78 22 -40 -59 -76 35 -46 -33 -51 21 19 -30 -44
0000b0 f8 12 b5 a9 fb 10 f1 1c fe 00 16 f1 86 bf cf f4
       -8 18 -75 -87 -5 16 -15 28 -2 0 22 -15 -122 -65 -49 -12
0000c0 ba ba dc a3 b8 2b d4 be c0 b7 19 14 bd e2 f4 ce
       -70 -70 -36 -93 -72 43 -44 -66 -64 -73 25 20 -67 -30 -12 -50
0000d0 c9 35 36 c8 10 c1 c3 18 fb 44 e9 c4 bb 0c 0e be
       -55 53 54 -56 16 -63 -61 24 -5 68 -23 -60 -69 12 14 -66
0000e0 d1 bd a5 06 ea 34 fa 93 17 0d 13 20 d3 db af a6
       -47 -67 -91 6 -22 52 -6 -109 23 13 19 32 -45 -37 -81 -90
0000f0 16 2e 23 d4 ef b9 08 a3 f3 01 ca 1a 1b 14 0a 12
       22 46 35 -44 -17 -71 8 -93 -13 1 -54 26 27 20 10 18

sequential_4/batch_normalization_19/FusedBatchNormV3 i1 [32] scale=0.10846377 zero_point=-128
000000 7f 85 85 85 85 86 84 85 85 84 85 85 85 50 87 86
       27.658262 0.5423189 0.5423189 0.5423189 0.5423189 0.65078264 0.4338551 0.5423189 0.5423189 0.4338551 0.5423189 0.5423189 0.5423189 22.560465 0.7592464 0.65078264
000010 85 85 86 85 85 85 86 86 85 85 85 85 86 85 86 85
       0.5423189 0.5423189 0.65078264 0.5423189 0.5423189 0.5423189 0.65078264 0.65078264 0.5423189 0.5423189 0.5423189 0.5423189 0.65078264 0.5423189 0.65078264 0.5423189

sequential_4/batch_normalization_19/FusedBatchNormV31 i1 [32] scale=0.009839112 zero_point=125
000000 7f 94 80 99 95 8f 99 a6 92 8e 9c 97 93 7d 43 9c
       0.019678224 -2.2925131 -2.4892952 -2.2433176 -2.282674 -2.3417087 -2.2433176 -2.1154091 -2.3121912 -2.3515477 -2.2138002 -2.2629957 -2.3023522 0.0 -0.5706685 -2.2138002
000010 8e a2 85 81 97 92 9b 81 88 87 95 9c 96 84 df 90
       -2.3515477 -2.1547656 -2.4400997 -2.4794562 -2.2629957 -2.3121912 -2.2236392 -2.4794562 -2.4105825 -2.4204216 -2.282674 -2.2138002 -2.2728348 -2.4499388 -1.5545797 -2.3318696

sequential_4/dense_4/MatMul i1 [100, 32] scale=0.0044702915 zero_point=0
000000 fb 1b f0 b8 c0 b1 b7 b8 b1 bb 19 23 1d 14 09 1b
       -0.022351459 0.12069787 -0.071524665 -0.321861 -0.28609866 -0.35315302 -0.3263313 -0.321861 -0.35315302 -0.3084501 0.111757286 0.15646021 0.12963845 0.089405835 0.040232625 0.12069787
000010 e5 c3 20 8c ba 26 a6 12 c1 1d 07 16 26 16 ae 03
       -0.12069787 -0.2726878 0.14304933 -0.5185538 -0.31292042 0.16987108 -0.40232623 0.08046525 -0.28162837 0.12963845 0.03129204 0.09834641 0.16987108 0.09834641 -0.36656392 0.013410875
000020 b1 0f 96 b7 bb b0 b6 b8 b2 b8 cf 1a 1d e7 0a 1e
       -0.35315302 0.067054376 -0.4738509 -0.3263313 -0.3084501 -0.35762334 -0.33080158 -0.321861 -0.34868273 -0.321861 -0.21904428 0.11622758 0.12963845 -0.111757286 0.044702917 0.13410875
000030 a9 c4 1d 8d b6 25 a6 0f bd 1b 08 14 24 13 a8 e8
       -0.38891536 -0.2682175 0.12963845 -0.5140835 -0.33080158 0.16540079 -0.40232623 0.067054376 -0.29950953 0.12069787 0.035762332 0.089405835 0.1609305 0.08493554 -0.39338565 -0.107287
000040 e0 b8 92 be c0 b0 b5 bb b2 be b4 ed 20 07 fc 0c
       -0.14304933 -0.321861 -0.49173206 -0.29503924 -0.28609866 -0.35762334 -0.33527187 -0.3084501 -0.34868273 -0.29503924 -0.33974215 -0.08493554 0.14304933 0.03129204 -0.017881166 0.0536435
000050 a9 c1 fa 8b bb 25 ab 16 c0 13 10 1b 22 14 af d1
       -0.38891536 -0.28162837 -0.02682175 -0.5230241 -0.3084501 0.16540079 -0.37997478 0.09834641 -0.28609866 0.08493554 0.071524665 0.12069787 0.1519899 0.089405835 -0.36209363 -0.2101037
000060 da ad 93 bc c2 b0 bb bd b1 bd b2 b8 20 1e d7 16
       -0.16987108 -0.3710342 -0.48726177 -0.3039798 -0.27715808 -0.35762334 -0.3084501 -0.29950953 -0.35315302 -0.29950953 -0.34868273 -0.321861 0.14304933 0.13410875 -0.18328196 0.09834641
000070 ac c3 bd 90 ba 28 0d 16 be 15 13 1d 18 1b b2 b9
       -0.3755045 -0.2726878 -0.29950953 -0.50067264 -0.31292042 0.17881167 0.05811379 0.09834641 -0.29503924 0.09387612 0.08493554 0.12963845 0.107287 0.12069787 -0.34868273 -0.3173907
000080 c2 ae b4 bb c0 aa ba be b8 be ad b7 1c f8 c2 ca
       -0.27715808 -0.36656392 -0.33974215 -0.3084501 -0.28609866 -0.38444507 -0.31292042 -0.29503924 -0.321861 -0.29503924 -0.3710342 -0.3263313 0.12516816 -0.035762332 -0.27715808 -0.24139574
000090 b1 c7 b4 d9 bc 22 1a 18 be 0a 12 1e c0 1a b3 b6
       -0.35315302 -0.2548066 -0.33974215 -0.17434137 -0.3039798 0.1519899 0.11622758 0.107287 -0.29503924 0.044702917 0.08046525 0.13410875 -0.28609866 0.11622758 -0.34421244 -0.33080158
0000a0 ec b4 0c c2 c1 ad b9 bd b4 c0 aa b5 18 fb ae b8
       -0.089405835 -0.33974215 0.0536435 -0.27715808 -0.28162837 -0.3710342 -0.3173907 -0.29950953 -0.33974215 -0.28609866 -0.38444507 -0.33527187 0.107287 -0.022351459 -0.36656392 -0.321861
0000b0 b4 c3 bb 0f bf 1e 24 15 bd d3 14 1f ac 1f b6 b6
       -0.33974215 -0.2726878 -0.3084501 0.067054376 -0.29056895 0.13410875 0.1609305 0.09387612 -0.29950953 -0.20116311 0.089405835 0.13857904 -0.3755045 0.13857904 -0.33080158 -0.33080158
0000c0 f7 b3 19 c0 c2 ac b6 bf ba bf aa b7 fb fc be d8
       -0.040232625 -0.34421244 0.111757286 -0.28609866 -0.27715808 -0.3755045 -0.33080158 -0.29056895 -0.31292042 -0.29056895 -0.38444507 -0.3263313 -0.022351459 -0.017881166 -0.29503924 -0.17881167
0000d0 b4 c1 ba 18 c1 e4 25 15 be ac 0f 21 af 1e b3 b7
       -0.33974215 -0.28162837 -0.31292042 0.107287 -0.28162837 -0.12516816 0.16540079 0.09387612 -0.29503924 -0.3755045 0.067054376 0.14751962 -0.36209363 0.13410875 -0.34421244 -0.3263313
0000e0 cd b7 1f be bf ad b7 c0 be bc aa b8 ac e9 e0 09
       -0.22798488 -0.3263313 0.13857904 -0.29503924 -0.29056895 -0.3710342 -0.3263313 -0.28609866 -0.29503924 -0.3039798 -0.38444507 -0.321861 -0.3755045 -0.10281671 -0.14304933 0.040232625
0000f0 b4 c3 b9 1d bd a9 24 10 cd ab f8 1e b1 1b a5 b7
       -0.33974215 -0.2726878 -0.3173907 0.12963845 -0.29950953 -0.38891536 0.1609305 0.071524665 -0.22798488 -0.37997478 -0.035762332 0.13410875 -0.35315302 0.12069787 -0.40679654 -0.3263313
