sd-card/config/dig-class100-0173-s2-q.tflite (tflite, 226968 bytes, 11 tensors)

sequential/dense_1/MatMul i1 [100, 256] scale=0.013531844 zero_point=0
-0.027063688 -0.28416872 -0.36535978 0.13531844 -0.36535978 -0.33829612 -0.09472291 -0.06765922
0.121786594 0.054127377 -0.027063688 -0.28416872 -0.23004135 -0.2165095 -0.20297766 -0.17591397
-0.33829612 -0.09472291 -0.06765922 -0.13531844 0.23004135 -0.29770058 -0.6495285 -0.16238213
-0.18944582 -0.2165095 0.17591397 -0.23004135 -0.2165095 -0.48714638 -0.13531844 -0.13531844
-0.2165095 -0.16238213 -0.2706369 -0.14885029 -0.16238213 0.10825475 -0.50067824 0.41948718
-0.2165095 -0.121786594 -0.04059553 -0.31123242 0.08119106 -0.013531844 -0.39242348 -0.054127377
-0.29770058 -0.08119106 -0.14885029 -0.2165095 -0.24357319 0.2706369 -0.16238213 -0.29770058
-0.20297766 -0.33829612 -0.36535978 -0.4059553 -0.32476425 -0.2165095 -0.2706369 -0.2706369
-0.06765922 -0.04059553 -0.5277419 0.013531844 -0.6359967 -0.5277419 -0.50067824 0.20297766
0.013531844 -0.433019 -0.25710505 -0.48714638 -0.20297766 -0.32476425 -0.59540117 -0.20297766
-0.31123242 -0.35182795 -0.24357319 -0.35182795 0.027063688 -0.29770058 -0.56833744 -0.5277419
-0.28416872 0.027063688 0.04059553 0.13531844 -0.32476425 -0.2706369 -0.2165095 -0.121786594
-0.13531844 0.013531844 -0.29770058 -0.37889165 0.14885029 -0.25710505 0.37889165 -0.24357319
-0.14885029 -0.433019 -0.29770058 -0.56833744 -0.09472291 -0.14885029 0.09472291 -0.39242348
-0.13531844 0.24357319 -0.24357319 -0.35182795 0.29770058 -0.10825475 -0.14885029 0.08119106
0.04059553 -0.32476425 -0.09472291 -0.32476425 0.027063688 -0.4059553 -0.17591397 -0.48714638
-0.48714638 -0.10825475 -0.47361454 -0.6359967 -0.04059553 -0.55480564 0.10825475 -0.44655085
0.24357319 -0.16238213 0.14885029 -0.29770058 -0.39242348 -0.23004135 -0.55480564 0.0
-0.23004135 -0.2706369 -0.18944582 -0.62246484 -0.054127377 -0.04059553 -0.32476425 -0.47361454
-0.36535978 0.24357319 0.08119106 0.0 -0.37889165 -0.35182795 -0.33829612 -0.39242348
-0.121786594 -0.35182795 -0.28416872 0.13531844 -0.027063688 -0.16238213 -0.41948718 -0.10825475
-0.35182795 -0.14885029 0.14885029 -0.24357319 -0.18944582 -0.20297766 -0.41948718 -0.14885029
-0.28416872 -0.35182795 -0.35182795 -0.013531844 -0.5818693 -0.18944582 -0.16238213 0.09472291
-0.433019 -0.054127377 0.027063688 -0.18944582 -0.24357319 -0.44655085 -0.37889165 0.013531844
0.0 -0.36535978 -0.09472291 -0.13531844 0.06765922 -0.39242348 -0.06765922 -0.35182795
0.18944582 -0.31123242 -0.31123242 -0.06765922 -0.5412738 0.18944582 -0.10825475 -0.2165095
-0.09472291 0.23004135 0.10825475 -0.47361454 -0.33829612 -0.09472291 -0.20297766 -0.28416872
0.04059553 -0.5818693 -0.39242348 -0.20297766 0.04059553 -0.31123242 -0.44655085 -0.2706369
-0.41948718 -0.33829612 0.24357319 0.10825475 -0.08119106 -0.04059553 -0.121786594 0.08119106
-0.74425143 -0.13531844 -0.16238213 -0.23004135 0.20297766 -0.39242348 -0.18944582 -0.18944582
-0.2706369 -0.054127377 -0.33829612 -0.39242348 -0.33829612 -0.32476425 0.04059553 -0.6359967
-0.20297766 -0.16238213 -0.027063688 -0.013531844 -0.17591397 0.09472291 0.09472291 -0.16238213
00000000: feeb e50a e5e7 f9fb 0904 feeb eff0 f1f3
00000010: e7f9 fbf6 11ea d0f4 f2f0 0def f0dc f6f6
00000020: f0f4 ecf5 f408 db1f f0f7 fde9 06ff e3fc
00000030: eafa f5f0 ee14 f4ea f1e7 e5e2 e8f0 ecec
00000040: fbfd d901 d1d9 db0f 01e0 eddc f1e8 d4f1
00000050: e9e6 eee6 02ea d6d9 eb02 030a e8ec f0f7
00000060: f601 eae4 0bed 1cee f5e0 ead6 f9f5 07e3
00000070: f612 eee6 16f8 f506 03e8 f9e8 02e2 f3dc
00000080: dcf8 ddd1 fdd7 08df 12f4 0bea e3ef d700
00000090: efec f2d2 fcfd e8dd e512 0600 e4e6 e7e3
000000a0: f7e6 eb0a fef4 e1f8 e6f5 0bee f2f1 e1f5
000000b0: ebe6 e6ff d5f2 f407 e0fc 02f2 eedf e401
000000c0: 00e5 f9f6 05e3 fbe6 0ee9 e9fb d80e f8f0
000000d0: f911 08dd e7f9 f1eb 03d5 e3f1 03e9 dfec
000000e0: e1e7 1208 fafd f706 c9f6 f4ef 0fe3 f2f2
000000f0: ecfc e7e3 e7e8 03d1 f1f4 feff f307 07f4

sequential/dense/MatMul i1 [256, 512] scale=0.0060791764 zero_point=0
-0.35259223 -0.042554237 -0.16413777 -0.1276627 0.01823753 -0.115504354 -0.115504354 -0.06687094
-0.04863341 0.06687094 0.13374189 0.115504354 -0.01823753 0.06687094 -0.0060791764 0.10942517
0.115504354 -0.012158353 0.060791764 0.01823753 -0.15805858 -0.024316706 -0.1276627 0.0060791764
0.16413777 0.18845446 -0.2796421 -0.1276627 -0.15197942 0.115504354 -0.13982105 0.13982105
-0.15805858 -0.09726682 0.206692 -0.07902929 0.0 -0.07295012 0.09726682 0.04863341
0.1823753 -0.17629611 0.07295012 -0.1276627 0.01823753 0.085108474 0.37690893 -0.24924624
0.115504354 -0.15805858 0.09726682 0.13374189 -0.0060791764 0.07902929 0.1276627 -0.04863341
0.21277118 0.030395882 0.042554237 -0.030395882 -0.01823753 -0.085108474 0.17629611 -0.024316706
-0.14590023 0.042554237 -0.15197942 -0.15197942 -0.32219636 0.0 0.37082976 0.15197942
-0.024316706 -0.04863341 -0.13982105 -0.12158353 -0.37082976 -0.085108474 0.18845446 0.17021695
-0.04863341 0.1276627 0.012158353 0.13374189 0.09726682 -0.32219636 -0.17629611 0.0
0.30395883 0.24924624 0.042554237 0.14590023 0.115504354 0.012158353 -0.115504354 -0.042554237
0.15805858 -0.054712586 0.042554237 0.17629611 0.115504354 -0.06687094 0.103346 -0.085108474
-0.01823753 -0.13982105 0.0060791764 -0.030395882 -0.0060791764 -0.0060791764 -0.03647506 -0.09118765
0.17629611 -0.29787964 0.10942517 0.29180047 0.14590023 -0.103346 -0.14590023 0.103346
-0.16413777 -0.09118765 0.12158353 0.30395883 0.2857213 -0.030395882 0.085108474 -0.13374189
0.19453365 -0.04863341 0.07902929 -0.07902929 -0.206692 0.09726682 0.042554237 0.085108474
-0.20061283 -0.14590023 -0.115504354 -0.17021695 -0.07295012 0.012158353 -0.03647506 -0.2553254
-0.206692 -0.103346 -0.29180047 0.14590023 0.23708788 0.085108474 0.024316706 0.103346
-0.07902929 -0.060791764 -0.2796421 -0.085108474 0.15197942 -0.09726682 -0.10942517 -0.054712586
-0.21885034 -0.2857213 -0.21277118 -0.054712586 0.24316706 0.054712586 -0.12158353 -0.030395882
-0.14590023 0.10942517 -0.07902929 0.22492953 -0.206692 -0.01823753 -0.24316706 -0.15197942
0.12158353 -0.0060791764 -0.07295012 0.012158353 0.07902929 -0.13982105 -0.1276627 -0.31611717
-0.18845446 0.10942517 -0.085108474 0.03647506 -0.030395882 0.060791764 0.0 -0.21885034
-0.09118765 -0.030395882 -0.10942517 -0.37690893 -0.1823753 -0.1276627 0.01823753 -0.14590023
0.09118765 0.012158353 -0.1276627 0.04863341 -0.13374189 0.030395882 0.1276627 -0.3404339
-0.30395883 0.21277118 -0.054712586 0.0 0.22492953 -0.24316706 0.030395882 -0.042554237
-0.085108474 0.115504354 -0.054712586 -0.20061283 0.030395882 0.07902929 -0.103346 0.19453365
-0.17629611 0.042554237 -0.19453365 -0.17021695 0.12158353 0.04863341 -0.04863341 -0.09118765
-0.23100871 -0.23708788 0.01823753 0.20061283 0.0060791764 0.10942517 -0.0060791764 0.0
-0.15805858 0.085108474 -0.12158353 0.012158353 0.0 -0.23100871 0.17629611 -0.030395882
-0.23100871 -0.21885034 0.14590023 -0.21277118 0.26140457 -0.310038 0.15805858 -0.18845446
00000000: c6f9 e5eb 03ed edf5 f80b 1613 fd0b ff12
00000010: 13fe 0a03 e6fc eb01 1b1f d2eb e713 e917
00000020: e6f0 22f3 00f4 1008 1ee3 0ceb 030e 3ed7
00000030: 13e6 1016 ff0d 15f8 2305 07fb fdf2 1dfc
00000040: e807 e7e7 cb00 3d19 fcf8 e9ec c3f2 1f1c
00000050: f815 0216 10cb e300 3229 0718 1302 edf9
00000060: 1af7 071d 13f5 11f2 fde9 01fb ffff faf1
00000070: 1dcf 1230 18ef e811 e5f1 1432 2ffb 0eea
00000080: 20f8 0df3 de10 070e dfe8 ede4 f402 fad6
00000090: deef d018 270e 0411 f3f6 d2f2 19f0 eef7
000000a0: dcd1 ddf7 2809 ecfb e812 f325 defd d8e7
000000b0: 14ff f402 0de9 ebcc e112 f206 fb0a 00dc
000000c0: f1fb eec2 e2eb 03e8 0f02 eb08 ea05 15c8
000000d0: ce23 f700 25d8 05f9 f213 f7df 050d ef20
000000e0: e307 e0e4 1408 f8f1 dad9 0321 0112 ff00
000000f0: e60e ec02 00da 1dfb dadc 18dd 2bcd 1ae1

sequential/batch_normalization_3/FusedBatchNormV31 i1 [64] scale=0.0014825168 zero_point=127
-0.14232162 -0.29502085 -0.20162228 -0.2475803 -0.21941248 -0.26092294 -0.20755234 -0.1853146
-0.26240546 -0.266853 -0.1942097 -0.09191604 -0.21496493 -0.28167817 -0.25202784 -0.26981804
-0.35135648 -0.15418175 -0.21051738 -0.20606983 -0.22830757 -0.14825168 -0.14083908 -0.27723062
-0.14676917 -0.23572016 -0.29353833 -0.34246138 -0.35876906 -0.2994684 -0.23275512 -0.15714678
-0.24461527 -0.3172586 -0.13639154 -0.2031048 -0.34246138 -0.22089499 -0.14825168 -0.21348241
-0.3365313 -0.13046147 -0.2742656 -0.37804177 -0.29798588 -0.2475803 -0.17345446 -0.16900691
-0.19569221 -0.15269923 -0.16604188 -0.2757481 -0.08450346 -0.26388797 -0.16604188 -0.22682506
-0.23572016 -0.22089499 -0.20755234 -0.3617341 -0.18234956 -0.33208376 -0.15418175 -0.19717473
00000000: 1fb8 f7d8 ebcf f302 cecb fc41 eec1 d5c9
00000010: 9217 f1f4 e51b 20c4 1ce0 b998 8db5 e215
00000020: daa9 23f6 98ea 1bef 9c27 c680 b6d8 0a0d
00000030: fb18 0fc5 46cd 0fe6 e0ea f38b 049f 17fa

sequential/batch_normalization_3/FusedBatchNormV3 i1 [64] scale=0.00035924526 zero_point=-128
0.07508226 0.067538105 0.062149428 0.06322716 0.049575847 0.054246034 0.0833449 0.07580075
0.060353205 0.070052825 0.049575847 0.06969358 0.06466415 0.07184905 0.06322716 0.067538105
0.06071245 0.06502339 0.076519236 0.063586414 0.06250867 0.056401506 0.07220829 0.054246034
0.057119995 0.06717886 0.05963471 0.05963471 0.07687849 0.05747924 0.06969358 0.0872966
0.07508226 0.06538264 0.06250867 0.09160754 0.054246034 0.058197733 0.07759698 0.062149428
0.061790183 0.069334336 0.047061127 0.04993509 0.061071694 0.07831547 0.079752445 0.067538105
0.07472301 0.0714898 0.07041207 0.060353205 0.066819616 0.08406339 0.08083018 0.085500374
0.06143094 0.0682566 0.06897509 0.04849811 0.070052825 0.049575847 0.072567545 0.07041207
00000000: 513c 2d30 0a17 6853 2843 0a42 3448 303c
00000010: 2935 5531 2e1d 4917 1f3b 2626 5620 4273
00000020: 5136 2e7f 1722 582d 2c41 030b 2a5a 5e3c
00000030: 5047 4428 3a6a 616e 2b3e 4007 430a 4a44

sequential/conv2d_2/Conv2D i1 [64, 3, 3, 64]
-117 92 35 2 2 25 -42 17
15 57 26 -4 -19 -17 -71 49
-88 -2 -90 -6 7 80 -61 -29
-2 -36 6 -45 -29 -37 59 -21
-25 -95 4 20 -10 29 47 -56
33 -24 39 40 -17 -12 -10 28
47 2 -10 33 31 -116 -38 3
-1 24 -51 31 -112 -2 20 -45
-47 -16 -3 -42 22 -40 -25 -25
-6 3 33 36 10 17 5 -7
-99 14 -98 1 -15 60 -33 3
4 -55 -29 13 -78 -1 72 -22
-55 -41 27 -34 -1 -31 22 -12
13 -20 13 26 30 -31 6 26
30 -1 14 -6 23 29 -110 15
40 9 -81 39 -80 -27 15 -29
-14 15 2 -33 -4 0 12 11
-13 -31 22 11 6 -19 23 -4
-17 -25 -32 -29 -52 15 22 19
6 22 20 21 -29 -9 18 -53
-85 -22 -12 -16 5 -75 3 -41
21 36 4 -2 -24 -6 2 16
-17 5 -3 -28 -42 16 -21 -1
31 18 34 34 -39 -72 -11 -22
-10 54 8 39 -5 9 -11 -14
-13 73 -7 -30 -18 -5 -60 32
-54 33 -127 -34 -23 30 -97 -32
-4 -8 -22 1 -9 -42 33 -3
-12 -68 19 26 -32 -34 27 -10
11 -31 -2 -45 27 -5 -21 25
32 24 -5 -6 -4 -79 29 -63
26 21 -6 13 -2 0 16 -41
00000000: 8b5c 2302 0219 d611 0f39 1afc edef b931
00000010: a8fe a6fa 0750 c3e3 fedc 06d3 e3db 3beb
00000020: e7a1 0414 f61d 2fc8 21e8 2728 eff4 f61c
00000030: 2f02 f621 1f8c da03 ff18 cd1f 90fe 14d3
00000040: d1f0 fdd6 16d8 e7e7 fa03 2124 0a11 05f9
00000050: 9d0e 9e01 f13c df03 04c9 e30d b2ff 48ea
00000060: c9d7 1bde ffe1 16f4 0dec 0d1a 1ee1 061a
00000070: 1eff 0efa 171d 920f 2809 af27 b0e5 0fe3
00000080: f20f 02df fc00 0c0b f3e1 160b 06ed 17fc
00000090: efe7 e0e3 cc0f 1613 0616 1415 e3f7 12cb
000000a0: abea f4f0 05b5 03d7 1524 04fe e8fa 0210
000000b0: ef05 fde4 d610 ebff 1f12 2222 d9b8 f5ea
000000c0: f636 0827 fb09 f5f2 f349 f9e2 eefb c420
000000d0: ca21 81de e91e 9fe0 fcf8 ea01 f7d6 21fd
000000e0: f4bc 131a e0de 1bf6 0be1 fed3 1bfb eb19
000000f0: 2018 fbfa fcb1 1dc1 1a15 fa0d fe00 10d7

sequential/batch_normalization_2/FusedBatchNormV31 i1 [64] scale=0.004328743 zero_point=127
-0.32032698 -0.29435453 -0.37660065 -0.89172107 -0.7272288 -0.48481923 -0.50646293 -0.5021342
-0.3636144 -0.4631755 -0.4415318 -0.63632524 -0.48914796 -0.17314972 -0.7488726 -0.11254732
-0.32898447 -0.70991385 -0.15583475 -0.47616175 -0.41555935 -0.8441049 -0.3419707 -0.4025731
-0.49347672 -0.51079166 -0.38092938 -0.35495692 -0.21643716 -0.23375213 -0.49780545 -0.3636144
-0.6016953 -0.38958687 -0.48049048 -0.030301202 -0.5237779 -0.4112306 -0.5540791 -0.43720305
-0.38092938 -0.51079166 -0.35495692 -0.63632524 -0.19912218 -0.5540791 -0.4501893 -0.23808087
-0.7012564 -0.42854556 -0.21643716 -0.49780545 -0.43287432 -0.49347672 -0.23375213 -0.8138037
-0.33764195 -0.35928568 -0.67961264 -1.1038295 -0.49780545 -0.78783125 -0.6839414 -0.34629944
00000000: 353b 28b1 d70f 0a0b 2b14 19ec 0e57 d265
00000010: 33db 5b11 1fbc 3022 0d09 272d 4d49 0c2b
00000020: f425 1078 0620 ff1a 2709 2dec 51ff 1748
00000030: dd1c 4d0c 1b0d 49c3 312c e280 0cc9 e12f

sequential/batch_normalization_2/FusedBatchNormV3 i1 [64] scale=0.016692333 zero_point=-128
0.5174623 0.63430864 0.31715432 0.48407766 0.8846936 0.400616 0.5174623 0.75115496
1.1183863 0.651001 0.56753933 0.651001 0.48407766 0.350539 0.41730833 0.5174623
0.46738532 0.68438566 0.701078 0.53415465 0.7678473 0.6676933 0.31715432 0.5174623
0.45069298 0.5174623 0.300462 0.71777034 0.56753933 0.38392365 0.75115496 1.6859256
0.7678473 0.31715432 0.48407766 0.3672313 0.45069298 0.5842317 0.6676933 0.71777034
0.701078 0.43400067 0.75115496 0.38392365 0.75115496 0.701078 0.48407766 0.851309
1.3186944 0.400616 0.53415465 4.256545 0.701078 0.6176163 0.26707733 0.43400067
0.3672313 4.0395446 0.23369266 0.8179243 0.43400067 0.550847 0.350539 0.600924
00000000: 9fa6 939d b598 9fad c3a7 a2a7 9d95 999f
00000010: 9ca9 aaa0 aea8 939f 9b9f 92ab a297 ade5
00000020: ae93 9d96 9ba3 a8ab aa9a ad97 adaa 9db3
00000030: cf98 a07f aaa5 909a 9672 8eb1 9aa1 95a4

sequential/conv2d_1/Conv2D i1 [64, 3, 3, 32]
22 -28 -37 -14 -17 18 41 -11
-42 15 -57 -42 -41 4 -50 -21
8 -67 1 -28 29 12 -20 -58
13 -53 1 -39 -70 -17 -24 -15
-29 -127 -54 -25 -98 4 23 -15
-112 -20 -89 -55 -52 -16 10 2
-47 -48 -9 -24 14 -23 -94 -109
-15 -112 -20 -73 -35 -49 -50 -14
-47 -101 -30 -16 -91 -12 15 5
-99 -36 -73 -51 -27 10 25 -3
58 -45 -16 -10 -41 -27 -32 -49
-46 -90 16 -3 -6 -95 -27 -20
-57 -48 3 -7 -12 -15 7 54
-104 -43 -31 -22 -29 -10 -11 35
-23 27 6 2 -5 18 -28 16
4 -41 -45 -27 -4 -34 6 5
-59 -29 26 -10 -50 -5 26 21
-71 24 6 -18 -13 11 19 11
23 12 34 26 -34 36 -19 22
30 -52 -27 -55 -1 -60 -5 -13
-25 -21 35 11 -65 -14 21 33
-41 18 15 29 45 19 21 26
34 16 -30 9 -50 35 17 -6
13 -53 25 11 21 -33 -10 17
-12 31 55 39 36 -34 15 38
35 -9 37 8 30 -11 -6 7
-13 7 33 51 -11 4 24 52
20 26 -14 -45 -26 28 21 7
61 -8 -7 -23 9 -2 23 32
96 1 29 46 -1 8 20 19
22 53 -5 29 3 -1 34 30
30 80 44 -23 -6 67 32 -24
00000000: 16e4 dbf2 ef12 29f5 d60f c7d6 d704 ceeb
00000010: 08bd 01e4 1d0c ecc6 0dcb 01d9 baef e8f1
00000020: e381 cae7 9e04 17f1 90ec a7c9 ccf0 0a02
00000030: d1d0 f7e8 0ee9 a293 f190 ecb7 ddcf cef2
00000040: d19b e2f0 a5f4 0f05 9ddc b7cd e50a 19fd
00000050: 3ad3 f0f6 d7e5 e0cf d2a6 10fd faa1 e5ec
00000060: c7d0 03f9 f4f1 0736 98d5 e1ea e3f6 f523
00000070: e91b 0602 fb12 e410 04d7 d3e5 fcde 0605
00000080: c5e3 1af6 cefb 1a15 b918 06ee f30b 130b
00000090: 170c 221a de24 ed16 1ecc e5c9 ffc4 fbf3
000000a0: e7eb 230b bff2 1521 d712 0f1d 2d13 151a
000000b0: 2210 e209 ce23 11fa 0dcb 190b 15df f611
000000c0: f41f 3727 24de 0f26 23f7 2508 1ef5 fa07
000000d0: f307 2133 f504 1834 141a f2d3 e61c 1507
000000e0: 3df8 f9e9 09fe 1720 6001 1d2e ff08 1413
000000f0: 1635 fb1d 03ff 221e 1e50 2ce9 fa43 20e8

sequential/batch_normalization_1/FusedBatchNormV31 i1 [32] scale=0.0037691635 zero_point=44
-0.5729129 -0.13568988 -0.15453571 -0.116844065 -0.07161411 -0.5729129 -0.21107316 -0.6482961
-0.28645644 -0.24499562 -0.36937803 -0.46737626 -0.3806855 -0.3429939 -0.18468902 -0.4447613
-0.2676106 -0.56160533 -0.082921594 -0.22614981 -0.24122646 -0.20730399 -0.33922473 -0.35807052
-0.07161411 -0.21861148 -0.58422035 0.08669076 -0.33922473 -0.13568988 -0.5352212 0.31284058
00000000: 9408 030d 1994 f480 e0eb cab0 c7d1 fbb6
00000010: e597 16f0 ecf5 d2cd 19f2 9143 d208 9e7f

sequential/batch_normalization_1/FusedBatchNormV3 i1 [32] scale=0.036503777 zero_point=-128
1.9712039 2.299738 2.5187607 2.117219 2.1537228 1.5696625 7.7753043 9.308463
2.5552645 3.6868815 3.0663173 2.628272 6.3516574 4.4899645 6.388161 7.410267
2.117219 1.6426699 6.3151536 6.3516574 2.5187607 2.299738 4.8550024 6.534176
3.3948512 2.1902266 3.796393 3.5773702 1.9347001 5.6580853 3.9424078 3.7233853
00000000: b6bf c5ba bbab 557f c6e5 d4c8 2efb 2f4b
00000010: baad 2d2e c5bf 0533 ddbc e8e2 b51b ece6

sequential/conv2d/Conv2D i1 [32, 3, 3, 3]
22 102 34 38 -34 8 -69 -127
-106 40 75 90 28 88 17 -76
-73 -55 -43 0 -31 -18 42 17
54 -38 21 -90 -127 -30 44 23
-8 16 64 5 -120 -106 -36 18
65 4 48 58 11 29 -49 -61
16 20 28 64 47 53 9 10
-60 -66 -33 -77 -127 -51 -66 48
-23 -5 33 60 84 80 55 97
-53 -80 -102 22 27 58 21 44
44 -8 -58 -59 -86 -116 -117 -113
-127 -80 37 -36 -32 -19 79 63
69 75 65 13 38 91 28 69
44 92 76 14 9 -3 -13 79
72 55 -2 -2 -52 48 14 52
41 97 55 -60 -117 -62 33 -4
30 -19 3 -9 -38 -70 -127 72
93 127 121 93 103 71 -60 45
11 25 9 25 -4 -38 44 9
17 -82 -58 -60 -93 -93 -86 14
-104 -96 38 23 -20 -30 -14 15
-10 -10 4 -28 -42 -57 -74 -54
-127 -80 -96 -74 -2 31 67 91
76 99 100 77 99 107 35 64
97 1 -21 0 -127 -74 20 10
31 -53 -66 -16 33 -13 42 -122
-25 -59 -64 45 29 15 81 38
12 39 95 9 27 49 -58 -91
-92 6 88 62 35 29 47 -60
-127 -67 -34 41 71 59 -5 -31
8 -36 -68 14 92 94 51 89
102 74 22 115 -44 -120 -127 -55
00000000: 1666 2226 de08 bb81 9628 4b5a 1c58 11b4
00000010: b7c9 d500 e1ee 2a11 36da 15a6 81e2 2c17
00000020: f810 4005 8896 dc12 4104 303a 0b1d cfc3
00000030: 1014 1c40 2f35 090a c4be dfb3 81cd be30
00000040: e9fb 213c 5450 3761 cbb0 9a16 1b3a 152c
00000050: 2cf8 c6c5 aa8c 8b8f 81b0 25dc e0ed 4f3f
00000060: 454b 410d 265b 1c45 2c5c 4c0e 09fd f34f
00000070: 4837 fefe cc30 0e34 2961 37c4 8bc2 21fc
00000080: 1eed 03f7 daba 8148 5d7f 795d 6747 c42d
00000090: 0b19 0919 fcda 2c09 11ae c6c4 a3a3 aa0e
000000a0: 98a0 2617 ece2 f20f f6f6 04e4 d6c7 b6ca
000000b0: 81b0 a0b6 fe1f 435b 4c63 644d 636b 2340
000000c0: 6101 eb00 81b6 140a 1fcb bef0 21f3 2a86
000000d0: e7c5 c02d 1d0f 5126 0c27 5f09 1b31 c6a5
000000e0: a406 583e 231d 2fc4 81bd de29 473b fbe1
000000f0: 08dc bc0e 5c5e 3359 664a 1673 d488 81c9
