sd-card/config/dig-s2-q-20220104.tflite (tflite, 98560 bytes, 5 tensors)

sequential_2/dense_4/MatMul i1 [256, 256] scale=0.003121762 zero_point=0
0.07180053 0.1404793 -0.056191716 0.034339383 -0.0905311 -0.06867877 -0.12799224 0.018730573
0.099896386 0.034339383 0.037461147 0.03121762 0.07180053 0.021852335 0.05931348 0.08116581
0.018730573 -0.037461147 0.053069957 0.06867877 0.06867877 0.06243524 0.049948193 -0.08428758
-0.006243524 0.049948193 0.10926167 0.021852335 -0.04682643 0.09365286 0.14984459 0.049948193
-0.01560881 -0.10301815 -0.040582906 -0.10613991 -0.003121762 -0.040582906 -0.10926167 -0.009365287
0.14360106 0.0 0.08428758 -0.06867877 0.08116581 0.04682643 -0.08116581 0.003121762
0.17794044 0.021852335 0.009365287 -0.10926167 0.009365287 -0.14984459 -0.19354925 0.009365287
0.08116581 0.0 -0.01560881 0.028095858 -0.08428758 -0.08116581 0.04682643 0.006243524
0.034339383 -0.049948193 -0.08428758 -0.053069957 0.021852335 -0.040582906 0.16233163 0.01560881
0.04682643 -0.11238343 -0.05931348 0.040582906 -0.021852335 0.040582906 0.04682643 -0.006243524
0.056191716 -0.15920986 0.012487048 -0.009365287 0.10301815 0.11238343 0.053069957 0.040582906
0.10301815 0.040582906 0.028095858 -0.06867877 -0.07492229 -0.07492229 -0.07492229 -0.04370467
-0.115505196 -0.14672282 0.009365287 -0.03121762 -0.11862696 0.006243524 0.006243524 -0.09677462
0.009365287 0.15920986 -0.08116581 -0.06243524 -0.17481868 -0.006243524 -0.040582906 -0.08116581
0.10613991 0.034339383 0.131114 0.0 0.04682643 -0.053069957 0.10301815 0.049948193
0.07804405 0.04682643 -0.06867877 -0.065557 0.07180053 -0.0905311 -0.037461147 0.06243524
-0.003121762 -0.06243524 -0.06243524 0.03121762 0.08740934 -0.131114 0.07804405 -0.040582906
-0.07180053 0.06243524 -0.006243524 0.19667101 -0.012487048 0.07180053 -0.03121762 -0.07180053
0.05931348 0.14984459 -0.20915806 0.01560881 -0.08740934 -0.034339383 -0.024974097 0.12799224
-0.14360106 0.04682643 0.053069957 -0.07804405 -0.10926167 0.12799224 -0.11238343 0.006243524
-0.028095858 0.056191716 0.028095858 -0.131114 0.06243524 0.1810622 -0.037461147 -0.018730573
-0.24974096 0.06867877 0.17794044 -0.08740934 0.04370467 -0.024974097 0.06867877 -0.08428758
0.09677462 -0.028095858 0.04370467 0.17481868 -0.056191716 0.009365287 -0.08116581 0.06243524
0.03121762 -0.009365287 0.19979277 0.056191716 -0.018730573 0.26534978 -0.012487048 -0.034339383
-0.024974097 0.003121762 -0.07804405 0.06243524 0.0 -0.08116581 -0.18730572 0.065557
0.065557 -0.05931348 -0.006243524 -0.10301815 0.049948193 -0.19667101 0.034339383 -0.09365286
-0.034339383 0.10926167 -0.07492229 0.018730573 -0.09677462 -0.028095858 -0.040582906 0.012487048
0.08740934 0.10301815 0.053069957 0.05931348 0.03121762 -0.099896386 -0.07804405 0.034339383
0.11238343 0.07492229 0.10301815 0.08116581 0.037461147 0.021852335 -0.040582906 0.03121762
-0.10613991 -0.040582906 -0.018730573 0.003121762 -0.034339383 -0.13423577 -0.028095858 -0.034339383
-0.06243524 -0.13735753 -0.19979277 -0.012487048 -0.018730573 0.04682643 -0.10613991 0.01560881
-0.003121762 0.024974097 0.13735753 -0.003121762 -0.049948193 -0.024974097 0.0 0.006243524
00000000: 172d ee0b e3ea d706 200b 0c0a 1707 131a
00000010: 06f4 1116 1614 10e5 fe10 2307 f11e 3010
00000020: fbdf f3de fff3 ddfd 2e00 1bea 1a0f e601
00000030: 3907 03dd 03d0 c203 1a00 fb09 e5e6 0f02
00000040: 0bf0 e5ef 07f3 3405 0fdc ed0d f90d 0ffe
00000050: 12cd 04fd 2124 110d 210d 09ea e8e8 e8f2
00000060: dbd1 03f6 da02 02e1 0333 e6ec c8fe f3e6
00000070: 220b 2a00 0fef 2110 190f eaeb 17e3 f414
00000080: ffec ec0a 1cd6 19f3 e914 fe3f fc17 f6e9
00000090: 1330 bd05 e4f5 f829 d20f 11e7 dd29 dc02
000000a0: f712 09d6 143a f4fa b016 39e4 0ef8 16e5
000000b0: 1ff7 0e38 ee03 e614 0afd 4012 fa55 fcf5
000000c0: f801 e714 00e6 c415 15ed fedf 10c1 0be2
000000d0: f523 e806 e1f7 f304 1c21 1113 0ae0 e70b
000000e0: 2418 211a 0c07 f30a def3 fa01 f5d5 f7f5
000000f0: ecd4 c0fc fa0f de05 ff08 2cff f0f8 0002

sequential_2/dense_5/MatMul i1 [11, 256] scale=0.0052511217 zero_point=0
-0.073515706 -0.08926907 -0.08926907 0.021004487 -0.0052511217 -0.08401795 -0.3360718 -0.14178029
-0.37808076 -0.14178029 -0.25730497 -0.23630048 -0.110273555 -0.026255608 -0.13127804 -0.13127804
-0.4831032 -0.06826458 0.08401795 -0.13127804 -0.06826458 -0.09977131 -0.05776234 -0.10502243
-0.51460993 -0.05776234 -0.10502243 -0.27305833 -0.3570763 -0.17328702 0.063013464 -0.3413229
-0.14178029 -0.37808076 -0.32556954 -0.11552468 -0.21004486 0.010502243 0.06826458 0.026255608
0.026255608 0.031506732 -0.073515706 -0.44109422 -0.34657404 -0.28881168 0.015753366 0.052511215
-0.23630048 -0.06826458 0.09452019 -0.09452019 -0.073515706 -0.052511215 -0.042008974 -0.14178029
-0.22054711 -0.39908525 -0.2415516 -0.12602693 -0.1207758 -0.047260094 -0.026255608 -0.031506732
-0.047260094 -0.15753365 0.11552468 -0.031506732 -0.30456507 -0.27305833 0.073515706 -0.25205386
-0.08926907 -0.042008974 -0.17853814 0.010502243 0.08926907 -0.3413229 -0.021004487 -0.2415516
0.010502243 -0.06826458 -0.40433636 -0.3623274 -0.07876682 0.10502243 -0.16278477 0.073515706
-0.25205386 -0.3623274 -0.21004486 -0.5041077 0.021004487 -0.44109422 -0.32031843 0.09452019
-0.15228254 -0.32556954 -0.3413229 -0.32556954 -0.12602693 -0.07876682 0.047260094 -0.10502243
-0.026255608 -0.010502243 0.052511215 -0.12602693 -0.15753365 0.010502243 0.110273555 -0.1680359
0.047260094 -0.26780722 -0.14178029 -0.27830946 -0.3833319 -0.21529599 -0.22579823 -0.23104936
0.06826458 -0.4095875 -0.09452019 -0.047260094 -0.021004487 -0.047260094 -0.3150673 -0.47785208
-0.42534086 -0.1942915 -0.24680272 -0.16278477 0.0 0.031506732 -0.26255608 -0.021004487
-0.27305833 0.026255608 0.010502243 -0.047260094 0.026255608 -0.27305833 -0.42534086 0.11552468
-0.08926907 0.010502243 -0.27830946 -0.063013464 -0.22054711 -0.031506732 -0.16278477 0.042008974
-0.015753366 -0.17328702 -0.25205386 0.015753366 -0.29931393 -0.042008974 -0.05776234 -0.1680359
-0.08401795 -0.17328702 -0.18378925 -0.07876682 -0.14703141 -0.3675785 -0.1942915 -0.28881168
-0.34657404 0.047260094 -0.3360718 -0.33082068 0.063013464 -0.0052511217 -0.26255608 -0.3413229
0.0 -0.073515706 -0.2415516 -0.3938341 -0.3413229 -0.21529599 -0.25730497 -0.042008974
-0.22579823 -0.22054711 -0.06826458 -0.23630048 -0.37808076 -0.073515706 -0.063013464 -0.47260097
-0.010502243 0.08401795 -0.1207758 -0.37808076 0.073515706 -0.28881168 -0.073515706 -0.19954263
0.010502243 -0.20479375 -0.21004486 -0.4095875 -0.10502243 -0.14703141 -0.39908525 -0.09452019
-0.0052511217 -0.09452019 -0.14703141 -0.07876682 -0.13652916 -0.17328702 0.015753366 -0.036757853
-0.063013464 -0.1942915 -0.21529599 0.010502243 -0.010502243 0.12602693 0.08926907 0.10502243
-0.021004487 0.047260094 -0.25205386 -0.37808076 -0.26780722 -0.3413229 -0.29931393 -0.17328702
-0.021004487 -0.20479375 -0.015753366 0.015753366 -0.23104936 -0.3413229 -0.21529599 -0.2415516
-0.29406282 -0.24680272 -0.2415516 0.047260094 -0.073515706 -0.047260094 -0.12602693 0.026255608
-0.3938341 0.10502243 -0.07876682 0.015753366 -0.11552468 -0.42008972 -0.15228254 -0.28881168
00000000: f2ef ef04 fff0 c0e5 b8e5 cfd3 ebfb e7e7
00000010: a4f3 10e7 f3ed f5ec 9ef5 eccc bcdf 0cbf
00000020: e5b8 c2ea d802 0d05 0506 f2ac bec9 030a
00000030: d3f3 12ee f2f6 f8e5 d6b4 d2e8 e9f7 fbfa
00000040: f7e2 16fa c6cc 0ed0 eff8 de02 11bf fcd2
00000050: 02f3 b3bb f114 e10e d0bb d8a0 04ac c312
00000060: e3c2 bfc2 e8f1 09ec fbfe 0ae8 e202 15e0
00000070: 09cd e5cb b7d7 d5d4 0db2 eef7 fcf7 c4a5
00000080: afdb d1e1 0006 cefc cc05 02f7 05cc af16
00000090: ef02 cbf4 d6fa e108 fddf d003 c7f8 f5e0
000000a0: f0df ddf1 e4ba dbc9 be09 c0c1 0cff cebf
000000b0: 00f2 d2b5 bfd7 cff8 d5d6 f3d3 b8f2 f4a6
000000c0: fe10 e9b8 0ec9 f2da 02d9 d8b2 ece4 b4ee
000000d0: ffee e4f1 e6df 03f9 f4db d702 fe18 1114
000000e0: fc09 d0b8 cdbf c7df fcd9 fd03 d4bf d7d2
000000f0: c8d1 d209 f2f7 e805 b514 f103 eab0 e3c9

sequential_2/conv2d_6/Conv2D i1 [32, 3, 3, 3]
67 4 6 -84 -95 -6 -91 -93
34 23 -127 -15 -83 49 39 66
55 87 3 -96 -71 69 -9 40
44 64 84 -29 -43 105 -73 28
-119 -10 50 -20 80 46 54 -20
-77 -66 41 34 -38 -87 -47 -27
-5 -100 -16 127 78 82 -93 -99
-92 34 81 51 -25 0 85 -1
-37 -51 69 -30 46 -83 56 50
127 15 1 -56 62 86 -48 -86
-86 0 126 62 1 98 127 110
101 93 0 -79 -120 -49 -83 -31
6 -25 34 31 -104 -94 -16 -3
-7 12 -119 -68 -49 -23 -26 54
5 35 26 -26 43 -35 -22 -46
-36 -53 -63 -42 -127 -89 22 105
62 39 55 53 19 10 -57 113
111 81 47 113 127 -12 2 12
51 -10 89 -23 -7 -79 -12 -9
-81 -116 -47 -99 -84 -72 -67 55
-5 19 -20 21 -65 67 -9 65
25 -46 71 29 93 -15 -29 123
85 -5 -19 1 51 -66 20 -31
-61 13 -127 -122 -91 -51 -127 -111
-17 85 23 67 84 68 -82 28
-29 -49 23 -86 -94 -18 -59 52
123 86 -47 80 23 -52 -34 -64
117 -53 -49 119 41 -118 37 -55
-127 5 -43 -67 126 -30 -82 93
17 -38 -8 24 -53 83 -77 -42
109 65 12 24 1 -32 -50 -122
-21 -53 8 -115 -70 -61 -82 29
00000000: 4304 06ac a1fa a5a3 2217 81f1 ad31 2742
00000010: 3757 03a0 b945 f728 2c40 54e3 d569 b71c
00000020: 89f6 32ec 502e 36ec b3be 2922 daa9 d1e5
00000030: fb9c f07f 4e52 a39d a422 5133 e700 55ff
00000040: dbcd 45e2 2ead 3832 7f0f 01c8 3e56 d0aa
00000050: aa00 7e3e 0162 7f6e 655d 00b1 88cf ade1
00000060: 06e7 221f 98a2 f0fd f90c 89bc cfe9 e636
00000070: 0523 1ae6 2bdd ead2 dccb c1d6 81a7 1669
00000080: 3e27 3735 130a c771 6f51 2f71 7ff4 020c
00000090: 33f6 59e9 f9b1 f4f7 af8c d19d acb8 bd37
000000a0: fb13 ec15 bf43 f741 19d2 471d 5df1 e37b
000000b0: 55fb ed01 33be 14e1 c30d 8186 a5cd 8191
000000c0: ef55 1743 5444 ae1c e3cf 17aa a2ee c534
000000d0: 7b56 d150 17cc dec0 75cb cf77 298a 25c9
000000e0: 8105 d5bd 7ee2 ae5d 11da f818 cb53 b3d6
000000f0: 6d41 0c18 01e0 ce86 ebcb 088d bac3 ae1d

sequential_2/conv2d_7/Conv2D i1 [32, 3, 3, 32]
10 -12 13 -6 0 76 23 -1
-16 -1 29 -3 -48 -38 -80 75
-69 82 79 65 34 -17 13 43
-18 0 -26 -59 4 22 26 -15
40 1 1 0 -34 27 1 -84
62 25 -21 -6 -17 -8 3 54
7 3 7 -22 -35 -39 32 -21
-24 -58 14 -3 -13 35 -3 25
61 42 35 -49 -2 18 -10 30
-36 12 -22 12 30 1 10 -59
21 -54 -72 -3 -10 53 -39 -17
58 34 25 12 -13 -3 32 -17
-23 25 5 -6 -11 127 49 -17
38 -48 43 -28 -78 -12 -34 84
-89 64 35 85 -52 -33 41 60
-59 -62 14 19 -42 31 -2 -39
71 7 47 -64 19 3 -89 14
22 29 -78 27 -6 -14 -19 25
11 4 62 -54 -106 -71 32 -44
16 -9 2 18 -51 -35 -26 43
51 22 31 -62 -10 -70 15 1
-20 -18 -89 4 -4 45 1 -44
13 34 -8 -27 16 18 -43 -13
24 -19 1 10 -44 38 -14 17
7 77 -72 67 53 82 12 14
64 69 15 23 -25 23 -2 -22
-5 43 -42 71 -67 -68 -20 88
24 33 44 -51 -13 23 46 6
56 -16 -7 -42 -62 -45 -58 -66
28 31 1 72 -10 42 11 43
-31 -19 49 -10 -82 -44 -19 -38
14 -4 -11 -1 -84 -37 2 42
00000000: 0af4 0dfa 004c 17ff f0ff 1dfd d0da b04b
00000010: bb52 4f41 22ef 0d2b ee00 e6c5 0416 1af1
00000020: 2801 0100 de1b 01ac 3e19 ebfa eff8 0336
00000030: 0703 07ea ddd9 20eb e8c6 0efd f323 fd19
00000040: 3d2a 23cf fe12 f61e dc0c ea0c 1e01 0ac5
00000050: 15ca b8fd f635 d9ef 3a22 190c f3fd 20ef
00000060: e919 05fa f57f 31ef 26d0 2be4 b2f4 de54
00000070: a740 2355 ccdf 293c c5c2 0e13 d61f fed9
00000080: 4707 2fc0 1303 a70e 161d b21b faf2 ed19
00000090: 0b04 3eca 96b9 20d4 10f7 0212 cddd e62b
000000a0: 3316 1fc2 f6ba 0f01 ecee a704 fc2d 01d4
000000b0: 0d22 f8e5 1012 d5f3 18ed 010a d426 f211
000000c0: 074d b843 3552 0c0e 4045 0f17 e717 feea
000000d0: fb2b d647 bdbc ec58 1821 2ccd f317 2e06
000000e0: 38f0 f9d6 c2d3 c6be 1c1f 0148 f62a 0b2b
000000f0: e1ed 31f6 aed4 edda 0efc f5ff acdb 022a

sequential_2/conv2d_8/Conv2D i1 [32, 3, 3, 32]
-6 -26 -5 24 10 28 14 9
-31 -8 18 -17 69 26 -16 24
-8 14 -2 -36 53 15 28 -42
-55 27 -46 5 -1 54 -42 9
62 -41 28 66 -20 26 -59 35
52 12 -8 14 14 33 -6 -11
18 -53 0 28 49 61 -13 47
-21 -50 -42 43 21 2 -2 11
40 1 66 0 -34 7 64 23
19 13 102 14 34 -7 27 45
-7 -50 -10 -5 -3 -8 12 10
-28 41 -56 37 -4 27 34 -61
-8 4 -36 -34 -26 -60 -21 10
-4 10 44 -79 -57 9 -36 7
-8 -9 -26 14 -31 -5 -8 -6
-38 -37 11 75 -4 -9 -23 9
-3 -16 -28 -3 12 -32 -79 14
24 -11 -34 -42 -50 11 12 -65
-11 4 -68 -3 -34 70 6 -41
46 -55 25 1 36 6 -62 -87
32 18 -22 -35 28 -17 -90 16
29 31 -67 3 -16 -22 7 -87
-11 21 -11 1 -24 73 -61 6
-29 -42 29 -6 -14 -46 -42 -40
-47 -67 2 35 -33 -15 18 37
25 20 4 -104 -45 -3 -6 -6
11 13 4 3 -24 -12 46 -44
32 47 -58 17 -65 61 -8 -10
9 -19 3 42 23 -11 16 -38
-2 33 -13 -63 -8 28 0 -12
-25 11 2 -2 -34 -26 -24 54
99 5 15 15 -3 -32 42 28
00000000: fae6 fb18 0a1c 0e09 e1f8 12ef 451a f018
00000010: f80e fedc 350f 1cd6 c91b d205 ff36 d609
00000020: 3ed7 1c42 ec1a c523 340c f80e 0e21 faf5
00000030: 12cb 001c 313d f32f ebce d62b 1502 fe0b
00000040: 2801 4200 de07 4017 130d 660e 22f9 1b2d
00000050: f9ce f6fb fdf8 0c0a e429 c825 fc1b 22c3
00000060: f804 dcde e6c4 eb0a fc0a 2cb1 c709 dc07
00000070: f8f7 e60e e1fb f8fa dadb 0b4b fcf7 e909
00000080: fdf0 e4fd 0ce0 b10e 18f5 ded6 ce0b 0cbf
00000090: f504 bcfd de46 06d7 2ec9 1901 2406 c2a9
000000a0: 2012 eadd 1cef a610 1d1f bd03 f0ea 07a9
000000b0: f515 f501 e849 c306 e3d6 1dfa f2d2 d6d8
000000c0: d1bd 0223 dff1 1225 1914 0498 d3fd fafa
000000d0: 0b0d 0403 e8f4 2ed4 202f c611 bf3d f8f6
000000e0: 09ed 032a 17f5 10da fe21 f3c1 f81c 00f4
000000f0: e70b 02fe dee6 e836 6305 0f0f fde0 2a1c
