sd-card/config/dig-class100-0180-s2-q.tflite (tflite, 226656 bytes, 11 tensors)

tfl.pseudo_qconst1 i1 [100, 256] scale=0.023638599 zero_point=0
-1.4892317 -0.40185618 -1.5365089 -0.40185618 -1.6074247 -0.68551934 -0.590965 -0.6146036
-1.4419545 -0.2127474 -0.70915794 -0.94554394 -1.1582913 -1.0400983 -1.3946773 -0.70915794
-0.99282116 0.11819299 -0.94554394 -0.78007376 -0.4254948 -1.0637369 -2.1274738 -0.75643516
-2.0565581 -1.5837861 -0.8509896 -1.18193 -1.9383651 -1.4419545 -0.47277197 -3.0021021
-1.7492563 -1.654702 -1.9856423 -0.23638599 -0.94554394 -0.37821758 -0.3073018 -1.1346527
-0.99282116 -2.1511126 -1.4419545 -1.9620037 -1.0637369 -0.54368776 -0.8509896 -1.0400983
-0.66188073 -1.6310633 -1.5128703 -1.2764844 -1.300123 -0.40185618 -0.68551934 -0.827351
-2.4820528 -1.0400983 -1.2055686 -0.44913337 -0.92190534 -1.5837861 -0.96918255 -0.56732637
-1.7492563 -0.99282116 -2.0565581 -1.0400983 -1.0400983 -1.3237615 -1.5365089 -1.654702
-0.89826673 -1.9147265 -1.0873755 -0.75643516 -1.0400983 -0.827351 -0.78007376 -1.6310633
-1.4892317 -1.6310633 -0.2127474 -1.5837861 -2.009281 -2.0565581 -2.009281 -1.7492563
-0.94554394 -1.3710387 -2.3402212 -0.78007376 -1.8201721 -0.75643516 -1.9383651 -0.52004915
-0.6146036 -0.89826673 -0.94554394 -2.009281 -1.654702 -1.7965335 -0.75643516 -1.6074247
-0.52004915 -0.590965 -1.7965335 -1.2764844 -0.94554394 -0.37821758 -1.1110141 -0.28366318
-0.827351 -1.0873755 -1.3474001 -0.89826673 -1.2764844 -1.4419545 -0.6382422 -0.28366318
-1.9620037 -0.35457897 -1.1110141 -0.6146036 -1.5837861 -1.2764844 -0.8746281 -1.7728949
-1.5365089 -2.1274738 -0.37821758 -0.66188073 -1.4419545 -1.2528458 -0.80371237 -1.9856423
-0.78007376 -1.654702 -0.68551934 -1.5128703 -0.44913337 -0.96918255 -0.52004915 -0.56732637
-1.7492563 -1.2764844 -1.0400983 -2.765716 -0.89826673 -0.44913337 -0.80371237 -1.4655931
-1.7728949 -1.5837861 -1.1346527 -1.7965335 -1.4419545 -0.094554394 -1.5128703 -1.4655931
-1.9147265 -1.9383651 -1.5601475 -0.8509896 -0.49641058 -0.8746281 -1.3474001 -0.33094037
-1.0164597 -0.73279655 -0.80371237 -1.5365089 -0.35457897 -1.2292072 -0.66188073 -0.68551934
-1.7256176 -1.2055686 -0.68551934 -0.44913337 -0.96918255 -0.070915796 -0.54368776 -1.0637369
-1.5128703 -0.56732637 -0.8746281 -0.80371237 -0.96918255 -1.7728949 -0.590965 -1.3237615
-1.0400983 -1.2055686 -1.3474001 -1.4419545 -1.2055686 -2.1038353 -1.6783406 -0.44913337
-1.6783406 -1.1110141 -0.96918255 -0.92190534 -0.70915794 -1.2055686 -1.2292072 -0.54368776
-1.7256176 -0.33094037 -2.292944 -0.40185618 -1.2292072 -0.4254948 -0.590965 -0.78007376
-1.3946773 -1.9856423 -1.0400983 -1.2528458 -1.4892317 -1.8438107 -1.2764844 -1.5128703
-1.7019792 -1.3474001 -1.7256176 -0.56732637 -0.52004915 -2.3165827 -0.94554394 -0.4254948
-0.89826673 -0.89826673 -1.5601475 -1.3474001 -0.2127474 -1.2528458 -2.009281 -0.96918255
-1.2528458 -0.8746281 -0.6382422 -2.009281 -0.56732637 -1.8201721 -0.35457897 -0.827351
-1.2528458 -0.92190534 -1.7019792 -0.49641058 -1.7492563 -0.94554394 -0.99282116 -0.99282116
00000000: c1ef bfef bce3 e7e6 c3f7 e2d8 cfd4 c5e2
00000010: d605 d8df eed3 a6e0 a9bd dcce aec3 ec81
00000020: b6ba acf6 d8f0 f3d0 d6a5 c3ad d3e9 dcd4
00000030: e4bb c0ca c9ef e3dd 97d4 cded d9bd d7e8
00000040: b6d6 a9d4 d4c8 bfba daaf d2e0 d4dd dfbb
00000050: c1bb f7bd aba9 abb6 d8c6 9ddf b3e0 aeea
00000060: e6da d8ab bab4 e0bc eae7 b4ca d8f0 d1f4
00000070: ddd2 c7da cac3 e5f4 adf1 d1e6 bdca dbb5
00000080: bfa6 f0e4 c3cb deac dfba e3c0 edd7 eae8
00000090: b6ca d48b daed dec2 b5bd d0b4 c3fc c0c2
000000a0: afae bedc ebdb c7f2 d5e1 debf f1cc e4e3
000000b0: b7cd e3ed d7fd e9d3 c0e8 dbde d7b5 e7c8
000000c0: d4cd c7c3 cda7 b9ed b9d1 d7d9 e2cd cce9
000000d0: b7f2 9fef ccee e7df c5ac d4cb c1b2 cac0
000000e0: b8c7 b7e8 ea9e d8ee dada bec7 f7cb abd7
000000f0: cbdb e5ab e8b3 f1dd cbd9 b8eb b6d8 d6d6

tfl.pseudo_qconst3 i1 [256, 512] scale=0.007582399 zero_point=0
0.07582399 -0.045494393 -0.022747196 -0.090988785 -0.15923038 0.16681278 -0.121318385 -0.18197757
0.27296636 -0.09857119 -0.037911996 0.090988785 0.106153585 0.015164798 0.007582399 0.19714238
0.43219674 -0.08340639 -0.23505437 -0.09857119 -0.15164798 0.24263677 0.15164798 -0.121318385
-0.030329596 0.0 0.09857119 -0.13648318 0.0 0.121318385 -0.053076793 0.24263677
-0.18955998 -0.11373599 0.19714238 -0.015164798 -0.16681278 -0.25021917 0.24263677 -0.12890078
-0.08340639 -0.17439517 -0.060659193 0.022747196 0.15164798 -0.15164798 0.037911996 -0.015164798
0.21230717 -0.015164798 -0.053076793 0.030329596 0.15164798 0.24263677 0.12890078 -0.14406559
0.30329597 -0.20472477 -0.11373599 0.13648318 0.08340639 0.27296636 0.07582399 -0.121318385
0.08340639 -0.15164798 -0.19714238 -0.15164798 0.18197757 -0.18955998 -0.23505437 -0.15923038
-0.21230717 -0.19714238 0.19714238 -0.15164798 0.022747196 -0.16681278 -0.037911996 -0.32604316
0.30329597 0.17439517 -0.29571357 -0.045494393 -0.16681278 -0.030329596 0.23505437 0.19714238
-0.08340639 -0.50802076 -0.037911996 0.08340639 0.16681278 0.31846076 0.27296636 -0.33362556
0.34120795 0.007582399 -0.121318385 0.030329596 0.11373599 0.11373599 -0.14406559 -0.18197757
-0.21988957 0.18197757 -0.34120795 0.045494393 0.09857119 0.14406559 -0.31087837 0.34879035
0.5307679 -0.045494393 0.037911996 0.15164798 0.14406559 -0.090988785 0.14406559 0.037911996
0.17439517 0.060659193 -0.15923038 0.121318385 0.0 -0.08340639 -0.18197757 -0.26538396
-0.090988785 -0.106153585 0.09857119 -0.34120795 -0.022747196 0.21988957 -0.37911996 0.015164798
0.090988785 -0.14406559 -0.037911996 0.0 0.31087837 -0.015164798 0.17439517 0.030329596
0.030329596 -0.06824159 -0.12890078 -0.030329596 -0.037911996 -0.007582399 -0.037911996 -0.22747198
-0.16681278 0.18197757 -0.16681278 -0.18955998 0.26538396 -0.121318385 -0.121318385 0.060659193
-0.13648318 -0.13648318 0.11373599 0.07582399 -0.09857119 0.121318385 0.053076793 0.037911996
0.053076793 0.030329596 -0.09857119 -0.17439517 -0.037911996 -0.045494393 -0.11373599 -0.28054875
-0.15164798 0.34120795 -0.28813118 -0.08340639 -0.23505437 0.26538396 -0.045494393 -0.13648318
0.18197757 -0.25021917 -0.030329596 0.037911996 -0.16681278 -0.09857119 -0.35637274 -0.11373599
-0.11373599 0.21988957 -0.07582399 -0.14406559 0.06824159 -0.36395514 -0.13648318 0.015164798
0.14406559 -0.37153757 0.32604316 0.07582399 -0.007582399 0.08340639 -0.43977913 -0.08340639
-0.030329596 0.16681278 -0.007582399 0.18955998 0.015164798 -0.106153585 -0.15923038 -0.11373599
-0.053076793 -0.045494393 -0.022747196 0.030329596 0.18955998 0.28054875 0.21988957 -0.007582399
0.22747198 0.17439517 -0.26538396 -0.08340639 -0.053076793 0.053076793 -0.15164798 -0.37911996
0.25021917 0.15923038 -0.23505437 -0.15923038 0.090988785 0.19714238 -0.090988785 -0.17439517
0.11373599 -0.022747196 -0.19714238 0.106153585 0.007582399 -0.030329596 -0.24263677 0.121318385
0.17439517 -0.12890078 0.25780156 0.5459327 -0.045494393 0.090988785 0.007582399 0.045494393
00000000: 0afa fdf4 eb16 f0e8 24f3 fb0c 0e02 011a
00000010: 39f5 e1f3 ec20 14f0 fc00 0dee 0010 f920
00000020: e7f1 1afe eadf 20ef f5e9 f803 14ec 05fe
00000030: 1cfe f904 1420 11ed 28e5 f112 0b24 0af0
00000040: 0bec e6ec 18e7 e1eb e4e6 1aec 03ea fbd5
00000050: 2817 d9fa eafc 1f1a f5bd fb0b 162a 24d4
00000060: 2d01 f004 0f0f ede8 e318 d306 0d13 d72e
00000070: 46fa 0514 13f4 1305 1708 eb10 00f5 e8dd
00000080: f4f2 0dd3 fd1d ce02 0ced fb00 29fe 1704
00000090: 04f7 effc fbff fbe2 ea18 eae7 23f0 f008
000000a0: eeee 0f0a f310 0705 0704 f3e9 fbfa f1db
000000b0: ec2d daf5 e123 faee 18df fc05 eaf3 d1f1
000000c0: f11d f6ed 09d0 ee02 13cf 2b0a ff0b c6f5
000000d0: fc16 ff19 02f2 ebf1 f9fa fd04 1925 1dff
000000e0: 1e17 ddf5 f907 ecce 2115 e1eb 0c1a f4e9
000000f0: 0ffd e60e 01fc e010 17ef 2248 fa0c 0106

tfl.pseudo_qconst4 i1 [64] scale=0.0006169765 zero_point=127
-0.10735392 -0.057378817 -0.077739045 -0.072186254 -0.14498949 -0.069718346 -0.077739045 -0.13943669
-0.09316345 -0.104269035 -0.0919295 -0.080206946 -0.09933322 -0.0814409 -0.10735392 -0.08390881
-0.07958997 -0.08884462 -0.07527114 -0.06725044 -0.08329183 -0.08205788 -0.12956508 -0.08884462
-0.06539951 -0.061080676 -0.08637671 -0.08884462 -0.06725044 -0.08514276 -0.1024181 -0.08452579
-0.07280323 -0.08390881 -0.080206946 -0.13696879 -0.06663346 -0.10056718 -0.15301017 -0.07958997
-0.09686531 -0.08575974 -0.09069555 -0.09131253 -0.06663346 -0.1104388 -0.09439741 -0.105502985
-0.10118415 -0.080206946 -0.09686531 -0.0919295 -0.078972995 -0.080206946 -0.11167275 -0.078972995
-0.105502985 -0.11228973 -0.080206946 -0.07650509 -0.08575974 -0.10365206 -0.068484396 -0.15732901
00000000: d122 010a 940e 019d e8d6 eafd defb d1f7
00000010: feef 0512 f8fa adef 151c f3ef 12f5 d9f6
00000020: 09f7 fda1 13dc 87fe e2f4 eceb 13cc e6d4
00000030: dbfd e2ea fffd caff d4c9 fd03 f4d7 1080

tfl.pseudo_qconst5 i1 [64] scale=9.187489e-05 zero_point=-128
0.010749362 0.009922489 0.011116862 0.009738739 0.016629355 0.010749362 0.011392486 0.01313811
0.012678735 0.015434982 0.013597484 0.01240311 0.012311235 0.012494985 0.009922489 0.012494985
0.009922489 0.014056859 0.009279364 0.00845249 0.010565612 0.0072581163 0.011668111 0.011851861
0.009646864 0.010198113 0.01616998 0.010565612 0.012127486 0.011300611 0.011024987 0.0103818625
0.011392486 0.009554989 0.012494985 0.01240311 0.008728115 0.014240609 0.014148734 0.008911865
0.014883732 0.010289988 0.009187489 0.011392486 0.008911865 0.014516233 0.012127486 0.012035611
0.011943736 0.012127486 0.012494985 0.009738739 0.009095614 0.010749362 0.010565612 0.0078093656
0.010014364 0.011208737 0.010106239 0.010657487 0.011851861 0.011668111 0.009738739 0.023428097
00000000: f5ec f9ea 35f5 fc0f 0a28 1407 0608 ec08
00000010: ec19 e5dc f3cf ff01 e9ef 30f3 04fb f8f1
00000020: fce8 0807 df1b 1ae1 22f0 e4fc e11e 0403
00000030: 0204 08ea e3f5 f3d5 edfa eef4 01ff ea7f

tfl.pseudo_qconst7 i1 [64, 3, 3, 64]
-24 -31 4 -105 -46 -18 52 -33
-42 -9 17 -22 26 44 -9 9
48 5 -23 12 -28 -27 39 13
-2 19 -10 -15 30 32 -26 3
-1 -24 -23 -12 -32 27 32 48
4 28 43 32 -7 -32 1 -8
-37 23 -27 -17 -15 -33 -3 3
-27 50 -64 28 -42 -16 45 0
38 -26 0 -55 11 -52 31 -16
-13 41 -31 26 59 23 -18 23
-43 -15 -16 2 19 -6 32 6
20 -56 -1 -98 74 7 -16 -28
42 -14 -13 20 -13 -25 -9 78
19 44 -41 -7 27 21 -26 -11
-21 11 -63 -9 -7 -5 -6 5
-89 -7 22 -5 -65 -2 -38 6
-26 -13 30 -32 -33 34 -13 -42
16 -34 33 47 12 9 33 -28
-6 -23 47 20 -42 -108 35 -52
4 -38 38 23 -48 -10 -3 12
35 20 2 -57 -3 -46 -86 30
-2 17 -14 -17 0 -23 -14 5
28 49 -73 14 -66 -40 88 0
-52 -21 22 -38 -11 -18 -17 -56
16 -33 -25 -12 -7 34 48 51
38 15 31 23 14 -18 88 6
-8 -6 -75 -24 44 12 -30 -66
8 40 -2 6 -41 39 4 11
16 39 38 26 0 31 3 -7
-6 22 -19 67 -22 5 37 -16
17 -17 -10 -86 -4 -64 -53 -11
13 -2 -2 -20 5 -31 70 -32
00000000: e8e1 0497 d2ee 34df d6f7 11ea 1a2c f709
00000010: 3005 e90c e4e5 270d fe13 f6f1 1e20 e603
00000020: ffe8 e9f4 e01b 2030 041c 2b20 f9e0 01f8
00000030: db17 e5ef f1df fd03 e532 c01c d6f0 2d00
00000040: 26e6 00c9 0bcc 1ff0 f329 e11a 3b17 ee17
00000050: d5f1 f002 13fa 2006 14c8 ff9e 4a07 f0e4
00000060: 2af2 f314 f3e7 f74e 132c d7f9 1b15 e6f5
00000070: eb0b c1f7 f9fb fa05 a7f9 16fb bffe da06
00000080: e6f3 1ee0 df22 f3d6 10de 212f 0c09 21e4
00000090: fae9 2f14 d694 23cc 04da 2617 d0f6 fd0c
000000a0: 2314 02c7 fdd2 aa1e fe11 f2ef 00e9 f205
000000b0: 1c31 b70e bed8 5800 cceb 16da f5ee efc8
000000c0: 10df e7f4 f922 3033 260f 1f17 0eee 5806
000000d0: f8fa b5e8 2c0c e2be 0828 fe06 d727 040b
000000e0: 1027 261a 001f 03f9 fa16 ed43 ea05 25f0
000000f0: 11ef f6aa fcc0 cbf5 0dfe feec 05e1 46e0

tfl.pseudo_qconst8 i1 [64] scale=0.0061241426 zero_point=127
-0.6246625 -0.5756694 -0.90024894 -0.98598695 -0.6797798 -0.6797798 -0.81451094 -0.943118
-0.56342113 -0.643035 -0.9308697 -0.8206351 -0.63078666 -0.23271742 -0.4899314 -1.03498
-0.6185384 -0.7900144 -0.7900144 -1.1084698 -0.7777661 -0.55117285 -0.7471454 -0.6920281
-0.42256585 -1.1697112 -0.7226488 -0.8206351 -0.9614904 -0.643035 -0.8941248 -0.69815224
-0.7777661 -0.9308697 -0.7226488 -0.63078666 -0.6920281 -0.8267592 -0.6614074 -0.7593937
-0.75326955 -0.71652466 -1.1084698 -0.45931068 -0.7900144 -0.83900756 -0.52667624 -0.6614074
-0.9124972 -0.6246625 -0.71652466 -1.5616564 -0.4899314 -0.7471454 -1.2432009 -1.0533525
-0.72877294 -0.5879177 -0.6552833 -0.8083868 -0.7410213 -0.8757524 -0.11635871 -0.4899314
00000000: 1921 ecde 1010 fae5 2316 e7f9 1859 2fd6
00000010: 1afe feca 0025 050e 3ac0 09f9 e216 ed0d
00000020: 00e7 0918 0ef8 1303 040a ca34 fef6 2913
00000030: ea19 0a80 2f05 b4d3 081f 14fb 06f0 6c2f

tfl.pseudo_qconst9 i1 [64] scale=0.0034261446 zero_point=-128
0.5276263 0.4933648 0.41113734 0.25010857 0.5413309 0.6372629 0.51049554 0.49679098
0.544757 0.5139217 0.7537518 0.51049554 0.57216614 0.38030204 0.45910338 0.6612459
0.41113734 0.4385465 0.4008589 0.39743277 0.5516093 0.5892969 0.35631904 0.42826807
0.3700236 0.62013215 0.39058048 0.5310524 0.38715434 0.5653139 0.45910338 0.7229165
0.29807457 0.616706 0.38030204 0.8736669 0.7057858 0.35631904 0.7057858 0.5653139
0.53447855 0.520774 0.34946674 0.8017178 0.35974517 0.40428507 0.45910338 0.2912223
0.56188774 0.308353 0.58587074 0.15075037 0.2775177 0.43512037 0.4145635 0.42484194
0.42484194 0.79486555 0.42826807 0.51049554 0.6509675 0.5173478 0.47280794 0.43512037
00000000: 1a10 f8c9 1e3a 1511 1f16 5c15 27ef 0641
00000010: f800 f5f4 212c e8fd ec35 f21b f125 0653
00000020: d734 ef7f 4ee8 4e25 1c18 e66a e9f6 06d5
00000030: 24da 2bac d1ff f9fc fc68 fd15 3e17 0aff

tfl.pseudo_qconst11 i1 [64, 3, 3, 32]
-2 46 -103 48 43 -16 18 -112
-62 -14 -6 33 -22 14 9 -66
-81 -28 3 -99 66 -17 -2 70
47 -16 -12 42 -31 -16 24 -37
12 27 33 32 49 -101 -9 28
13 58 6 46 21 27 53 -21
-20 29 48 16 20 35 -45 55
25 64 53 14 56 -31 18 -127
39 0 20 -50 23 14 -83 36
24 27 -73 -11 56 21 32 1
10 20 -21 8 -43 5 -41 51
-31 36 -19 -19 13 22 -15 36
-8 -73 64 -27 -79 50 -7 18
-28 -22 6 3 -13 -48 -59 9
80 -47 3 50 37 -113 28 -60
-6 7 -82 -6 -55 20 -70 18
-64 -47 2 45 -8 11 25 -100
-9 -80 25 -10 0 -39 -41 -52
-74 -23 34 -7 10 -21 -7 -24
6 -53 -5 -14 -24 -29 13 4
-115 20 -6 10 -11 -91 8 -47
-4 -97 4 15 -65 -40 12 -100
-25 -17 19 28 58 17 -102 3
10 -58 -23 34 -22 -22 -7 -32
-57 9 7 -3 -34 -9 -127 -2
13 -46 -116 -94 16 -64 -20 -11
34 27 -76 17 -78 48 -60 17
-63 20 14 -69 -35 -6 -80 -20
-10 -63 23 -29 -40 15 -114 3
12 -8 -10 -86 -21 -82 -1 23
78 15 -17 62 -83 54 34 -65
-16 22 -14 -95 6 3 -21 29
00000000: fe2e 9930 2bf0 1290 c2f2 fa21 ea0e 09be
00000010: afe4 039d 42ef fe46 2ff0 f42a e1f0 18db
00000020: 0c1b 2120 319b f71c 0d3a 062e 151b 35eb
00000030: ec1d 3010 1423 d337 1940 350e 38e1 1281
00000040: 2700 14ce 170e ad24 181b b7f5 3815 2001
00000050: 0a14 eb08 d505 d733 e124 eded 0d16 f124
00000060: f8b7 40e5 b132 f912 e4ea 0603 f3d0 c509
00000070: 50d1 0332 258f 1cc4 fa07 aefa c914 ba12
00000080: c0d1 022d f80b 199c f7b0 19f6 00d9 d7cc
00000090: b6e9 22f9 0aeb f9e8 06cb fbf2 e8e3 0d04
000000a0: 8d14 fa0a f5a5 08d1 fc9f 040f bfd8 0c9c
000000b0: e7ef 131c 3a11 9a03 0ac6 e922 eaea f9e0
000000c0: c709 07fd def7 81fe 0dd2 8ca2 10c0 ecf5
000000d0: 221b b411 b230 c411 c114 0ebb ddfa b0ec
000000e0: f6c1 17e3 d80f 8e03 0cf8 f6aa ebae ff17
000000f0: 4e0f ef3e ad36 22bf f016 f2a1 0603 eb1d

tfl.pseudo_qconst12 i1 [32] scale=0.0027369848 zero_point=127
-0.032843817 -0.3229642 -0.15327114 -0.2709615 -0.2709615 -0.19432592 -0.5829778 -0.49265724
-0.2873834 -0.30654228 -0.4516025 -0.34759706 -0.5227641 -0.180641 -0.4324436 -0.16421908
-0.5747668 -0.15053417 -0.6377174 -0.29833135 -0.5911887 -0.3421231 -0.31749022 -0.4680244
-0.37496692 -0.41602167 -0.180641 -0.27369848 -0.37222993 -0.27917245 -0.12863828 -0.6979311
00000000: 7309 471c 1c38 aacb 160f da00 c03d e143
00000010: ad48 9612 a702 0bd4 f6e7 3d1b f719 5080

tfl.pseudo_qconst13 i1 [32] scale=0.02153735 zero_point=-128
4.5659184 3.5321255 3.876723 3.5105882 4.3290076 3.316752 2.9075422 5.2335763
2.6706314 3.4890509 4.2213206 3.4029014 3.5967376 4.0490217 2.51987 2.3475711
3.2952147 2.4121833 5.0612774 5.4920244 3.6828868 5.1474266 3.5321255 4.0274844
2.3475711 2.8644676 3.5752 2.4337206 4.8243666 2.584482 2.51987 3.2306025
00000000: 5424 3423 491a 0773 fc22 441e 273c f5ed
00000010: 19f0 6b7f 2b6f 243b ed05 26f1 60f8 f516

tfl.pseudo_qconst15 i1 [32, 3, 3, 3]
7 13 -78 82 57 29 67 21
11 20 -61 -127 76 -30 -63 85
10 7 -25 -49 -37 -23 31 -7
60 57 0 -127 -11 -15 -6 -12
-30 74 16 39 19 65 78 -14
-19 -44 -34 -28 -95 87 68 111
2 -25 20 22 -94 -24 83 91
79 127 46 27 13 42 62 -57
-85 -56 -52 -69 -18 -29 -78 -5
-59 -9 33 -30 14 -35 7 16
-34 -70 -60 -53 -23 -45 -72 59
3 -9 38 68 17 54 -39 -22
-33 -97 -4 -56 63 20 127 65
37 25 -22 3 56 -30 42 88
-44 34 127 -79 -17 -32 8 9
94 -12 -31 122 -39 30 -16 15
39 71 -10 14 87 -89 44 123
-1 21 95 95 57 91 23 103
-80 -66 -66 44 -57 11 -11 85
117 23 -54 -43 -94 -28 -127 -93
-89 12 8 -22 81 -62 35 26
-127 -24 -77 -46 41 2 -48 34
61 -125 -110 -31 47 -16 27 59
34 51 -29 38 75 68 -31 27
-34 -11 -7 89 95 127 -3 -58
9 -122 -98 -39 0 38 43 91
86 42 -76 -34 -64 10 -15 -55
-40 69 126 121 8 108 -47 -89
-55 -45 115 127 15 26 94 -45
-81 -22 -54 -41 -49 -67 -91 -96
19 -62 -44 127 -4 42 7 -64
-56 -60 48 20 -4 -56 -36 -54
00000000: 070d b252 391d 4315 0b14 c381 4ce2 c155
00000010: 0a07 e7cf dbe9 1ff9 3c39 0081 f5f1 faf4
00000020: e24a 1027 1341 4ef2 edd4 dee4 a157 446f
00000030: 02e7 1416 a2e8 535b 4f7f 2e1b 0d2a 3ec7
00000040: abc8 ccbb eee3 b2fb c5f7 21e2 0edd 0710
00000050: deba c4cb e9d3 b83b 03f7 2644 1136 d9ea
00000060: df9f fcc8 3f14 7f41 2519 ea03 38e2 2a58
00000070: d422 7fb1 efe0 0809 5ef4 e17a d91e f00f
00000080: 2747 f60e 57a7 2c7b ff15 5f5f 395b 1767
00000090: b0be be2c c70b f555 7517 cad5 a2e4 81a3
000000a0: a70c 08ea 51c2 231a 81e8 b3d2 2902 d022
000000b0: 3d83 92e1 2ff0 1b3b 2233 e326 4b44 e11b
000000c0: def5 f959 5f7f fdc6 0986 9ed9 0026 2b5b
000000d0: 562a b4de c00a f1c9 d845 7e79 086c d1a7
000000e0: c9d3 737f 0f1a 5ed3 afea cad7 cfbd a5a0
000000f0: 13c2 d47f fc2a 07c0 c8c4 3014 fcc8 dcca
