sd-card/config/dig-s1-q-20220206.tflite (tflite, 203232 bytes, 5 tensors)

sequential_1/dense_2/MatMul i1 [256, 512] scale=0.0028139832 zero_point=0
0.03658178 -0.011255933 0.016883899 0.030953815 -0.106931366 -0.028139833 0.04220975 0.059093647
-0.039395764 0.0506517 -0.09848941 0.07597755 -0.09567543 0.011255933 -0.07597755 -0.02532585
0.0056279665 -0.04220975 -0.030953815 0.064721614 -0.02532585 -0.0844195 -0.0056279665 -0.067535594
0.011255933 -0.033767797 0.008441949 -0.07316356 0.019697882 -0.008441949 -0.092861444 -0.022511866
0.04220975 -0.0844195 0.022511866 0.014069917 0.07316356 0.056279667 -0.09567543 -0.028139833
0.0506517 -0.0056279665 -0.030953815 -0.028139833 -0.064721614 -0.1519551 -0.1519551 -0.02532585
-0.03658178 0.11537331 0.04220975 -0.090047464 -0.014069917 -0.07597755 -0.090047464 0.03658178
-0.06190763 0.016883899 -0.047837716 -0.022511866 -0.1013034 -0.033767797 -0.07597755 0.0028139832
-0.092861444 0.02532585 -0.056279667 0.028139833 0.053465683 -0.06190763 0.0506517 0.0056279665
0.053465683 -0.1013034 0.053465683 -0.011255933 0.056279667 -0.092861444 0.064721614 -0.13507119
-0.064721614 -0.0028139832 0.12381526 0.106931366 -0.016883899 -0.022511866 0.07597755 -0.0028139832
0.053465683 0.022511866 -0.13788518 0.059093647 -0.045023732 -0.047837716 -0.064721614 -0.022511866
-0.11537331 0.030953815 0.016883899 0.1013034 0.045023732 -0.07597755 0.008441949 0.008441949
0.07597755 -0.090047464 0.016883899 -0.045023732 -0.14069916 -0.014069917 -0.07879153 0.11818729
0.067535594 0.0056279665 -0.07034958 -0.067535594 0.0056279665 -0.07316356 -0.016883899 0.04220975
-0.07316356 -0.10411738 0.039395764 0.064721614 0.067535594 -0.08160552 0.033767797 0.047837716
0.12381526 -0.053465683 -0.07316356 0.14351314 0.016883899 -0.02532585 0.168839 -0.03658178
-0.03658178 0.064721614 0.019697882 0.03658178 0.03658178 -0.056279667 -0.053465683 -0.030953815
-0.030953815 0.11537331 0.02532585 0.028139833 0.022511866 -0.07879153 -0.090047464 0.056279667
0.0 -0.08160552 0.016883899 0.047837716 -0.056279667 -0.090047464 0.04220975 -0.045023732
0.008441949 0.011255933 -0.011255933 -0.15758306 -0.039395764 0.12381526 -0.0028139832 -0.030953815
0.022511866 0.047837716 -0.022511866 -0.07316356 0.06190763 0.07034958 -0.016883899 0.03658178
0.16602501 -0.08160552 0.06190763 0.11537331 0.07879153 0.008441949 -0.106931366 -0.033767797
-0.0506517 -0.02532585 0.04220975 -0.1013034 -0.07034958 -0.0506517 -0.07597755 0.064721614
-0.016883899 -0.0056279665 0.0 0.06190763 0.019697882 0.028139833 0.04220975 -0.064721614
0.109745346 0.014069917 -0.06190763 0.092861444 0.092861444 0.064721614 0.0056279665 0.03658178
0.045023732 0.14632712 0.030953815 0.019697882 0.21667671 -0.0506517 0.028139833 0.045023732
0.030953815 0.039395764 0.047837716 0.11255933 -0.087233484 -0.10411738 0.02532585 -0.011255933
-0.059093647 -0.016883899 0.11818729 -0.07316356 -0.07597755 0.087233484 0.019697882 0.059093647
0.045023732 -0.008441949 0.15758306 -0.03658178 0.033767797 0.0056279665 -0.067535594 -0.053465683
0.11255933 0.056279667 0.033767797 0.13788518 0.15758306 -0.04220975 -0.07034958 -0.047837716
0.067535594 0.092861444 0.016883899 -0.06190763 0.0028139832 0.02532585 0.02532585 0.030953815
00000000: 0dfc 060b daf6 0f15 f212 dd1b de04 e5f7
00000010: 02f1 f517 f7e2 fee8 04f4 03e6 07fd dff8
00000020: 0fe2 0805 1a14 def6 12fe f5f6 e9ca caf7
00000030: f329 0fe0 fbe5 e00d ea06 eff8 dcf4 e501
00000040: df09 ec0a 13ea 1202 13dc 13fc 14df 17d0
00000050: e9ff 2c26 faf8 1bff 1308 cf15 f0ef e9f8
00000060: d70b 0624 10e5 0303 1be0 06f0 cefb e42a
00000070: 1802 e7e8 02e6 fa0f e6db 0e17 18e3 0c11
00000080: 2ced e633 06f7 3cf3 f317 070d 0dec edf5
00000090: f529 090a 08e4 e014 00e3 0611 ece0 0ff0
000000a0: 0304 fcc8 f22c fff5 0811 f8e6 1619 fa0d
000000b0: 3be3 1629 1c03 daf4 eef7 0fdc e7ee e517
000000c0: fafe 0016 070a 0fe9 2705 ea21 2117 020d
000000d0: 1034 0b07 4dee 0a10 0b0e 1128 e1db 09fc
000000e0: ebfa 2ae6 e51f 0715 10fd 38f3 0c02 e8ed
000000f0: 2814 0c31 38f1 e7ef 1821 06ea 0109 090b

sequential_1/dense_3/MatMul i1 [11, 256] scale=0.004069017 zero_point=0
-0.004069017 -0.069173284 -0.18717477 0.05289722 -0.061035253 0.13020854 -0.08951837 -0.27262414
-0.26041707 -0.25227904 -0.30517626 0.10172542 -0.19938183 0.01220705 0.07731132 -0.069173284
-0.24821003 -0.24821003 -0.18310575 0.01220705 0.020345084 -0.0244141 0.020345084 -0.13020854
-0.41910872 -0.11393247 -0.25634804 -0.22786494 0.028483117 -0.20345084 -0.11393247 -0.28076217
-0.17903674 -0.37841856 -0.032552134 0.07731132 0.08951837 -0.016276067 -0.08544935 -0.06510427
-0.19124378 -0.25634804 -0.044759184 0.10986345 -0.122070506 0.032552134 0.08544935 -0.3906256
-0.08138034 -0.13020854 0.069173284 -0.0732423 -0.032552134 -0.23193395 -0.09358738 -0.25227904
-0.0976564 0.004069017 -0.3133143 0.0488282 -0.06510427 -0.16682969 -0.33365938 -0.15462264
-0.15055361 0.004069017 -0.069173284 -0.12613952 -0.07731132 0.0488282 0.0244141 -0.3417974
-0.24414101 0.028483117 -0.34993544 -0.17496772 -0.2929692 -0.2197269 -0.1708987 -0.240072
-0.0244141 -0.13834657 0.08138034 0.032552134 -0.13834657 -0.13834657 -0.056966234 -0.069173284
-0.044759184 -0.056966234 -0.240072 -0.16276067 -0.01220705 -0.15462264 -0.032552134 0.10172542
0.122070506 -0.0244141 -0.056966234 -0.21565789 -0.31738332 -0.044759184 -0.08951837 -0.27262414
-0.044759184 -0.2685551 -0.32552135 -0.13020854 0.028483117 -0.15462264 -0.33772838 -0.2644861
-0.16682969 -0.23600297 -0.24821003 -0.39876366 -0.028483117 -0.30110723 -0.03662115 -0.0732423
-0.07731132 -0.122070506 -0.38248757 -0.0976564 -0.044759184 0.061035253 -0.20751986 -0.39469463
-0.25634804 -0.1708987 -0.11393247 0.04069017 -0.13020854 -0.032552134 -0.056966234 -0.4638679
-0.10579444 -0.13834657 -0.2889002 0.016276067 0.08138034 -0.27262414 -0.35400447 -0.0732423
-0.3417974 -0.2889002 -0.22786494 -0.3865566 -0.10172542 -0.32145232 -0.31738332 -0.10579444
-0.24821003 -0.056966234 -0.0732423 -0.016276067 0.008138034 -0.37028053 -0.122070506 -0.020345084
0.13020854 0.09358738 -0.0732423 -0.10986345 0.020345084 -0.028483117 -0.24821003 0.069173284
-0.33772838 0.03662115 -0.056966234 0.028483117 -0.15462264 -0.17903674 -0.069173284 -0.32552135
-0.06510427 -0.27262414 -0.15462264 0.069173284 -0.1464846 -0.15462264 -0.13834657 -0.20751986
0.11800148 -0.11393247 -0.06510427 -0.044759184 0.0244141 -0.15869166 -0.13427755 -0.13020854
-0.0244141 -0.31738332 -0.004069017 -0.05289722 -0.09358738 -0.2644861 -0.008138034 -0.122070506
-0.14241558 -0.28076217 -0.08951837 -0.3621425 0.0244141 0.0976564 0.061035253 -0.0244141
-0.020345084 -0.2929692 -0.26041707 0.0732423 -0.04069017 -0.12613952 -0.24414101 0.240072
-0.4109707 -0.13427755 -0.122070506 -0.10579444 0.08951837 -0.06510427 -0.1464846 -0.01220705
-0.2929692 -0.08951837 0.061035253 0.028483117 -0.23600297 -0.4353848 -0.03662115 -0.19938183
0.020345084 0.01220705 -0.04069017 -0.11393247 -0.08544935 -0.1464846 -0.05289722 -0.061035253
-0.2889002 -0.122070506 -0.1708987 -0.061035253 -0.16276067 -0.3133143 -0.1464846 -0.30110723
0.008138034 0.09358738 -0.1464846 -0.09358738 -0.12613952 -0.27262414 -0.15462264 -0.04069017
00000000: ffef d20d f120 eabd c0c2 b519 cf03 13ef
00000010: c3c3 d303 05fa 05e0 99e4 c1c8 07ce e4bb
00000020: d4a3 f813 16fc ebf0 d1c1 f51b e208 15a0
00000030: ece0 11ee f8c7 e9c2 e801 b30c f0d7 aeda
00000040: db01 efe1 ed0c 06ac c407 aad5 b8ca d6c5
00000050: fade 1408 dede f2ef f5f2 c5d8 fdda f819
00000060: 1efa f2cb b2f5 eabd f5be b0e0 07da adbf
00000070: d7c6 c39e f9b6 f7ee ede2 a2e8 f50f cd9f
00000080: c1d6 e40a e0f8 f28e e6de b904 14bd a9ee
00000090: acb9 c8a1 e7b1 b2e6 c3f2 eefc 02a5 e2fb
000000a0: 2017 eee5 05f9 c311 ad09 f207 dad4 efb0
000000b0: f0bd da11 dcda decd 1de4 f0f5 06d9 dfe0
000000c0: fab2 fff3 e9bf fee2 ddbb eaa7 0618 0ffa
000000d0: fbb8 c012 f6e1 c43b 9bdf e2e6 16f0 dcfd
000000e0: b8ea 0f07 c695 f7cf 0503 f6e4 ebdc f3f1
000000f0: b9e2 d6f1 d8b3 dcb6 0217 dce9 e1bd daf6

sequential_1/conv2d_3/Conv2D i1 [32, 3, 3, 3]
55 89 -15 32 113 8 55 92
97 -10 70 11 -15 -59 -14 -127
-95 -87 -23 -81 31 -6 -9 -76
-31 -38 -111 -8 -64 -43 -30 57
39 34 110 72 35 13 74 13
79 -52 0 36 19 2 45 12
33 4 -4 -32 -125 -127 20 74
46 50 86 -13 -8 -108 -42 38
-29 72 12 83 48 -127 -43 -19
36 -4 60 23 -9 -37 16 -54
-29 -35 9 14 67 18 31 59
46 49 -74 -51 -43 -29 -4 26
53 50 -21 -127 -69 -41 -19 19
40 27 41 55 -101 -33 -65 0
118 49 74 8 60 -80 -49 -119
25 30 -11 64 9 38 -81 -127
-40 4 7 -41 43 98 -16 32
-74 80 9 85 18 69 26 -86
-63 -67 -127 58 76 101 20 -31
16 -107 -75 -92 41 40 36 20
8 46 7 80 112 -3 -22 -58
5 87 -29 56 3 69 94 -102
57 -97 16 61 -19 -68 115 -105
34 -65 -104 -127 41 -27 50 37
-14 49 -15 107 103 46 -48 -68
8 -57 -127 -72 -78 -59 35 -1
10 11 -12 64 -3 -18 -3 -35
112 41 99 1 21 36 -54 15
-61 87 71 -23 5 54 13 -50
-24 -105 -36 45 99 -112 -95 -10
-40 -127 -22 92 0 30 -37 -51
20 -3 -54 11 4 87 33 -49
00000000: 3759 f120 7108 375c 61f6 460b f1c5 f281
00000010: a1a9 e9af 1ffa f7b4 e1da 91f8 c0d5 e239
00000020: 2722 6e48 230d 4a0d 4fcc 0024 1302 2d0c
00000030: 2104 fce0 8381 144a 2e32 56f3 f894 d626
00000040: e348 0c53 3081 d5ed 24fc 3c17 f7db 10ca
00000050: e3dd 090e 4312 1f3b 2e31 b6cd d5e3 fc1a
00000060: 3532 eb81 bbd7 ed13 281b 2937 9bdf bf00
00000070: 7631 4a08 3cb0 cf89 191e f540 0926 af81
00000080: d804 07d7 2b62 f020 b650 0955 1245 1aaa
00000090: c1bd 813a 4c65 14e1 1095 b5a4 2928 2414
000000a0: 082e 0750 70fd eac6 0557 e338 0345 5e9a
000000b0: 399f 103d edbc 7397 22bf 9881 29e5 3225
000000c0: f231 f16b 672e d0bc 08c7 81b8 b2c5 23ff
000000d0: 0a0b f440 fdee fddd 7029 6301 1524 ca0f
000000e0: c357 47e9 0536 0dce e897 dc2d 6390 a1f6
000000f0: d881 ea5c 001e dbcd 14fd ca0b 0457 21cf

sequential_1/conv2d_4/Conv2D i1 [64, 3, 3, 32]
10 3 39 -25 7 -10 28 -14
15 -45 15 8 -3 -3 -36 -32
38 8 58 26 -5 1 2 -22
-26 -3 -25 67 36 29 56 -17
-30 -1 9 27 -50 7 -39 33
25 18 22 -21 -5 -12 6 57
13 -12 -7 2 -28 -3 -33 37
9 -22 -18 44 -2 -11 -24 -21
10 -64 -35 59 13 -20 -31 65
21 29 23 47 -56 113 9 -11
47 -21 -10 -67 36 -32 18 -49
-76 -16 22 15 0 -38 -51 -15
-24 -23 61 -59 -21 -16 -45 -35
-10 10 -47 -46 18 -38 -26 -37
46 45 21 85 -27 64 -1 66
-40 -59 5 9 127 -2 14 -36
-68 -76 16 -56 -34 16 -36 51
-30 0 32 -77 6 -20 -62 -84
39 -1 38 19 -14 12 -17 -64
-49 -4 -103 53 25 -31 36 -56
15 -19 9 20 30 34 22 47
65 66 1 63 -3 54 -20 -16
105 -20 100 -31 34 -15 -21 -46
-32 41 -69 -21 6 16 38 24
-20 -21 -1 12 19 32 -5 -23
-35 -54 -28 43 26 25 50 60
-57 -39 -68 -6 -4 -10 -16 30
-14 -69 20 -42 36 13 -84 9
-55 -6 -9 -36 0 -8 -12 -44
-66 -51 -77 -54 -5 -75 40 9
-30 35 21 23 -71 -11 16 60
-23 19 -11 52 -28 -9 -46 -18
00000000: 0a03 27e7 07f6 1cf2 0fd3 0f08 fdfd dce0
00000010: 2608 3a1a fb01 02ea e6fd e743 241d 38ef
00000020: e2ff 091b ce07 d921 1912 16eb fbf4 0639
00000030: 0df4 f902 e4fd df25 09ea ee2c fef5 e8eb
00000040: 0ac0 dd3b 0dec e141 151d 172f c871 09f5
00000050: 2feb f6bd 24e0 12cf b4f0 160f 00da cdf1
00000060: e8e9 3dc5 ebf0 d3dd f60a d1d2 12da e6db
00000070: 2e2d 1555 e540 ff42 d8c5 0509 7ffe 0edc
00000080: bcb4 10c8 de10 dc33 e200 20b3 06ec c2ac
00000090: 27ff 2613 f20c efc0 cffc 9935 19e1 24c8
000000a0: 0fed 0914 1e22 162f 4142 013f fd36 ecf0
000000b0: 69ec 64e1 22f1 ebd2 e029 bbeb 0610 2618
000000c0: eceb ff0c 1320 fbe9 ddca e42b 1a19 323c
000000d0: c7d9 bcfa fcf6 f01e f2bb 14d6 240d ac09
000000e0: c9fa f7dc 00f8 f4d4 becd b3ca fbb5 2809
000000f0: e223 1517 b9f5 103c e913 f534 e4f7 d2ee

sequential_1/conv2d_5/Conv2D i1 [64, 3, 3, 64]
6 47 34 25 34 -36 60 3
1 7 -23 -20 -16 1 20 -3
-57 49 -7 -5 -14 24 -12 8
11 -29 -5 -11 5 46 -40 -68
-5 -11 -32 60 -26 -45 9 40
-45 -17 88 -6 76 -1 -47 26
-50 -5 25 39 -9 -13 47 -43
-39 49 -37 -50 -6 -27 3 4
48 63 100 19 63 41 -48 -75
-49 -35 -24 -105 -65 -15 -22 64
9 -24 31 -61 5 -18 -26 -4
-30 34 74 -41 -13 13 -8 -86
-114 -10 51 55 -114 -40 -72 -24
-9 -6 32 44 40 63 -22 -22
-96 16 -48 -52 -86 -52 96 23
9 7 39 14 -97 -11 22 11
49 60 22 10 127 66 35 -9
-23 -56 -24 -4 -28 -12 -50 76
23 -27 -4 16 54 -30 2 -62
36 -8 -35 13 -43 2 19 44
-108 -7 67 60 5 -22 50 -99
6 -6 40 59 51 -46 42 -34
17 40 14 -34 7 71 -13 17
25 41 107 42 1 13 41 4
6 50 18 -6 26 25 29 -3
-13 30 10 11 -20 -30 -12 -3
13 -75 -33 1 27 17 0 -17
27 -32 -37 -45 -28 26 27 -49
33 -3 -34 -1 -66 -28 -4 -31
-2 -65 -34 15 -17 58 -5 15
-44 -2 -48 -50 -45 -25 59 19
24 -36 22 -56 -52 7 21 -12
00000000: 062f 2219 22dc 3c03 0107 e9ec f001 14fd
00000010: c731 f9fb f218 f408 0be3 fbf5 052e d8bc
00000020: fbf5 e03c e6d3 0928 d3ef 58fa 4cff d11a
00000030: cefb 1927 f7f3 2fd5 d931 dbce fae5 0304
00000040: 303f 6413 3f29 d0b5 cfdd e897 bff1 ea40
00000050: 09e8 1fc3 05ee e6fc e222 4ad7 f30d f8aa
00000060: 8ef6 3337 8ed8 b8e8 f7fa 202c 283f eaea
00000070: a010 d0cc aacc 6017 0907 270e 9ff5 160b
00000080: 313c 160a 7f42 23f7 e9c8 e8fc e4f4 ce4c
00000090: 17e5 fc10 36e2 02c2 24f8 dd0d d502 132c
000000a0: 94f9 433c 05ea 329d 06fa 283b 33d2 2ade
000000b0: 1128 0ede 0747 f311 1929 6b2a 010d 2904
000000c0: 0632 12fa 1a19 1dfd f31e 0a0b ece2 f4fd
000000d0: 0db5 df01 1b11 00ef 1be0 dbd3 e41a 1bcf
000000e0: 21fd deff bee4 fce1 febf de0f ef3a fb0f
000000f0: d4fe d0ce d3e7 3b13 18dc 16c8 cc07 15f4
