sd-card/config/dig-s1-q-20220102.tflite (tflite, 203232 bytes, 5 tensors)

sequential_1/dense_2/MatMul i1 [256, 512] scale=0.002375368 zero_point=0
0	0xc7	-0.13539597
1	0xf4	-0.028504416
2	0x05	0.01187684
3	0x09	0.021378312
4	0x20	0.07601178
5	0x17	0.054633465
6	0x21	0.07838714
7	0xd2	-0.10926693
8	0xb8	-0.1710265
9	0xf2	-0.033255152
10	0x09	0.021378312
11	0xec	-0.04750736
12	0x07	0.016627576
13	0x03	0.007126104
14	0xfb	-0.01187684
15	0xdd	-0.083137885
16	0x11	0.040381256
17	0xcb	-0.1258945
18	0x1a	0.06175957
19	0x13	0.045131993
20	0xea	-0.052258097
21	0x02	0.004750736
22	0xe4	-0.066510305
23	0x07	0.016627576
24	0x26	0.090263985
25	0xcd	-0.12114377
26	0xfa	-0.014252208
27	0x0e	0.033255152
28	0xe5	-0.06413494
29	0x31	0.11639303
30	0x01	0.002375368
31	0x1e	0.07126104
32	0x01	0.002375368
33	0xee	-0.042756625
34	0xf1	-0.03563052
35	0xf9	-0.016627576
36	0x0c	0.028504416
37	0x28	0.09501472
38	0x1a	0.06175957
39	0xf9	-0.016627576
40	0xf8	-0.019002944
41	0x21	0.07838714
42	0xb9	-0.16865113
43	0x0f	0.03563052
44	0xc6	-0.13777134
45	0xea	-0.052258097
46	0x06	0.014252208
47	0x10	0.03800589
48	0x1c	0.066510305
49	0xee	-0.042756625
50	0x1a	0.06175957
51	0xc3	-0.14489745
52	0xd3	-0.10689156
53	0xf4	-0.028504416
54	0x15	0.04988273
55	0xdf	-0.07838714
56	0xe3	-0.06888567
57	0xc8	-0.13302061
58	0x29	0.097390085
59	0x0f	0.03563052
60	0x08	0.019002944
61	0xd7	-0.097390085
62	0x2b	0.10214083
63	0xde	-0.08076251
64	0xff	-0.002375368
65	0x08	0.019002944
66	0x14	0.04750736
67	0x2e	0.10926693
68	0x21	0.07838714
69	0xed	-0.045131993
70	0x08	0.019002944
71	0xbd	-0.15914966
72	0x2e	0.10926693
73	0xf4	-0.028504416
74	0x03	0.007126104
75	0x09	0.021378312
76	0xe0	-0.07601178
77	0xfb	-0.01187684
78	0x1e	0.07126104
79	0x36	0.12826988
80	0x08	0.019002944
81	0x0b	0.026129048
82	0xcf	-0.11639303
83	0x11	0.040381256
84	0x38	0.13302061
85	0xee	-0.042756625
86	0x01	0.002375368
87	0xf6	-0.02375368
88	0x19	0.0593842
89	0xf4	-0.028504416
90	0x02	0.004750736
91	0xdb	-0.08788861
92	0xfc	-0.009501472
93	0x04	0.009501472
94	0x0d	0.030879784
95	0x32	0.1187684
96	0xcd	-0.12114377
97	0xe6	-0.06175957
98	0x1f	0.07363641
99	0xf9	-0.016627576
100	0xea	-0.052258097
101	0x24	0.08551325
102	0xe9	-0.054633465
103	0xfb	-0.01187684
104	0x38	0.13302061
105	0x01	0.002375368
106	0x05	0.01187684
107	0x0b	0.026129048
108	0xcc	-0.12351914
109	0xe8	-0.057008833
110	0x02	0.004750736
111	0x11	0.040381256
112	0xc7	-0.13539597
113	0x35	0.1258945
114	0x16	0.052258097
115	0xed	-0.045131993
116	0x22	0.08076251
117	0xdd	-0.083137885
118	0x3b	0.14014672
119	0xfd	-0.007126104
120	0x28	0.09501472
121	0xf9	-0.016627576
122	0xf6	-0.02375368
123	0xfb	-0.01187684
124	0x14	0.04750736
125	0x1e	0.07126104
126	0xeb	-0.04988273
127	0x02	0.004750736
128	0x25	0.08788861
129	0xef	-0.040381256
130	0x02	0.004750736
131	0xdc	-0.08551325
132	0xf9	-0.016627576
133	0xfc	-0.009501472
134	0x0d	0.030879784
135	0x28	0.09501472
136	0xe8	-0.057008833
137	0xef	-0.040381256
138	0x1a	0.06175957
139	0x1e	0.07126104
140	0x3b	0.14014672
141	0x20	0.07601178
142	0xfa	-0.014252208
143	0x0c	0.028504416
144	0x26	0.090263985
145	0x13	0.045131993
146	0x30	0.114017665
147	0x0d	0.030879784
148	0xc4	-0.14252208
149	0x24	0.08551325
150	0x08	0.019002944
151	0xec	-0.04750736
152	0x0d	0.030879784
153	0xf5	-0.026129048
154	0xf2	-0.033255152
155	0x00	0.0
156	0xe8	-0.057008833
157	0xf2	-0.033255152
158	0xe4	-0.066510305
159	0x27	0.09263936
160	0x14	0.04750736
161	0x17	0.054633465
162	0x08	0.019002944
163	0x10	0.03800589
164	0xf0	-0.03800589
165	0xf1	-0.03563052
166	0xfc	-0.009501472
167	0x14	0.04750736
168	0xea	-0.052258097
169	0x26	0.090263985
170	0x1d	0.06888567
171	0x4d	0.18290333
172	0x08	0.019002944
173	0x24	0.08551325
174	0xfc	-0.009501472
175	0x11	0.040381256
176	0x16	0.052258097
177	0xcd	-0.12114377
178	0x09	0.021378312
179	0x27	0.09263936
180	0x0f	0.03563052
181	0xf1	-0.03563052
182	0xef	-0.040381256
183	0x10	0.03800589
184	0xe2	-0.07126104
185	0xed	-0.045131993
186	0x07	0.016627576
187	0x09	0.021378312
188	0x16	0.052258097
189	0x1b	0.06413494
190	0x28	0.09501472
191	0x04	0.009501472
192	0x11	0.040381256
193	0xfe	-0.004750736
194	0x25	0.08788861
195	0x3f	0.14964819
196	0x3b	0.14014672
197	0x1c	0.066510305
198	0xf1	-0.03563052
199	0x03	0.007126104
200	0xf5	-0.026129048
201	0xe1	-0.07363641
202	0x21	0.07838714
203	0x05	0.01187684
204	0x28	0.09501472
205	0xf1	-0.03563052
206	0x36	0.12826988
207	0x12	0.042756625
208	0x24	0.08551325
209	0xe3	-0.06888567
210	0x22	0.08076251
211	0x0e	0.033255152
212	0x09	0.021378312
213	0xeb	-0.04988273
214	0xdb	-0.08788861
215	0xef	-0.040381256
216	0xd4	-0.10451619
217	0xf5	-0.026129048
218	0x1b	0.06413494
219	0xeb	-0.04988273
220	0x24	0.08551325
221	0x14	0.04750736
222	0x17	0.054633465
223	0x44	0.16152503
224	0x0f	0.03563052
225	0xef	-0.040381256
226	0xf9	-0.016627576
227	0x0d	0.030879784
228	0xeb	-0.04988273
229	0xeb	-0.04988273
230	0xdf	-0.07838714
231	0x13	0.045131993
232	0x0e	0.033255152
233	0x07	0.016627576
234	0x20	0.07601178
235	0xd8	-0.09501472
236	0xfe	-0.004750736
237	0xfa	-0.014252208
238	0x3b	0.14014672
239	0xf6	-0.02375368
240	0xfd	-0.007126104
241	0xe8	-0.057008833
242	0x22	0.08076251
243	0x05	0.01187684
244	0xf3	-0.030879784
245	0xcd	-0.12114377
246	0x34	0.12351914
247	0xe4	-0.066510305
248	0x41	0.15439892
249	0x26	0.090263985
250	0xdc	-0.08551325
251	0x08	0.019002944
252	0x35	0.1258945
253	0x1f	0.07363641
254	0xd0	-0.114017665
255	0x57	0.20665702

sequential_1/dense_3/MatMul i1 [11, 256] scale=0.0038427599 zero_point=0
0	0xd7	-0.15755315
1	0xff	-0.0038427599
2	0xd5	-0.16523868
3	0xf2	-0.05379864
4	0x1d	0.11144003
5	0xae	-0.3151063
6	0xf4	-0.04611312
7	0x0d	0.04995588
8	0x04	0.0153710395
9	0xff	-0.0038427599
10	0x04	0.0153710395
11	0x0f	0.0576414
12	0x00	0.0
13	0xf6	-0.0384276
14	0x0c	0.04611312
15	0xdb	-0.14218211
16	0xfb	-0.0192138
17	0xf2	-0.05379864
18	0xc0	-0.24593663
19	0xf7	-0.03458484
20	0xf3	-0.04995588
21	0xd9	-0.14986764
22	0xf0	-0.061484158
23	0x1a	0.09991176
24	0x00	0.0
25	0x9a	-0.39196151
26	0xe2	-0.1152828
27	0xc3	-0.23440835
28	0xdf	-0.12681107
29	0xc9	-0.2113518
30	0xc1	-0.24209388
31	0x1a	0.09991176
32	0x06	0.02305656
33	0x15	0.08069795
34	0xa3	-0.35737666
35	0xc3	-0.23440835
36	0x22	0.13065383
37	0xea	-0.08454072
38	0xdd	-0.1344966
39	0xe3	-0.11144003
40	0xd1	-0.18060972
41	0xa4	-0.35353392
42	0xce	-0.19213799
43	0x03	0.01152828
44	0xc3	-0.23440835
45	0x09	0.03458484
46	0xe9	-0.08838348
47	0x15	0.08069795
48	0xd6	-0.1613959
49	0xc8	-0.21519455
50	0xd0	-0.18445247
51	0xfc	-0.0153710395
52	0xd0	-0.18445247
53	0x24	0.13833936
54	0xf5	-0.04227036
55	0xef	-0.065326914
56	0xf9	-0.02689932
57	0x08	0.030742079
58	0x17	0.08838348
59	0x1e	0.1152828
60	0xc5	-0.22672284
61	0x0c	0.04611312
62	0x11	0.065326914
63	0xe8	-0.09222624
64	0xd5	-0.16523868
65	0xd1	-0.18060972
66	0xfa	-0.02305656
67	0xfc	-0.0153710395
68	0x08	0.030742079
69	0xfe	-0.0076855198
70	0xb2	-0.29973528
71	0xbb	-0.26515043
72	0xdf	-0.12681107
73	0x0a	0.0384276
74	0xe0	-0.122968316
75	0xb6	-0.28436422
76	0xdb	-0.14218211
77	0x1b	0.10375452
78	0x12	0.06916968
79	0xf5	-0.04227036
80	0xc2	-0.23825112
81	0xec	-0.0768552
82	0xf1	-0.0576414
83	0x09	0.03458484
84	0xc5	-0.22672284
85	0xdb	-0.14218211
86	0xf0	-0.061484158
87	0xfe	-0.0076855198
88	0xf0	-0.061484158
89	0x08	0.030742079
90	0x0e	0.05379864
91	0xb3	-0.2958925
92	0xea	-0.08454072
93	0xf0	-0.061484158
94	0x07	0.02689932
95	0xed	-0.07301244
96	0x01	0.0038427599
97	0xe2	-0.1152828
98	0x06	0.02305656
99	0x01	0.0038427599
100	0xc6	-0.22288007
101	0xbf	-0.24977939
102	0x13	0.07301244
103	0xda	-0.14602488
104	0xf1	-0.0576414
105	0xdc	-0.13833936
106	0xee	-0.06916968
107	0xf4	-0.04611312
108	0xd6	-0.1613959
109	0xbc	-0.26130766
110	0xcc	-0.19982351
111	0xc6	-0.22288007
112	0x02	0.0076855198
113	0xee	-0.06916968
114	0x9f	-0.37274772
115	0xe0	-0.122968316
116	0xba	-0.2689932
117	0xd4	-0.16908143
118	0xd7	-0.15755315
119	0xc4	-0.2305656
120	0xed	-0.07301244
121	0xb0	-0.3074208
122	0xc9	-0.2113518
123	0xdb	-0.14218211
124	0x1f	0.11912556
125	0x03	0.01152828
126	0xd7	-0.15755315
127	0xc1	-0.24209388
128	0xfa	-0.02305656
129	0xb9	-0.27283594
130	0xca	-0.20750904
131	0xde	-0.13065383
132	0xf0	-0.061484158
133	0x9a	-0.39196151
134	0xe7	-0.09606899
135	0xcf	-0.18829523
136	0x1c	0.10759728
137	0x03	0.01152828
138	0xb7	-0.28052148
139	0xf8	-0.030742079
140	0xfc	-0.0153710395
141	0x06	0.02305656
142	0xdf	-0.12681107
143	0xf6	-0.0384276
144	0x0d	0.04995588
145	0xd4	-0.16908143
146	0xe9	-0.08838348
147	0x07	0.02689932
148	0xd2	-0.17676696
149	0xc2	-0.23825112
150	0xd8	-0.1537104
151	0xe8	-0.09222624
152	0xda	-0.14602488
153	0x03	0.01152828
154	0xd9	-0.14986764
155	0xc4	-0.2305656
156	0xd9	-0.14986764
157	0xa0	-0.36890495
158	0xe7	-0.09606899
159	0x18	0.09222624
160	0xfd	-0.01152828
161	0x25	0.14218211
162	0x02	0.0076855198
163	0x06	0.02305656
164	0xc3	-0.23440835
165	0xec	-0.0768552
166	0xff	-0.0038427599
167	0xe2	-0.1152828
168	0xf2	-0.05379864
169	0x2b	0.16523868
170	0xd1	-0.18060972
171	0xcf	-0.18829523
172	0xa0	-0.36890495
173	0xd0	-0.18445247
174	0xe7	-0.09606899
175	0xdc	-0.13833936
176	0xdc	-0.13833936
177	0xcd	-0.19598076
178	0xf0	-0.061484158
179	0xf8	-0.030742079
180	0xf2	-0.05379864
181	0x1d	0.11144003
182	0x28	0.1537104
183	0xe7	-0.09606899
184	0xc2	-0.23825112
185	0x9f	-0.37274772
186	0xd6	-0.1613959
187	0xc2	-0.23825112
188	0xdc	-0.13833936
189	0xdb	-0.14218211
190	0x14	0.0768552
191	0x1e	0.1152828
192	0xe6	-0.09991176
193	0xe5	-0.10375452
194	0xc6	-0.22288007
195	0xf1	-0.0576414
196	0xf3	-0.04995588
197	0x2e	0.17676696
198	0x96	-0.40733254
199	0x03	0.01152828
200	0xe8	-0.09222624
201	0xd7	-0.15755315
202	0x04	0.0153710395
203	0xf2	-0.05379864
204	0xb8	-0.2766787
205	0xf5	-0.04227036
206	0xdf	-0.12681107
207	0xc5	-0.22672284
208	0x18	0.09222624
209	0x20	0.122968316
210	0xf5	-0.04227036
211	0x0e	0.05379864
212	0x9c	-0.38427597
213	0xff	-0.0038427599
214	0xf0	-0.061484158
215	0xd7	-0.15755315
216	0xda	-0.14602488
217	0x1a	0.09991176
218	0xe7	-0.09606899
219	0xd1	-0.18060972
220	0xf4	-0.04611312
221	0xb3	-0.2958925
222	0xe3	-0.11144003
223	0x8f	-0.43423188
224	0x08	0.030742079
225	0xc7	-0.21903731
226	0x04	0.0153710395
227	0xbf	-0.24977939
228	0xfb	-0.0192138
229	0xf7	-0.03458484
230	0xe7	-0.09606899
231	0x04	0.0153710395
232	0xe1	-0.11912556
233	0xa0	-0.36890495
234	0xc7	-0.21903731
235	0xf8	-0.030742079
236	0xba	-0.2689932
237	0x02	0.0076855198
238	0xdd	-0.1344966
239	0x03	0.01152828
240	0xf6	-0.0384276
241	0xeb	-0.08069795
242	0xfd	-0.01152828
243	0xb5	-0.288207
244	0xf9	-0.02689932
245	0x9a	-0.39196151
246	0x24	0.13833936
247	0xea	-0.08454072
248	0xa3	-0.35737666
249	0xd0	-0.18445247
250	0xff	-0.0038427599
251	0xf3	-0.04995588
252	0xbd	-0.25746492
253	0xfd	-0.01152828
254	0xad	-0.31894907
255	0xe5	-0.10375452

sequential_1/conv2d_3/Conv2D i1 [32, 3, 3, 3]
0	0x2e	46
1	0x36	54
2	0x7c	124
3	0x23	35
4	0x0c	12
5	0x37	55
6	0x81	-127
7	0xc7	-57
8	0x9e	-98
9	0x55	85
10	0x0b	11
11	0x45	69
12	0x40	64
13	0xda	-38
14	0x67	103
15	0xc3	-61
16	0xf0	-16
17	0xe6	-26
18	0xe5	-27
19	0xf2	-14
20	0xd1	-47
21	0x1c	28
22	0x6f	111
23	0xf5	-11
24	0xf6	-10
25	0x22	34
26	0xdb	-37
27	0xd4	-44
28	0x8a	-118
29	0xce	-50
30	0x23	35
31	0x4b	75
32	0xfe	-2
33	0x7f	127
34	0x7e	126
35	0x73	115
36	0x90	-112
37	0xb6	-74
38	0x2f	47
39	0xe9	-23
40	0xaa	-86
41	0x1a	26
42	0x4b	75
43	0x5b	91
44	0xd8	-40
45	0x31	49
46	0xd6	-42
47	0x2e	46
48	0xc2	-62
49	0xd0	-48
50	0xaa	-86
51	0xe5	-27
52	0x2b	43
53	0xfe	-2
54	0x2d	45
55	0x7f	127
56	0x79	121
57	0xfa	-6
58	0x31	49
59	0x3b	59
60	0xe6	-26
61	0xd9	-39
62	0xe0	-32
63	0x33	51
64	0x4b	75
65	0x6c	108
66	0xe0	-32
67	0xb4	-76
68	0x49	73
69	0x09	9
70	0xaf	-81
71	0xb5	-75
72	0x3f	63
73	0x03	3
74	0xd1	-47
75	0xbe	-66
76	0xaa	-86
77	0xac	-84
78	0xc6	-58
79	0xd4	-44
80	0xd2	-46
81	0x1c	28
82	0x49	73
83	0xb3	-77
84	0x19	25
85	0x4c	76
86	0x3a	58
87	0x4b	75
88	0x57	87
89	0x3c	60
90	0x73	115
91	0xfc	-4
92	0x7f	127
93	0xea	-22
94	0x1b	27
95	0x2d	45
96	0xa0	-96
97	0xa0	-96
98	0x28	40
99	0x4a	74
100	0x42	66
101	0x0a	10
102	0xd3	-45
103	0xe7	-25
104	0x07	7
105	0x93	-109
106	0xeb	-21
107	0xe6	-26
108	0x81	-127
109	0xd9	-39
110	0x90	-112
111	0x08	8
112	0xda	-38
113	0xb3	-77
114	0xf5	-11
115	0xc7	-57
116	0x03	3
117	0xf8	-8
118	0x1c	28
119	0xfb	-5
120	0xeb	-21
121	0x54	84
122	0x0e	14
123	0x43	67
124	0x48	72
125	0x1d	29
126	0x5c	92
127	0x6e	110
128	0x4a	74
129	0x15	21
130	0xf3	-13
131	0x26	38
132	0xe7	-25
133	0x20	32
134	0xd0	-48
135	0x09	9
136	0x58	88
137	0x7f	127
138	0x65	101
139	0xe9	-23
140	0x03	3
141	0xc2	-62
142	0xc0	-64
143	0xc1	-63
144	0xe1	-31
145	0x58	88
146	0x30	48
147	0x29	41
148	0xda	-38
149	0xfb	-5
150	0x11	17
151	0xab	-85
152	0xab	-85
153	0x18	24
154	0xcf	-49
155	0x0c	12
156	0x12	18
157	0xa3	-93
158	0xcf	-49
159	0xea	-22
160	0xbf	-65
161	0x1d	29
162	0xe8	-24
163	0xf2	-14
164	0xf0	-16
165	0xa7	-89
166	0xdf	-33
167	0x08	8
168	0x31	49
169	0x05	5
170	0x08	8
171	0xf3	-13
172	0xbd	-67
173	0x31	49
174	0xa9	-87
175	0xeb	-21
176	0xd0	-48
177	0x62	98
178	0x1f	31
179	0x3d	61
180	0xb5	-75
181	0xd0	-48
182	0x43	67
183	0xbf	-65
184	0xef	-17
185	0xf3	-13
186	0x5c	92
187	0x7f	127
188	0x41	65
189	0xe0	-32
190	0xbe	-66
191	0x0e	14
192	0x00	0
193	0xaf	-81
194	0xea	-22
195	0x0f	15
196	0x7f	127
197	0x15	21
198	0xcc	-52
199	0x89	-119
200	0xf2	-14
201	0xd9	-39
202	0xde	-34
203	0x0b	11
204	0xef	-17
205	0x3c	60
206	0xf1	-15
207	0x8f	-113
208	0xd0	-48
209	0xc4	-60
210	0x03	3
211	0xa0	-96
212	0x25	37
213	0xec	-20
214	0xec	-20
215	0x01	1
216	0x44	68
217	0x10	16
218	0xdc	-36
219	0x7c	124
220	0x03	3
221	0x6b	107
222	0xf5	-11
223	0x19	25
224	0x15	21
225	0xf1	-15
226	0x13	19
227	0xc4	-60
228	0x21	33
229	0x55	85
230	0x33	51
231	0x81	-127
232	0xa4	-92
233	0xdc	-36
234	0xfa	-6
235	0xed	-19
236	0x40	64
237	0x05	5
238	0xe2	-30
239	0x30	48
240	0xa8	-88
241	0xc5	-59
242	0x9a	-102
243	0x7f	127
244	0x2b	43
245	0x0c	12
246	0x29	41
247	0x44	68
248	0x57	87
249	0xaa	-86
250	0xd7	-41
251	0xab	-85
252	0x51	81
253	0x0e	14
254	0x6c	108
255	0xa3	-93

sequential_1/conv2d_4/Conv2D i1 [64, 3, 3, 32]
0	0x26	38
1	0xf3	-13
2	0xc0	-64
3	0xf0	-16
4	0xea	-22
5	0x02	2
6	0xdc	-36
7	0x34	52
8	0xff	-1
9	0xfa	-6
10	0xf9	-7
11	0xf6	-10
12	0xe9	-23
13	0x0e	14
14	0xe5	-27
15	0xe7	-25
16	0xc6	-58
17	0xcc	-52
18	0xf4	-12
19	0xd2	-46
20	0xbc	-68
21	0xfe	-2
22	0xe4	-28
23	0xd3	-45
24	0x2d	45
25	0xc3	-61
26	0xc0	-64
27	0xea	-22
28	0x0c	12
29	0xea	-22
30	0x10	16
31	0xe8	-24
32	0x49	73
33	0x18	24
34	0x81	-127
35	0x5d	93
36	0x29	41
37	0xd6	-42
38	0xeb	-21
39	0x25	37
40	0x2e	46
41	0x9e	-98
42	0x4a	74
43	0x2f	47
44	0x41	65
45	0xf2	-14
46	0xe8	-24
47	0xd3	-45
48	0x4c	76
49	0xe1	-31
50	0xd7	-41
51	0xf2	-14
52	0xfa	-6
53	0x26	38
54	0x0d	13
55	0x07	7
56	0x07	7
57	0xf6	-10
58	0x2d	45
59	0x9f	-97
60	0x28	40
61	0x08	8
62	0x2a	42
63	0xd8	-40
64	0x36	54
65	0xda	-38
66	0x0a	10
67	0x43	67
68	0xf0	-16
69	0xe0	-32
70	0xdd	-35
71	0xed	-19
72	0xe7	-25
73	0x1e	30
74	0x46	70
75	0xd3	-45
76	0xde	-34
77	0x09	9
78	0xf1	-15
79	0xf4	-12
80	0xcc	-52
81	0x1b	27
82	0xc4	-60
83	0xd1	-47
84	0xf4	-12
85	0x3e	62
86	0x35	53
87	0xc3	-61
88	0x25	37
89	0x16	22
90	0x04	4
91	0xc4	-60
92	0x37	55
93	0x14	20
94	0xf4	-12
95	0x02	2
96	0x23	35
97	0xac	-84
98	0xea	-22
99	0x17	23
100	0xda	-38
101	0xe9	-23
102	0x05	5
103	0xf1	-15
104	0xf4	-12
105	0xe1	-31
106	0xec	-20
107	0xfc	-4
108	0x0f	15
109	0xe7	-25
110	0xc5	-59
111	0xfe	-2
112	0xcc	-52
113	0xdc	-36
114	0xf7	-9
115	0xe1	-31
116	0xe3	-29
117	0x15	21
118	0xbb	-69
119	0xe3	-29
120	0x21	33
121	0xc9	-55
122	0xd4	-44
123	0xef	-17
124	0x04	4
125	0xd7	-41
126	0x15	21
127	0xba	-70
128	0xf9	-7
129	0x1b	27
130	0xc6	-58
131	0x26	38
132	0x2d	45
133	0x06	6
134	0xc8	-56
135	0xfa	-6
136	0xf2	-14
137	0xb3	-77
138	0xf6	-10
139	0xc8	-56
140	0x3c	60
141	0xbe	-66
142	0xb5	-75
143	0xf6	-10
144	0x06	6
145	0xf1	-15
146	0x13	19
147	0x04	4
148	0xaa	-86
149	0x31	49
150	0xa7	-89
151	0xf4	-12
152	0x06	6
153	0x01	1
154	0xd6	-42
155	0x9b	-101
156	0xee	-18
157	0x0e	14
158	0xd9	-39
159	0xff	-1
160	0x11	17
161	0x3b	59
162	0xfa	-6
163	0x23	35
164	0x13	19
165	0xcc	-52
166	0x02	2
167	0xec	-20
168	0xf1	-15
169	0x0a	10
170	0x13	19
171	0xe7	-25
172	0xcb	-53
173	0xe9	-23
174	0xb3	-77
175	0xb9	-71
176	0xd0	-48
177	0xdd	-35
178	0xde	-34
179	0xed	-19
180	0xf1	-15
181	0x12	18
182	0xcb	-53
183	0x9e	-98
184	0xcc	-52
185	0xc4	-60
186	0x0a	10
187	0xbc	-68
188	0x06	6
189	0x1d	29
190	0xe7	-25
191	0x13	19
192	0xe2	-30
193	0xe1	-31
194	0xd7	-41
195	0xe9	-23
196	0xe2	-30
197	0xed	-19
198	0x13	19
199	0xf9	-7
200	0xda	-38
201	0xb7	-73
202	0x38	56
203	0xde	-34
204	0xf0	-16
205	0xe0	-32
206	0xf5	-11
207	0xf5	-11
208	0x18	24
209	0xd5	-43
210	0xd6	-42
211	0xcb	-53
212	0xe8	-24
213	0x08	8
214	0xd7	-41
215	0x21	33
216	0xe2	-30
217	0x0e	14
218	0xe5	-27
219	0x18	24
220	0xdd	-35
221	0x35	53
222	0xff	-1
223	0xe7	-25
224	0x37	55
225	0xde	-34
226	0x0a	10
227	0x4d	77
228	0xef	-17
229	0xf0	-16
230	0xba	-70
231	0xc0	-64
232	0xfa	-6
233	0xb3	-77
234	0x28	40
235	0xec	-20
236	0xeb	-21
237	0xf1	-15
238	0x05	5
239	0x04	4
240	0x1d	29
241	0xe4	-28
242	0x36	54
243	0xc6	-58
244	0x06	6
245	0x16	22
246	0xc3	-61
247	0xe8	-24
248	0x32	50
249	0xd9	-39
250	0xe0	-32
251	0xfb	-5
252	0x2c	44
253	0xee	-18
254	0xdc	-36
255	0x27	39

sequential_1/conv2d_5/Conv2D i1 [64, 3, 3, 64]
0	0x1d	29
1	0x27	39
2	0xf7	-9
3	0x12	18
4	0xb8	-72
5	0x02	2
6	0xe4	-28
7	0x36	54
8	0xe2	-30
9	0x09	9
10	0x23	35
11	0x3c	60
12	0xc9	-55
13	0x0c	12
14	0x2b	43
15	0x0f	15
16	0xe0	-32
17	0x15	21
18	0xc7	-57
19	0x04	4
20	0xe4	-28
21	0x13	19
22	0xfa	-6
23	0xee	-18
24	0x0e	14
25	0x28	40
26	0xe7	-25
27	0xdb	-37
28	0x1a	26
29	0x42	66
30	0xf8	-8
31	0x06	6
32	0xc6	-58
33	0x3b	59
34	0x2d	45
35	0x05	5
36	0x0a	10
37	0x27	39
38	0x08	8
39	0xd9	-39
40	0xdb	-37
41	0xeb	-21
42	0xdb	-37
43	0x31	49
44	0xd4	-44
45	0x14	20
46	0xe5	-27
47	0x21	33
48	0x41	65
49	0xec	-20
50	0x1b	27
51	0x2d	45
52	0x62	98
53	0xdc	-36
54	0x28	40
55	0x35	53
56	0x1d	29
57	0xfc	-4
58	0x26	38
59	0xfb	-5
60	0x16	22
61	0x00	0
62	0xf4	-12
63	0x4e	78
64	0xe3	-29
65	0xf3	-13
66	0x18	24
67	0x20	32
68	0xf5	-11
69	0xe4	-28
70	0x0c	12
71	0xdd	-35
72	0x22	34
73	0xf9	-7
74	0xf2	-14
75	0xfc	-4
76	0xd3	-45
77	0x06	6
78	0xc6	-58
79	0x1e	30
80	0xee	-18
81	0x27	39
82	0x08	8
83	0xf1	-15
84	0x0e	14
85	0x0e	14
86	0x15	21
87	0x20	32
88	0xfb	-5
89	0xfe	-2
90	0x1e	30
91	0x06	6
92	0xf8	-8
93	0x44	68
94	0xef	-17
95	0xeb	-21
96	0x29	41
97	0xf8	-8
98	0x39	57
99	0x23	35
100	0x0f	15
101	0xfd	-3
102	0x38	56
103	0xff	-1
104	0x01	1
105	0x2a	42
106	0xbf	-65
107	0x25	37
108	0x12	18
109	0xd5	-43
110	0xe0	-32
111	0x1c	28
112	0x0a	10
113	0xfc	-4
114	0x1e	30
115	0x22	34
116	0x19	25
117	0xd8	-40
118	0x01	1
119	0xf4	-12
120	0x17	23
121	0x2b	43
122	0x0b	11
123	0xe9	-23
124	0xff	-1
125	0x08	8
126	0x0c	12
127	0x13	19
128	0xdc	-36
129	0xf9	-7
130	0x0c	12
131	0xdf	-33
132	0xf8	-8
133	0xf2	-14
134	0x27	39
135	0xeb	-21
136	0x38	56
137	0xeb	-21
138	0xf4	-12
139	0x07	7
140	0x20	32
141	0x1d	29
142	0x1e	30
143	0xd2	-46
144	0xea	-22
145	0xe7	-25
146	0xbe	-66
147	0x4a	74
148	0xf3	-13
149	0x18	24
150	0x1b	27
151	0x01	1
152	0xef	-17
153	0x01	1
154	0x44	68
155	0xe6	-26
156	0x14	20
157	0x05	5
158	0xdd	-35
159	0xb5	-75
160	0x48	72
161	0x14	20
162	0x02	2
163	0x2b	43
164	0xf8	-8
165	0xd9	-39
166	0xfc	-4
167	0xc1	-63
168	0x1c	28
169	0x1a	26
170	0x46	70
171	0x19	25
172	0x2b	43
173	0xfd	-3
174	0x16	22
175	0xeb	-21
176	0xde	-34
177	0x17	23
178	0x41	65
179	0xfd	-3
180	0x01	1
181	0xd3	-45
182	0xfd	-3
183	0x08	8
184	0xf9	-7
185	0x15	21
186	0x35	53
187	0x15	21
188	0xef	-17
189	0x1c	28
190	0xc9	-55
191	0x44	68
192	0x07	7
193	0xfc	-4
194	0xb7	-73
195	0xfd	-3
196	0xa7	-89
197	0xbb	-69
198	0xcf	-49
199	0x25	37
200	0x2f	47
201	0x0f	15
202	0x04	4
203	0x04	4
204	0xc7	-57
205	0xf1	-15
206	0xed	-19
207	0xe6	-26
208	0x1c	28
209	0xfd	-3
210	0x02	2
211	0x25	37
212	0xa4	-92
213	0x22	34
214	0xef	-17
215	0x00	0
216	0x06	6
217	0x0b	11
218	0xfa	-6
219	0xe1	-31
220	0xfa	-6
221	0x04	4
222	0x69	105
223	0xf1	-15
224	0x22	34
225	0xd8	-40
226	0xef	-17
227	0xe9	-23
228	0xec	-20
229	0xd9	-39
230	0x01	1
231	0xf5	-11
232	0xae	-82
233	0xf0	-16
234	0xdd	-35
235	0xf2	-14
236	0x1c	28
237	0xf0	-16
238	0x00	0
239	0x13	19
240	0xfe	-2
241	0x20	32
242	0xed	-19
243	0x00	0
244	0xdc	-36
245	0xb1	-79
246	0xf2	-14
247	0x07	7
248	0xfb	-5
249	0x3a	58
250	0xef	-17
251	0xfa	-6
252	0x08	8
253	0x03	3
254	0x03	3
255	0xe5	-27
