sd-card/config/dig-class11_1500_s2.tflite (tflite, 356488 bytes, 12 tensors)

model/dense/BiasAdd/ReadVariableOp f4 [256]
00000000: 8afc a1bd 8b70 17be 391d 5d3e 8560 35bd
00000010: 4ac8 fbbd fa03 3dbd 19b5 f7bd 409b d4bd
00000020: be53 68bd 2fe0 a63d ee70 423c 7766 313b
00000030: 4440 08be eb99 19bd e19e 403b 0343 9abd
00000040: 4457 323d e4b5 523e 0a55 4dbd 5b5c 64bd
00000050: 7a43 e6bc 44d3 4bbd 1991 04be e870 f4bd
00000060: 499a 86bd c416 81bd 6e74 96bc 2f31 0dbe
00000070: f16f 1bbd daba 94bd b7af 203e 6f3a f23d
00000080: 8cdd 5bbd 2f60 8cbd 55ea d63c caa5 fe3d
00000090: 1ecf a53d bea2 bd3e 666a e5bc b932 02bd
000000a0: 0eda 43bd f55f 10bd 71a4 f03c fded 273d
000000b0: 118d aa3b a401 acbc dc9b ca3c 50ad debd
000000c0: 5a9a 0d3e a7cf 9dbd 7309 f2bc c7ac 243d
000000d0: 0473 6cbd ce90 0dbc 45e1 fcbc a81a 08be
000000e0: 28d6 9abd 3298 14be 728e 09be c69b 08be
000000f0: 2dbf 983d ae34 f63b abd1 9cbd ee5e bebd
00000100: 3a52 0dbd 26f8 b93d 0a5c 1c3c c7f1 55bd
00000110: cc09 b9bd f42f f3bc 33e7 f6bd 746f 6abc
00000120: 5814 c83d a415 19bd 4926 9a3e fece 5d3d
00000130: 3f8a 503d 8d48 b7bc d589 afbd 81d2 913c
00000140: 54ad 13bd 98f2 84bd 5a8d 05bd e29c b7bc
00000150: bb86 1fbd 5c91 5e3d 40a7 dbbd 38c7 59bd
00000160: 53bb 57bd 2029 9d3d 1eb3 83bd 8fba edbd
00000170: 7cf5 7fbd a417 08bd 7d56 383d 0b62 5fbd
00000180: 4008 303d fd1c 6e3d 8a35 1f3d 730f 42bd
00000190: 7299 4bbd f9a9 febc 49c0 bd3d bc31 89bc
000001a0: e589 a0bc 96c5 28be b1c2 26bd 1c6a 6ebd
000001b0: 1d2e 87bd c628 673d bcbe fe3d 76d5 f4bd
000001c0: a11b bb3d 4544 173c 58c3 d7bd 042f 17be
000001d0: aa8b 9bbd 0e0f 9dba 40e7 bc3c 44b8 ad3b
000001e0: 0332 493d 4d1c b83c 0c2e f43d 6679 df3c
000001f0: 08d6 05be ab0f 143a fb73 05be af0c b3bd
00000200: c729 d7bd 74a0 4f3c cb97 09be 6f42 143c
00000210: 83f0 f93c 4224 c73d f7ad 4ebd 47d5 1bbd
00000220: 92f8 1ebd ac1b 6fbc 645c 573d 75a4 da3c
00000230: a88c e23b 7015 a1bc dbbb cc3c 55e6 9d3c
00000240: 58c2 bcbd a6ec 7abc f6e9 c4bd b106 543d
00000250: 4076 88bd c1bc d3bd 2b38 4dbe 88ff 63bd
00000260: fb12 79bd e84c 743d cebb dbbc 586a 8abd
00000270: 5453 1cbd 7f60 b1bb 1893 903c 8b1e adbd
00000280: 6728 37be 2f54 67bc 0db1 473d 3a29 babc
00000290: 9a20 58bd a1e6 9bbd 0901 023d 4e22 bb3c
000002a0: c64c a1bd dd31 be3d 6feb e7bd 18f0 8fbc
000002b0: 0341 10bd dbde 103d 667a e93d eba2 893d
000002c0: ae05 6dbc 1cc0 1ebe 5c14 f1bd d6b7 623c
000002d0: d404 13be fab6 71bd 2b93 6c3e 6f59 7ebd
000002e0: 2b84 a0bd 7fd3 643d 44eb 37bd cf87 9c3c
000002f0: d45d 95bd b756 303d 0e2b 1a3d 1386 93bd
00000300: 441b 9dbc 9452 e7bd fe36 d63b 8e9f 10be
00000310: 3f13 13be 935b 023e 79d2 a33c 89bf 833e
00000320: e794 4ebd ad4f fdbd a124 bdbd 8b05 203e
00000330: a8ca d5bd b9a5 3fbe 7695 8f3d e974 e5bd
00000340: 5728 d8bd 1aa5 d0bc 0669 71bc 69cd dd3c
00000350: 3b5d 1bbd af80 313d 525e debc 4753 24be
00000360: 24c9 e73c 9f37 3cbd d15d 3abe 4efe b9bc
00000370: 282a 0dbd ed81 11bd 0574 84bd 0524 00bd
00000380: 0cc5 9cbd b3fe 02be 8a70 a03b 763c a8bd
00000390: da26 353c 8848 32bd dd57 50bd 9b0e 37bd
000003a0: 2904 9bba 788a 3bbe 2a5f 6cbd 62eb 20bd
000003b0: dce2 96bd 3608 093d 1be0 013e cfc1 b9ba
000003c0: 9624 a3bc 66c7 18bd 3085 00be 0441 69ba
000003d0: 4aef 90bd c70c 3e3c 609b e0bc 2437 dd3c
000003e0: 1450 08bc 144b a83b 631b abbc 22f9 e23d
000003f0: 9bb1 a3bd bcbe a5bb 3847 a3bc 871e bcbd
-0.07909496 -0.14789025 0.21593179 -0.0442815 -0.122940615 -0.04614637 -0.120950885 -0.10381174
-0.056720488 0.081482284 0.011867745 0.002706913 -0.13305765 -0.037500303 0.0029391574 -0.07532313
0.043540254 0.20577198 -0.050129928 -0.05575214 -0.028108347 -0.049762025 -0.12945975 -0.11935598
-0.06572396 -0.0630317 -0.018366065 -0.13788293 -0.037948553 -0.072622016 0.1569203 0.118275516
-0.05367808 -0.06854283 0.026234785 0.124339655 0.08096145 0.37038225 -0.028004836 -0.031786654
-0.047815375 -0.03524776 0.029375287 0.040998448 0.0052048047 -0.020996876 0.024732523 -0.108729005
0.13828412 -0.07705622 -0.029545521 0.040203836 -0.057726875 -0.008640481 -0.030869136 -0.13291419
-0.07560378 -0.14511183 -0.13433245 -0.13340673 0.07458339 0.007513604 -0.076571785 -0.0929545
-0.034502245 0.09080534 0.009543428 -0.05223253 -0.09035072 -0.029685952 -0.120558165 -0.014308799
0.09769505 -0.037374154 0.30107334 0.05415248 0.05091309 -0.022373462 -0.08571211 0.017800571
-0.03605397 -0.064915836 -0.032605506 -0.022413675 -0.03894685 0.054337844 -0.1072526 -0.053168505
-0.05266888 0.076738596 -0.06430648 -0.11607849 -0.06248997 -0.03322567 0.045004357 -0.05453686
0.042976618 0.058133114 0.03886942 -0.047378015 -0.049706884 -0.031086909 0.09265191 -0.016747348
-0.019597003 -0.16481623 -0.040713016 -0.058206663 -0.06600592 0.05643537 0.124387234 -0.11954777
0.09136129 0.009232585 -0.10535306 -0.14764029 -0.07594998 -0.0011982636 0.023059487 0.005301507
0.04911996 0.022474432 0.11922845 0.027279567 -0.13069928 0.00056480867 -0.13032524 -0.087426536
-0.10506015 0.012672532 -0.1343681 0.009049042 0.030510193 0.097237125 -0.050458875 -0.038045194
-0.038811274 -0.014594 0.052578345 0.026689747 0.00691374 -0.019663543 0.02499192 0.01927487
-0.09216756 -0.01531521 -0.09614937 0.051764194 -0.066631794 -0.10338736 -0.20040958 -0.055663615
-0.060809117 0.059643656 -0.02682295 -0.06758565 -0.038165405 -0.0054131146 0.017648265 -0.08453091
-0.17886506 -0.014119192 0.048752833 -0.022724736 -0.052765466 -0.07612348 0.03173927 0.022843506
-0.078759715 0.092868544 -0.11324202 -0.01757054 -0.03521825 0.03536878 0.11400299 0.06720527
-0.014466686 -0.15502971 -0.11771461 0.013837775 -0.1435731 -0.05901239 0.23103015 -0.06209701
-0.07837709 0.05586576 -0.0449021 0.019107727 -0.07293287 0.043051448 0.037638716 -0.07203307
-0.01917804 -0.112950474 0.0065373173 -0.14123365 -0.1436281 0.12730245 0.019997822 0.25732067
-0.050434973 -0.123687126 -0.09235502 0.15627114 -0.10439044 -0.18715562 0.07010929 -0.112039395
-0.10554569 -0.025469352 -0.014734512 0.027075486 -0.03793071 0.043335613 -0.027144585 -0.16047393
0.028294154 -0.045951482 -0.1819985 -0.02270427 -0.03446403 -0.035524298 -0.064674415 -0.03128435
-0.07654771 -0.12792473 0.004896228 -0.08214657 0.011056626 -0.043526202 -0.050865043 -0.044691663
-0.0011826801 -0.1831454 -0.057707943 -0.03928698 -0.07367489 0.033455096 0.12683146 -0.0014172139
-0.019914906 -0.037299536 -0.12550807 -0.0008897933 -0.07076891 0.011599726 -0.027417839 0.027003832
-0.008319873 0.005135903 -0.020887082 0.110826746 -0.0799286 -0.0050581377 -0.01993142 -0.0918551

model/dense_1/BiasAdd/ReadVariableOp f4 [11]
00000000: 412c d8be 1151 04bf e034 01bf 66c6 d3be
00000010: d684 0dbf 857e f7be d639 20bf 96a5 0dbf
00000020: 7df0 03bf b781 12bf 2c8a e2be
-0.42221263 -0.516862 -0.50471306 -0.41362303 -0.55280817 -0.48338714 -0.6258825 -0.5533079
-0.5153883 -0.5722918 -0.44246042

model/conv2d/BiasAdd/ReadVariableOp f4 [32]
00000000: a157 07be 8fcc c73a 2b8f c4bd efda c5bd
00000010: b6db a0bd d64c fabc dc2a 4bbc ce39 78b9
00000020: 8e92 fabd 15c1 e837 70cd 8ebd 6295 6dbc
00000030: 0c8a 40bc 1048 edbd 0c5b 50bc 9861 2abd
00000040: 7521 97bd 27b8 b1bb effd 9cbc 98db c6bd
00000050: 2766 c2bd 301d ccbc 247c 37bc 0af0 1ebe
00000060: 41df 5fbc 26be 713b e030 01bd 50b4 7fbd
00000070: dc11 ffbb 151d 89bc b4de 083c 76d5 85bd
-0.13217022 0.0015243458 -0.095976196 -0.09660899 -0.078544065 -0.030554216 -0.012400355 -0.00023672657
-0.12234984 2.7746466e-05 -0.06972778 -0.014500948 -0.011751663 -0.115860105 -0.01271702 -0.04159698
-0.07379428 -0.005423564 -0.019164054 -0.09709853 -0.0949214 -0.024916261 -0.011199031 -0.15521255
-0.013664068 0.003688702 -0.03154075 -0.06242782 -0.0077841114 -0.0167375 0.008353878 -0.06534855

model/conv2d_2/BiasAdd/ReadVariableOp f4 [32]
00000000: 3b67 05be 564a 03bd d6ff 193d 5597 2cbe
00000010: 7eba a73d 0cff b6bd ad97 7bbd b403 b23d
00000020: 1d68 7abd a1db 99bc 86c8 27be 7f23 24bd
00000030: 2897 423d 640e c9bc 88c3 323d 927f f13c
00000040: 84ee 43bd dd92 31bd 2cdc 22be a438 ddbd
00000050: 7e43 593d 33f8 5a3d 6b10 0dbd ff70 31bd
00000060: 324a 9ebd abb2 0e3e 3e9c febd 467e 84bd
00000070: 928c e6bd b98a 24be da6c e83d 0250 a3bc
-0.1302766 -0.032053314 0.0375975 -0.16854604 0.081898674 -0.08935365 -0.061423946 0.086921126
-0.061134446 -0.018781485 -0.16385087 -0.040072914 0.047507435 -0.024542995 0.043643504 0.029479776
-0.047834888 -0.04335295 -0.15904301 -0.10801819 0.05304288 0.053459357 -0.034439486 -0.043320652
-0.077289954 0.13935344 -0.124321446 -0.06469397 -0.112572804 -0.16068543 0.11348887 -0.019935612

model/conv2d_1/BiasAdd/ReadVariableOp f4 [32]
00000000: 2ac6 7a3c ca8d f8bd 2fbf 953d 143f 8c3d
00000010: 38c6 55bd 969d e9bc 787f 9a3d a88e cdbc
00000020: 6ce9 f63c 863d 59bd 24a9 aa3d afd0 ef3d
00000030: 98c6 e53c aa9b 9d3d 75aa 613e 447a 003e
00000040: 901d 46bc c67e 6fbd 5c68 2b3d 7853 adbd
00000050: 3bde 15be b84e b1bc cf43 dabd f2d4 1bbd
00000060: 097f 98bb acaa 133e 15aa 943d f7f1 a33d
00000070: 68f1 803d 00d5 573e b857 d8bc 7541 863d
0.015306035 -0.12136419 0.07311856 0.06847969 -0.05219099 -0.028517526 0.07543844 -0.025092438
0.030140601 -0.05303719 0.08333042 0.11709725 0.028048798 0.07695706 0.2203768 0.1254664
-0.012092009 -0.05847051 0.04184757 -0.08463186 -0.14635555 -0.021643981 -0.10657465 -0.038044877
-0.0046538156 0.14420575 0.07259003 0.080051355 0.062960446 0.21077347 -0.026409015 0.06555454

model/batch_normalization/FusedBatchNormV3 f4 [3]
00000000: 00e5 e23a 4df4 9c3b 04cd 493b
0.0017310679 0.004789865 0.0030792365

model/batch_normalization/FusedBatchNormV31 f4 [3]
00000000: 21dc 67be db22 14bf ed2c cebe
-0.22642566 -0.57865685 -0.4026865

model/dense/MatMul f4 [256, 256]
00000000: e629 00be dba6 183e 20d5 483d 5ab5 5e3c
00000010: 5272 ba3d 8eb2 9a3b 1810 483e 05a4 d63c
00000020: 5c00 ca3d 649a 17be dfcb 5cbd 2b14 943d
00000030: 50c2 3e3d 55c7 0e3d f8db d53d dd26 703b
00000040: 5f29 00be 2c59 d63d 45c6 81bd 4369 4ebd
00000050: 7f5d cdbd 7b66 fe3d 923b 303d 6513 6fbe
00000060: 90ba 0f3d 1368 323e f15c 7cbd e51e 013e
00000070: d018 66bc 6da2 0ebd 350c 0b3e b388 e43c
00000080: ba09 b4be 8c3b 823d 782e e63d bb3f d63c
00000090: 37c7 64bc 10be 9c3c 85ac 8a3d f8ed c83a
000000a0: d870 363e b2c5 fbbd b990 1fbc 967a 63bd
000000b0: 2394 543e 460c 82bb 7a65 853e f8ab c23d
000000c0: ee41 9fbd 6dc7 84be 0532 6abe 7422 b13d
000000d0: 25a7 2f3e 163b 7d3d 154c e2bb 605e b43d
000000e0: 55d2 0a3e 2d4f 063e 001f b53d 2f5e 383d
000000f0: 17f2 643d 55e3 833c d429 88be dbbb 1dbd
00000100: 1ce3 283e fc7f 6f3d 03a3 2c3e 5ded a63d
00000110: 01ef f3bd 8898 c1bd cec9 843d 2eef 843e
00000120: 5259 813e c791 423e 1e72 1fbe 1d05 dabd
00000130: 6b5b f03d 92b7 e53d 799f 9dbc 698f 943d
00000140: 6072 dc3b b921 fc3d 9e20 1dbc 9f3e 303e
00000150: 9e96 143c 6d38 533d b000 b03d 197c 69bc
00000160: b225 b43d 87ab 17be ab2d 81bd 11c2 333d
00000170: 3a95 2bbd 906d 47be a825 153e 77c2 093e
00000180: 2606 ad3e 3386 823d ed18 07be 98b2 e03d
00000190: f425 453e aacf fcbd a311 9f3e b994 483e
000001a0: 82a6 acbc ac7e 8a3e ffb7 273e cf28 9f3d
000001b0: 60db f7bd ffe7 943c 3272 edbd 93a4 4a3d
000001c0: 8506 323e 9b7e dcbc bfab 01be dd89 863d
000001d0: 6199 5bbe 0e01 853e bf9c 34bc dc2f b73d
000001e0: b7a5 ee3d 9800 403e 07da 473d dc80 b4bd
000001f0: ffa4 cbbd 055a a13e c6c4 e83d 6023 5a3e
00000200: eeed 193d 4705 d7bd 46ed 8dbc 6f81 023e
00000210: 0fdb 953c 0150 0ebe 42f7 ff3d 04aa 7cbd
00000220: 0700 813d ee9e 963c ee0f 71bd 6f82 f8bd
00000230: 6846 773c 2445 0ebe da98 5fbe 70cd 98be
00000240: 6a8e 7fbe 1e5b acbd 9710 17bd 212c 28bd
00000250: e003 a53d 170e 963d 9c47 8a3e b8bf 8bbd
00000260: b671 93bd 0483 8fbd f92b f4bd 4a69 50bc
00000270: 3312 97bd a817 5dbe ac66 aabe 02b0 3c3e
00000280: 9eb8 813e 4067 863d a02e 78bd b080 233e
00000290: edb6 10be 9aba cabd dc06 923d 77c5 163d
000002a0: 8787 2b3e 3d73 f13e 7aad 4fbd c44d 863e
000002b0: aef9 eb3d b2cf 8d3e 0f89 9c3d 9f42 3e3e
000002c0: 2c5b 353e 84be e23e 64de 383d 8299 983d
000002d0: 7872 143e 0219 4fbd 3d64 573d fdc0 cebd
000002e0: f412 afbd 9397 813e 4775 8dbd 0a58 653a
000002f0: c104 5abe f6f8 3c3d 3da5 8dbd 7023 d43b
00000300: ff86 493d 8c4c 98bc 058f 3e3e 3260 07be
00000310: a4e6 41be d2b9 123d 1ef3 323d 2248 513d
00000320: f896 e83d f718 80be 1f5e 123e 00dc 853e
00000330: 2421 85bd 8e27 f73c 82d2 52be 4be4 4cbd
00000340: 0cd0 693c 9246 323e fc9f edbc 7753 16be
00000350: 8d8f 88bd 898d eabc 21b0 07bc 53ba d33d
00000360: b4b2 cf3d 96f4 aebd 1aee d2bd f791 b93d
00000370: 281e 7fbd 817a e1bd 3183 e83b 5f76 853d
00000380: 5203 a93d 3ca8 6abc 7f84 ff3d 5a3c 073e
00000390: 2d4c c53d 9bb5 a93d 715f 86bc 0736 11bd
000003a0: a896 3d3e 19d4 dd3c ae22 013e d78b b0bc
000003b0: be83 1fbe a628 8d3d a308 ee3d b0f8 3c3e
000003c0: 605e ce3d 0b03 523d db12 093e 23fc eebd
000003d0: 6f6a c13d 3c12 68bd 27d2 6cbe c18c 2abd
000003e0: 198b 183d b8e3 c53d a85a 20bd e1b6 bd3c
000003f0: 433e 733d 26ca 173e 351c 93bc 06ec 1a3e
-0.12515983 0.149074 0.049031377 0.013593042 0.09103836 0.0047209924 0.1953739 0.026201257
0.0986335 -0.14804989 -0.053905364 0.07230409 0.04657203 0.034858067 0.10442346 0.0036644258
-0.12515782 0.10466227 -0.06336645 -0.050393354 -0.100275986 0.1242189 0.04302556 -0.23347242
0.03509003 0.17422514 -0.061612073 0.12609442 -0.014044002 -0.03482287 0.13578875 0.027897215
-0.3516367 0.06359014 0.11239332 0.026153436 -0.013963512 0.019133598 0.06771187 0.0015329709
0.17816484 -0.12293567 -0.009739094 -0.05553683 0.20759635 -0.0039687483 0.26053983 0.09505457
-0.07776247 -0.259334 -0.22870643 0.086491495 0.17153604 0.061823927 -0.0069060423 0.08807063
0.13556798 0.1311614 0.088438034 0.045011695 0.055894937 0.016099611 -0.26594412 -0.03850923
0.16492885 0.058471665 0.16859059 0.08150742 -0.11910821 -0.09452921 0.06483804 0.2596373
0.25263458 0.19000922 -0.15570876 -0.106455065 0.117361866 0.11216654 -0.019241082 0.07253916
0.0067275017 0.123111196 -0.009590296 0.17211388 0.009069113 0.051567484 0.08593881 -0.014250779
0.08796252 -0.14811526 -0.063075386 0.043886248 -0.04189036 -0.19475389 0.14565146 0.13453089
0.33793753 0.06373253 -0.13193102 0.10971564 0.19252759 -0.12344296 0.31068143 0.19587983
-0.02107549 0.27049768 0.16378783 0.077714555 -0.12102389 0.01817703 -0.11594047 0.049473356
0.173853 -0.026915839 -0.12663172 0.06569264 -0.21445228 0.25977367 -0.011023699 0.08944675
0.11652701 0.18750226 0.04879191 -0.088136405 -0.0994358 0.31513992 0.113656566 0.21302557
0.037580423 -0.104990534 -0.017325055 0.12744687 0.018292932 -0.13897707 0.124983326 -0.061685577
0.06298833 0.01838633 -0.058853082 -0.12134253 0.01509247 -0.13893563 -0.21835652 -0.29844236
-0.2495667 -0.08415817 -0.036881056 -0.04105771 0.0805738 0.07326906 0.2700776 -0.06823677
-0.07199423 -0.07007411 -0.119224496 -0.012720415 -0.07376518 -0.21591055 -0.33281457 0.18426517
0.25336164 0.06562662 -0.06059134 0.15967059 -0.1413228 -0.09898873 0.071302146 0.03680941
0.16750918 0.47158232 -0.05070255 0.26231205 0.11522232 0.2769752 0.07643329 0.18580101
0.1771056 0.44285977 0.045133963 0.07451154 0.14496791 -0.05056096 0.05258583 -0.10095403
-0.08548537 0.25310954 -0.069071345 0.00087487756 -0.21290876 0.046135865 -0.06916282 0.006473951
0.049201008 -0.018591188 0.18609245 -0.1322029 -0.18935639 0.035821743 0.043688886 0.05109418
0.1135692 -0.25019047 0.14293717 0.2614441 -0.06500462 0.030170228 -0.20588115 -0.050022405
0.014270794 0.17409733 -0.02900695 -0.14680277 -0.06668005 -0.028631942 -0.0082817385 0.10338273
0.10141507 -0.08542745 -0.102993205 0.09061044 -0.06228462 -0.11009694 0.0070957174 0.06516718
0.082525864 -0.014322337 0.124764435 0.13206616 0.0963367 0.082865916 -0.016402932 -0.035451915
0.18514502 0.027078675 0.12610886 -0.021551056 -0.155776 0.06892519 0.11622741 0.18454242
0.10076594 0.051272433 0.13386099 -0.11669185 0.09444129 -0.056658015 -0.23127042 -0.04163814
0.03724203 0.096625745 -0.039148957 0.023158493 0.05938555 0.14823207 -0.017957786 0.15129098

model/dense_1/MatMul f4 [11, 256]
00000000: 81e3 35be a7f6 f7be b4e4 2abf 4455 25bf
00000010: 0c45 3ebf 1227 3bbf a92f 86bf 97d4 38bf
00000020: 9c43 6dbe 1131 d9be 2d4a 13bf e573 ffbe
00000030: bb79 44be eee9 06bd f3b9 afbe 6f40 aabe
00000040: 68c8 b9be 186c 82be 2c64 58bf b790 82bd
00000050: 65f3 88bf a847 dcbe d7be 0cbf 4b7b 87bf
00000060: db34 2dbf 2d03 01bf fad8 b4bc 30a0 04be
00000070: f956 453d c519 6fbf 7c14 a4be be04 713c
00000080: 9199 24bf dedf 02be f767 21bf 7497 44be
00000090: d7eb e9be 0b33 b8be 471f 823d af12 21be
000000a0: da17 12bc 5b5e 30bf 287b 8dbe 67e2 55bd
000000b0: 2a45 5fbf 3467 1cbf e64d f6be c773 81bf
000000c0: a7f1 5cbe 3afd 4dbf eb3c 4bbf beaf b93c
000000d0: f892 b1bd e63d e03d c5ac 8dbd 7023 73be
000000e0: a4be 2ebf ce05 35bf ad0a 76be 65bd a7be
000000f0: 9561 a3bf d1ee 81bf 83f0 0abf 8e47 95bf
00000100: 3632 89bf d0a9 c2be 6610 56bf 4139 56bf
00000110: 3226 7abf f96e 71bf b55f 86bf 5b29 bebe
00000120: 8787 32bf 7f42 d1bd cf47 73be 51cc 04be
00000130: 9e77 48bf ae27 b1be ee5b cbbe 9a57 e9be
00000140: c0d4 45bf 9404 36be 4bcf f2bd 1562 b7be
00000150: 0e9a bfbc 329d 0ebf f429 2cbf 5d82 7bbd
00000160: 2cff d3be 3489 cabe 85de 28be 7d02 08bf
00000170: 92ed 91be d9d5 b5bd a6dc 98be 2124 7e3d
00000180: ed9b 4dbf 260f c1be e716 bfbd 9d96 6bbf
00000190: d6d0 85bd 1f80 41be a9d4 c7be 62a5 be3c
000001a0: abd2 5dbf 592b 5dbf 124a b0bd 39d0 02bf
000001b0: 6852 fabe a4d3 e3bd 7fea 10be 45d5 63bf
000001c0: bc0b 33be ec3a 64bf 91aa 2dbf de4d 8abf
000001d0: 5e38 23bf fa00 f53d c5b2 2cbe 1eba 06bf
000001e0: cd71 41be 779e 1d3e 3b92 6cbe 7dca b4be
000001f0: 4ca7 f1be a1f7 5cbe adc9 57be f7eb e7bd
00000200: fc79 e9bd 14a7 fcbe c732 22bf c17c 16bf
00000210: 7465 febe d3c3 d2be 0ebc a3be 38a2 6abc
00000220: 508a abbe 43dc 5cbf 6524 1abf 0bfb fdbe
00000230: a504 e5be 2588 bfbd c308 2d3d 72d9 a1be
00000240: 48b0 40bf bd9f 37bf 59a2 59bf ea31 17be
00000250: fd41 81bf df8a 6ebf 6e5c 9abf 49fc 6abf
00000260: 3a93 d4be d5ef 17bf 4657 49be 099c 0cbf
00000270: 122b 79be e92d b8be 8b3b 03bf 35f8 24bf
00000280: 03d7 5ebf 2c37 7dbf 8545 c7be d1b6 7cbf
00000290: e7df 7dbd 040f 0ebf 3c75 a8be dbac e6be
000002a0: 4aa6 7dbe 9fe1 83be 2580 a0bf 0f41 ee3d
000002b0: c563 32bf eb5d a0bd dd5d 87be 6a40 a4be
000002c0: baf0 23bf 460d 60bf c60a 5abf 49ab 36bf
000002d0: 7e0e 87bf fc8e 91bf 95e7 97be 586a 72bf
000002e0: 162a 84bf 505d 9ebe 766e a9be 737b ddbe
000002f0: 7f2a 25bf 00a7 8ebe 390b 96be a936 8fbf
00000300: 431b 3abf 6584 5cbf 3676 a1be df8b f6bd
00000310: b590 f3bd c48a 96be 8a5d bcbe e8b6 18bf
00000320: 800e 4ebf f2ea 95bf 1801 41bf 5736 c03a
00000330: 066e 10bf 5d6a 77bf 2688 81be d84c 51bf
00000340: 45d6 b4be ec6f e2be e214 28be e45b b0be
00000350: 61ad b9be 44f7 f6be f277 18bf 00f6 0ebf
00000360: f696 33bf f002 ecbe 5c94 73bf aae4 94bd
00000370: 4941 87bd 1493 bfbe 2658 b1be d1d8 3abf
00000380: 2642 bfbe 30ab 82bf 17c2 1bbf 7eb4 67bf
00000390: c652 33bf c7e5 5abe ec6b 66be f084 60be
000003a0: 8625 4abf 181b 88bf 678d 25bf 5238 7a3d
000003b0: 5508 8cbf a21a dcbe e4d5 06bf 69fe 51bf
000003c0: e84d d1be 084e b5bd 7908 1dbe 3302 eabe
000003d0: 91e7 00bf dc7d 6ebf 33f6 f4be e0e0 62be
000003e0: 1b67 cabd a290 73be 85a9 c9be 9d53 94be
000003f0: a9a3 69bf 443b 23be 28c3 15be 17d0 31bf
-0.17762567 -0.48430368 -0.66755223 -0.6458323 -0.7432411 -0.7310649 -1.0483295 -0.72199386
-0.23170322 -0.42420247 -0.5753506 -0.49893108 -0.19187061 -0.032937936 -0.34321555 -0.33252284
-0.3628571 -0.25473094 -0.8452785 -0.063752584 -1.0699278 -0.4302342 -0.549787 -1.0584501
-0.67658776 -0.5039547 -0.022076119 -0.12951732 0.048178647 -0.93398696 -0.32046878 0.014710603
-0.64296824 -0.12780711 -0.6304926 -0.191984 -0.45687744 -0.35976443 0.06353622 -0.15729783
-0.0089168195 -0.68893975 -0.27633023 -0.052217867 -0.8721491 -0.61094975 -0.48106307 -1.0113457
-0.21576558 -0.8046452 -0.7938983 0.022666808 -0.0867061 0.10949306 -0.06917719 -0.23743987
-0.68259645 -0.7071198 -0.2402751 -0.32761684 -1.2764155 -1.0151006 -0.5427324 -1.1662462
-1.0718448 -0.38020182 -0.8361877 -0.8368111 -0.9771453 -0.94309956 -1.0497957 -0.37140927
-0.6973805 -0.10217761 -0.23757862 -0.12968566 -0.7830752 -0.34600586 -0.39718574 -0.45574647
-0.77277756 -0.17775184 -0.11855944 -0.35817018 -0.023388889 -0.5570861 -0.67251515 -0.06140362
-0.41405618 -0.39557803 -0.16491134 -0.53128797 -0.28501564 -0.08878679 -0.2985584 0.062046174
-0.8031605 -0.3770687 -0.0933054 -0.9202669 -0.06533973 -0.1889653 -0.39029434 0.02327222
-0.8664958 -0.8639427 -0.08607878 -0.5109897 -0.48890996 -0.111243516 -0.14151953 -0.889973
-0.17484945 -0.8915241 -0.6783839 -1.0805013 -0.63757885 0.11963077 -0.1686507 -0.5262774
-0.18891068 0.15392481 -0.23102657 -0.35310736 -0.4719795 -0.21578838 -0.21073027 -0.113243036
-0.1140022 -0.4934622 -0.6335873 -0.5878411 -0.49686778 -0.41165027 -0.31979412 -0.0143209025
-0.33503962 -0.8627359 -0.60211784 -0.49605593 -0.44730106 -0.093521394 0.042244684 -0.3161121
-0.75268984 -0.71728116 -0.8501335 -0.14765134 -1.0098263 -0.9318065 -1.2059457 -0.91791207
-0.41518575 -0.5935033 -0.19662198 -0.5492559 -0.24332836 -0.35972527 -0.5126273 -0.64441234
-0.8704683 -0.9891231 -0.38920227 -0.98716456 -0.061981108 -0.5549166 -0.32901943 -0.45053753
-0.24770465 -0.25758073 -1.2539107 0.11633503 -0.69683486 -0.078304134 -0.264388 -0.32080394
-0.64039195 -0.87520254 -0.8517269 -0.7135511 -1.0551298 -1.137176 -0.2966887 -0.9469352
-1.0325344 -0.30930567 -0.33092088 -0.43258247 -0.6451797 -0.27861786 -0.29305437 -1.1188556
-0.7269785 -0.8613952 -0.315355 -0.12038397 -0.11892835 -0.29402745 -0.36790115 -0.5965409
-0.80490875 -1.1712325 -0.75392294 0.0014664632 -0.5641788 -0.9664667 -0.25299186 -0.8175788
-0.35319725 -0.44226015 -0.16414216 -0.34445107 -0.3626509 -0.48235524 -0.5955802 -0.55844116
-0.70152223 -0.4609599 -0.95148253 -0.07270177 -0.06604249 -0.374169 -0.34637564 -0.72987086
-0.37355155 -1.0208492 -0.6084303 -0.90509784 -0.7004818 -0.21376716 -0.22502106 -0.21925712
-0.78963506 -1.0633268 -0.6466889 0.061088867 -1.0940043 -0.4298907 -0.5267012 -0.82028824
-0.4087975 -0.08852774 -0.15335263 -0.45704803 -0.5035334 -0.93160796 -0.47844085 -0.22156096
-0.09882947 -0.23785642 -0.39387146 -0.28970042 -0.9126535 -0.15940577 -0.14625227 -0.69458145

model/conv2d/Conv2D f4 [32, 3, 3, 3]
00000000: 30ab a33d f8c1 463d fdc4 643e f6c0 9fbc
00000010: 3cca 063e 096a 593e c64a 853d b150 44bd
00000020: d332 263c d7fe b43d 65ea 233d 18be 223e
00000030: cff7 0f3e b74c 3a3e 3314 873d 81fa 35be
00000040: 50c6 7abd a605 28be 8894 63be c830 8bbe
00000050: dbf1 d3bd fbd6 26bd 1e09 44bd 92c4 c5bc
00000060: de17 eabc 953f 8bbd c714 8bbe a382 36bd
00000070: a771 abbb 8adf 043e 61a6 393e f8f1 653e
00000080: a984 7b3e 94f7 6a3e cc6e 903e 5c22 c03e
00000090: b832 f5bd c3a5 a8bc aa10 70be 99b2 26be
000000a0: 924c 8abc 925b dfbd c713 f63d 9332 f9bc
000000b0: 69de 3dbd 517b 3bbd e0a0 1dbe 3ef5 a73d
000000c0: 9c50 edbb 7221 b8bd 03f3 8fbe 675e acbd
000000d0: 75d7 30be 2c41 19bd 5702 3a3e bfef ab3d
000000e0: 7d97 3fbd c375 b33d 2552 90bd 5daf 033d
000000f0: 9c96 a43e 6f03 ef3b 575e 523e 719c 9dbd
00000100: 772a 61be 2444 3e3e 45c5 84bc 1abd 3abe
00000110: 829e 3a3e 85d3 49bd ff0e 8b3c 7928 bd3e
00000120: 763c e2bd 8eae 63be bf8f eebc 43e1 59be
00000130: 35f6 08be c442 383a 3990 913a 4292 32bc
00000140: f2a9 143e 0e0c 413e ff52 383e 5e20 bfbd
00000150: 65a3 db3b bee9 983d a436 84bc 4543 d3be
00000160: ee30 66be b23c acbe 85ee 303e 654f 36bd
00000170: 4d25 2d3d 01d5 543c 026d 933e 70a1 2d3c
00000180: 23d7 bd3d 4109 813b 861b 2e3d 780f e4be
00000190: 98ab 97be 08bc bbbe 113b de3d 9ac2 4e3e
000001a0: a9b7 d13d 579e 7e3e 9e6c 783e 8cba 8dbd
000001b0: dd71 9c3e ce8a 4bbe bc9c 96be 3365 663e
000001c0: 8832 333e b1cf 35bc 761d 1e3d 3e41 253d
000001d0: 96e4 b53d 1653 ee3d a36b 0fbe 0b76 15bc
000001e0: 838a 983d bd73 0dbe 8889 28be 1408 0d3e
000001f0: 586e 7d3d a7f6 073c cc14 f23e 1a0d 8bbd
00000200: 5a27 f9bd fa62 6a3d d9b3 67bd a8b5 57be
00000210: f886 2b3d b752 9e3c ae00 d2bd e0b2 223e
00000220: 1c00 cebc ca5b 003c 419f 8b3e 98ed e53b
00000230: d9e7 2b3b 337b 19be 8ddc e7bd 656d 913c
00000240: 87d1 c3bd 15e4 85bd fc5f c83d 5e88 263e
00000250: 0a9f 2c3d 52d8 7a3e fc91 1dbe 68ab b1bd
00000260: 2a7f bdbd 2136 92bd 722c 1b3d 0c4c 9ebd
00000270: 5929 263e e060 3b3e 21c0 5c3e 5cec 89be
00000280: 3044 a0bd 18d7 fabd 4c83 e33d 0ec7 2c3d
00000290: 40e6 593e b699 61be d130 35be a222 0cbe
000002a0: 8131 373d 6eff 4fbb 2eff cc3d 57e5 1ebd
000002b0: bf1f 0e3d 47c5 3c3e e4ef a2bd aadb 86bd
000002c0: 47bb 8bbe 8fe4 cb3d ffe0 c2bc fa70 24be
000002d0: 5670 f8bc 6f4b 693e 8a7d a3bc f5f0 48be
000002e0: d0bc 55bc 5d0c 65bd e791 1a3e da6f 93bc
000002f0: 53df 29bd 1e7e 6b3c 8cf4 cfbd babb 043e
00000300: fc70 fabd 33da 05be 1c19 11be 584e 80bd
00000310: 9ff2 d4bd 7b45 54be ac6c 47bb 4b75 13bc
00000320: 7289 3539 76e8 1dbe 4273 19be 5624 aabd
00000330: 933a 28bd 5c73 603d 7e1f 0cbb d493 1f3d
00000340: b4a0 babd 0eae 1dbc a9df 443e 577c 503e
00000350: 963b f63d 6b72 4cbc 7c6c a43e 7190 493e
00000360: 02b5 2dbc c098 94bc b5f4 81bd 0175 42be
00000370: 3bf1 4ebe 746f 50be 4753 c8bd 8645 383d
00000380: 3c47 0ebe 1cd5 f13d 70fe 483e 5593 3b3e
00000390: 81ef 10bd 5273 4abd 18b6 953d 55f9 3dbe
000003a0: ae0e 4bbe 86c6 83be a008 d43d d460 ba3d
000003b0: 0885 0d3e 7fdb 443e ce77 9a3e 3562 8d3e
000003c0: d5a9 493d 4f0b da3c 8f06 a8bd 14fd bdbd
000003d0: 9eb4 23be 1fe4 dabd 167a 33be 7448 e03d
000003e0: d966 673d 8e72 bc3d a71f 473e 33a9 5e3e
000003f0: b98b f63d f01f f1bd ee38 8dbd 57b3 f0bc
0.07991636 0.048524827 0.2234077 -0.01950119 0.13163084 0.21231855 0.065084025 -0.047928516
0.010143953 0.08837669 0.040018458 0.15892828 0.14059375 0.18193327 0.065956496 -0.17771341
-0.06122428 -0.16408405 -0.22224629 -0.27185655 -0.10348865 -0.040732365 -0.047860257 -0.024141584
-0.028575834 -0.06799237 -0.2716429 -0.04455818 -0.0052320543 0.12975898 0.18129875 0.22455585
0.24562325 0.22946006 0.2820953 0.37526214 -0.119725645 -0.020586854 -0.23443857 -0.16279067
-0.016882215 -0.109061375 0.12015491 -0.030419623 -0.046354685 -0.0457719 -0.153934 0.08201073
-0.0072422754 -0.08990754 -0.2811509 -0.08416443 -0.1726969 -0.03741567 0.18164955 0.08395337
-0.04677533 0.08762696 -0.07046918 0.03214966 0.32146156 0.0072941105 0.205438 -0.076958545
-0.21988855 0.18580681 -0.016207347 -0.18236199 0.18224528 -0.049273986 0.016974924 0.3694494
-0.11046688 -0.22234556 -0.029121278 -0.21277337 -0.1337517 0.0007028992 0.0011105604 -0.010899128
0.14517954 0.18852255 0.1800041 -0.093323454 0.0067028278 0.07466458 -0.016139336 -0.4126226
-0.22479603 -0.33640057 0.17278488 -0.04450931 0.0422719 0.012990237 0.28794104 0.010597572
0.0926955 0.0039378707 0.042506717 -0.44543052 -0.29623103 -0.36666894 0.1085111 0.20191422
0.102401085 0.2486509 0.24260184 -0.069203466 0.3055562 -0.19877169 -0.29416454 0.22499542
0.17499745 -0.011096881 0.038602315 0.040345423 0.0888149 0.11636941 -0.14005904 -0.009122382
0.07448294 -0.13813682 -0.16458714 0.13772613 0.06187281 0.008298553 0.47281492 -0.06789608
-0.12165709 0.057223298 -0.056568 -0.2106539 0.041876763 0.01932655 -0.10254036 0.15888548
-0.025146537 0.007834384 0.2726994 0.007016849 0.0026230721 -0.14988403 -0.113213636 0.017752359
-0.095614485 -0.06537644 0.097839326 0.16262957 0.04214386 0.24496582 -0.1538772 -0.08675271
-0.0925277 -0.071392305 0.037884183 -0.077293485 0.1622671 0.18298674 0.21557666 -0.2693814
-0.07825506 -0.12248057 0.11109027 0.04218202 0.2127924 -0.22031292 -0.17694403 -0.13685086
0.044724945 -0.0031737941 0.10009609 -0.038792934 0.034698244 0.1843463 -0.07955912 -0.06584866
-0.2729132 0.099557035 -0.023788927 -0.16058722 -0.030327003 0.22782682 -0.019957323 -0.19623168
-0.013045505 -0.055919994 0.1509472 -0.01799767 -0.041472744 0.01437333 -0.101540655 0.12962237
-0.12228581 -0.13071518 -0.14169735 -0.06264943 -0.10397839 -0.2072963 -0.0030429764 -0.009000133
0.00017312707 -0.15420708 -0.14985374 -0.08307712 -0.041071486 0.054797515 -0.0021381075 0.03895934
-0.09112683 -0.009624017 0.19225945 0.20359932 0.12023084 -0.012478451 0.32114017 0.19684006
-0.010602238 -0.018139243 -0.06345502 -0.18989946 -0.2020921 -0.20355016 -0.09781509 0.044988178
-0.13894361 0.118082255 0.1962831 0.18317921 -0.03538466 -0.049426384 0.07310122 -0.18552144
-0.19829819 -0.257374 0.103532076 0.091005 0.13820279 0.19224356 0.3016953 0.2761399
0.04923423 0.02661672 -0.08204376 -0.092767864 -0.15986869 -0.10688042 -0.17527041 0.10951319
0.056494568 0.09201537 0.19445668 0.21744232 0.12038369 -0.1177367 -0.06895624 -0.02938239

model/conv2d_1/Conv2D f4 [32, 3, 3, 32]
00000000: 6db3 30be 4d05 a43d 6139 d7bb 79cb 5a3d
00000010: e830 93bd 0677 053d 053d 5d3b 3943 b3bd
00000020: e0de 673e 04dc d6bb 3363 7b3e b5fb 8dbd
00000030: 27b3 0ebd 8a91 a3bd a93a 1f3e 3d69 443e
00000040: f4a3 9ebd f107 2cbe f8e7 be3b 425c f9bc
00000050: bcfb f0bc 6220 efbd f56d 443e b827 ff39
00000060: 6737 78bd 3a20 a43d 031a 003b 1e49 6dbe
00000070: c869 953d e75b f53d 4875 143c 581d 573d
00000080: f308 11bd 31ee bc3d f0a8 2dbd 47ea 1e3e
00000090: 06aa 093e c5f0 cd3d a2bf 813c 9d35 6fbd
000000a0: 56ef e33d f9fd 893e 2bb9 af3d 29bb 3dbe
000000b0: 08db 48bc fae3 743d b736 363e 6003 d33d
000000c0: 13d5 2fbd 3750 383a f4ed babc 8d56 f1bc
000000d0: f1c4 2abe 7fec 8b3c 5319 6f3e 3a26 d63c
000000e0: cf03 c63d 0166 b53d adc9 683d 7414 eebd
000000f0: 4a6e 873d cf5e d73d 496f 813d ee7c 523d
00000100: f946 e3bd 9b34 323c fbb6 25be 7bd2 743d
00000110: 18d1 67bd ea4f 62bd ea98 d0bd 63f6 7b3e
00000120: d308 e8bd 3979 673d 3334 f3bd 8619 db3d
00000130: 529d 123e da57 aabc 3a4d 85bc 2cbc 53be
00000140: 9bb4 8f3d e4c5 6e3d 5d1f 8c3d 86e8 963e
00000150: f954 2b3d 8c38 113e c4b5 503e 56f7 363e
00000160: 1c32 363e 35bd 6bbe b44d 0c3e a0c2 b7bd
00000170: 5f39 743c dc20 be3d 4b7f 9c38 7c0f 3f3d
00000180: e0e1 353c d577 a03d f336 183c c6e5 913d
00000190: 2268 103d 1058 54be d89d 9dbb ee37 39be
000001a0: 7a04 bdbc a84f ed3d f82d a5bd 7c69 34bd
000001b0: 4a8b e5bd 452b 133d 4f71 f1bd 8443 813c
000001c0: 4c17 ddbd 490e f83d 78b6 2ebe a9dd a3bd
000001d0: 074b 7ebd 8271 86be ba8e 4b3c fe04 a33c
000001e0: 1fb9 eb3c 61d6 10be cc24 25be d6df d3bc
000001f0: 0ff2 fbbd 21fe ac3d 297a 25be 0a61 6bbe
00000200: 17b6 6d3a 33ca 943d 0e29 a23b 3627 11be
00000210: 5fbe e63a 8dda ccbd 404b f5bd 2128 4ebe
00000220: 4286 dfbd 78ed 793e 943b 22be 139c 7cbe
00000230: 218f 3cbe a71e 353e e058 43be 7c5e 33bc
00000240: 3153 9abd 606e 8c3e 005a 03be e502 49bc
00000250: 4340 20be 3c13 c3be 1286 663e d617 e2bd
00000260: 3648 2a3e 269a b0be 65e8 2dbe 1434 983d
00000270: be3b 17be d3e2 073d 58c6 cebd 516a 8ebe
00000280: 2534 88be 1393 3c3e 4b83 7cbd 265d 8fbe
00000290: fa81 dd3d 7d35 03be 8efc a5be f808 d4bd
000002a0: 8ee7 dbbe ff28 2fbe 97a5 75bd c10c 8c3d
000002b0: e32e 123b e0b4 403d ee4d 10bf db1b 81be
000002c0: 269e 87be c176 b53e 81d2 56be 8e1e c0bd
000002d0: 6668 313e 6933 7bbe 854a 7f3e 6d30 483c
000002e0: a748 613e cf7b d8be 42c0 02be 9b67 453e
000002f0: 2ae8 c8be b0ec 52be 2908 6abe 4ada 83be
00000300: 4a4f 743d a679 753b 6985 ca3d 0ade 283d
00000310: 58cf 9c3d a81e adbd c093 f33d c338 0bbe
00000320: 4776 25bd 8f73 8ebd 4d02 4dbd 6f63 9e3b
00000330: 46b7 8cbd 0a3e 65be be52 c2bc 4c2d 84bd
00000340: ff6c 863d 22e8 853d 63fa 8cbc 692d 17be
00000350: f851 283e 0da7 d8bb 824d 00be a0db babd
00000360: b87d 523d 67a8 e43b e030 fdbd 187d 083d
00000370: 8854 9e3e ada4 63b9 f10b 68bc 998a a23e
00000380: 13b4 a33b 5454 0d3e 67e5 ca3c fd5f fbbd
00000390: f49c ed3d b0db 9fbd 2f98 963d 84f1 513e
000003a0: 8233 05bd 3e6c dbbd 7732 46bd b79c 3cbc
000003b0: 9e3e 803d bef3 f4bd fd9b 533c 073f e0bd
000003c0: 535e 50be 0a48 713e b2e2 973d 2326 7bbe
000003d0: 36b9 c03d e522 5a3d c116 a93d 2fc8 4ebe
000003e0: acc5 503e 5f88 81be fbdc 0fbc 53d7 8b3e
000003f0: 3b15 70be b768 8c3e 5d47 533e 151f df3d
-0.17255946 0.080088235 -0.0065681194 0.053416703 -0.071870625 0.032584213 0.0033758294 -0.08753056
0.22643614 -0.0065569896 0.2454956 -0.06932775 -0.03483882 -0.07986744 0.15549721 0.1918077
-0.07746115 -0.16799904 0.0058259927 -0.0304395 -0.029416911 -0.116760984 0.1918257 0.00048666983
-0.06059971 0.08013959 0.0019546754 -0.23172423 0.07295567 0.119804196 0.009061165 0.05251822
-0.035408925 0.09225119 -0.04239744 0.15519057 0.13443765 0.10055689 0.015838448 -0.05840074
0.11129634 0.26951578 0.0858024 -0.18528427 -0.012259252 0.059787728 0.1779431 0.10303378
-0.042927813 0.0007030996 -0.022818543 -0.029460216 -0.1667669 0.017080544 0.23349504 0.026141275
0.09668695 0.08857346 0.056832958 -0.11624995 0.06612833 0.1051613 0.06320054 0.051388673
-0.11097521 0.0108768 -0.16183083 0.059771042 -0.05659589 -0.055251993 -0.10185416 0.24605708
-0.11329808 0.05651209 -0.118751906 0.106982276 0.14317825 -0.020793844 -0.016272176 -0.2067725
0.0701687 0.058294192 0.068419196 0.29474276 0.041829083 0.14181727 0.20381838 0.17867789
0.17792553 -0.23021396 0.13701516 -0.08972669 0.014906256 0.09283611 7.46237e-05 0.046645626
0.011101216 0.07835356 0.009290445 0.07123904 0.03525556 -0.20736718 -0.004810076 -0.18087742
-0.023073424 0.11587459 -0.080654085 -0.04404591 -0.11208208 0.035929937 -0.1178919 0.015779264
-0.10795459 0.121121 -0.17061794 -0.08001263 -0.06208327 -0.26258475 0.012424165 0.019899841
0.028774796 -0.14144279 -0.16127318 -0.02586357 -0.123020284 0.08446909 -0.16159882 -0.22986236
0.0009067966 0.07265129 0.0049487418 -0.14175114 0.0017604342 -0.10002623 -0.119772434 -0.20132495
-0.109142795 0.24406993 -0.1584304 -0.24668913 -0.18413974 0.17687474 -0.19076872 -0.01094782
-0.07535399 0.2742796 -0.12827301 -0.0122687565 -0.15649514 -0.38100612 0.22512081 -0.110397026
0.16629109 -0.34492606 -0.16983183 0.07431808 -0.14768884 0.0331753 -0.10096425 -0.27815488
-0.26602283 0.1841548 -0.06164865 -0.28000754 0.10815807 -0.12813373 -0.32419246 -0.10353273
-0.429501 -0.17105483 -0.059972372 0.0683837 0.0022305779 0.047047496 -0.5636891 -0.25216565
-0.26487845 0.35442165 -0.20978738 -0.09380828 0.17324981 -0.2453133 0.2493077 0.012218577
0.22000371 -0.42281958 -0.12768653 0.19277804 -0.39239627 -0.20598102 -0.22854675 -0.2575248
0.05964593 0.0037456541 0.09888727 0.041227378 0.07656735 -0.08453113 0.118934155 -0.13595872
-0.040396 -0.06955635 -0.050051022 0.0048336308 -0.06870894 -0.22386947 -0.023721095 -0.06453952
0.06563758 0.065384164 -0.017209237 -0.14763416 0.16437519 -0.006611711 -0.12529567 -0.091239214
0.051389426 0.006978083 -0.12362838 0.033322424 0.30923867 -0.00021709753 -0.014163003 0.31746367
0.0049958318 0.138017 0.02476759 -0.12274168 0.11602202 -0.07805574 0.073532455 0.20502287
-0.032519825 -0.10714005 -0.04838797 -0.011511973 0.06261943 -0.11960553 0.0129156085 -0.109495215
-0.20348482 0.23562637 0.074162856 -0.24526267 0.09410326 0.053255934 0.08256293 -0.20193551
0.20387906 -0.25299355 -0.008780713 0.27312717 -0.23445599 0.2742364 0.20632692 0.108946

model/conv2d_2/Conv2D f4 [32, 3, 3, 32]
00000000: a6d6 e0bd e935 7fba 86d5 443e cfa7 be3d
00000010: d6b3 f8bc 2f21 c0bd 8d49 75bd a725 17bd
00000020: c1a8 9dbc b0d5 2dbe 5fc9 8cbd 1833 1a3e
00000030: a29f 2a3c 0e0b c23d cda5 3bbe 9691 37bc
00000040: 97b9 f83d 781b af3d 6c60 c0be 9a50 863d
00000050: 9fc9 03be 7b39 a53e 8ddc 87be 8475 863d
00000060: 07d6 bdbc 8f74 76bd bdae bfbd ae4f 40be
00000070: de9b 1bbd 7ba6 a73d f3d2 613d 5480 5abd
00000080: 1029 633e 9e33 203d e38a b7bb a96e f13d
00000090: 4f4d b53e 1fda cbbd 1d85 ad3d 49bc 7abc
000000a0: c065 9cbd 374c 2f3e 5e2f 943d 444b dbbc
000000b0: eb70 82be adc1 4a3e cd70 efbc 7530 0bbe
000000c0: 8891 a53e b944 0a3d 5a79 e9bc e862 b33d
000000d0: 6824 50bd e9f6 043d 5ee4 22be 8139 5dbc
000000e0: 9d6f a1bc 4caf 3bbe 18b2 abbd 966b b3bd
000000f0: 7852 7ebd 5538 a43d 8ad3 e03c 6062 84bd
00000100: bc99 663e e2a7 56be dfb4 1a3e 6880 a93d
00000110: 704b c0bc 821a c5bd 5dd8 133e d552 cdbd
00000120: 0f3c 25be c52d 963d 7b11 d0bc 0533 62be
00000130: a2da 03be 255f 363e b805 c9bd 43c4 15bc
00000140: 72e2 193e 2080 093d 828c 303d 0846 5e3e
00000150: 4bfb c63d fa07 2bbe f8ad f3bc 3deb 70bc
00000160: 1bee bb39 1668 47be fef4 f93d b5a8 fc3d
00000170: 9144 683c 890d e13d 7a52 92bd 8275 293c
00000180: 888d e43c f079 0ebe ad3d 47be 7a70 cebd
00000190: 2d45 703a ff19 3d3a 23ba 093e c07f efbd
000001a0: 7f5d 6c3d 4f53 973d d2dd 823d 2b5d c53d
000001b0: 4e85 2fbd 6532 6b3e 1f43 0f3d 936c 55bd
000001c0: 2919 b6bc fe02 bfbd ed0e 16be ff27 11bd
000001d0: 63d8 973d 8388 923e da0d 3abe 86f6 6ebe
000001e0: d2db c6bd c660 bcbc 9e05 c13d 9185 11be
000001f0: 22d6 e63c 0dcb c4be 7472 c5bd 3853 0b3e
00000200: 85ea 463e e0db ffbd 6d4b 96bc 1a81 31bd
00000210: e88e 52bd f8bd 94bd 78f0 683d 3546 e2bd
00000220: 2d68 40be 3f0a b93d 585e 4abe 2c91 8f3d
00000230: 843a c43c e8de 593d 61e8 b03d 44ee 2ebd
00000240: 956d 093e e15d a6bd ba44 9abd 2ef2 293d
00000250: 0535 343d a761 6d3d 5503 163e b8be 0bbe
00000260: 4b15 8bbd 11fe 93bc 769d b6bd e108 ea3d
00000270: f4a5 a2bd b802 babc 410d 5abd afb5 32be
00000280: f972 0f3e c5bd 35be dfc8 af3e 6af1 2a3d
00000290: 2035 3c3d b3fd 66be d227 cabc 51a5 d5bc
000002a0: c87a 18be 7db4 ec3d 9986 89be 06a3 febb
000002b0: f149 e5bd db7e 163c 6eee aebc 511c 8bbe
000002c0: a4bd 903e cb71 15bd 1106 48bd 2151 7abd
000002d0: 02ff b33d 3194 85be 8b86 063e 5d8e 183e
000002e0: 1138 2b3c 6220 4dbe 09a4 5bbe 6c59 343e
000002f0: e1b3 5cbd 583f 7a3e c67a 4a3e 386c e8bd
00000300: 0952 f7bd f5b5 ecbd f6e7 853e f3d2 0ebe
00000310: 94a0 043d 26f8 b5bd fb91 60be f1cf 99bd
00000320: 3b1c bfbc 9430 4fbe 028a 4fbe 8899 163e
00000330: 1c56 883d 7c7b 3dbd 215d c5bd d494 85bd
00000340: 8d4a d3bd 2226 6c3d cd27 b0bc 6a86 b4bd
00000350: 0bc0 01be 0a50 3a3e 4c98 7f3b 9eaf 2f3e
00000360: 1132 8abd e340 4b3e b8b6 8a3d 1153 f23b
00000370: 815c 633d e9db be3e 2f52 703c 848f ec39
00000380: 5a2d 51be 896c f5bd 2ec2 1c3e 677c 4c3c
00000390: 3bc2 f6bc bddb 903d d515 bfbe 08de 663d
000003a0: 92d1 22be d5da 42be c638 f9bd cfdb 85be
000003b0: 7401 363d cb81 28be 9b61 383e 0e00 953d
000003c0: f035 48bd 0245 a73d 9cdf b63e 1912 943d
000003d0: 6ea5 573e 5daa 1dbe c0aa 7f3e adbe ce3c
000003e0: e9f0 873e b261 b2bc 3f0e 00be c8ad 8a3e
000003f0: 11eb 833c 5297 b53c 58f6 10bd d001 593e
-0.10978441 -0.0009735511 0.19222078 0.09309351 -0.03035919 -0.09381329 -0.059884597 -0.036901142
-0.019245507 -0.16976047 -0.06874346 0.15058553 0.010414036 0.09474765 -0.18324967 -0.011204144
0.121447735 0.08550161 -0.37573564 0.06558342 -0.12869881 0.32270417 -0.26535454 0.06565383
-0.023173345 -0.060169753 -0.093595006 -0.18780395 -0.037990443 0.081860505 0.055132817 -0.05334504
0.22183633 0.039111726 -0.0056012734 0.11788685 0.35410544 -0.09953713 0.08472655 -0.01530368
-0.07636595 0.17118917 0.07235597 -0.026769288 -0.25476775 0.19800444 -0.029228592 -0.13592704
0.32337594 0.033756945 -0.028500248 0.08759099 -0.05081597 0.032462034 -0.15907428 -0.0135024795
-0.019706542 -0.18328589 -0.08383578 -0.08760755 -0.062090367 0.08018557 0.02744462 -0.06464076
0.22519583 -0.2096248 0.1510806 0.08276445 -0.023473471 -0.096241966 0.14438005 -0.100255646
-0.16136192 0.073329486 -0.02539896 -0.22089775 -0.1287637 0.17809732 -0.09815544 -0.009141031
0.15027788 0.033569455 0.04310275 0.21706402 0.09715899 -0.16702262 -0.02974604 -0.014704523
0.00035844822 -0.194733 0.12204932 0.12336866 0.014176504 0.1098891 -0.071446374 0.010342957
0.027899519 -0.13913703 -0.19457121 -0.10080047 0.00091655814 0.00072136516 0.13449912 -0.11694288
0.057706352 0.07388937 0.06389965 0.09636911 -0.04285174 0.22968443 0.03497612 -0.052105498
-0.022228794 -0.093267426 -0.14654131 -0.035438534 0.07414319 0.28619775 -0.18169346 -0.23336229
-0.09709896 -0.022995364 0.094248995 -0.14211108 0.028178278 -0.38436165 -0.09640971 0.13605964
0.194254 -0.1249311 -0.018346513 -0.04333601 -0.051405817 -0.07262796 0.056869954 -0.11048547
-0.1878974 0.090351574 -0.19762552 0.07010111 0.023953684 0.053191096 0.08638073 -0.042707697
0.13420708 -0.08123375 -0.0753264 0.041490726 0.043995876 0.057954457 0.14649709 -0.13646972
-0.06791171 -0.018065484 -0.08916752 0.11427475 -0.07941809 -0.022706375 -0.053235296 -0.1745212
0.14008702 -0.17748173 0.3433294 0.041734137 0.0459491 -0.22557716 -0.02467719 -0.026079806
-0.14890587 0.11557863 -0.26860502 -0.0077708988 -0.11195744 0.009185518 -0.021353927 -0.2717004
0.28269684 -0.036485475 -0.04883391 -0.061112527 0.08788873 -0.26089624 0.13137262 0.14898057
0.010450379 -0.20031884 -0.21449293 0.17612237 -0.053882483 0.24438226 0.19773397 -0.11348766
-0.12076194 -0.11558143 0.26153535 -0.13947658 0.0323797 -0.08885221 -0.21930687 -0.07510365
-0.023328891 -0.20233375 -0.2026749 0.14707005 0.06657049 -0.046260342 -0.096369036 -0.06522527
-0.10316954 0.057653554 -0.021503353 -0.088147 -0.12670915 0.18194595 0.0039000688 0.17156836
-0.06747831 0.19848971 0.06773132 0.007395156 0.05550814 0.37277153 0.014668032 0.00045120355
-0.20427456 -0.11983592 0.15308449 0.012480832 -0.030121913 0.07073162 -0.37321344 0.05636409
-0.15900257 -0.1902879 -0.12169032 -0.26144263 0.04443498 -0.16455762 0.18005984 0.07275401
-0.048879564 0.08167459 0.35717475 0.07230014 0.210592 -0.1539702 0.2496748 0.025237406
0.26550987 -0.0217751 -0.12505434 0.2708571 0.0161033 0.022166882 -0.03539118 0.21192098
