sd-card/config/dig-class100_0160_s2_q.tflite (tflite, 226480 bytes, 11 tensors)

sequential_1/conv2d_3/Conv2D i1 [32, 3, 3, 3]
000000 f2 0a 3e 63 4a 7c e2 07 2f f1 30 58 26 43 fe 0d
       -14 10 62 99 74 124 -30 7 47 -15 48 88 38 67 -2 13
000010 81 af bf 15 f8 fd aa 0a b0 ad 93 e4 99 94 c6 17
       -127 -81 -65 21 -8 -3 -86 10 -80 -83 -109 -28 -103 -108 -58 23
000020 dc 17 28 24 09 1d 1d 1b 3d 61 06 48 30 57 f9 3b
       -36 23 40 36 9 29 29 27 61 97 6 72 48 87 -7 59
000030 dd f1 db ca b8 81 f9 ac bb a2 c0 81 37 ae 63 25
       -35 -15 -37 -54 -72 -127 -7 -84 -69 -94 -64 -127 55 -82 99 37
000040 58 25 9d c7 0d cb 90 c5 59 5e 6d 34 72 23 29 fa
       88 37 -99 -57 13 -53 -112 -59 89 94 109 52 114 35 41 -6
000050 0d 68 34 16 61 0a ef 1c e7 4a fb a4 d5 e6 b5 a2
       13 104 52 22 97 10 -17 28 -25 74 -5 -92 -43 -26 -75 -94
000060 c5 81 cf 4d db fe 44 dc 0a 29 4f 3d 90 1f 09 a9
       -59 -127 -49 77 -37 -2 68 -36 10 41 79 61 -112 31 9 -87
000070 1e 11 81 13 39 db 2c dd 9a d6 f0 9e 1d 0d 59 55
       30 17 -127 19 57 -37 44 -35 -102 -42 -16 -98 29 13 89 85
000080 32 f6 ff e4 ee 11 3b 02 81 ba c9 39 3e 1d 23 3e
       50 -10 -1 -28 -18 17 59 2 -127 -70 -55 57 62 29 35 62
000090 b9 ae 9f 3d e7 05 54 6b 62 d1 aa c9 f9 02 fa 10
       -71 -82 -97 61 -25 5 84 107 98 -47 -86 -55 -7 2 -6 16
0000a0 35 30 56 65 7f 25 05 40 c5 b4 ca ea f5 f7 b6 0e
       53 48 86 101 127 37 5 64 -59 -76 -54 -22 -11 -9 -74 14
0000b0 dc e7 c7 ef a1 b8 0a d4 c3 c0 3f 10 20 33 df 3a
       -36 -25 -57 -17 -95 -72 10 -44 -61 -64 63 16 32 51 -33 58
0000c0 02 7b 45 44 7f 57 b4 87 97 eb 83 96 0a f5 2b 2e
       2 123 69 68 127 87 -76 -121 -105 -21 -125 -106 10 -11 43 46
0000d0 1d 46 c8 05 df 02 b9 b5 81 f9 e3 51 31 02 0a c4
       29 70 -56 5 -33 2 -71 -75 -127 -7 -29 81 49 2 10 -60
0000e0 17 b7 27 0c 5e 44 2d 41 d2 93 ed 39 5c 1e 1e 07
       23 -73 39 12 94 68 45 65 -46 -109 -19 57 92 30 30 7
0000f0 c6 8a bf da cb e3 3d e5 61 46 ed 70 01 15 00 39
       -58 -118 -65 -38 -53 -29 61 -27 97 70 -19 112 1 21 0 57

sequential_1/batch_normalization_5/FusedBatchNormV3 i1 [32] scale=0.035794932 zero_point=-128
000000 c4 06 d6 e6 eb bd 1b fa f8 ac c5 b3 cb bc d1 c4
       2.4340553 4.7965207 3.0783641 3.651083 3.8300579 2.183491 5.5482144 4.366982 4.295392 1.574977 2.4698503 1.8255415 2.68462 2.147696 2.8993895 2.4340553
000010 df e0 aa c2 48 20 19 22 c0 c6 d1 fa 7f ce 0b df
       3.4005187 3.4363136 1.5033872 2.3624656 7.1589866 5.727189 5.4766245 5.798779 2.2908757 2.5056453 2.8993895 4.366982 9.1277075 2.7920048 4.975496 3.4005187

sequential_1/batch_normalization_5/FusedBatchNormV31 i1 [32] scale=0.0036087378 zero_point=127
000000 29 80 32 f6 09 2d 1c 27 49 02 2b 0e 1e 15 4e 1c
       -0.31035146 -0.9202281 -0.2778728 -0.49439707 -0.42583108 -0.2959165 -0.35726506 -0.31756893 -0.19487184 -0.45109224 -0.30313396 -0.40778738 -0.35004756 -0.38252622 -0.17682816 -0.35726506
000010 5b b4 6b 2a 64 46 3b 32 15 02 40 09 63 4d 3b 45
       -0.12991457 -0.7325738 -0.07217476 -0.30674273 -0.09743592 -0.20569806 -0.24539417 -0.2778728 -0.38252622 -0.45109224 -0.22735049 -0.42583108 -0.10104466 -0.1804369 -0.24539417 -0.20930679

sequential_1/conv2d_4/Conv2D i1 [64, 3, 3, 32]
000000 e1 f4 03 18 db 04 0a 04 c5 db 09 ea e1 e6 ef d0
       -31 -12 3 24 -37 4 10 4 -59 -37 9 -22 -31 -26 -17 -48
000010 10 f4 10 e3 05 e2 05 1d f5 0d fc 20 16 e7 12 cc
       16 -12 16 -29 5 -30 5 29 -11 13 -4 32 22 -25 18 -52
000020 d4 02 c5 da f2 01 3f f5 9c f2 f2 07 de c1 cb b0
       -44 2 -59 -38 -14 1 63 -11 -100 -14 -14 7 -34 -63 -53 -80
000030 c8 e7 19 c9 e7 df e9 df d9 df e5 18 01 ee f7 c6
       -56 -25 25 -55 -25 -33 -23 -33 -39 -33 -27 24 1 -18 -9 -58
000040 f1 02 ca de de f4 16 0f b5 0d dd ff 04 f6 ca f3
       -15 2 -54 -34 -34 -12 22 15 -75 13 -35 -1 4 -10 -54 -13
000050 e9 12 19 d5 21 03 e1 f0 1d f4 c1 2b 15 c7 f2 e5
       -23 18 25 -43 33 3 -31 -16 29 -12 -63 43 21 -57 -14 -27
000060 d4 df 17 1a 09 02 3e e5 f0 f1 1e ee da d3 02 fc
       -44 -33 23 26 9 2 62 -27 -16 -15 30 -18 -38 -45 2 -4
000070 f9 07 f1 1b fe e2 36 07 ee 2f 09 f4 db 06 26 f3
       -7 7 -15 27 -2 -30 54 7 -18 47 9 -12 -37 6 38 -13
000080 de f8 1d d3 32 c4 18 bf 10 c7 1b 01 ce df e8 f5
       -34 -8 29 -45 50 -60 24 -65 16 -57 27 1 -50 -33 -24 -11
000090 01 c9 f6 11 e1 da 11 16 18 05 da d9 04 f5 dc 00
       1 -55 -10 17 -31 -38 17 22 24 5 -38 -39 4 -11 -36 0
0000a0 96 c5 02 c5 14 81 0d db bd cc ff dd cc a1 8c f1
       -106 -59 2 -59 20 -127 13 -37 -67 -52 -1 -35 -52 -95 -116 -15
0000b0 cc d4 13 e6 cb aa ea 06 d1 d3 a9 99 fa a1 ad c2
       -52 -44 19 -26 -53 -86 -22 6 -47 -45 -87 -103 -6 -95 -83 -62
0000c0 1a ea 02 04 fb 29 c7 f8 52 fe 16 c2 08 2d 0c 16
       26 -22 2 4 -5 41 -57 -8 82 -2 22 -62 8 45 12 22
0000d0 0a e2 e1 f9 fe f3 ec 03 21 13 35 22 e0 22 33 be
       10 -30 -31 -7 -2 -13 -20 3 33 19 53 34 -32 34 51 -66
0000e0 10 1e 0b fc 12 0b d0 1e 21 f7 0a e3 fb 28 15 09
       16 30 11 -4 18 11 -48 30 33 -9 10 -29 -5 40 21 9
0000f0 20 02 eb 09 0b 1d 17 21 0c 07 23 0d fe 11 1a e5
       32 2 -21 9 11 29 23 33 12 7 35 13 -2 17 26 -27

sequential_1/batch_normalization_6/FusedBatchNormV3 i1 [64] scale=0.0030701621 zero_point=-128
000000 7f 25 1c 26 6f 09 52 49 16 ff 5e 38 1d 6f ff 0f
       0.78289133 0.5065768 0.47894529 0.5096469 0.73376876 0.42061222 0.644734 0.61710256 0.46052432 0.38991058 0.681576 0.5649098 0.48201546 0.73376876 0.38991058 0.43903318
000010 43 df f0 c2 78 14 26 1d 17 69 09 1e 77 2e 27 eb
       0.5986816 0.2916654 0.34385815 0.2026307 0.7614002 0.454384 0.5096469 0.48201546 0.4635945 0.71534777 0.42061222 0.4850856 0.75833005 0.53420824 0.51271707 0.32850736
000020 f8 20 32 22 60 6c fc 22 f4 4b 2e 59 1d 37 17 e5
       0.36841947 0.49122596 0.5464889 0.49736628 0.6877163 0.7245583 0.3807001 0.49736628 0.3561388 0.6232429 0.53420824 0.6662252 0.48201546 0.5618397 0.4635945 0.31008637
000030 01 70 66 47 11 4f 25 32 7b 23 db 43 05 fb d7 0f
       0.39605093 0.73683894 0.7061373 0.6109623 0.4451735 0.63552356 0.5065768 0.5464889 0.7706107 0.5004364 0.27938476 0.5986816 0.40833157 0.37762994 0.26710412 0.43903318

sequential_1/batch_normalization_6/FusedBatchNormV31 i1 [64] scale=0.004695615 zero_point=127
000000 dc ec 05 17 a9 39 e1 e3 da 25 c1 c7 19 d7 ca 18
       -0.7653852 -0.6902554 -0.572865 -0.48834395 -1.0048616 -0.32869303 -0.7419071 -0.73251593 -0.77477646 -0.42260534 -0.8921668 -0.8639931 -0.4789527 -0.7888633 -0.84990627 -0.48364833
000010 ca 00 26 80 d0 cd 58 fb 05 e5 01 b6 02 0b f9 16
       -0.84990627 -0.5963431 -0.4179097 -1.1973817 -0.8217326 -0.8358194 -0.18312898 -0.61982113 -0.572865 -0.7231247 -0.59164745 -0.94381857 -0.58695185 -0.5446913 -0.6292124 -0.49303955
000020 ef 02 f0 cf e8 1b f3 04 0f fe 00 01 20 b7 fa f5
       -0.67616856 -0.58695185 -0.6714729 -0.8264282 -0.70903784 -0.4695615 -0.65738606 -0.5775606 -0.5259088 -0.6057343 -0.5963431 -0.59164745 -0.4460834 -0.939123 -0.6245168 -0.6479948
000030 00 e1 fd f0 eb f3 35 20 fd 04 f4 f3 de fd 09 e9
       -0.5963431 -0.7419071 -0.61042994 -0.6714729 -0.694951 -0.65738606 -0.3474755 -0.4460834 -0.61042994 -0.5775606 -0.6526905 -0.65738606 -0.75599396 -0.61042994 -0.5540826 -0.70434225

sequential_1/conv2d_5/Conv2D i1 [64, 3, 3, 64]
000000 fb 22 ea 36 0e f9 1b f0 2c d3 e5 13 e8 e5 01 3b
       -5 34 -22 54 14 -7 27 -16 44 -45 -27 19 -24 -27 1 59
000010 1e f6 e9 05 0e 18 02 05 f1 0a 02 28 df 1b 2d 1e
       30 -10 -23 5 14 24 2 5 -15 10 2 40 -33 27 45 30
000020 26 dd 14 30 ff d6 b5 c7 0c b7 d4 f7 35 0a f3 05
       38 -35 20 48 -1 -42 -75 -57 12 -73 -44 -9 53 10 -13 5
000030 0e 31 e6 f7 ef d4 e4 29 3e fb f0 05 d4 07 fb c8
       14 49 -26 -9 -17 -44 -28 41 62 -5 -16 5 -44 7 -5 -56
000040 e4 f9 da f8 d8 d0 27 c7 00 c5 d3 d3 e4 fd 19 2b
       -28 -7 -38 -8 -40 -48 39 -57 0 -59 -45 -45 -28 -3 25 43
000050 f4 f6 c4 eb c0 fc da 24 e2 12 f5 18 e1 17 0c 0e
       -12 -10 -60 -21 -64 -4 -38 36 -30 18 -11 24 -31 23 12 14
000060 03 d7 0f 17 03 aa f2 a7 00 ad fc f6 0a f4 ad fd
       3 -41 15 23 3 -86 -14 -89 0 -83 -4 -10 10 -12 -83 -3
000070 2f de ec bc bf cf e1 08 06 0c 92 d5 fb 11 af 91
       47 -34 -20 -68 -65 -49 -31 8 6 12 -110 -43 -5 17 -81 -111
000080 1f e4 d6 0f f3 00 cc ca ca 28 fb 09 0e e4 f7 f8
       31 -28 -42 15 -13 0 -52 -54 -54 40 -5 9 14 -28 -9 -8
000090 2a f4 db 12 15 ce bc e7 d1 03 e2 ea 11 e8 0d f3
       42 -12 -37 18 21 -50 -68 -25 -47 3 -30 -22 17 -24 13 -13
0000a0 06 0a a9 ee 17 c6 1c ac fa d1 e6 d4 f9 ed ab f6
       6 10 -87 -18 23 -58 28 -84 -6 -47 -26 -44 -7 -19 -85 -10
0000b0 21 19 d1 db ba fc 13 28 19 cd b9 f7 e4 e9 df 81
       33 25 -47 -37 -70 -4 19 40 25 -51 -71 -9 -28 -23 -33 -127
0000c0 cf ff fb e6 0f 11 e5 1d df fc c6 e6 14 e9 0c f3
       -49 -1 -5 -26 15 17 -27 29 -33 -4 -58 -26 20 -23 12 -13
0000d0 f3 ea 10 d6 2d f1 09 20 20 03 13 0d f7 eb 2a f7
       -13 -22 16 -42 45 -15 9 32 32 3 19 13 -9 -21 42 -9
0000e0 e9 ed 02 ed ef 27 3a 07 ef 0f 06 23 1a 32 1d ee
       -23 -19 2 -19 -17 39 58 7 -17 15 6 35 26 50 29 -18
0000f0 f5 e7 e4 3b 52 ef 8e f7 fe c8 ff c9 1f 02 fb 12
       -11 -25 -28 59 82 -17 -114 -9 -2 -56 -1 -55 31 2 -5 18

sequential_1/batch_normalization_7/FusedBatchNormV3 i1 [64] scale=0.0004602492 zero_point=-128
000000 23 12 29 1b 26 5f 0b 43 18 64 21 1d 27 22 04 27
       0.07502062 0.067196384 0.07778212 0.071338624 0.07640137 0.10263557 0.06397464 0.08974859 0.069957875 0.104936816 0.07410012 0.07225912 0.07686161 0.07456037 0.060752895 0.07686161
000010 11 2d 12 1c 1e 13 4b 7f 3f fb 3a 33 28 25 22 07
       0.06673613 0.07962311 0.067196384 0.071798876 0.07271937 0.06765663 0.093430586 0.11736354 0.0879076 0.05661065 0.08560635 0.08238461 0.077321865 0.075941116 0.07456037 0.06213364
000020 40 50 17 27 16 fb 19 35 34 3f 29 13 1f 3a 12 14
       0.08836785 0.09573183 0.06949763 0.07686161 0.06903738 0.05661065 0.07041813 0.083305106 0.08284485 0.0879076 0.07778212 0.06765663 0.073179625 0.08560635 0.067196384 0.06811688
000030 28 63 19 18 24 4e 26 15 32 2f 0a 15 25 28 30 32
       0.077321865 0.10447657 0.07041813 0.069957875 0.07548087 0.094811335 0.07640137 0.06857713 0.08192436 0.08054361 0.06351439 0.06857713 0.075941116 0.077321865 0.08100386 0.08192436

sequential_1/batch_normalization_7/FusedBatchNormV31 i1 [64] scale=0.00213445 zero_point=127
000000 d3 a3 bc d8 e6 10 ef df a1 2c cc ff 14 36 b4 b6
       -0.3671254 -0.469579 -0.41621774 -0.35645315 -0.32657084 -0.23692395 -0.3073608 -0.341512 -0.4738479 -0.17715935 -0.38206655 -0.2732096 -0.22838615 -0.15581486 -0.43329334 -0.42902446
000010 fa 80 ef 1e bc f3 d0 43 d3 e2 18 e0 0e d5 e7 d1
       -0.28388184 -0.54428476 -0.3073608 -0.20704165 -0.41621774 -0.298823 -0.37352875 -0.128067 -0.3671254 -0.33510864 -0.21984835 -0.33937755 -0.24119285 -0.3628565 -0.3244364 -0.3713943
000020 bb e7 02 d6 c2 e3 ec 09 fe 13 c8 be 08 ad e6 d6
       -0.41835222 -0.3244364 -0.26680624 -0.36072206 -0.40341106 -0.3329742 -0.31376415 -0.2518651 -0.27534404 -0.2305206 -0.39060435 -0.41194886 -0.25399956 -0.4482345 -0.32657084 -0.36072206
000030 cd 2c d7 dc b3 04 de f7 c2 ba d9 e8 fa fe 07 b0
       -0.3799321 -0.17715935 -0.3585876 -0.34791535 -0.4354278 -0.26253736 -0.34364647 -0.2902852 -0.40341106 -0.42048666 -0.3543187 -0.32230195 -0.28388184 -0.27534404 -0.256134 -0.44183114

sequential_1/dense_2/MatMul i1 [256, 512] scale=0.005162068 zero_point=0
000000 fb 06 f5 01 0e 25 f2 e6 09 ce da f9 19 03 e9 00
       -0.02581034 0.03097241 -0.05678275 0.005162068 0.072268955 0.19099653 -0.072268955 -0.13421378 0.046458613 -0.2581034 -0.19615859 -0.036134478 0.1290517 0.015486205 -0.118727565 0.0
000010 e9 ec e4 f0 00 d7 00 0d fb e1 19 f4 e2 27 04 fe
       -0.118727565 -0.10324136 -0.14453791 -0.08259309 0.0 -0.2116448 0.0 0.06710689 -0.02581034 -0.1600241 0.1290517 -0.06194482 -0.15486205 0.20132066 0.020648273 -0.010324136
000020 0c fd 07 13 11 e8 10 06 fa f1 19 0f fe 13 fd 15
       0.06194482 -0.015486205 0.036134478 0.098079294 0.08775516 -0.12388964 0.08259309 0.03097241 -0.03097241 -0.07743102 0.1290517 0.07743102 -0.010324136 0.098079294 -0.015486205 0.10840343
000030 f7 20 ec 1a f6 19 28 e7 02 06 08 f4 12 11 01 de
       -0.046458613 0.16518618 -0.10324136 0.13421378 -0.05162068 0.1290517 0.20648272 -0.1290517 0.010324136 0.03097241 0.041296545 -0.06194482 0.092917226 0.08775516 0.005162068 -0.17551032
000040 ea 04 fc 2c 13 f5 eb ee 0b f7 e8 f1 0c d9 08 18
       -0.1135655 0.020648273 -0.020648273 0.227131 0.098079294 -0.05678275 -0.10840343 -0.092917226 0.05678275 -0.046458613 -0.12388964 -0.07743102 0.06194482 -0.20132066 0.041296545 0.12388964
000050 fd 1b fe d7 03 23 09 05 0c 09 e1 ff 05 10 ed 02
       -0.015486205 0.13937584 -0.010324136 -0.2116448 0.015486205 0.18067239 0.046458613 0.02581034 0.06194482 0.046458613 -0.1600241 -0.005162068 0.02581034 0.08259309 -0.098079294 0.010324136
000060 21 18 14 08 fc de 05 d0 f0 e5 1f f4 db 01 03 fd
       0.17034826 0.12388964 0.10324136 0.041296545 -0.020648273 -0.17551032 0.02581034 -0.24777928 -0.08259309 -0.13937584 0.1600241 -0.06194482 -0.19099653 0.005162068 0.015486205 -0.015486205
000070 f4 e7 0b fa ec 24 09 05 ee 0f ed 03 f0 ce 03 e8
       -0.06194482 -0.1290517 0.05678275 -0.03097241 -0.10324136 0.18583445 0.046458613 0.02581034 -0.092917226 0.07743102 -0.098079294 0.015486205 -0.08259309 -0.2581034 0.015486205 -0.12388964
000080 ec ed 06 e6 db 08 f9 ed 18 f3 da cd 1c 29 fa 31
       -0.10324136 -0.098079294 0.03097241 -0.13421378 -0.19099653 0.041296545 -0.036134478 -0.098079294 0.12388964 -0.06710689 -0.19615859 -0.2632655 0.14453791 0.2116448 -0.03097241 0.25294134
000090 13 06 e9 01 e1 e6 ea 29 f7 0d 0d ff ef 17 04 d2
       0.098079294 0.03097241 -0.118727565 0.005162068 -0.1600241 -0.13421378 -0.1135655 0.2116448 -0.046458613 0.06710689 0.06710689 -0.005162068 -0.08775516 0.118727565 0.020648273 -0.23745513
0000a0 18 19 e3 fe f8 fd 00 31 17 11 f2 08 fe fb e2 0a
       0.12388964 0.1290517 -0.14969997 -0.010324136 -0.041296545 -0.015486205 0.0 0.25294134 0.118727565 0.08775516 -0.072268955 0.041296545 -0.010324136 -0.02581034 -0.15486205 0.05162068
0000b0 fd 0d 2b fc f1 08 f5 1c d3 41 0c f7 2f 0e f3 24
       -0.015486205 0.06710689 0.22196893 -0.020648273 -0.07743102 0.041296545 -0.05678275 0.14453791 -0.23229307 0.33553442 0.06194482 -0.046458613 0.2426172 0.072268955 -0.06710689 0.18583445
0000c0 00 14 cf f5 13 1f ef 15 fa 22 07 f1 48 11 21 12
       0.0 0.10324136 -0.25294134 -0.05678275 0.098079294 0.1600241 -0.08775516 0.10840343 -0.03097241 0.17551032 0.036134478 -0.07743102 0.3716689 0.08775516 0.17034826 0.092917226
0000d0 0e 18 11 10 f6 06 f3 ed df 0f 0d d1 04 27 ed 03
       0.072268955 0.12388964 0.08775516 0.08259309 -0.05162068 0.03097241 -0.06710689 -0.098079294 -0.17034826 0.07743102 0.06710689 -0.2426172 0.020648273 0.20132066 -0.098079294 0.015486205
0000e0 07 1a 0f f1 02 13 0b 08 20 0a fc 20 19 f5 01 fb
       0.036134478 0.13421378 0.07743102 -0.07743102 0.010324136 0.098079294 0.05678275 0.041296545 0.16518618 0.05162068 -0.020648273 0.16518618 0.1290517 -0.05678275 0.005162068 -0.02581034
0000f0 f2 04 fa 0d 04 10 f6 01 05 02 1d 07 0f fb f5 32
       -0.072268955 0.020648273 -0.03097241 0.06710689 0.020648273 0.08259309 -0.05162068 0.005162068 0.02581034 0.010324136 0.14969997 0.036134478 0.07743102 -0.02581034 -0.05678275 0.2581034

sequential_1/dense_3/MatMul i1 [100, 256] scale=0.008874686 zero_point=0
000000 da e9 e6 ed e6 0c e6 f9 db f0 db df e9 9b fc e1
       -0.33723807 -0.20411779 -0.23074184 -0.16861904 -0.23074184 0.10649624 -0.23074184 -0.062122807 -0.3283634 -0.14199498 -0.3283634 -0.29286465 -0.20411779 -0.89634335 -0.035498746 -0.27511528
000010 01 f1 e6 ca eb 0d 0f de f0 f6 ec 04 f6 f1 f9 c6
       0.008874686 -0.1331203 -0.23074184 -0.47923306 -0.18636842 0.11537092 0.1331203 -0.30173934 -0.14199498 -0.08874686 -0.17749372 0.035498746 -0.08874686 -0.1331203 -0.062122807 -0.5147318
000020 f5 0c fc d0 e9 b0 d5 cf e3 db f3 d1 e0 d1 e3 f1
       -0.09762155 0.10649624 -0.035498746 -0.42598495 -0.20411779 -0.7099749 -0.38161153 -0.43485963 -0.2573659 -0.3283634 -0.11537092 -0.41711026 -0.28398997 -0.41711026 -0.2573659 -0.1331203
000030 da ff de ee d6 e6 0e f7 ef 0f df 03 f3 fe dd bd
       -0.33723807 -0.008874686 -0.30173934 -0.15974435 -0.37273684 -0.23074184 0.124245614 -0.079872176 -0.15086967 0.1331203 -0.29286465 0.02662406 -0.11537092 -0.017749373 -0.31061402 -0.594604
000040 0e f1 da 03 ee f2 e4 d7 cb d8 dc e0 10 f3 f1 d2
       0.124245614 -0.1331203 -0.33723807 0.02662406 -0.15974435 -0.124245614 -0.24849123 -0.36386216 -0.47035837 -0.35498744 -0.3194887 -0.28398997 0.14199498 -0.11537092 -0.1331203 -0.40823558
000050 09 e9 fb fe db 00 02 0c a9 d2 0b e7 ef bd f4 d1
       0.079872176 -0.20411779 -0.04437343 -0.017749373 -0.3283634 0.0 0.017749373 0.10649624 -0.7720977 -0.40823558 0.09762155 -0.22186716 -0.15086967 -0.594604 -0.10649624 -0.41711026
000060 eb 0d f3 e9 da ed df d3 ea f5 f4 f1 e5 fb ec 08
       -0.18636842 0.11537092 -0.11537092 -0.20411779 -0.33723807 -0.16861904 -0.29286465 -0.3993609 -0.1952431 -0.09762155 -0.10649624 -0.1331203 -0.23961653 -0.04437343 -0.17749372 0.07099749
000070 cc f2 df be ee 0c d8 05 c8 b3 0e e9 fa c2 e9 0f
       -0.4614837 -0.124245614 -0.29286465 -0.5857293 -0.15974435 0.10649624 -0.35498744 0.04437343 -0.49698246 -0.68335086 0.124245614 -0.20411779 -0.05324812 -0.55023056 -0.20411779 0.1331203
000080 e9 e2 0e eb dd cc f5 e0 ff 11 cc dd da 08 0f 07
       -0.20411779 -0.2662406 0.124245614 -0.18636842 -0.31061402 -0.4614837 -0.09762155 -0.28398997 -0.008874686 0.15086967 -0.4614837 -0.31061402 -0.33723807 0.07099749 0.1331203 0.062122807
000090 f7 e7 d8 e9 0b e4 03 f4 ef ce d3 d0 eb db de d9
       -0.079872176 -0.22186716 -0.35498744 -0.20411779 0.09762155 -0.24849123 0.02662406 -0.10649624 -0.15086967 -0.44373432 -0.3993609 -0.42598495 -0.18636842 -0.3283634 -0.30173934 -0.34611276
0000a0 f2 da c8 0f 05 df e1 e2 0f f7 ea db b2 df b6 d6
       -0.124245614 -0.33723807 -0.49698246 0.1331203 0.04437343 -0.29286465 -0.27511528 -0.2662406 0.1331203 -0.079872176 -0.1952431 -0.3283634 -0.6922255 -0.29286465 -0.6567268 -0.37273684
0000b0 f0 03 ec c4 ed fd ec c6 c3 d7 11 dc e6 ee db cf
       -0.14199498 0.02662406 -0.17749372 -0.5324812 -0.16861904 -0.02662406 -0.17749372 -0.5147318 -0.54135585 -0.36386216 0.15086967 -0.3194887 -0.23074184 -0.15974435 -0.3283634 -0.43485963
0000c0 d8 0b e7 f1 eb d3 e2 ff 01 d1 d0 fe cd dd e7 e9
       -0.35498744 0.09762155 -0.22186716 -0.1331203 -0.18636842 -0.3993609 -0.2662406 -0.008874686 0.008874686 -0.41711026 -0.42598495 -0.017749373 -0.452609 -0.31061402 -0.22186716 -0.20411779
0000d0 f9 e3 f6 e2 01 f8 c3 f9 f4 f8 da 02 fb ea 00 0c
       -0.062122807 -0.2573659 -0.08874686 -0.2662406 0.008874686 -0.07099749 -0.54135585 -0.062122807 -0.10649624 -0.07099749 -0.33723807 0.017749373 -0.04437343 -0.1952431 0.0 0.10649624
0000e0 f5 e4 e2 09 dc 09 e1 ff 07 f2 ce e9 02 bf d4 f4
       -0.09762155 -0.24849123 -0.2662406 0.079872176 -0.3194887 0.079872176 -0.27511528 -0.008874686 0.062122807 -0.124245614 -0.44373432 -0.20411779 0.017749373 -0.57685465 -0.3904862 -0.10649624
0000f0 e3 e2 dc f8 ea d6 fa 0b f7 0e ca d8 c0 d8 e4 d9
       -0.2573659 -0.2662406 -0.3194887 -0.07099749 -0.1952431 -0.37273684 -0.05324812 0.09762155 -0.079872176 0.124245614 -0.47923306 -0.35498744 -0.56797993 -0.35498744 -0.24849123 -0.34611276
