sd-card/config/dig-cont_0900_s3_q.tflite (tflite, 315544 bytes, 12 tensors)

tfl.pseudo_qconst1 i1 [10, 64] scale=0.008581278 zero_point=0
000000 00 be e0 b7 c3 bf b7 cf b1 be eb cd c0 d1 fa dc
       0.0 -0.56636435 -0.2746009 -0.6264333 -0.52345794 -0.55778307 -0.6264333 -0.4204826 -0.67792094 -0.56636435 -0.18020684 -0.43764517 -0.5492018 -0.40332007 -0.05148767 -0.30892602
000010 d7 c2 c6 a6 05 ba c0 de ff d2 ba d5 dc 0a bd 2d
       -0.3518324 -0.5320392 -0.49771413 -0.772315 0.04290639 -0.6006895 -0.5492018 -0.29176345 -0.008581278 -0.3947388 -0.6006895 -0.36899495 -0.30892602 0.08581278 -0.5749456 0.3861575
000020 df e1 cb 04 a5 ed b8 c3 e1 d1 ec cd cd c8 12 9c
       -0.28318217 -0.2660196 -0.45480773 0.03432511 -0.7808963 -0.16304427 -0.61785203 -0.52345794 -0.2660196 -0.40332007 -0.17162555 -0.43764517 -0.43764517 -0.48055157 0.15446301 -0.8581278
000030 ab fd de 28 ed d6 eb bf d5 d4 bb f5 cd c6 bd e8
       -0.7294086 -0.025743835 -0.29176345 0.3432511 -0.16304427 -0.36041367 -0.18020684 -0.55778307 -0.36899495 -0.37757623 -0.5921082 -0.09439406 -0.43764517 -0.49771413 -0.5749456 -0.20595068
000040 37 bc f1 d4 c3 c7 a4 d2 bd b5 ec cd be cd eb d3
       0.4719703 -0.5835269 -0.12871917 -0.37757623 -0.52345794 -0.48913285 -0.7894776 -0.3947388 -0.5749456 -0.6435958 -0.17162555 -0.43764517 -0.56636435 -0.43764517 -0.18020684 -0.3861575
000050 db b4 c0 ba bc d0 c4 dc ad d3 c6 d8 e2 20 c0 d8
       -0.3175073 -0.6521771 -0.5492018 -0.6006895 -0.5835269 -0.41190135 -0.51487666 -0.30892602 -0.71224606 -0.3861575 -0.49771413 -0.3432511 -0.25743833 0.2746009 -0.5492018 -0.3432511
000060 22 da dd 02 b0 f2 b9 b8 e7 15 df dc 00 d0 19 bb
       0.29176345 -0.32608855 -0.30034474 0.017162556 -0.6865022 -0.12013789 -0.60927075 -0.61785203 -0.21453194 0.18020684 -0.28318217 -0.30892602 0.0 -0.41190135 0.21453194 -0.5921082
000070 ab f2 d2 fe e6 c6 fb c2 24 d0 bb f6 e6 c0 87 cd
       -0.7294086 -0.12013789 -0.3947388 -0.017162556 -0.22311322 -0.49771413 -0.04290639 -0.5320392 0.30892602 -0.41190135 -0.5921082 -0.08581278 -0.22311322 -0.5492018 -1.0383346 -0.43764517
000080 e3 b7 f3 1f dc d3 be d8 bb b1 f4 d1 c4 cb de cf
       -0.24885707 -0.6264333 -0.11155661 0.2660196 -0.30892602 -0.3861575 -0.56636435 -0.3432511 -0.5921082 -0.67792094 -0.10297534 -0.40332007 -0.51487666 -0.45480773 -0.29176345 -0.4204826
000090 c7 ab c0 b5 bb c5 d1 12 b0 e1 db d3 e5 f5 b6 0e
       -0.48913285 -0.7294086 -0.5492018 -0.6435958 -0.5921082 -0.5062954 -0.40332007 0.15446301 -0.6865022 -0.2660196 -0.3175073 -0.3861575 -0.2316945 -0.09439406 -0.6350146 0.12013789
0000a0 06 d2 e2 22 c5 16 b4 ba 12 12 e0 b7 f0 c4 c5 b0
       0.05148767 -0.3947388 -0.25743833 0.29176345 -0.5062954 0.18878812 -0.6521771 -0.6006895 0.15446301 0.15446301 -0.2746009 -0.6264333 -0.13730045 -0.51487666 -0.5062954 -0.6865022
0000b0 ad d4 d1 fd ee b9 bc c3 03 b4 ec f2 f3 c4 a9 d0
       -0.71224606 -0.37757623 -0.40332007 -0.025743835 -0.15446301 -0.60927075 -0.5835269 -0.52345794 0.025743835 -0.6521771 -0.17162555 -0.12013789 -0.11155661 -0.51487666 -0.7465712 -0.41190135
0000c0 bd ad d9 f7 d0 ce c1 da cd ad 11 35 b2 c9 d4 c5
       -0.5749456 -0.71224606 -0.33466983 -0.077231504 -0.41190135 -0.4290639 -0.5406205 -0.32608855 -0.43764517 -0.71224606 0.14588173 0.45480773 -0.66933966 -0.4719703 -0.37757623 -0.5062954
0000d0 cf aa b4 b4 b4 bc dc 03 b5 bb cd cb e0 03 13 f8
       -0.4204826 -0.7379899 -0.6521771 -0.6521771 -0.6521771 -0.5835269 -0.30892602 0.025743835 -0.6435958 -0.5921082 -0.43764517 -0.45480773 -0.2746009 0.025743835 0.16304427 -0.06865022
0000e0 1c d5 f6 ce c4 b5 b2 ce 37 c7 c0 0a ec c8 c2 b1
       0.24027579 -0.36899495 -0.08581278 -0.4290639 -0.51487666 -0.6435958 -0.66933966 -0.4290639 0.4719703 -0.48913285 -0.5492018 0.08581278 -0.17162555 -0.48055157 -0.5320392 -0.67792094
0000f0 d0 c2 db c3 fc 9d cb cb 14 d7 fd b8 e7 f9 b5 d1
       -0.41190135 -0.5320392 -0.3175073 -0.52345794 -0.03432511 -0.8495465 -0.45480773 -0.45480773 0.17162555 -0.3518324 -0.025743835 -0.61785203 -0.21453194 -0.060068946 -0.6435958 -0.40332007

tfl.pseudo_qconst3 i1 [64, 256] scale=0.0050972155 zero_point=0
000000 e7 00 e6 04 f6 ee 0b 0c ef d9 01 ff fe 0b e6 1a
       -0.1274304 0.0 -0.1325276 0.020388862 -0.050972156 -0.09174988 0.05606937 0.061166584 -0.08665267 -0.1987914 0.0050972155 -0.0050972155 -0.010194431 0.05606937 -0.1325276 0.1325276
000010 d4 ff e4 f5 04 f8 11 f7 04 f1 00 e4 dc 13 e5 30
       -0.22427748 -0.0050972155 -0.14272204 -0.05606937 0.020388862 -0.040777724 0.08665267 -0.04587494 0.020388862 -0.07645823 0.0 -0.14272204 -0.18349975 0.096847095 -0.13762482 0.24466634
000020 ea 04 15 09 28 00 04 0b ec ce 1e 08 0b e9 28 23
       -0.11213874 0.020388862 0.10704152 0.04587494 0.20388862 0.0 0.020388862 0.05606937 -0.10194431 -0.2548608 0.15291646 0.040777724 0.05606937 -0.11723596 0.20388862 0.17840254
000030 f3 14 ff ed 2f 16 0b 2c da fb fd 29 e2 d6 d4 0f
       -0.0662638 0.10194431 -0.0050972155 -0.096847095 0.23956913 0.11213874 0.05606937 0.22427748 -0.19369419 -0.025486078 -0.015291646 0.20898584 -0.15291646 -0.21408305 -0.22427748 0.07645823
000040 03 d9 fe 27 45 e7 ac 03 00 01 f7 f2 0e ed f3 f8
       0.015291646 -0.1987914 -0.010194431 0.1987914 0.35170788 -0.1274304 -0.4281661 0.015291646 0.0 0.0050972155 -0.04587494 -0.07136102 0.07136102 -0.096847095 -0.0662638 -0.040777724
000050 60 41 ea fb 46 2b 06 f3 eb f0 19 da 61 04 14 f2
       0.48933268 0.331319 -0.11213874 -0.025486078 0.3568051 0.21918027 0.030583292 -0.0662638 -0.10704152 -0.08155545 0.1274304 -0.19369419 0.49442992 0.020388862 0.10194431 -0.07136102
000060 ea e9 18 2c f9 e9 03 00 d5 e4 2f 2d 16 01 11 ec
       -0.11213874 -0.11723596 0.12233317 0.22427748 -0.03568051 -0.11723596 0.015291646 0.0 -0.21918027 -0.14272204 0.23956913 0.22937469 0.11213874 0.0050972155 0.08665267 -0.10194431
000070 24 11 da f1 00 ed 1d 13 e3 19 0d 1b 0e ef f0 0e
       0.18349975 0.08665267 -0.19369419 -0.07645823 0.0 -0.096847095 0.14781925 0.096847095 -0.14781925 0.1274304 0.0662638 0.13762482 0.07136102 -0.08665267 -0.08155545 0.07136102
000080 db f0 06 e8 ff 01 fd 34 f4 cb 1c ef f3 ce fe e5
       -0.18859698 -0.08155545 0.030583292 -0.12233317 -0.0050972155 0.0050972155 -0.015291646 0.2650552 -0.061166584 -0.27015242 0.14272204 -0.08665267 -0.0662638 -0.2548608 -0.010194431 -0.13762482
000090 2c d8 eb f0 ea 24 18 f8 d0 0a fb df fc db 00 08
       0.22427748 -0.20388862 -0.10704152 -0.08155545 -0.11213874 0.18349975 0.12233317 -0.040777724 -0.24466634 0.050972156 -0.025486078 -0.1682081 -0.020388862 -0.18859698 0.0 0.040777724
0000a0 f5 fa 0c ff f7 f9 2a f8 11 04 19 20 11 e4 f4 f0
       -0.05606937 -0.030583292 0.061166584 -0.0050972155 -0.04587494 -0.03568051 0.21408305 -0.040777724 0.08665267 0.020388862 0.1274304 0.1631109 0.08665267 -0.14272204 -0.061166584 -0.08155545
0000b0 f6 18 fb 1a e8 ee f8 28 fa d4 f6 fe e5 19 ef 29
       -0.050972156 0.12233317 -0.025486078 0.1325276 -0.12233317 -0.09174988 -0.040777724 0.20388862 -0.030583292 -0.22427748 -0.050972156 -0.010194431 -0.13762482 0.1274304 -0.08665267 0.20898584
0000c0 f7 c2 17 1e e9 1e 16 0b fb bd 1e ea 0c fc f1 ed
       -0.04587494 -0.31602737 0.11723596 0.15291646 -0.11723596 0.15291646 0.11213874 0.05606937 -0.025486078 -0.34151345 0.15291646 -0.11213874 0.061166584 -0.020388862 -0.07645823 -0.096847095
0000d0 25 08 e3 16 44 e3 46 f7 06 de f2 1b c0 e8 0a f3
       0.18859698 0.040777724 -0.14781925 0.11213874 0.34661067 -0.14781925 0.3568051 -0.04587494 0.030583292 -0.17330533 -0.07136102 0.13762482 -0.3262218 -0.12233317 0.050972156 -0.0662638
0000e0 e9 ff 07 db 08 ea 02 ae d8 e2 14 38 fd d0 2a 01
       -0.11723596 -0.0050972155 0.03568051 -0.18859698 0.040777724 -0.11213874 0.010194431 -0.41797167 -0.20388862 -0.15291646 0.10194431 0.28544408 -0.015291646 -0.24466634 0.21408305 0.0050972155
0000f0 f8 e3 01 e4 d1 e1 0a d3 f8 1f 01 01 07 0e d3 db
       -0.040777724 -0.14781925 0.0050972155 -0.14272204 -0.23956913 -0.15801369 0.050972156 -0.22937469 -0.040777724 0.15801369 0.0050972155 0.0050972155 0.03568051 0.07136102 -0.22937469 -0.18859698

tfl.pseudo_qconst5 i1 [256, 512] scale=0.0026917432 zero_point=0
000000 0a 00 ed de e3 fa 03 ef f5 16 f7 f9 02 1e ef 2c
       0.026917432 0.0 -0.05114312 -0.09151927 -0.07806055 -0.01615046 0.00807523 -0.045759633 -0.029609175 0.05921835 -0.02422569 -0.018842202 0.0053834864 0.0807523 -0.045759633 0.1184367
000010 f1 e4 02 0f fd e3 f9 fc fa 0b 09 fb 27 fd 04 11
       -0.04037615 -0.07536881 0.0053834864 0.04037615 -0.00807523 -0.07806055 -0.018842202 -0.010766973 -0.01615046 0.029609175 0.02422569 -0.013458716 0.10497799 -0.00807523 0.010766973 0.045759633
000020 df e8 06 e4 13 e7 2c 0a e3 d1 fc 05 e5 fb f0 15
       -0.08882753 -0.06460184 0.01615046 -0.07536881 0.05114312 -0.06729358 0.1184367 0.026917432 -0.07806055 -0.12651193 -0.010766973 0.013458716 -0.07267707 -0.013458716 -0.04306789 0.05652661
000030 06 07 f1 f4 12 fa f0 e8 e2 01 e0 f0 f9 e2 19 06
       0.01615046 0.018842202 -0.04037615 -0.03230092 0.04845138 -0.01615046 -0.04306789 -0.06460184 -0.0807523 0.0026917432 -0.08613578 -0.04306789 -0.018842202 -0.0807523 0.06729358 0.01615046
000040 f7 fb 13 2f 04 e1 0e fb 0e 0c df 20 44 18 e7 d8
       -0.02422569 -0.013458716 0.05114312 0.12651193 0.010766973 -0.08344404 0.037684403 -0.013458716 0.037684403 0.03230092 -0.08882753 0.08613578 0.18303853 0.06460184 -0.06729358 -0.107669726
000050 09 04 dd f1 e0 1d ed 11 12 10 f7 05 2b f3 24 0c
       0.02422569 0.010766973 -0.09421101 -0.04037615 -0.08613578 0.07806055 -0.05114312 0.045759633 0.04845138 0.04306789 -0.02422569 0.013458716 0.115744956 -0.03499266 0.09690276 0.03230092
000060 f9 df fa 13 09 ce f5 09 26 d5 f4 4b 09 44 d8 1b
       -0.018842202 -0.08882753 -0.01615046 0.05114312 0.02422569 -0.13458715 -0.029609175 0.02422569 0.10228624 -0.115744956 -0.03230092 0.20188074 0.02422569 0.18303853 -0.107669726 0.07267707
000070 0d 05 e2 f9 29 dd 09 0c f7 ff 22 f4 11 02 e7 d0
       0.03499266 0.013458716 -0.0807523 -0.018842202 0.11036147 -0.09421101 0.02422569 0.03230092 -0.02422569 -0.0026917432 0.09151927 -0.03230092 0.045759633 0.0053834864 -0.06729358 -0.12920368
000080 0a fd dc 16 12 14 01 ff f6 f3 16 fe f9 e5 12 1d
       0.026917432 -0.00807523 -0.09690276 0.05921835 0.04845138 0.053834863 0.0026917432 -0.0026917432 -0.026917432 -0.03499266 0.05921835 -0.0053834864 -0.018842202 -0.07267707 0.04845138 0.07806055
000090 2a 14 10 01 2a 0e d1 f9 03 bf 18 01 ee c9 06 00
       0.11305322 0.053834863 0.04306789 0.0026917432 0.11305322 0.037684403 -0.12651193 -0.018842202 0.00807523 -0.17496331 0.06460184 0.0026917432 -0.04845138 -0.14804588 0.01615046 0.0
0000a0 e8 0e fb 04 e6 0d 40 02 07 08 f8 de 19 0c 08 fc
       -0.06460184 0.037684403 -0.013458716 0.010766973 -0.06998532 0.03499266 0.17227156 0.0053834864 0.018842202 0.021533946 -0.021533946 -0.09151927 0.06729358 0.03230092 0.021533946 -0.010766973
0000b0 f7 24 f8 fc dc 02 20 fd f9 e9 fa e9 24 25 19 f2
       -0.02422569 0.09690276 -0.021533946 -0.010766973 -0.09690276 0.0053834864 0.08613578 -0.00807523 -0.018842202 -0.061910093 -0.01615046 -0.061910093 0.09690276 0.099594496 0.06729358 -0.037684403
0000c0 ee d9 bb 00 34 ec d1 f3 ff de d5 e5 be d7 12 cf
       -0.04845138 -0.10497799 -0.18573028 0.0 0.13997065 -0.053834863 -0.12651193 -0.03499266 -0.0026917432 -0.09151927 -0.115744956 -0.07267707 -0.17765506 -0.11036147 0.04845138 -0.13189542
0000d0 c8 08 fd d7 e1 0c e6 f9 d8 23 09 f6 de ec 18 1d
       -0.15073761 0.021533946 -0.00807523 -0.11036147 -0.08344404 0.03230092 -0.06998532 -0.018842202 -0.107669726 0.09421101 0.02422569 -0.026917432 -0.09151927 -0.053834863 0.06460184 0.07806055
0000e0 fc 29 d5 ef e3 37 07 21 c1 d0 dd f8 dc 1e 06 e6
       -0.010766973 0.11036147 -0.115744956 -0.045759633 -0.07806055 0.14804588 0.018842202 0.08882753 -0.16957982 -0.12920368 -0.09421101 -0.021533946 -0.09690276 0.0807523 0.01615046 -0.06998532
0000f0 0c 01 e8 f9 eb f4 f3 05 e4 04 e1 1c e1 d8 ee e3
       0.03230092 0.0026917432 -0.06460184 -0.018842202 -0.05652661 -0.03230092 -0.03499266 0.013458716 -0.07536881 0.010766973 -0.08344404 0.07536881 -0.08344404 -0.107669726 -0.04845138 -0.07806055

tfl.pseudo_qconst6 i1 [64] scale=0.0018407017 zero_point=127
000000 11 6a 95 1a d3 10 18 4d fa 03 5f 03 c0 d6 81 df
       -0.20247719 -0.038654733 -0.4307242 -0.18591087 -0.31660068 -0.20431788 -0.18959227 -0.092035085 -0.24481332 -0.228247 -0.058902454 -0.228247 -0.35157403 -0.31107858 -0.46753824 -0.29451227
000010 fc 53 40 41 b6 2e f9 3f 41 e9 ff 12 c4 ea 0e 0a
       -0.24113192 -0.08099087 -0.115964204 -0.1141235 -0.36998105 -0.14909683 -0.24665402 -0.11780491 -0.1141235 -0.27610525 -0.23560981 -0.20063648 -0.34421122 -0.27426454 -0.20799929 -0.2153621
000020 e9 43 58 f2 0f 10 1a 27 18 4d 11 1f 19 09 80 cf
       -0.27610525 -0.1104421 -0.071787365 -0.25953895 -0.2061586 -0.20431788 -0.18591087 -0.16198175 -0.18959227 -0.092035085 -0.20247719 -0.17670736 -0.18775158 -0.2172028 -0.46937892 -0.3239635
000030 2e 39 04 2d f9 fd 21 47 55 22 4c 12 06 dc 21 15
       -0.14909683 -0.12884912 -0.2264063 -0.15093754 -0.24665402 -0.23929122 -0.17302595 -0.1030793 -0.07730947 -0.17118526 -0.09387579 -0.20063648 -0.2227249 -0.30003437 -0.17302595 -0.19511437

tfl.pseudo_qconst7 i1 [64] scale=0.00067513826 zero_point=-128
000000 3e 50 3a 35 12 17 35 27 4e 30 37 64 08 53 f4 1f
       0.12827627 0.14042875 0.12557572 0.12220003 0.09857018 0.10194588 0.12220003 0.11274809 0.13907848 0.11882433 0.1235503 0.15393153 0.0918188 0.14245418 0.07831604 0.10734698
000010 3e 61 24 4d 40 5b 37 43 3f 3c 63 32 43 18 2e 79
       0.12827627 0.1519061 0.110722676 0.13840334 0.12962654 0.14785528 0.1235503 0.13165197 0.1289514 0.12692599 0.15325639 0.12017461 0.13165197 0.10262102 0.11747406 0.16810943
000020 22 56 43 2b 52 4b 51 29 4c 3e 2a 51 44 43 0e 35
       0.1093724 0.14447959 0.13165197 0.115448646 0.14177904 0.13705307 0.1411039 0.11409836 0.1377282 0.12827627 0.114773504 0.1411039 0.1323271 0.13165197 0.09586963 0.12220003
000030 6b 3b 17 3f 36 3a 22 47 32 3a 7f 45 fd 23 50 42
       0.15865749 0.12625085 0.10194588 0.1289514 0.12287516 0.12557572 0.1093724 0.13435252 0.12017461 0.12557572 0.17216025 0.13300224 0.08439228 0.110047534 0.14042875 0.13097683

tfl.pseudo_qconst9 i1 [64, 3, 3, 128]
000000 27 fc 16 fe 3a e7 03 e9 18 c9 2e e8 ed f4 08 15
       39 -4 22 -2 58 -25 3 -23 24 -55 46 -24 -19 -12 8 21
000010 07 fe f8 f4 42 1b 30 0e f9 27 e1 0d f3 ec f7 f9
       7 -2 -8 -12 66 27 48 14 -7 39 -31 13 -13 -20 -9 -7
000020 f7 0c 1a 0a fd fc de 12 0a 2b f0 03 df f7 11 f7
       -9 12 26 10 -3 -4 -34 18 10 43 -16 3 -33 -9 17 -9
000030 3d ed 0a 60 16 2c 04 f3 0c 0b 18 e7 f6 06 00 27
       61 -19 10 96 22 44 4 -13 12 11 24 -25 -10 6 0 39
000040 1e ec 06 11 fb 39 f9 ec 11 04 20 04 d7 c3 1f 1d
       30 -20 6 17 -5 57 -7 -20 17 4 32 4 -41 -61 31 29
000050 ed ef 12 ff 4c f4 16 eb f4 ed f5 20 e5 fd fd fe
       -19 -17 18 -1 76 -12 22 -21 -12 -19 -11 32 -27 -3 -3 -2
000060 08 04 11 eb ff 09 d6 0d e8 f5 ee ff 12 fe db ea
       8 4 17 -21 -1 9 -42 13 -24 -11 -18 -1 18 -2 -37 -22
000070 10 27 0b 2b fc 02 ef e5 2f ff f6 21 37 30 1a 0f
       16 39 11 43 -4 2 -17 -27 47 -1 -10 33 55 48 26 15
000080 f6 17 12 ef dd 26 0a fb 26 0f bc f0 11 f0 c5 d7
       -10 23 18 -17 -35 38 10 -5 38 15 -68 -16 17 -16 -59 -41
000090 19 19 23 f4 bf ee 28 0d fc df 13 fa f5 10 f0 da
       25 25 35 -12 -65 -18 40 13 -4 -33 19 -6 -11 16 -16 -38
0000a0 10 0d d3 f4 e3 20 f2 de e6 f8 2c 12 fe 1f 06 0e
       16 13 -45 -12 -29 32 -14 -34 -26 -8 44 18 -2 31 6 14
0000b0 11 0c 0b f6 fb ef ec 01 fa 15 ec ff f7 24 51 c2
       17 12 11 -10 -5 -17 -20 1 -6 21 -20 -1 -9 36 81 -62
0000c0 de 25 0f eb f8 f7 e5 33 07 15 03 28 ad ec df f4
       -34 37 15 -21 -8 -9 -27 51 7 21 3 40 -83 -20 -33 -12
0000d0 12 ee df 17 cb fe ef 07 26 18 03 06 fe 29 0e 0a
       18 -18 -33 23 -53 -2 -17 7 38 24 3 6 -2 41 14 10
0000e0 e5 e2 01 07 fa ed e8 d8 d0 09 31 fe d6 0b 24 ef
       -27 -30 1 7 -6 -19 -24 -40 -48 9 49 -2 -42 11 36 -17
0000f0 f6 0b 0e eb dc 2a f1 f1 1c f6 07 02 d8 d4 b8 1d
       -10 11 14 -21 -36 42 -15 -15 28 -10 7 2 -40 -44 -72 29

tfl.pseudo_qconst10 i1 [128] scale=0.00503494 zero_point=30
000000 ec 2c 36 f6 10 f2 40 4a f0 fb e3 39 20 3d e1 12
       -0.25174698 0.07048916 0.12083855 -0.2013976 -0.07048916 -0.22153735 0.17118795 0.22153735 -0.23160723 -0.17622289 -0.29706144 0.13594338 0.01006988 0.15608314 -0.30713132 -0.060419276
000010 23 66 3b 1b fb 1f 23 1f 80 08 1d 10 33 fe 20 35
       0.0251747 0.36251566 0.14601326 -0.015104819 -0.17622289 0.00503494 0.0251747 0.00503494 -0.7955205 -0.110768676 -0.00503494 -0.07048916 0.10573374 -0.16111808 0.01006988 0.115803614
000020 42 7f 21 1e fd 5a f0 8d f3 00 21 1f 4b fa 10 52
       0.18125783 0.48838916 0.015104819 0.0 -0.16615301 0.3020964 -0.23160723 -0.7300663 -0.21650241 -0.1510482 0.015104819 0.00503494 0.22657229 -0.18125783 -0.07048916 0.26181686
000030 f1 42 33 fc 1d 56 d9 1a e8 43 0d 2e ec 25 1f 0f
       -0.22657229 0.18125783 0.10573374 -0.17118795 -0.00503494 0.28195664 -0.34741086 -0.02013976 -0.27188677 0.18629277 -0.085593976 0.08055904 -0.25174698 0.03524458 0.00503494 -0.0755241
000040 2c fa 21 06 16 1c c7 52 2e 01 1e 11 06 04 05 e5
       0.07048916 -0.18125783 0.015104819 -0.12083855 -0.04027952 -0.01006988 -0.43803978 0.26181686 0.08055904 -0.14601326 0.0 -0.065454215 -0.12083855 -0.13090843 -0.12587349 -0.28699157
000050 05 50 24 90 ed da 3d 36 fb 1a f8 41 04 1b 10 29
       -0.12587349 0.25174698 0.030209638 -0.71496147 -0.24671206 -0.3423759 0.15608314 0.12083855 -0.17622289 -0.02013976 -0.19132772 0.17622289 -0.13090843 -0.015104819 -0.07048916 0.055384338
000060 ed 2d 16 29 25 dd 22 00 26 1f 62 ec f3 54 10 ce
       -0.24671206 0.0755241 -0.04027952 0.055384338 0.03524458 -0.3272711 0.02013976 -0.1510482 0.04027952 0.00503494 0.3423759 -0.25174698 -0.21650241 0.27188677 -0.07048916 -0.4027952
000070 61 09 12 41 35 00 12 f2 65 07 2d 1e 37 f0 f6 05
       0.33734098 -0.10573374 -0.060419276 0.17622289 0.115803614 -0.1510482 -0.060419276 -0.22153735 0.35748073 -0.115803614 0.0755241 0.0 0.12587349 -0.23160723 -0.2013976 -0.12587349

tfl.pseudo_qconst11 i1 [128] scale=0.0019676404 zero_point=-128
000000 0a 3b 2b 39 2b 46 1e 41 f9 15 6a 62 39 58 4e 29
       0.27153438 0.36794874 0.3364665 0.36401346 0.3364665 0.3895928 0.3108872 0.3797546 0.23808448 0.2931784 0.46042785 0.4446867 0.36401346 0.42501032 0.4053339 0.3325312
000010 35 5a 45 2a 35 29 18 1a c6 22 43 00 3c 54 29 57
       0.3561429 0.4289456 0.38762516 0.33449885 0.3561429 0.3325312 0.29908133 0.3030166 0.13773483 0.31875774 0.38368988 0.25185797 0.36991638 0.41713977 0.3325312 0.42304268
000020 4f 5a 32 48 2e 29 38 d6 f7 2e 3a 1c 40 32 4a 38
       0.40730155 0.4289456 0.35024 0.39352807 0.34236944 0.3325312 0.36204582 0.16921706 0.2341492 0.34236944 0.3659811 0.3069519 0.37778693 0.35024 0.39746335 0.36204582
000030 19 58 3e 16 31 36 e9 4d 19 19 4a 2a 3b 2d 2f 30
       0.30104896 0.42501032 0.37385166 0.29514605 0.34827235 0.35811055 0.20660223 0.40336627 0.30104896 0.30104896 0.39746335 0.33449885 0.36794874 0.34040177 0.34433708 0.3463047
000040 3d 3a 2d 25 fb 38 35 26 5b 1f 0b 20 28 2f 2f 33
       0.37188402 0.3659811 0.34040177 0.32466066 0.24201976 0.36204582 0.3561429 0.3266283 0.43091324 0.31285483 0.27350202 0.31482247 0.33056358 0.34433708 0.34433708 0.35220763
000050 23 53 4d dc 3a 06 18 36 fa 2a 1a 2f 1a 28 39 57
       0.32072538 0.41517213 0.40336627 0.18102291 0.3659811 0.2636638 0.29908133 0.35811055 0.24005212 0.33449885 0.3030166 0.34433708 0.3030166 0.33056358 0.36401346 0.42304268
000060 1d 4a 37 53 3e 21 77 2e 7f 24 53 0d 04 2d 16 f2
       0.30891955 0.39746335 0.3600782 0.41517213 0.37385166 0.3167901 0.48600718 0.34236944 0.50174826 0.32269302 0.41517213 0.2774373 0.25972852 0.34040177 0.29514605 0.224311
000070 1d 27 4e 43 48 1d 2c 25 51 20 46 4c 4e 18 29 36
       0.30891955 0.32859594 0.4053339 0.38368988 0.39352807 0.30891955 0.33843413 0.32466066 0.41123682 0.31482247 0.3895928 0.40139863 0.4053339 0.29908133 0.3325312 0.35811055

tfl.pseudo_qconst13 i1 [128, 3, 3, 64]
000000 b9 ad 0a 46 9a 57 64 47 f8 2b dd 14 ff 17 c8 06
       -71 -83 10 70 -102 87 100 71 -8 43 -35 20 -1 23 -56 6
000010 cf ee 1d fd ba c2 59 1c 0b 5a b2 7c 54 22 f7 7f
       -49 -18 29 -3 -70 -62 89 28 11 90 -78 124 84 34 -9 127
000020 9e 85 21 20 c8 8d 8e 36 d6 4f c8 ad f4 2c fd b3
       -98 -123 33 32 -56 -115 -114 54 -42 79 -56 -83 -12 44 -3 -77
000030 e0 ed ce ce 3e a8 4e a3 b6 27 ed 47 a8 0a e6 a2
       -32 -19 -50 -50 62 -88 78 -93 -74 39 -19 71 -88 10 -26 -94
000040 e1 09 fa ef f1 16 16 ee d7 f4 1e 0e fc 08 cc e2
       -31 9 -6 -17 -15 22 22 -18 -41 -12 30 14 -4 8 -52 -30
000050 ce e6 e7 e2 d1 cd f2 dd 02 2e eb ed 39 e7 04 fe
       -50 -26 -25 -30 -47 -51 -14 -35 2 46 -21 -19 57 -25 4 -2
000060 0e ec d2 db fe ef 20 02 d3 11 cb ec ea e2 23 ed
       14 -20 -46 -37 -2 -17 32 2 -45 17 -53 -20 -22 -30 35 -19
000070 a6 fe ab f1 d8 ca 06 16 c3 e1 03 24 cd f5 ea f6
       -90 -2 -85 -15 -40 -54 6 22 -61 -31 3 36 -51 -11 -22 -10
000080 f5 39 15 ea 1f bb 1a bc 06 06 29 0d d1 04 37 cc
       -11 57 21 -22 31 -69 26 -68 6 6 41 13 -47 4 55 -52
000090 02 2a f0 c6 17 11 df 14 f9 d9 26 e0 00 f6 20 db
       2 42 -16 -58 23 17 -33 20 -7 -39 38 -32 0 -10 32 -37
0000a0 18 0c dd da 39 1b 34 f7 2a 02 02 01 2f fc 10 2d
       24 12 -35 -38 57 27 52 -9 42 2 2 1 47 -4 16 45
0000b0 e3 ec 08 f2 ff 01 f2 46 13 00 ef de 1a e1 ea f3
       -29 -20 8 -14 -1 1 -14 70 19 0 -17 -34 26 -31 -22 -13
0000c0 b9 0b f2 f8 09 3f 2e 01 ad e6 38 0a f0 1c e1 01
       -71 11 -14 -8 9 63 46 1 -83 -26 56 10 -16 28 -31 1
0000d0 ef f3 b8 fd d6 e5 f0 de 29 1f 00 ff 31 d2 f2 28
       -17 -13 -72 -3 -42 -27 -16 -34 41 31 0 -1 49 -46 -14 40
0000e0 27 f1 0a f6 f3 f1 03 ea 05 da 0d d7 0e e3 f5 d3
       39 -15 10 -10 -13 -15 3 -22 5 -38 13 -41 14 -29 -11 -45
0000f0 cf d4 ef 0b ea 11 e9 f8 22 1b f2 10 0c fc 18 bf
       -49 -44 -17 11 -22 17 -23 -8 34 27 -14 16 12 -4 24 -65

tfl.pseudo_qconst14 i1 [64] scale=0.0066232663 zero_point=82
000000 ef 02 ba ea d5 c9 a1 c8 d7 cc b7 66 21 40 d3 10
       -0.65570337 -0.52986133 -1.0067365 -0.6888197 -0.8279083 -0.9073875 -1.1723181 -0.91401076 -0.81466174 -0.8875177 -1.0266063 0.13246533 -0.32454005 -0.1192188 -0.8411548 -0.43713558
000010 71 48 a6 e9 c2 ae b1 9f cd 9f e2 a4 31 cd c4 ff
       0.20532125 -0.06623267 -1.1392018 -0.695443 -0.9537504 -1.0862156 -1.0663458 -1.1855646 -0.8808944 -1.1855646 -0.7418058 -1.1524483 -0.21856779 -0.8808944 -0.94050384 -0.5497311
000020 e9 cb 88 b6 d0 d3 a4 8e c5 80 bd d4 16 b2 d5 c3
       -0.695443 -0.89414096 -1.3378998 -1.0332296 -0.8610246 -0.8411548 -1.1524483 -1.2981602 -0.93388057 -1.390886 -0.98686665 -0.83453155 -0.39739597 -1.0597227 -0.8279083 -0.9471271
000030 00 7f d5 2b 06 10 be e6 dc 25 52 d0 b7 cf 1d c4
       -0.5431078 0.29804698 -0.8279083 -0.2583074 -0.50336826 -0.43713558 -0.9802434 -0.7153128 -0.7815454 -0.29804698 0.0 -0.8610246 -1.0266063 -0.8676479 -0.35103312 -0.94050384

tfl.pseudo_qconst15 i1 [64] scale=0.049217567 zero_point=-128
000000 0d e5 e6 07 e3 cc c6 07 0b ca 0a c7 d0 9e c9 e2
       6.939677 4.9709744 5.0201917 6.6443715 4.872539 3.740535 3.4452298 6.6443715 6.841242 3.6420999 6.792024 3.4944472 3.9374053 1.476527 3.5928824 4.8233213
000010 f1 ed be 70 d5 c8 e8 d3 df 1f c1 c6 7f 09 21 f6
       5.561585 5.3647146 3.051489 11.812216 4.183493 3.543665 5.118627 4.085058 4.6756687 7.825593 3.1991417 3.4452298 12.55048 6.7428064 7.9240284 5.807673
000020 f5 c8 c1 fd cd c5 df c4 e1 c8 c6 d7 f3 bb 04 c8
       5.7584553 3.543665 3.1991417 6.152196 3.7897527 3.396012 4.6756687 3.3467946 4.774104 3.543665 3.4452298 4.2819285 5.6600204 2.9038365 6.496719 3.543665
000030 3a 1f 2d 97 f8 04 c4 bb 02 23 05 bc d9 bc c8 fb
       9.154468 7.825593 8.514639 1.132004 5.906108 6.496719 3.3467946 2.9038365 6.3982835 8.022464 6.5459366 2.953054 4.3803635 2.953054 3.543665 6.0537605

tfl.pseudo_qconst17 i1 [64, 3, 3, 3]
000000 72 66 02 a3 c0 c7 ff df 18 40 63 16 82 a2 98 11
       114 102 2 -93 -64 -57 -1 -33 24 64 99 22 -126 -94 -104 17
000010 ed 4c 39 22 f1 b0 cc a4 48 1c 7f 3c 23 cb 73 6b
       -19 76 57 34 -15 -80 -52 -92 72 28 127 60 35 -53 115 107
000020 36 57 48 08 f9 12 30 b7 c9 f7 81 be d6 db 43 00
       54 87 72 8 -7 18 48 -73 -55 -9 -127 -66 -42 -37 67 0
000030 98 f2 d1 c3 11 fe 20 1f c2 cd ab e3 15 28 4a 49
       -104 -14 -47 -61 17 -2 32 31 -62 -51 -85 -29 21 40 74 73
000040 48 31 ad 8a d8 a7 eb 04 7f 6d 22 05 de e0 f5 0f
       72 49 -83 -118 -40 -89 -21 4 127 109 34 5 -34 -32 -11 15
000050 fc 1e 46 43 ee e1 08 ef f2 04 d3 9d b6 c4 81 d9
       -4 30 70 67 -18 -31 8 -17 -14 4 -45 -99 -74 -60 -127 -39
000060 f5 f2 ec 26 fe eb 40 17 26 6a 3f 28 da f7 c9 5b
       -11 -14 -20 38 -2 -21 64 23 38 106 63 40 -38 -9 -55 91
000070 2a 51 04 ec e1 41 26 60 3c 30 7f eb ed e6 d5 00
       42 81 4 -20 -31 65 38 96 60 48 127 -21 -19 -26 -43 0
000080 e2 b9 ba d4 d8 c1 ad c3 e4 b3 c3 dd f6 3a 4b 16
       -30 -71 -70 -44 -40 -63 -83 -61 -28 -77 -61 -35 -10 58 75 22
000090 81 94 c1 d5 d7 33 1c 4c 3e 01 1b 10 2e 1c 64 1e
       -127 -108 -63 -43 -41 51 28 76 62 1 27 16 46 28 100 30
0000a0 34 0b c5 b7 fd d6 ec 0c 4a 3d 1a 9d 8e ab fc f2
       52 11 -59 -73 -3 -42 -20 12 74 61 26 -99 -114 -85 -4 -14
0000b0 24 7f 78 2e a3 c3 d0 08 19 23 2d 5b ef 0f e4 49
       36 127 120 46 -93 -61 -48 8 25 35 45 91 -17 15 -28 73
0000c0 0b e9 13 1d 0d 24 92 98 c2 93 81 c4 92 a3 fe 64
       11 -23 19 29 13 36 -110 -104 -62 -109 -127 -60 -110 -93 -2 100
0000d0 6a 1f 3e 72 44 2c 50 fb 0f 03 1b e7 db 08 3e 7f
       106 31 62 114 68 44 80 -5 15 3 27 -25 -37 8 62 127
0000e0 2e e4 d8 0f a1 8f bb 03 32 24 39 39 46 c1 b1 c3
       46 -28 -40 15 -95 -113 -69 3 50 36 57 57 70 -63 -79 -61
0000f0 1a 1a 06 ea 16 b6 d4 e7 29 32 53 3c b9 c6 af bb
       26 26 6 -22 22 -74 -44 -25 41 50 83 60 -71 -58 -81 -69
