sd-card/config/dig-cont_0810_s3_q.tflite (tflite, 315544 bytes, 12 tensors)

tfl.pseudo_qconst1 i1 [10, 64] scale=0.005498948 zero_point=0
-0.19796214 -0.20346108 -0.2639495 -0.46191165 -0.10448001 -0.4344169 -0.5828885 -0.049490534
-0.071486324 0.038492635 0.06048843 -0.19796214 -0.21445897 -0.23095582 -0.21995792 0.15397054
-0.2969432 -0.39042532 0.1484716 -0.23095582 0.093482114 0.23645477 -0.30794108 -0.15397054
0.20896003 -0.09898107 -0.29144424 -0.10448001 0.25845057 -0.1374737 -0.34643373 -0.24745266
-0.24745266 -0.12647581 -0.08248422 -0.071486324 -0.34093478 -0.17046739 -0.24195372 -0.39042532
-0.318939 -0.5004043 -0.68186957 -0.2969432 0.18146528 -0.19796214 -0.29144424 -0.06598738
0.005498948 -0.4784085 -0.13197476 -0.21445897 -0.45091373 -0.23095582 -0.18696423 -0.39042532
0.18146528 -0.17596634 -0.15397054 -0.06048843 -0.32443795 0.17046739 -0.25295162 -0.4124211
-0.1374737 -0.2639495 0.24745266 -0.40692216 -0.23095582 -0.34643373 -0.4344169 0.049490534
-0.093482114 0.06048843 -0.049490534 -0.38492635 -0.42891794 -0.021995792 0.071486324 0.038492635
-0.21995792 -0.32443795 0.09898107 -0.12097686 0.010997896 -0.45091373 -0.2969432 -0.17046739
-0.26944846 -0.6983664 -0.37392846 -0.1594695 -0.26944846 -0.35193267 -0.36293057 -0.2639495
-0.20346108 -0.1484716 0.35743162 -0.17046739 -0.20346108 0.049490534 -0.23095582 -0.08798317
-0.318939 -0.3299369 -0.25295162 -0.30244213 0.15397054 -0.21995792 -0.22545686 0.02749474
0.010997896 -0.4674106 -0.09898107 -0.16496845 -0.1374737 -0.30244213 -0.038492635 -0.43991584
0.13197476 -0.3794274 -0.1374737 0.07698527 0.39042532 -0.09898107 -0.2859453 -0.25845057
-0.09898107 -0.35193267 0.40692216 0.18146528 -0.25295162 -0.3299369 -0.4124211 0.03299369
-0.17596634 -0.3794274 -0.2859453 -0.39592427 -0.49490532 0.0 -0.15397054 0.18146528
0.12647581 -0.3794274 -0.005498948 -0.021995792 -0.17596634 -0.39592427 -0.29144424 -0.1374737
-0.26944846 -0.6213811 -0.3684295 -0.13197476 -0.16496845 -0.30244213 -0.13197476 -0.31344002
-0.18146528 0.005498948 -0.1484716 -0.18146528 -0.23645477 0.20346108 -0.23645477 -0.24195372
-0.30244213 -0.07698527 -0.17046739 -0.423419 -0.21995792 -0.43991584 -0.18146528 -0.010997896
0.06048843 -0.1374737 0.021995792 -0.15397054 -0.1484716 0.15397054 -0.26944846 -0.533398
0.0 -0.4674106 -0.24745266 -0.22545686 0.06598738 0.0 -0.318939 -0.05498948
-0.14297265 -0.35743162 -0.21995792 0.08798317 -0.34643373 -0.3794274 -0.30244213 0.20346108
-0.19246317 -0.45641267 -0.22545686 -0.34093478 -0.527899 0.038492635 -0.19246317 -0.4674106
0.20896003 -0.45641267 -0.40142322 -0.08248422 -0.38492635 -0.35743162 -0.31344002 -0.08798317
-0.29144424 -0.41792005 -0.22545686 -0.07698527 -0.23095582 -0.21995792 -0.20896003 0.33543584
-0.24745266 0.14297265 -0.32443795 -0.29144424 -0.25295162 -0.30794108 -0.49490532 -0.2969432
-0.2969432 -0.07698527 -0.21445897 0.08248422 -0.19796214 -0.20896003 -0.12097686 -0.13197476
-0.318939 0.08798317 -0.10448001 -0.17596634 -0.1594695 -0.043991584 -0.2749474 0.010997896
-0.049490534 -0.40142322 -0.36293057 0.40142322 0.31344002 -0.37392846 0.010997896 -0.10997896
00000000: dcdb d0ac edb1 96f7 f307 0bdc d9d6 d81c
00000010: cab9 1bd6 112b c8e4 26ee cbed 2fe7 c1d3
00000020: d3e9 f1f3 c2e1 d4b9 c6a5 84ca 21dc cbf4
00000030: 01a9 e8d9 aed6 deb9 21e0 e4f5 c51f d2b5
00000040: e7d0 2db6 d6c1 b109 ef0b f7ba b2fc 0d07
00000050: d8c5 12ea 02ae cae1 cf81 bce3 cfc0 bed0
00000060: dbe5 41e1 db09 d6f0 c6c4 d2c9 1cd8 d705
00000070: 02ab eee2 e7c9 f9b0 18bb e70e 47ee ccd1
00000080: eec0 4a21 d2c4 b506 e0bb ccb8 a600 e421
00000090: 17bb fffc e0b8 cbe7 cf8f bde8 e2c9 e8c7
000000a0: df01 e5df d525 d5d4 c9f2 e1b3 d8b0 dffe
000000b0: 0be7 04e4 e51c cf9f 00ab d3d7 0c00 c6f6
000000c0: e6bf d810 c1bb c925 ddad d7c2 a007 ddab
000000d0: 26ad b7f1 babf c7f0 cbb4 d7f2 d6d8 da3d
000000e0: d31a c5cb d2c8 a6ca caf2 d90f dcda eae8
000000f0: c610 ede0 e3f8 ce02 f7b7 be49 39bc 02ec

tfl.pseudo_qconst3 i1 [64, 256] scale=0.00378696 zero_point=0
-0.13633056 0.02272176 -0.10982184 0.06059136 -0.04923048 0.09846096 -0.10982184 -0.026508719
0.11739576 -0.00378696 0.03029568 0.0378696 0.02272176 0.20449583 0.20070888 -0.2272176
0.22343063 0.16662623 0.0568044 -0.124969676 -0.04923048 0.04544352 -0.0189348 -0.04544352
0.15526536 0.03029568 0.17420016 0.16283928 0.11739576 0.09088704 -0.19692191 -0.11739576
-0.03029568 -0.13633056 0.041656557 -0.0189348 -0.041656557 0.11739576 -0.07195224 -0.0378696
0.041656557 0.19313495 0.14011751 -0.00757392 0.13633056 -0.18556103 0.124969676 -0.04923048
0.041656557 0.1136088 0.15905231 -0.0757392 0.06059136 0.08710008 0.0568044 0.0568044
-0.15905231 -0.04923048 -0.102247916 -0.00378696 0.102247916 0.2082828 -0.04544352 0.13633056
0.03029568 -0.01136088 -0.04544352 -0.10982184 0.06816528 -0.00757392 0.07195224 0.124969676
-0.2650872 0.14769144 0.1136088 0.01514784 0.00757392 0.12118272 0.0 -0.19313495
-0.04544352 -0.00757392 -0.08710008 -0.14390448 0.06816528 -0.00378696 0.27644807 -0.124969676
-0.03029568 0.106034875 0.09088704 0.02272176 0.04923048 -0.03408264 0.03408264 -0.09088704
0.27644807 -0.03029568 -0.03029568 0.04923048 -0.0189348 -0.026508719 0.1514784 -0.00378696
0.094674 0.20070888 -0.1325436 -0.083313115 -0.04544352 -0.0378696 0.09846096 -0.01514784
0.12875664 -0.00378696 -0.14011751 0.2461524 0.13633056 0.14769144 0.06059136 -0.04544352
0.01136088 0.1325436 -0.06816528 -0.0378696 0.026508719 -0.14390448 0.00757392 -0.12875664
-0.041656557 0.2461524 0.2082828 0.06816528 0.19313495 -0.06437832 -0.13633056 -0.17420016
0.1136088 0.06816528 -0.04923048 0.36354816 0.00378696 -0.04923048 -0.23479152 0.102247916
-0.041656557 -0.026508719 -0.11739576 -0.09846096 -0.04544352 0.15526536 0.19692191 0.08710008
-0.0189348 -0.00378696 -0.03029568 0.01514784 -0.1136088 0.00757392 -0.00757392 -0.07195224
-0.21206975 0.09846096 0.15905231 -0.13633056 -0.00757392 -0.15526536 -0.01136088 0.0378696
-0.1325436 -0.04544352 -0.03408264 0.17420016 -0.17798711 0.0 0.09846096 0.094674
-0.0378696 -0.15526536 0.23100455 0.13633056 -0.2082828 -0.03029568 0.07195224 -0.026508719
0.1325436 0.01136088 -0.00757392 -0.1514784 -0.07195224 0.06437832 -0.10982184 0.12875664
0.14011751 0.06816528 0.01514784 -0.00757392 0.16662623 -0.0189348 0.079526156 -0.00757392
-0.19313495 0.21964368 -0.026508719 0.10982184 0.01136088 0.00378696 0.17798711 -0.14011751
-0.083313115 0.06816528 -0.04544352 0.02272176 -0.0757392 -0.09846096 -0.106034875 0.09846096
0.01514784 0.19313495 0.106034875 0.16283928 -0.2650872 -0.09846096 -0.1136088 0.10982184
-0.06437832 0.026508719 0.1704132 -0.02272176 0.06816528 -0.026508719 0.0378696 0.12118272
0.026508719 0.0568044 -0.12118272 0.15905231 0.1325436 0.00378696 -0.03029568 0.0189348
0.026508719 0.06437832 -0.12118272 -0.00757392 0.124969676 0.06437832 -0.0568044 -0.01136088
-0.0757392 0.14011751 0.17798711 -0.3218916 -0.124969676 0.14011751 0.03029568 -0.00757392
00000000: dc06 e310 f31a e3f9 1fff 080a 0636 35c4
00000010: 3b2c 0fdf f30c fbf4 2908 2e2b 1f18 cce1
00000020: f8dc 0bfb f51f edf6 0b33 25fe 24cf 21f3
00000030: 0b1e 2aec 1017 0f0f d6f3 e5ff 1b37 f424
00000040: 08fd f4e3 12fe 1321 ba27 1e04 0220 00cd
00000050: f4fe e9da 12ff 49df f81c 1806 0df7 09e8
00000060: 49f8 f80d fbf9 28ff 1935 ddea f4f6 1afc
00000070: 22ff db41 2427 10f4 0323 eef6 07da 02de
00000080: f541 3712 33ef dcd2 1e12 f360 01f3 c21b
00000090: f5f9 e1e6 f429 3417 fbff f804 e202 feed
000000a0: c81a 2adc fed7 fd0a ddf4 f72e d100 1a19
000000b0: f6d7 3d24 c9f8 13f9 2303 fed8 ed11 e322
000000c0: 2512 04fe 2cfb 15fe cd3a f91d 0301 2fdb
000000d0: ea12 f406 ece6 e41a 0433 1c2b bae6 e21d
000000e0: ef07 2dfa 12f9 0a20 070f e02a 2301 f805
000000f0: 0711 e0fe 2111 f1fd ec25 2fab df25 08fe

tfl.pseudo_qconst5 i1 [256, 512] scale=0.0022404254 zero_point=0
-0.04928936 -0.008961702 0.05825106 0.07841489 -0.0022404254 -0.02912553 -0.020163829 0.02464468
0.015682979 0.015682979 0.02912553 0.0067212763 -0.051529784 0.07393404 0.013442553 -0.06721276
-0.056010637 -0.017923404 0.07617447 -0.07841489 -0.03360638 0.02464468 -0.056010637 0.060491487
-0.0067212763 0.035846807 0.05825106 0.02912553 0.071693614 -0.038087234 -0.022404253 -0.011202127
0.06497234 -0.05377021 0.060491487 0.020163829 -0.02912553 0.035846807 -0.03360638 0.02912553
0.112021275 0.017923404 0.031365957 0.022404253 -0.038087234 -0.004480851 0.044808507 -0.051529784
0.056010637 0.07393404 0.056010637 -0.089617014 0.05377021 -0.008961702 0.06945319 -0.10305957
0.0067212763 0.015682979 0.035846807 0.022404253 0.042568084 -0.06721276 -0.008961702 -0.10081915
0.03360638 -0.08289574 0.008961702 0.0067212763 -0.08513617 -0.03360638 -0.056010637 0.015682979
0.105299994 0.031365957 0.004480851 0.06721276 0.06945319 0.044808507 0.14786808 -0.022404253
-0.044808507 -0.017923404 -0.0067212763 -0.09185744 0.062731914 0.040327657 -0.05377021 0.0022404254
-0.03360638 -0.013442553 -0.05825106 0.013442553 0.05377021 0.026885105 0.03360638 0.042568084
-0.015682979 -0.035846807 0.056010637 -0.013442553 0.031365957 0.042568084 0.013442553 0.0
0.047048934 0.0067212763 0.087376595 0.16579148 -0.038087234 0.011202127 0.06497234 -0.02912553
0.10081915 -0.035846807 0.017923404 -0.02912553 -0.004480851 -0.042568084 -0.04928936 -0.035846807
-0.008961702 0.008961702 -0.05825106 0.12770425 0.013442553 -0.011202127 0.04928936 0.015682979
0.047048934 0.013442553 0.004480851 0.14562765 -0.013442553 0.013442553 -0.004480851 0.060491487
-0.040327657 0.015682979 0.04928936 -0.013442553 -0.0067212763 -0.062731914 0.013442553 0.07393404
-0.0022404254 -0.11650212 -0.02912553 -0.008961702 -0.04928936 -0.044808507 -0.020163829 0.051529784
-0.02464468 0.047048934 0.056010637 0.056010637 0.026885105 0.105299994 0.038087234 0.015682979
0.026885105 -0.11874255 -0.011202127 -0.11650212 -0.031365957 -0.051529784 -0.12546383 -0.09185744
0.040327657 0.040327657 0.051529784 -0.0022404254 0.031365957 0.09409787 -0.020163829 0.07393404
-0.040327657 -0.05377021 -0.013442553 -0.022404253 0.026885105 0.1501085 -0.06497234 0.07393404
0.031365957 0.07617447 -0.038087234 -0.022404253 -0.03360638 0.015682979 0.02912553 0.004480851
-0.056010637 -0.013442553 0.080655314 -0.10754042 0.105299994 -0.13442552 0.087376595 -0.020163829
0.040327657 0.047048934 -0.10754042 -0.035846807 -0.020163829 0.0067212763 -0.026885105 -0.0022404254
0.06497234 -0.10978085 -0.008961702 -0.089617014 -0.062731914 0.004480851 0.015682979 0.02912553
0.013442553 0.17027234 0.060491487 0.12546383 0.051529784 0.011202127 -0.011202127 0.087376595
0.011202127 0.017923404 -0.05377021 0.017923404 0.02464468 -0.015682979 -0.02912553 0.05825106
-0.04928936 -0.114261694 -0.06721276 0.004480851 -0.13890637 -0.008961702 -0.14338723 -0.013442553
0.04928936 0.0022404254 -0.022404253 -0.038087234 0.06721276 -0.096338294 -0.051529784 -0.1501085
-0.022404253 0.035846807 -0.06721276 -0.031365957 -0.056010637 0.08289574 0.08289574 0.04928936
00000000: eafc 1a23 fff3 f70b 0707 0d03 e921 06e2
00000010: e7f8 22dd f10b e71b fd10 1a0d 20ef f6fb
00000020: 1de8 1b09 f310 f10d 3208 0e0a effe 14e9
00000030: 1921 19d8 18fc 1fd2 0307 100a 13e2 fcd3
00000040: 0fdb 0403 daf1 e707 2f0e 021e 1f14 42f6
00000050: ecf8 fdd7 1c12 e801 f1fa e606 180c 0f13
00000060: f9f0 19fa 0e13 0600 1503 274a ef05 1df3
00000070: 2df0 08f3 feed eaf0 fc04 e639 06fb 1607
00000080: 1506 0241 fa06 fe1b ee07 16fa fde4 0621
00000090: ffcc f3fc eaec f717 f515 1919 0c2f 1107
000000a0: 0ccb fbcc f2e9 c8d7 1212 17ff 0e2a f721
000000b0: eee8 faf6 0c43 e321 0e22 eff6 f107 0d02
000000c0: e7fa 24d0 2fc4 27f7 1215 d0f0 f703 f4ff
000000d0: 1dcf fcd8 e402 070d 064c 1b38 1705 fb27
000000e0: 0508 e808 0bf9 f31a eacd e202 c2fc c0fa
000000f0: 1601 f6ef 1ed5 e9bd f610 e2f2 e725 2516

tfl.pseudo_qconst6 i1 [64] scale=0.0031757278 zero_point=126
-0.3207485 -0.36838442 -0.1270291 -0.41602033 0.0031757278 -0.3080456 -0.09844756 -0.31439704
-0.30169415 -0.107974745 -0.2508825 -0.3747359 -0.35885724 -0.22230095 -0.36203298 -0.31757277
-0.14608347 -0.42872325 -0.36838442 -0.20959803 -0.16513784 -0.1714893 -0.26040968 -0.32709995
-0.1714893 -0.08574465 -0.6033883 -0.022230094 -0.23182812 -0.35885724 -0.35250577 -0.2064223
-0.23182812 -0.2064223 -0.26676112 -0.047635917 -0.20007086 -0.26358542 -0.18419221 -0.13338056
-0.32392424 -0.65737563 -0.25723395 -0.20959803 -0.2731126 -0.20324658 -0.38426307 -0.7558232
-0.24770677 -0.3779116 -0.80663484 -0.21277376 -0.41919607 -0.38426307 -0.26676112 -0.16831358
-0.31122133 -0.4922378 -0.18101649 -0.26676112 -0.30486986 -0.15561067 -0.14608347 -0.21912521
00000000: 190a 56fb 7f1d 5f1b 1f5c 2f08 0d38 0c1a
00000010: 50f7 0a3c 4a48 2c17 4863 c077 350d 0f3d
00000020: 353d 2a6f 3f2b 4454 18af 2d3c 283e 0590
00000030: 3007 803b fa05 2a49 1ce3 452a 1e4d 5039

tfl.pseudo_qconst7 i1 [64] scale=0.0011860913 zero_point=-128
0.23010172 0.21705471 0.20875208 0.16961107 0.2478931 0.18858853 0.20637989 0.21112426
0.13877268 0.19333288 0.22891563 0.2324739 0.21349645 0.18858853 0.21231034 0.2312878
0.21586862 0.21231034 0.22891563 0.22772953 0.19333288 0.25145137 0.20993817 0.23366
0.19333288 0.22891563 0.14707533 0.20400771 0.2194269 0.23366 0.2324739 0.25263745
0.21349645 0.27754536 0.1921468 0.21231034 0.21705471 0.22061299 0.1506336 0.30245328
0.18977462 0.15181969 0.23366 0.23484609 0.20044944 0.25145137 0.18740243 0.12098131
0.24077654 0.22061299 0.110306494 0.20875208 0.18621634 0.19689116 0.22891563 0.23366
0.26568446 0.22417127 0.1648667 0.18265806 0.2585679 0.1909607 0.23366 0.25263745
00000000: 4237 300f 511f 2e32 f523 4144 341f 3343
00000010: 3633 4140 2354 3145 2341 fc2c 3945 4455
00000020: 346a 2233 373a ff7f 2000 4546 2954 1ee6
00000030: 4b3a dd30 1d26 4145 603d 0b1a 5a21 4555

tfl.pseudo_qconst9 i1 [64, 3, 3, 128]
-27 -33 30 -12 18 -5 -24 23
41 -1 75 -33 -50 28 -55 35
38 40 -22 11 -21 14 -7 11
38 -16 8 2 19 -9 -31 55
-39 11 25 -46 7 -15 5 67
-11 70 -54 -26 36 1 -20 -28
-47 -2 -26 12 -9 -63 0 10
-50 -10 -38 -32 -32 -48 57 -14
-20 12 12 -1 45 -6 57 6
14 -4 -33 -24 43 28 27 -57
8 0 14 -9 -35 30 1 -13
-36 68 70 79 2 23 -15 40
-52 32 38 88 6 63 73 -24
20 26 36 18 32 -22 -42 -32
23 -38 -24 42 9 -38 -5 -6
6 56 -21 36 116 -43 5 67
-14 -26 -10 6 -29 43 22 -53
-38 25 42 -5 -11 -10 -53 -74
15 31 46 -49 29 -34 -3 -36
71 -21 -40 -55 32 17 -25 52
-32 -49 10 1 29 6 -52 34
-29 51 15 -42 51 6 -17 -23
-14 -23 -28 -53 -63 -35 -46 18
3 -10 -3 24 6 7 -49 -28
-77 -37 -24 33 -36 -53 13 -2
-38 23 36 4 -4 7 -83 -67
-11 -2 -62 29 -25 -39 -42 6
-6 -1 51 40 -38 9 -58 16
-25 9 -70 -93 -50 46 -5 20
29 -15 9 38 53 -44 -3 -56
31 42 16 27 -61 11 -18 -6
-4 55 16 21 22 -46 -47 49
00000000: e5df 1ef4 12fb e817 29ff 4bdf ce1c c923
00000010: 2628 ea0b eb0e f90b 26f0 0802 13f7 e137
00000020: d90b 19d2 07f1 0543 f546 cae6 2401 ece4
00000030: d1fe e60c f7c1 000a cef6 dae0 e0d0 39f2
00000040: ec0c 0cff 2dfa 3906 0efc dfe8 2b1c 1bc7
00000050: 0800 0ef7 dd1e 01f3 dc44 464f 0217 f128
00000060: cc20 2658 063f 49e8 141a 2412 20ea d6e0
00000070: 17da e82a 09da fbfa 0638 eb24 74d5 0543
00000080: f2e6 f606 e32b 16cb da19 2afb f5f6 cbb6
00000090: 0f1f 2ecf 1dde fddc 47eb d8c9 2011 e734
000000a0: e0cf 0a01 1d06 cc22 e333 0fd6 3306 efe9
000000b0: f2e9 e4cb c1dd d212 03f6 fd18 0607 cfe4
000000c0: b3db e821 dccb 0dfe da17 2404 fc07 adbd
000000d0: f5fe c21d e7d9 d606 faff 3328 da09 c610
000000e0: e709 baa3 ce2e fb14 1df1 0926 35d4 fdc8
000000f0: 1f2a 101b c30b eefa fc37 1015 16d2 d131

tfl.pseudo_qconst10 i1 [128] scale=0.0054111765 zero_point=23
-0.30843705 -0.16233529 -0.16774647 0.21644706 0.07575647 0.31384823 0.5627624 0.27055883
0.20021354 0.01623353 0.12986824 0.04328941 0.23268059 0.12445706 -0.0054111765 -0.23809177
-0.15692411 0.1406906 0.3192594 0.05952294 0.05952294 0.15692411 -0.0054111765 0.01623353
0.12986824 0.40583822 -0.7629759 -0.03246706 -0.27597 0.054111764 -0.08657882 0.027055882
0.12445706 -0.027055882 -0.04328941 0.24350294 0.4815947 0.05952294 -0.30843705 0.3192594
0.14610176 0.44912764 0.21644706 0.12445706 0.01623353 0.05952294 -0.2543253 0.06493412
-0.07575647 -0.31384823 0.30843705 -0.09740118 -0.45453882 -0.33549294 0.027055882 0.09199
0.14610176 0.21644706 0.1406906 0.22185823 0.45453882 0.27055883 -0.2813812 0.01623353
0.03246706 -0.36796 0.11904588 0.027055882 -0.081167646 -0.11904588 0.04870059 0.027055882
0.11904588 -0.22726941 0.42748293 -0.037878234 -0.18939118 0.30843705 -0.5573512 -0.12445706
-0.40042707 -0.24891412 -0.10822353 0.4112494 -0.027055882 -0.1406906 -0.09740118 0.36254883
-0.23809177 -0.11904588 0.09740118 -0.1406906 0.16774647 -0.1406906 -0.22185823 0.09740118
-0.09740118 -0.81708765 -0.38419354 -0.29220352 -0.5789959 0.27597 -0.12445706 0.17856883
-0.1406906 -0.01623353 0.21644706 -0.0054111765 0.18398 0.24891412 0.081167646 -0.23268059
-0.18939118 -0.1406906 0.081167646 0.51947296 0.18939118 0.24891412 -0.10281235 0.04870059
-0.45453882 0.23809177 -0.16233529 -0.01623353 0.15692411 -0.021644706 -0.38960472 -0.18939118
00000000: def9 f83f 2551 7f49 3c1a 2f1f 422e 16eb
00000010: fa31 5222 2234 161a 2f62 8a11 e421 071c
00000020: 2e12 0f44 7022 de52 326a 3f2e 1a22 e823
00000030: 09dd 5005 c3d9 1c28 323f 3140 6b49 e31a
00000040: 1dd3 2d1c 0801 201c 2ded 6610 f450 b000
00000050: cde9 0363 12fd 055a eb01 29fd 36fd ee29
00000060: 0580 d0e1 ac4a 0038 fd14 3f16 3945 26ec
00000070: f4fd 2677 3a45 0420 c343 f914 3413 cff4

tfl.pseudo_qconst11 i1 [128] scale=0.002447251 zero_point=-128
0.23738335 0.31080088 0.3842184 0.39645466 0.36219314 0.43316343 0.43805793 0.43316343
0.44539967 0.29367012 0.4551887 0.3940074 0.50168645 0.5139227 0.38177115 0.27164486
0.4796612 0.45763594 0.5310535 0.4551887 0.44784692 0.41113818 0.40624365 0.43805793
0.47231945 0.47721395 0.20556909 0.3695349 0.4037964 0.41113818 0.4233744 0.3940074
0.624049 0.42826894 0.45274144 0.3940074 0.46987218 0.42826894 0.36464038 0.42826894
0.44295242 0.42826894 0.3450624 0.33282614 0.40624365 0.38911292 0.40624365 0.5188172
0.27653936 0.37687665 0.4600832 0.36219314 0.2300416 0.35240415 0.40869093 0.3842184
0.41358542 0.43805793 0.38911292 0.43561068 0.45274144 0.3744294 0.2985646 0.41847992
0.40869093 0.32303712 0.45274144 0.42826894 0.41358542 0.3842184 0.3499569 0.43805793
0.39645466 0.31814262 0.4307162 0.4551887 0.41358542 0.48210844 0.23248884 0.3793239
0.30345914 0.31080088 0.38911292 0.36708766 0.36464038 0.3059064 0.38666567 0.47721395
0.27653936 0.41603267 0.42582166 0.34750965 0.41113818 0.39645466 0.30835363 0.43805793
0.30345914 0.18843833 0.30835363 0.34750965 0.23738335 0.4600832 0.41603267 0.41113818
0.39156017 0.4894502 0.4747667 0.3989019 0.42092717 0.42582166 0.48210844 0.34016788
0.40134916 0.3597459 0.46497768 0.5702095 0.40624365 0.40869093 0.31569538 0.5041337
0.28877562 0.44295242 0.38911292 0.4845557 0.46987218 0.3695349 0.34016788 0.3842184
00000000: e1ff 1d22 1431 3331 36f8 3a21 4d52 1cef
00000010: 443b 593a 3728 2633 4143 d417 2528 2d21
00000020: 7f2f 3921 402f 152f 352f 0d08 261f 2654
00000030: f11a 3c14 de10 271d 2933 1f32 3919 fa2b
00000040: 2704 392f 291d 0f33 2202 303a 2945 df1b
00000050: fcff 1f16 15fd 1e43 f12a 2e0e 2822 fe33
00000060: fccd fe0e e13c 2a28 2048 4223 2c2e 450b
00000070: 2413 3e69 2627 014e f635 1f46 4017 0b1d

tfl.pseudo_qconst13 i1 [128, 3, 3, 64]
29 -30 44 -33 -68 -33 23 31
23 36 2 22 66 37 -12 -1
-46 -3 62 -78 15 48 -96 -14
-65 -99 -37 -21 -56 25 -5 4
-10 48 -5 -10 -38 70 -37 -39
-9 -41 22 15 24 8 -12 27
-6 -58 2 -14 1 -49 -9 -54
3 -16 -20 8 -4 5 12 18
-18 -41 -71 -14 -12 26 -3 -1
-21 -71 16 8 -13 2 -62 -18
23 13 -2 28 -19 4 28 -7
56 -8 41 -32 -19 -33 -5 12
-5 34 -14 23 -20 15 -42 -54
0 33 -42 37 -8 -26 18 48
34 -37 28 -50 -2 -37 1 -24
-2 -9 -10 -34 -53 5 8 -40
-71 -11 -68 -26 40 34 -19 -30
-69 38 72 -17 75 9 -55 -34
59 -19 -34 46 6 49 13 85
-32 21 43 -26 -61 -13 -32 -34
80 -15 20 -3 18 19 -16 12
79 29 -13 -17 -17 -23 -24 2
66 11 44 -30 -22 -7 21 -57
32 -3 -50 33 27 -57 -49 -26
-22 -60 73 -20 -40 -3 37 12
-16 -1 -16 -2 74 1 85 64
-46 -27 -23 -12 28 22 -55 -40
31 -28 -7 -32 -30 12 -4 -9
-52 -1 -11 -2 -58 14 -16 -59
30 -36 -14 13 -3 -17 -45 29
-53 -2 67 24 29 -22 -49 49
-48 -4 -73 18 -71 20 25 16
00000000: 1de2 2cdf bcdf 171f 1724 0216 4225 f4ff
00000010: d2fd 3eb2 0f30 a0f2 bf9d dbeb c819 fb04
00000020: f630 fbf6 da46 dbd9 f7d7 160f 1808 f41b
00000030: fac6 02f2 01cf f7ca 03f0 ec08 fc05 0c12
00000040: eed7 b9f2 f41a fdff ebb9 1008 f302 c2ee
00000050: 170d fe1c ed04 1cf9 38f8 29e0 eddf fb0c
00000060: fb22 f217 ec0f d6ca 0021 d625 f8e6 1230
00000070: 22db 1cce fedb 01e8 fef7 f6de cb05 08d8
00000080: b9f5 bce6 2822 ede2 bb26 48ef 4b09 c9de
00000090: 3bed de2e 0631 0d55 e015 2be6 c3f3 e0de
000000a0: 50f1 14fd 1213 f00c 4f1d f3ef efe9 e802
000000b0: 420b 2ce2 eaf9 15c7 20fd ce21 1bc7 cfe6
000000c0: eac4 49ec d8fd 250c f0ff f0fe 4a01 5540
000000d0: d2e5 e9f4 1c16 c9d8 1fe4 f9e0 e20c fcf7
000000e0: ccff f5fe c60e f0c5 1edc f20d fdef d31d
000000f0: cbfe 4318 1dea cf31 d0fc b712 b914 1910

tfl.pseudo_qconst14 i1 [64] scale=0.0050664362 zero_point=104
-0.85622776 -0.8815599 -0.78529763 -1.0791509 -1.0740845 -0.87142706 -1.0386194 -0.98288864
-0.88662636 -0.7802312 -0.83089554 -1.0943502 0.116528034 -0.7700983 -1.0132873 -0.9626229
-0.86129415 -0.95249003 -0.9119585 -0.90182567 -0.9271578 -1.1551474 -1.0740845 -0.87142706
-0.8511613 -0.8511613 -1.0791509 -0.7954305 -0.28372043 -0.0101328725 -0.8663606 -0.8815599
-0.80049694 -0.91702497 -0.4610457 -1.0791509 -0.25838825 -1.0284866 -0.41544777 -0.87142706
-1.033553 -0.95249003 -0.7751647 -1.1754133 -1.0436859 -0.9727558 -1.1652803 -1.033553
-1.0943502 -1.0943502 -0.87649345 -1.0994166 -0.9423571 -0.04053149 -1.0791509 -1.0234201
-0.6991682 -0.9575564 -0.7396997 -0.51171005 -0.32425192 -1.0487523 -0.8258291 -0.66370314
00000000: bfba cd93 94bc 9ba6 b9ce c490 7fd0 a0aa
00000010: beac b4b6 b184 94bc c0c0 93cb 3066 bdba
00000020: cab3 0d93 359d 16bc 9cac cf80 9aa8 829c
00000030: 9090 bb8f ae60 939e deab d603 2899 c5e5

tfl.pseudo_qconst15 i1 [64] scale=0.027676925 zero_point=-128
3.5149696 4.4836617 3.0998156 2.8784003 3.2382002 5.092554 2.1588001 4.566693
5.867508 7.0576158 4.068508 2.6846616 1.466877 3.1551695 3.8470926 2.4632463
2.4355693 2.0757694 2.1311233 2.1311233 2.2971847 2.4078925 2.1311233 4.151539
2.1588001 2.5186002 4.7604313 2.4355693 1.6052617 4.6220465 3.7363849 2.4355693
4.9818463 4.9818463 5.535385 3.016785 5.867508 2.6846616 5.230939 2.546277
2.573954 2.214154 2.3525386 2.4909232 4.3176003 2.6846616 2.2418308 3.2105234
2.2418308 2.6846616 6.0058928 2.3802156 3.4042618 2.8507233 3.2658772 2.5186002
2.1864772 2.3248618 4.843462 4.705077 2.0480924 2.4078925 1.854354 2.0757694
00000000: ff22 f0e8 f538 ce25 547f 13e1 b5f2 0bd9
00000010: d8cb cdcd d3d7 cd16 cedb 2cd8 ba27 07d8
00000020: 3434 48ed 54e1 3ddc ddd0 d5da 1ce1 d1f4
00000030: d1e1 59d6 fbe7 f6db cfd4 2f2a cad7 c3cb

tfl.pseudo_qconst17 i1 [64, 3, 3, 3]
-29 -55 -36 34 68 97 -51 -48
-13 -83 -41 -79 39 69 110 42
26 33 -36 -73 -127 58 17 61
21 11 -24 -74 -64 -123 70 116
63 -35 -28 14 -17 45 15 87
70 108 -83 -74 -55 60 48 67
63 3 23 -74 -99 -127 34 -70
-59 -49 -24 -11 127 111 118 -69
-58 -87 -103 -91 -104 5 17 64
-1 40 17 -86 -2 78 19 76
88 71 19 4 11 30 71 -79
-46 -89 87 34 39 77 30 95
-109 -116 -127 10 49 -19 48 19
71 -29 -85 -88 67 108 28 -28
-73 -127 -79 -81 -81 34 56 37
-76 -29 32 -21 -57 -2 33 -82
-46 33 40 70 98 77 64 72
115 95 54 40 60 44 -79 -17
-39 12 -24 -103 -80 -108 -69 -96
-104 -35 -20 38 -36 -55 -24 98
127 100 -21 -33 -75 5 10 54
117 39 81 -46 -92 -73 -64 -65
-30 127 107 111 -70 -90 -28 -86
-20 -91 91 76 21 -67 -83 -69
18 8 74 -16 -25 30 -45 -47
-62 66 110 127 89 -10 67 -10
25 -29 31 25 26 -70 -61 -119
-126 -90 -87 -8 43 26 103 39
51 -11 12 -29 52 57 77 7
-43 29 19 88 50 12 -40 40
-13 -127 -124 -51 -102 -103 -2 0
2 127 122 84 9 -11 -31 -62
00000000: e3c9 dc22 4461 cdd0 f3ad d7b1 2745 6e2a
00000010: 1a21 dcb7 813a 113d 150b e8b6 c085 4674
00000020: 3fdd e40e ef2d 0f57 466c adb6 c93c 3043
00000030: 3f03 17b6 9d81 22ba c5cf e8f5 7f6f 76bb
00000040: c6a9 99a5 9805 1140 ff28 11aa fe4e 134c
00000050: 5847 1304 0b1e 47b1 d2a7 5722 274d 1e5f
00000060: 938c 810a 31ed 3013 47e3 aba8 436c 1ce4
00000070: b781 b1af af22 3825 b4e3 20eb c7fe 21ae
00000080: d221 2846 624d 4048 735f 3628 3c2c b1ef
00000090: d90c e899 b094 bba0 98dd ec26 dcc9 e862
000000a0: 7f64 ebdf b505 0a36 7527 51d2 a4b7 c0bf
000000b0: e27f 6b6f baa6 e4aa eca5 5b4c 15bd adbb
000000c0: 1208 4af0 e71e d3d1 c242 6e7f 59f6 43f6
000000d0: 19e3 1f19 1aba c389 82a6 a9f8 2b1a 6727
000000e0: 33f5 0ce3 3439 4d07 d51d 1358 320c d828
000000f0: f381 84cd 9a99 fe00 027f 7a54 09f5 e1c2
