sd-card/config/dig0630s3.tflite (tflite, 218936 bytes, 12 tensors)

sequential/conv2d/BiasAdd/ReadVariableOp f4 [32]
-0.11584346 -0.061517034 0.065719716 -0.045824517 -0.03363237 -0.08138081 -0.08369162 -0.08657497
-0.01410242 -0.11102752 -0.077422336 -0.14312173 -0.11447454 0.10221226 -0.12489795 -0.09931811
-0.11844359 -0.053221676 -0.08217403 -0.05531316 -0.0140262265 0.08538651 -0.12713924 -0.022802748
0.12722684 -0.10526836 -0.0036026067 -0.06589735 -0.13130884 -0.06765852 -0.07351614 -0.08483193
00000000: 563f edbd 49f9 7bbd 0f98 863d 7db2 3bbd
00000010: 19c2 09bd fbaa a6bd 8366 abbd 384e b1bd
00000020: d60d 67bc 6562 e3bd 9a8f 9ebd 818e 12be
00000030: a171 eabd a954 d13d 7fca ffbd 4b67 cbbd
00000040: 8e92 f2bd f9fe 59bd dc4a a8bd 0d90 62bd
00000050: 42ce 65bc 1fdf ae3d ca30 02be d4cc babc
00000060: c147 023e f096 d7bd b619 6cbb 31f5 86bd
00000070: d375 06be 8d90 8abd a18f 96bd 5dbc adbd

sequential/dense/BiasAdd/ReadVariableOp f4 [128]
-0.06086859 -0.052529667 -0.068565086 -0.02490762 0.09320757 -0.051197 0.020967063 0.06616917
-0.05559471 0.033919945 0.01874112 0.019137274 0.068005644 0.017112924 0.03669364 0.040432412
0.12425613 0.0982439 -0.0071485555 0.050053313 0.03063819 0.07771837 -0.02244514 0.06793552
0.03566444 0.044770114 0.0070802164 0.09016465 0.044482432 0.097266614 0.16335717 0.022741817
-0.042248115 -0.014863289 -0.017333519 -0.0034482148 -0.00919922 0.01748531 -0.07059097 0.0636973
0.051287152 0.07857557 -0.030508306 0.10637628 0.06727932 0.06829207 0.09415101 0.10283229
0.018077198 -0.060615703 0.07950888 0.028232804 -0.027847476 0.050800443 -0.022781039 0.031524304
0.008846639 -0.0008189155 -0.018265618 0.07337412 0.024031075 0.05356893 0.07469581 0.06260972
-0.016695399 -0.048238892 0.08989942 0.021799877 -0.00065099384 0.028338356 -0.024686575 0.06308919
0.026190555 -0.08513246 0.050522484 0.042943165 0.031024396 0.018709755 0.0129165845 0.06607428
-0.029237809 0.013486633 -0.027231665 -0.00641062 0.049555533 0.048972156 0.10031986 0.037456475
0.036104914 0.0036993797 0.07887509 -0.070663184 -0.007267483 -0.009624582 -0.06498818 -0.020393603
0.017059078 0.028932692 -0.0037154313 -0.004523908 -0.005121597 0.035525016 -0.08611695 0.03897148
-0.060443345 -0.011849471 0.07331359 0.072280064 0.056542147 0.01438046 0.06563389 0.110135905
0.11751979 0.08530816 0.021560628 0.04295972 0.068612225 0.0512867 0.0035223674 -0.055977132
0.042848457 0.020232024 -0.12742242 -0.005173777 -0.013781574 0.19713627 0.0105260825 0.0007322969
00000000: 5851 79bd 5929 57bd da6b 8cbd 110b ccbc
00000010: 9ce3 be3d f2b3 51bd 1ec3 ab3c b483 873d
00000020: 47b7 63bd a4ef 0a3d fa86 993c c6c5 9c3c
00000030: 8b46 8b3d 6730 8c3c 124c 163d 759c 253d
00000040: ff79 fe3d 1934 c93d 6e3e eabb b404 4d3d
00000050: f1fc fa3c cf2a 9f3d dfde b7bc c721 8b3d
00000060: e014 123d de60 373d 2901 e83b 3ea8 b83d
00000070: 3633 363d b833 c73d 1a47 273e 0c4d ba3c
00000080: 5c0c 2dbd 2785 73bc 06ff 8dbc 72fb 61bb
00000090: 53b8 16bc 5a3d 8f3c 0092 90bd bb73 823d
000000a0: 7a12 523d 3aec a03d 8eec f9bc cfdb d93d
000000b0: bdc9 893d b6dc 8b3d 3fd2 c03d bc99 d23d
000000c0: a216 943c 2c48 78bd 8dd5 a23d 7b48 e73c
000000d0: 6420 e4bc 2014 503d 4d9f babc a11f 013d
000000e0: 7ef1 103c 7dac 56ba c7a1 95bc 2c45 963d
000000f0: d1dc c43c 186b 5b3d 1efa 983d 8639 803d
00000100: cac4 88bc 2596 45bd 301d b83d a895 b23c
00000110: 75a7 2aba d725 e83c 803b cabc e834 813d
00000120: 938d d63c ed59 aebd aaf0 4e3d 2ce5 2f3d
00000130: e026 fe3c 3345 993c 15a0 533c f451 873d
00000140: 2184 efbc 0af7 5c3c f114 dfbc 2e10 d2bb
00000150: befa 4a3d 0797 483d 8074 cd3d f66b 193d
00000160: bfe2 133d 4b71 723b 4389 a13d dcb7 90bd
00000170: 1124 eebb 6cb0 1dbc 8618 85bd 7c10 a7bc
00000180: 7bbf 8b3c 4104 ed3c 987e 73bb 4a3d 94bb
00000190: 12d3 a7bb ae82 113d 155e b0bd 8fa0 1f3d
000001a0: 7193 77bd 4924 42bc 6f25 963d 9207 943d
000001b0: bd98 673d 059c 6b3c 106b 863d ef8e e13d
000001c0: 37ae f03d 0bb6 ae3d ea9f b03c 88f6 2f3d
000001d0: 9184 8c3d 0112 523d 85d7 663b 4748 65bd
000001e0: dd81 2f3d a1bd a53c 067b 02be ca88 a9bb
000001f0: 1ccc 61bc 17de 493e 9775 2c3c 9df7 3f3a

sequential/dense_1/BiasAdd/ReadVariableOp f4 [11]
-0.17311399 -0.111815535 -0.13487539 -0.108802326 -0.14334746 -0.12055985 -0.042011306 -0.16375165
-0.047246996 -0.13422678 -0.13261425
00000000: cb44 31be 8bff e4bd c61c 0abe c1d3 debd
00000010: adc9 12be 15e8 f6bd 0c14 2cbd 83ae 27be
00000020: 1186 41bd bf72 09be 08cc 07be

sequential/batch_normalization/FusedBatchNormV3 f4 [3]
0.012357304 0.014843302 0.0115437675
00000000: 4a76 4a3c 5231 733c 1222 3d3c

sequential/batch_normalization/FusedBatchNormV31 f4 [3]
-1.8749138 -2.044544 -1.7309613
00000000: 2dfd efbf cfd9 02c0 2490 ddbf

sequential/dense/MatMul f4 [128, 256]
-0.06296015 -0.059492234 0.06745702 -0.051029444 0.06390097 0.039857723 0.14552857 -0.12097178
-0.046485733 0.08262163 -0.1184602 -0.16118123 -0.029735839 -0.1380211 -0.17292044 0.022806251
0.062313456 -0.04640371 -0.10234979 0.010311108 -0.043269217 -0.027001379 -0.0054214257 0.045929775
-0.0745874 -0.07119191 -0.09699849 0.06839631 -0.1366884 0.043153197 -0.020827647 -0.013171093
-0.054109346 -0.062274475 0.072637714 0.09243125 -0.15893811 -0.047288183 -0.08938411 0.012762486
0.18644105 -0.02834572 -0.0610596 0.04552481 -0.036615208 0.04611882 0.03425354 -0.10537607
-0.07898496 -0.020065231 0.09269037 0.022548612 -0.08336798 0.018313253 0.16619758 0.019687006
-0.015025175 0.032799426 -0.16369541 -0.02989077 0.05155736 0.063221976 -0.10247096 0.093947805
-0.16120215 0.058053505 0.09355461 -0.06675724 0.035612646 0.03607373 -0.09460458 -0.009999156
0.03697362 0.023801867 -0.0024711057 -0.07819705 -0.12696612 -0.05325731 0.05249172 -0.03828272
0.061794147 0.013903272 0.04256105 0.06652019 -0.023165993 -0.0133565655 -0.009869263 -0.0053648856
0.014722893 -0.1294097 0.013283466 0.018677207 0.08433856 -0.16786797 -0.0052785836 0.021035196
-0.078635156 -0.12612125 -0.095677376 -0.12001719 0.04306938 0.034048453 -0.081586085 -0.08051933
0.048324395 -0.059102252 -0.10427934 0.048960857 0.12110978 -0.002131603 0.20991093 -0.10347541
0.04438592 -0.09544401 0.09909437 -0.06177181 -0.16555852 0.032410137 -0.040704228 0.14927533
-0.05083069 -0.10701751 0.11092939 -0.15694214 -0.07854002 -0.05917456 0.019727258 0.031575695
-0.11100544 -0.1543637 -0.008202948 0.08736685 -0.021491012 0.06459792 0.11821116 0.08570691
-0.06768715 0.19093299 0.040945597 0.026483728 -0.0708218 0.10233259 -0.010007709 -0.072149575
-0.020798912 -0.017610896 0.024763683 -0.042263214 -0.05112864 0.09658083 0.026446318 0.02346113
-0.1160815 0.18213816 0.021974007 -0.04610965 -0.025342051 0.03407488 -0.0182679 -0.19018945
0.016432725 0.11146375 -0.04545916 -0.0030046084 -0.039368685 0.02242658 0.04849472 0.07358271
-0.14924726 -0.14191875 -0.16067623 -0.011392163 -0.048516545 -0.10782962 0.0810394 -0.12595715
0.10486963 0.029346848 -0.13579759 -0.01568121 0.055744898 0.0063689095 0.072800845 -0.09116774
-0.030562509 -0.026579484 -0.09908582 0.1119049 0.10842282 0.16432725 0.03519579 -0.016310737
-0.08706376 -0.12599325 -0.17812502 -0.055114686 -0.09571033 0.049876828 -0.08393621 -0.0638561
-0.014929491 0.090830825 0.031126238 0.073273644 0.039686013 0.0028873105 0.031040609 -0.04707671
-0.099769026 0.05981872 -0.0293338 -0.0959607 -0.034797728 0.1090132 -0.0063841185 -0.035826284
0.055231664 0.02021041 0.0260776 -0.079929955 0.1432978 0.067408875 -0.1307923 0.012436117
0.00030106067 0.09964291 0.07748715 0.079758994 0.060389373 -0.019930948 -0.0739881 -0.10590164
-0.096384495 0.047172915 -0.014683772 0.0118474 0.15909962 0.15104952 0.07803413 0.14390443
0.07441821 -0.006000299 -0.093731634 0.011404209 -0.002604297 -0.12552609 0.05954538 -0.1695963
0.11664635 0.017824415 0.047961455 0.046705466 -0.071263246 0.08788598 -0.021008529 0.08125027
00000000: 40f1 80bd 21ae 73bd e826 8a3d 4004 51bd
00000010: 83de 823d da41 233d 7105 153e 0dc0 f7bd
00000020: d367 3ebd 8735 a93d 439b f2bd b10c 25be
00000030: 9398 f3bc 6755 0dbe 0e12 31be 2dd4 ba3c
00000040: 653c 7f3d d111 3ebd c49c d1bd ecef 283c
00000050: 103b 31bd ff31 ddbc 37a6 b1bb dc20 3c3d
00000060: 47c1 98bd 10cd 91bd 25a7 c6bd 5d13 8c3d
00000070: 0bf8 0bbe 68c1 303d be9e aabc 91cb 57bc
00000080: c3a1 5dbd 8513 7fbd 15c3 943d 984c bd3d
00000090: acc0 22be 41b1 41bd 040f b7bd bf19 513c
000000a0: 67ea 3e3e 4935 e8bc a219 7abd 3978 3a3d
000000b0: d4f9 15bd 16e7 3c3d 714d 0c3d 69cf d7bd
000000c0: dec2 a1bd d75f a4bc 73d4 bd3d deb7 b83c
000000d0: d5bc aabd ad05 963c b32f 2a3e a546 a13c
000000e0: 272c 76bc b158 063d c59f 27be 7ddd f4bc
000000f0: cf2d 533d 867a 813d 4bdc d1bd b567 c03d
00000100: 2d12 25be 83c9 6d3d 8f99 bf3d 05b8 88bd
00000110: 91de 113d 0cc2 133d 0cc0 c1bd 80d3 23bc
00000120: a771 173d 22fc c23c 46f2 21bb c625 a0bd
00000130: 6803 02be 5624 5abd 8f01 573d 57ce 1cbd
00000140: dc1b 7d3d 8dca 633c 7f54 2e3d bd3b 883d
00000150: 9cc6 bdbc 7fd5 5abc b0b2 21bc eccb afbb
00000160: 4a38 713c fa83 04be e5a2 593c f100 993c
00000170: b2b9 ac3d 95e5 2bbe f8f7 acbb 0152 ac3c
00000180: 780b a1bd ee25 01be 80f2 c3bd 93cb f5bd
00000190: 8569 303d 6476 0b3d 9b16 a7bd 52e7 a4bd
000001a0: cdef 453d 3415 72bd 6890 d5bd 2e8b 483d
000001b0: 6808 f83d 5db2 0bbb e4f2 563e eaea d3bd
000001c0: 03ce 353d 2678 c3bd fdf1 ca3d 7004 7dbd
000001d0: 2c88 29be 7ec0 043d 7ab9 26bd a2db 183e
000001e0: d733 50bd ff2b dbbd f32e e33d 71b5 20be
000001f0: 97d9 a0bd 0661 72bd 0f9b a13c 8455 013d
00000200: d256 e3bd 8511 1ebe a865 06bc 64ed b23d
00000210: eb0d b0bc ea4b 843d b118 f23d 1b87 af3d
00000220: 8f9f 8abd f083 433e 92b6 273d 67f4 d83c
00000230: 050b 91bd c093 d13d 60f7 23bc 28c3 93bd
00000240: 7b62 aabc ba44 90bc 35dd ca3c 311c 2dbd
00000250: 446c 51bd 2ccc c53d f3a5 d83c 8e31 c03c
00000260: 23bc edbd 6d82 3a3e d502 b43c 79dd 3cbd
00000270: 229a cfbc 1a92 0b3d 90a6 95bc 06c1 42be
00000280: ec9d 863c 1b47 e43d 6233 3abd f7e8 44bb
00000290: 0f41 21bd f2b7 b73c 66a2 463d 88b2 963d
000002a0: 46d4 18be 2653 11be 4f88 24be 32a6 3abc
000002b0: 49b9 46bd c7d5 dcbd fcf7 a53d e9fa 00be
000002c0: e3c5 d63d cd68 f03c 860e 0bbe e275 80bc
000002d0: c354 643d 49b2 d03b 9c18 953d 27b6 babd
000002e0: 3a5e fabc 38bd d9bc 82ed cabd 652e e53d
000002f0: c90c de3d 6745 283e 7629 103d 189e 85bc
00000300: 7c4e b2bd 6004 01be 6866 36be f0bf 61bd
00000310: c703 c4bd a54b 4c3d bfe6 abbd fdc6 82bd
00000320: d39a 74bc 8305 ba3d 74fc fe3c 7e10 963d
00000330: cd8d 223d 0839 3d3b e048 fe3c 82d3 40bd
00000340: b453 ccbd 7904 753d 704d f0bc 0b87 c4bd
00000350: 1088 0ebd 5042 df3d de31 d1bb 95be 12bd
00000360: 993a 623d 4d90 a53c b1a0 d53c 51b2 a3bd
00000370: a9bc 123e aa0d 8a3d 6bee 05be dbc0 4b3c
00000380: aed7 9d39 9511 cc3d 95b1 9e3d af58 a33d
00000390: d95a 773d 3a46 a3bc 1387 97bd f6e2 d8bd
000003a0: 3c65 c5bd 6338 413d 3494 70bc 991b 423c
000003b0: 03eb 223e baac 1a3e 5cd0 9f3d af5b 133e
000003c0: 9368 983d 289e c4bb 5ff6 bfbd b8d8 3a3c
000003d0: daac 2abb e989 00be dbe5 733d a7aa 2dbe
000003e0: 48e4 ee3d 8204 923c 3b73 443d 3b4e 3f3d
000003f0: 77f2 91bd 91fd b33d 141a acbc 8b66 a63d

sequential/dense_1/MatMul f4 [11, 128]
-0.054441765 0.02490646 0.085005015 0.122999474 -0.23946323 0.14756082 -0.2012334 -0.4899544
-0.0102706095 0.1018156 -0.115336195 -0.036839817 -0.4949752 -0.12918803 -0.39356652 0.0021859603
-0.3056301 -0.26542956 -0.3867485 -0.46048254 -0.08735125 -0.09729246 -0.1472047 -0.40471315
-0.08595735 -0.30950868 0.0040817796 -0.17553821 -0.25591162 -0.17902392 -0.22195919 -0.48989686
0.08509501 -0.14204471 -0.4806313 0.043095328 0.04720272 -0.050732184 -0.059997812 -0.33233553
-0.24475813 -0.3312519 0.031987697 -0.24084684 -0.10898169 -0.2129319 -0.17332676 -0.4351157
-0.4391839 0.12483883 -0.4101347 0.032351684 -0.27414086 -0.2575243 -0.12964515 -0.34620535
-0.25294423 -0.22804023 -0.10646481 -0.22634128 -0.31970283 -0.17120214 -0.3909253 0.085170336
-0.2836302 -0.10647503 -0.04672832 -0.34141856 -0.14244033 -0.1899969 -0.07685026 -0.31351086
-0.14760327 -0.28603312 -0.40317068 0.007456169 -0.03494809 -0.4185564 -0.11736043 -0.49236706
-0.15594609 -0.28543347 0.07467388 0.10727529 -0.18360282 0.014744308 -0.28194857 -0.34792593
-0.19647747 0.008208054 -0.22903618 -0.24024275 -0.11524891 0.008429703 0.1512534 0.05416338
-0.32103333 -0.20909117 -0.29058582 -0.34842858 0.12776417 -0.22443892 0.045694727 -0.26410007
0.15399915 -0.14837196 -0.34373555 -0.33876106 -0.028188704 0.05907327 -0.2766371 -0.3570531
-0.080699466 -0.3629021 -0.08865296 0.03284014 -0.3112118 -0.059053235 -0.22095513 -0.37427908
-0.0002301429 -0.4071763 -0.010037929 0.025575563 -0.2866388 -0.45668897 0.0299628 -0.07048859
-0.12327127 -0.04040909 -0.2890185 -0.16173214 0.0013634006 -0.2088449 -0.20046788 -0.10403621
-0.06527529 -0.22870843 0.109433204 0.18559347 0.1165489 -0.38672864 -0.34885305 -0.024970619
0.056072697 -0.1877774 0.06766376 0.06828192 0.1586187 0.09820505 -0.1657083 -0.3377208
0.06781626 -0.42874917 0.1843361 -0.5897351 -0.24614823 0.03314002 -0.16274078 -0.31776473
-0.48820746 -0.22871569 0.016801838 -0.27569887 -0.2284891 0.12556992 0.024321683 0.07267874
-0.39801386 -0.42871663 -0.3682734 -0.04537086 -0.31661412 -0.050040603 -0.35768253 -0.3359611
0.04971594 -0.22649905 -0.12013173 -0.4500446 0.20588465 0.03796309 -0.31463984 -0.36965346
-0.038430326 -0.225078 -0.56261814 -0.24365218 -0.14285213 0.01713069 0.032232486 0.006591377
-0.350891 -0.07671599 -0.33565068 -0.39263856 0.074087895 -0.3361909 -0.07074252 -0.054029595
-0.23195374 0.13694799 -0.3983434 0.12559491 -0.34311587 -0.12936392 -0.08883517 -0.15018019
0.05275306 0.031277016 -0.26300701 0.14884685 -0.34241515 -0.062396545 -0.2581895 -0.40063643
-0.24733615 -0.052671064 -0.46166402 -0.13811745 -0.36405542 -0.112125725 -0.5003348 0.0215614
-0.17290494 -0.05485609 -0.008082294 -0.15410358 -0.34549806 -0.24692811 -0.1539568 -0.3725204
0.011282205 0.07068209 -0.32044813 -0.20955548 -0.56568885 0.03727676 -0.04895422 -0.2496433
-0.09134418 -0.32690457 0.019070413 -0.22447906 -0.290166 -0.16266133 0.12129775 0.13389608
-0.32894784 -0.2434878 -0.26137444 -0.20159192 -0.28709587 -0.35167438 -0.105277866 -0.35547146
00000000: 54fe 5ebd a208 cc3c 1c17 ae3d 26e7 fb3d
00000010: d935 75be 2f1a 173e 2110 4ebe 4edb fabe
00000020: 0f46 28bc b384 d03d 6235 ecbd 59e5 16bd
00000030: 646d fdbe de49 04be 8d81 c9be 5442 0f3b
00000040: 8c7b 9cbe 62e6 87be e603 c6be 5ec4 ebbe
00000050: 36e5 b2bd 4541 c7bd d4bc 16be 9036 cfbe
00000060: 680a b0bd ec77 9ebe 73c0 853b 4ac0 33be
00000070: d906 83be 0c52 37be 4549 63be c3d3 fabe
00000080: 4b46 ae3d 2b74 11be 4e15 f6be ba84 303d
00000090: a457 413d 8dcc 4fbd 44c0 75bd e227 aabe
000000a0: e0a1 7abe d999 a9be 8805 033d 8ea0 76be
000000b0: cb31 dfbd d20a 5abe 927c 31be 7cc7 debe
000000c0: b6dc e0be 80ab ff3d 2dfd d1be 3383 043d
000000d0: 315c 8cbe 3ada 83be b3c1 04be d441 b1be
000000e0: e881 81be 6183 69be 390a dabd 02c6 67be
000000f0: 17b0 a3be 9d4f 2fbe 5c27 c8be c96d ae3d
00000100: fa37 91be 950f dabd 3266 3fbd 6ace aebe
00000110: e1db 11be 8c8e 42be ab63 9dbd 7f84 a0be
00000120: 5025 17be ef72 92be 636c cebe e152 f43b
00000130: ba25 0fbd 064d d6be aa5a f0bd 8917 fcbe
00000140: 55b0 1fbe 5624 92be 9fee 983d 26b3 db3d
00000150: 6102 3cbe 1c92 713c 905b 90be 5923 b2be
00000160: 6431 49be 137b 063c 7688 6abe 3202 76be
00000170: 9f07 ecbd bd1c 0a3c 2ce2 1a3e 6cda 5d3d
00000180: 7b5e a4be ff1b 56be aac7 94be 3b65 b2be
00000190: 9cd4 023e 51d3 65be 652a 3b3d 2038 87be
000001a0: f4b1 1d3e d2ee 17be 1bfe afbe 1772 adbe
000001b0: ffeb e6bc d0f6 713d 61a3 8dbe aacf b6be
000001c0: c345 a5bd 4ece b9be af8f b5bd 6283 063d
000001d0: 2757 9fbe cee1 71bd 1042 62be 82a1 bfbe
000001e0: 8452 71b9 6979 d0be 2076 24bc d883 d13c
000001f0: 52c2 92be 23d3 e9be 8c74 f53c 525c 90bd
00000200: a675 fcbd 0184 25bd 3cfa 93be 1c9d 25be
00000210: 22b4 b23a 70db 55be 7447 4dbe f010 d5bd
00000220: 0daf 85bd 8b32 6abe 841e e03d 370c 3e3e
00000230: 31b1 ee3d 4c01 c6be de9c b2be 2f8f ccbc
00000240: 7cac 653d b848 40be 4c93 8a3d 64d7 8b3d
00000250: f16c 223e bb1f c93d 70af 29be bee9 acbe
00000260: 40e3 8a3d 0385 dbbe 9ac2 3c3e e1f8 16bf
00000270: 480e 7cbe d4bd 073d 85a5 26be 0fb2 a2be
00000280: 54f6 f9be 7234 6abe 02a4 893c 6728 8dbe
00000290: 0cf9 69be 6795 003e 443e c73c 97d8 943d
000002a0: 79c8 cbbe bf80 dbbe 558e bcbe cbd6 39bd
000002b0: 3f1b a2be 60f7 4cbd 2a22 b7be 1803 acbe
000002c0: f1a2 4b3d 5eef 67be a007 f6bd 3f6c e6be
000002d0: 6dd3 523e 2f7f 1b3d 7918 a1be 3843 bdbe
000002e0: 1e69 1dbd d97a 66be be07 10bf f57f 79be
000002f0: d447 12be a955 8c3c 3606 043d 7afc d73b
00000300: fca7 b3be 461d 9dbd 68da abbe ec07 c9be
00000310: 65bb 973d 3721 acbe 74e1 90bd 234e 5dbd
00000320: 4885 6dbe 183c 0c3e abf3 cbbe f49b 003e
00000330: e2ac afbe fa77 04be 37ef b5bd d6c8 19be
00000340: 9813 583d 541c 003d dba8 86be 4f6b 183e
00000350: 0a51 afbe 8593 7fbd 6a31 84be 3820 cdbe
00000360: b045 7dbe 9dbd 57bd 3a5f ecbe a96e 0dbe
00000370: 7965 babe 2ca2 e5bd f115 00bf 88a1 b03c
00000380: fe0d 31be c8b0 60bd 996b 04bc 54cd 1dbe
00000390: 1fe5 b0be b9da 7cbe daa6 1dbe feba bebe
000003a0: ffd8 383c c6c1 903d c711 a4be b695 56be
000003b0: fcd0 10bf 84af 183d 3884 48bd 7ea2 7fbe
000003c0: a812 bbbd 0960 a7be 8e39 9c3c d7dd 65be
000003d0: a390 94be b190 26be f46a f83d 0e1c 093e
000003e0: da6b a8be de54 79be dfd2 85be 1d6e 4ebe
000003f0: 3bfe 92be aa0e b4be ec9b d7bd 5b00 b6be

sequential/conv2d/Conv2D f4 [32, 3, 3, 3]
0.12683114 -0.0719999 0.11356023 0.014212681 -0.079297125 0.1344421 0.124860846 0.08807741
0.041687496 0.032534488 -0.15248296 0.042047977 -0.09435082 0.0032093802 -0.13088427 -0.120935425
-0.20061372 0.010216251 0.003964328 -0.00589184 -0.13417435 0.14444049 0.017510585 0.009695066
-0.07983363 0.08096666 0.042531922 -0.13556464 -0.093862474 0.052640136 -0.02394847 -0.113946795
0.115466684 -0.08590189 -0.12888838 -0.0625257 0.16260165 -0.04226859 0.0032189067 0.12266485
0.03230618 0.011325098 -0.110780045 -0.13386276 0.13637178 0.08975331 -0.124042846 -0.058294278
-0.05040583 -0.10747839 0.0768556 0.09858632 0.09081084 0.09017214 0.11791118 -0.09566345
0.06664486 0.014606625 0.07914342 -0.06150763 0.0935784 -0.02687805 0.11002222 0.06291987
0.004075421 0.025011433 0.08314465 0.12075507 0.010044912 0.04803612 -0.0126809655 0.059081662
0.01498727 0.07405754 0.17837389 -0.14987041 -0.16583443 -0.033885423 -0.1704833 0.010806857
-0.108112514 0.09838251 0.06439999 0.19634512 -0.07854829 0.11541251 0.13193622 -0.042671446
0.11540278 0.050565675 -0.12787658 -0.039198592 -0.050192397 0.078116566 0.08554699 -0.03578665
0.09494227 0.085154615 0.10869745 -0.12988071 -0.033839475 -0.16785786 0.004844472 -0.20043488
-0.1386128 0.09124977 -0.13911979 -0.1349125 -0.071377195 0.18846732 0.10199141 0.11292317
-0.003023884 -0.102417216 0.024224726 -0.13708133 -0.14569575 -0.17815654 -0.045385364 -0.0026858856
0.058788266 -0.0059187114 0.10441628 -0.05535145 0.14645365 0.07904226 -0.11409186 -0.16646731
-0.20178121 0.09415518 0.10678649 0.030928832 0.121744595 0.043086935 0.0036068307 0.048712015
0.060244948 0.13266346 0.15760335 -0.07144508 -0.090630256 0.043786105 -0.10917217 0.029914863
0.13756621 -0.086331144 0.073220745 -0.099854976 -0.12656678 -0.05111888 -0.09126043 -0.04292932
0.12490344 -0.053661235 -0.010204504 0.011202311 -0.019151993 -0.17929496 -0.038685907 0.103565276
0.18336608 0.022206878 -0.07294786 0.1485836 -0.13503355 -0.11931787 0.15985261 -0.046273038
0.096655264 0.1372686 -0.119161285 -0.06708968 -0.041865364 0.008364355 0.059593294 0.15236144
0.043452945 -0.123641774 -0.03306025 -0.16508073 0.08673867 0.03531815 -0.10389507 0.043030392
0.05433269 -0.10647422 -0.09915066 -0.014801183 0.054893285 0.018163098 0.15236434 0.043823663
0.010971913 -0.054279096 -0.10689629 0.014910195 -0.16233541 0.07069533 0.086563304 0.19412024
-0.044995222 0.010884805 -0.055333883 0.032584798 -0.013888685 -0.13214722 -0.1476589 0.057204362
0.18790698 0.08231787 -0.009740984 -0.06645358 0.110900745 -0.04929915 -0.083989196 0.036263473
-0.014334828 -0.070052765 0.13697931 0.014178359 -0.030527748 0.13802831 0.078993484 -0.03128973
0.165302 -0.11218894 0.055836927 0.1053747 -0.10035593 0.084627345 0.13539052 -0.108299814
-0.009374925 0.08135164 0.079001635 0.14075337 -0.06558011 -0.081697054 -0.068968266 0.018241934
-0.15339296 0.038444184 -0.08590768 -0.041101143 0.14821912 0.052144293 -0.08152173 -0.16433445
0.0172885 -0.11916384 0.011821198 -0.08930789 0.049287375 -0.09258106 -0.09373117 -0.16725284
00000000: 06e0 013e af74 93bd 4492 e83d 4edc 683c
00000010: 8866 a2bd 31ab 093e 0bb7 ff3d ee61 b43d
00000020: 82c0 2a3d e242 053d 7e24 1cbe 803a 2c3d
00000030: 013b c1bd 7754 523b 8706 06be feac f7bd
00000040: af6d 4dbe 1062 273c 32e7 813b 5610 c1bb
00000050: 0065 09be 35e8 133e 5c72 8f3c 0ed8 1e3c
00000060: d07f a3bd d9d1 a53d f435 2e3d 75d1 0abe
00000070: f83a c0bd 2f9d 573d 952f c4bc f05c e9bd
00000080: cc79 ec3d 55ed afbd 51fb 03be 790d 80bd
00000090: 0c81 263e d421 2dbd 4bf4 523b b537 fb3d
000000a0: 7c53 043d e78c 393c a6e0 e2bd 5213 09be
000000b0: 0ba5 0b3e 95d0 b73d 2d0a febd fbc5 6ebd
000000c0: 5876 4ebd a11d dcbd 7866 9d3d a0e7 c93d
000000d0: 09fb b93d 2cac b83d 6b7b f13d 33eb c3bd
000000e0: 1a7d 883d a050 6f3c f215 a23d 6def 7bbd
000000f0: 08a6 bf3d 5b2f dcbc 5453 e13d 22dc 803d
00000100: 1c8b 853b c7e4 cc3c be47 aa3d 6f4e f73d
00000110: 6a93 243c 86c1 443d d3c3 4fbc 9dff 713d
00000120: 2b8d 753c 7bab 973d a5a7 363e a177 19be
00000130: 80d0 29be 71cb 0abd 2d93 2ebe 3e0f 313c
00000140: 186a ddbd c57c c93d 24e4 833d b20e 493e
00000150: eddd a0bd 655d ec3d 4a1a 073e 41c8 2ebd
00000160: 4b58 ec3d f41d 4f3d 14f2 02be b48e 20bd
00000170: 8b96 4dbd 94fb 9f3d 4333 af3d 0695 12bd
00000180: 1871 c23d 8b65 ae3d c59c de3d 73ff 04be
00000190: 439b 0abd eee2 2bbe 60be 9e3b cd3e 4dbe
000001a0: 84f0 0dbe 29e1 ba3d 6b75 0ebe 8126 0abe
000001b0: 352e 92bd 94fd 403e dfe0 d03d 4344 e73d
000001c0: 5b2c 46bb 1ec0 d1bd ef72 c63c 0c5f 0cbe
000001d0: 4431 15be ab6e 36be 01e6 39bd af05 30bb
000001e0: f7cb 703d c0f1 c1bb 34d8 d53d 34b8 62bd
000001f0: f2f7 153e e9e0 a13d fea8 e9bd 6876 2abe
00000200: bc9f 4ebe 6ed4 c03d e0b2 da3d 765e fd3c
00000210: 3b55 f93d ed7b 303d 9460 6c3b 4086 473d
00000220: 68c3 763d eed8 073e c662 213e cc51 92bd
00000230: 5b9c b9bd 0f59 333d a995 dfbd 0410 f53c
00000240: 28de 0c3e 62ce b0bd c2f4 953d c480 ccbd
00000250: b99a 01be 0862 51bd c0e6 babd a8d6 2fbd
00000260: 60cd ff3d e2cb 5bbd cb30 27bc e689 373c
00000270: a4e4 9cbc 1999 37be 1d75 1ebd 081a d43d
00000280: 51c4 3b3e 33eb b53c b065 95bd 4d26 183e
00000290: 3c46 0abe ed5c f4bd 67b0 233e cc88 3dbd
000002a0: 32f3 c53d 2490 0c3e d50a f4bd 5066 89bd
000002b0: 047b 2bbd a60a 093c 1918 743d a304 1c3e
000002c0: b7fb 313d e637 fdbd 2f6a 07bd ec0a 29be
000002d0: 0ba4 b13d c4a9 103d f0c6 d4bd a340 303d
000002e0: f48b 5e3d 280f dabd 800f cbbd a980 72bc
000002f0: c8d7 603d c7ca 943c 6605 1c3e 7180 333d
00000300: 8ac3 333c c253 5ebd 71ec dabd e449 743c
00000310: 413b 26be b7c8 903d 1a48 b13d 75c7 463e
00000320: e94c 38bd 2e56 323c c8a5 62bd a377 053d
00000330: 5e8d 63bc 9a51 07be e533 17be 1f4f 6a3d
00000340: b06a 403e 4596 a83d a698 1fbc d118 88bd
00000350: ee1f e33d e8ed 49bd 8702 acbd 0289 143d
00000360: a0dc 6abc d377 8fbd 4e44 0c3e 594c 683c
00000370: 5415 fabc 4b57 0d3e 56c7 a13d a929 00bd
00000380: ed44 293e 51c3 e5bd 43b5 643d b1ce d73d
00000390: 6987 cdbd 1a51 ad3d d0a3 0a3e 4bcc ddbd
000003a0: 4999 19bc b09b a63d 9ccb a13d a721 103e
000003b0: dd4e 86bd c950 a7bd 3c3f 8dbd 1c70 953c
000003c0: 0b13 1dbe a677 1d3d 5ef0 afbd ac59 28bd
000003d0: c1c6 173e 4195 553d ddf4 a6bd 4a47 28be
000003e0: 9da0 8d3c 2c0c f4bd b3ad 413c 0ee7 b6bd
000003f0: 8fe1 493d 249b bdbd 21f6 bfbd 5444 2bbe

sequential/conv2d_1/Conv2D f4 [32, 3, 3, 32]
-0.05526013 0.12355307 0.047480296 -0.13000616 -0.053828012 0.13586892 0.0271619 -0.12129245
-0.012356672 0.05277882 -0.0041068643 0.0402098 -0.1463164 0.08103567 -0.07035055 0.10356529
-0.024177682 0.008351934 0.066361 -0.14181949 -0.06349838 -0.15206054 -0.050055254 0.0016803393
-0.05632083 -0.08816772 -0.025627872 0.14485396 0.098670036 -0.05402251 -0.071901955 -0.073895454
-0.06235654 -0.20041938 0.061067067 -0.06993101 -0.04478846 -0.17289826 -0.1689772 0.058485676
0.05667154 -0.21063913 -0.14734069 0.025132647 -0.055644393 -0.04283468 -0.059046697 0.10430851
-0.072783604 0.05493937 0.08143254 -0.10378642 -0.039321396 0.015331528 -0.107311554 -0.063906156
0.008783473 -0.12165649 0.00077946583 0.09569801 -0.10047317 0.07333902 -0.099795915 -0.038463276
-0.110508345 -0.07154487 -0.014562371 -0.09448781 0.05061838 0.0031302192 -0.00228384 0.18007822
-0.041499093 0.047502115 -0.13447994 -0.15127961 0.05931518 -0.024224399 -0.116781786 -0.045022093
-0.04312712 -0.12611328 -0.16841489 -0.024858551 -0.006243179 -0.024825308 -0.018466044 0.10516896
-0.09271981 0.032713573 -0.035100203 -0.11881825 -0.065624036 -0.023700964 0.045131534 0.16223101
-0.11320528 -0.12791917 0.065173015 -0.0036855745 -0.034688774 0.024647696 0.07008503 -0.11651071
0.034544997 0.011583061 0.044770025 -0.050435577 0.00066186767 -0.0046618194 -0.040789552 0.002975795
0.013324289 0.07322767 0.0614468 -0.09041837 -0.047965318 -0.013298335 -0.10753783 0.06468229
-0.033601947 -0.0798212 0.103988394 0.10805141 -0.021865385 -0.09668284 0.04522099 0.08950827
0.020944636 -0.17164624 -0.013784808 -0.0010091498 0.0029739856 -0.061616637 -0.0015315135 -0.08041652
0.091715254 -0.050117753 -0.10239669 -0.10973049 0.01495243 -0.009024292 -0.058448702 -0.07965195
-0.15288284 -0.080267295 0.091411166 -0.029941207 -0.16283986 -0.069439836 -0.15402652 -0.009116433
0.05054076 0.06244674 -0.0742052 -0.122243345 -0.057910126 0.043268356 -0.14389277 -0.090667166
0.020908328 0.15813205 0.018153206 -0.116127275 0.022121057 0.027995413 0.030602412 0.12592368
0.0118491305 -0.0027660353 -0.122002736 0.03824369 0.108854935 -0.0065807896 -0.06435703 -0.095877364
0.06531452 0.0558948 -0.014164393 -0.12775105 0.016420957 0.035868093 -0.10388489 -0.1110649
-0.10055591 0.100767195 0.023857646 -0.08192356 -0.111779645 -0.07701367 0.009097683 0.04184639
0.19384225 -0.06650344 -0.041330166 -0.11552876 -0.062988155 0.05788634 -0.039925106 -0.09048936
-0.017208835 0.057365473 0.06826944 -0.019176831 -0.041108213 0.09416947 0.105957754 -0.12737635
-0.06773049 0.030368963 -0.045316625 -0.028501172 0.051613048 -0.03545654 -0.04721186 0.12530392
0.043913037 0.094216384 0.049812328 -0.05257428 0.0006168721 -0.01909939 -0.031045273 -0.075874634
0.042324662 -0.072764315 -8.815116e-05 -0.01776975 -0.10562468 -0.14350253 0.06950114 -0.042141058
-0.16283783 -0.089586966 -0.083664134 0.046073545 0.05927911 0.0059006894 -0.016890915 -0.17223525
-0.02920127 0.06609884 0.08394265 -0.026272245 -0.0008392015 0.078374065 -0.09049958 -0.032102086
-0.014002455 0.030429812 0.04362593 -0.11843706 -0.17208254 -0.0043008085 -0.051017337 -0.07613426
00000000: 7258 62bd 6409 fd3d b37a 423d 5620 05be
00000010: c37a 5cbd 3921 0b3e a282 de3c 2d68 f8bd
00000020: a473 4abc 9b2e 583d e092 86bb 08b3 243d
00000030: f7d3 15be 08f6 a53d f313 90bd 0a1a d43d
00000040: 4610 c6bc 8dd6 083c 47e8 873d 2139 11be
00000050: 700b 82bd c2b5 1bbe bd06 4dbd d53e dc3a
00000060: acb0 66bd 4791 b4bd 8bf1 d1bc 9954 143e
00000070: 8413 ca3d b546 5dbd 5541 93bd 8056 97bd
00000080: 9269 7fbd bd3a 4dbe 7621 7a3d fd37 8fbd
00000090: 1b74 37bd 3e0c 31be 5c08 2dbe ad8e 6f3d
000000a0: 6b20 683d c9b1 57be 7ae0 16be fbe2 cd3c
000000b0: 60eb 63bd 6b73 2fbd f3da 71bd b39f d53d
000000c0: 920f 95bd 1b08 613d 1bc6 a63d f98d d4bd
000000d0: 790f 21bd 1731 7b3c 29c6 dbbd 3be1 82bd
000000e0: 8ee8 0f3c 0a27 f9bd 1155 4c3a 51fd c33d
000000f0: e1c4 cdbd c532 963d cd61 ccbd ab8b 1dbd
00000100: 3352 e2bd 1e86 92bd 0397 6ebc d382 c1bd
00000110: 3855 4f3d 5d24 4d3b 7aac 15bb 6d66 383e
00000120: f4fa 29bd 9491 423d 1cb5 09be 0be9 1abe
00000130: 79f4 723d 3f72 c6bc 4a2b efbd 1669 38bd
00000140: 10a6 30bd d723 01be f474 2cbe 29a4 cbbc
00000150: 9593 ccbb 725e cbbc 1a46 97bc d362 d73d
00000160: e2e3 bdbd abfe 053d 3bc5 0fbd fc56 f3bd
00000170: e565 86bd 8628 c2bc d8db 383d e31f 263e
00000180: 2bd8 e7bd 3efd 02be 6e79 853d ae89 71bb
00000190: d115 0ebd f7e9 c93c bd88 8f3d 2b9d eebd
000001a0: 0e7f 0d3d e1c6 3d3c c660 373d 8995 4ebd
000001b0: 3081 2d3a 2dc2 98bb f212 27bd 8e05 433b
000001c0: 1e4e 5a3c 63f8 953d a4af 7b3d 442d b9bd
000001d0: 4877 44bd 42e1 59bc cb3c dcbd 2678 843d
000001e0: 32a2 09bd 4c79 a3bd def7 d43d 0f4a dd3d
000001f0: 091f b3bc a701 c6bd a539 393d 1d50 b73d
00000200: 1694 ab3c 08c4 2fbe add9 61bc 7345 84ba
00000210: 33e7 423b ba61 7cbd 11bd c8ba 6bb1 a4bd
00000220: 35d5 bb3d 4648 4dbd 5bb5 d1bd 61ba e0bd
00000230: 09fb 743c a0da 13bc e867 6fbd 9020 a3bd
00000240: 528d 1cbe 2e63 a4bd c735 bb3d 4347 f5bc
00000250: 7ebf 26be 7936 8ebd 21b9 1dbe 175d 15bc
00000260: d403 4f3d 27c8 7f3d e5f8 97bd b85a fabd
00000270: 2b33 6dbd 293a 313d a058 13be b5af b9bd
00000280: f147 ab3c 5eed 213e 08b6 943c 23d4 edbd
00000290: 3837 b53c a356 e53c e9b1 fa3c 23f2 003e
000002a0: db22 423c 5f46 35bb 92dc f9bd 6aa5 1c3d
000002b0: 56ef de3d aaa3 d7bb 9ecd 83bd 5a5b c4bd
000002c0: 9ec3 853d f2f1 643d c511 68bc 2cd1 02be
000002d0: 3e85 863c 6cea 123d 9ac1 d4bd ff75 e3bd
000002e0: 42f0 cdbd 085f ce3d 1c71 c33c 8ac7 a7bd
000002f0: baec e4bd 58b9 9dbd 730e 153c 1f67 2b3d
00000300: 957e 463e f532 88bd d249 29bd 589a ecbd
00000310: efff 80bd 3a1a 6d3d 8288 23bd 7c52 b9bd
00000320: 8bf9 8cbc 0ff8 6a3d d9d0 8b3d bb18 9dbc
00000330: 1661 28bd ecdb c03d 6100 d93d f26e 02be
00000340: 48b6 8abd 55c8 f83c ed9d 39bd 4a7b e9bc
00000350: 3468 533d e03a 11bd 3961 41bd ac4f 003e
00000360: 28de 333d 85f4 c03d 0308 4c3d 2158 57bd
00000370: 96b5 213a 5376 9cbc a852 febc 2964 9bbd
00000380: a05c 2d3d 7505 95bd cbdd b8b8 de91 91bc
00000390: c151 d8bd 54f2 12be 9d56 8e3d 1a9c 2cbd
000003a0: f6be 26be 5f79 b7bd 1a58 abbd 9db7 3c3d
000003b0: a7ce 723d 925a c13b d15e 8abc 705e 30be
000003c0: 8037 efbc d45e 873d 20ea ab3d e438 d7bc
000003d0: dcfd 5bba 9582 a03d d857 b9bd 7a7d 03bd
000003e0: 8e6a 65bc f147 f93c 1ab1 323d 218f f2bd
000003f0: 6836 30be cced 8cbb 8ef7 50bd 47ec 9bbd

sequential/conv2d_2/Conv2D f4 [32, 3, 3, 32]
0.15117675 0.022326926 -0.020674312 -0.16020717 0.09695577 0.028655311 0.08081212 -0.06255315
-0.07618817 -0.10372527 0.053140596 0.16732141 -0.11698147 0.11859217 -0.11975395 -0.111282445
0.105171375 0.04367845 -0.14858927 0.14794403 -0.13185075 -0.02207189 0.15498447 -0.08088891
-0.09015063 -0.05182556 0.039103284 -0.10669499 -0.015963122 0.060426053 0.07371534 -0.21356799
-0.005198012 0.014019058 -0.08091366 0.023909975 -0.018296463 0.08650709 0.120950855 -0.048244897
0.025833104 -0.072790444 0.04468252 0.049125094 0.0028805202 0.04689928 0.016697342 0.09911306
0.0031442547 0.24001284 0.036233455 -0.06666526 0.108571395 -0.111262925 0.13530463 -0.1053924
0.036817674 -0.08275255 -0.10944551 -0.122763 -0.08811964 0.01872067 0.08873343 0.1266016
-0.07430196 -0.09317224 0.031355318 0.06513272 0.058522146 0.12254632 -0.035154235 -0.11036815
-0.028180785 -0.14395376 -0.059587058 -0.09251525 0.0004835293 -0.037427515 -0.029465558 0.09111762
-0.08569548 0.041667823 0.06769938 0.08917615 0.0715093 0.02530696 -0.0059999395 -0.03165405
-0.030605441 0.06310364 -0.041754637 -0.14492074 -0.0069049518 -0.035419267 -0.08365802 0.0032277685
-0.05623142 -0.006865051 0.014172036 -0.0075397883 -0.21560064 0.029543284 0.047010295 -0.08587988
-0.07066445 0.10330135 -0.051621936 -0.11086178 0.032577287 0.10410147 -0.16420583 -0.17782357
0.01635172 -0.0059316084 0.20543085 -0.11760848 -0.057081927 0.123060375 -0.16104539 -0.1668154
0.11927414 -0.1332661 -0.09016019 0.09844795 -0.007616027 -0.11510887 -0.08994954 0.032402422
0.02090402 0.049196184 -0.015284952 0.105784826 -0.022673812 0.068053626 -0.08571375 -0.02805726
-0.033157364 -0.024877314 0.14676405 0.122326754 0.104011394 -0.05888535 -0.07238734 0.14736958
-0.11520704 -0.07011319 0.08914167 0.017503155 0.18785028 0.20341943 -0.0017940531 0.01267932
0.0021267456 -0.039463934 -0.04569162 -0.06438608 -0.14234433 -0.009522669 0.010329091 -0.027615283
0.058158368 0.0810904 0.013278911 -0.060734905 0.20441225 0.100217246 0.027992202 0.011962017
-0.03559121 -0.10112197 -0.014980737 0.12756965 0.023392677 0.024953391 -0.032399166 0.046668034
-0.10826556 0.027143331 -0.07384896 0.1729315 -0.0060811797 -0.14517795 -0.0033424362 0.03510174
-0.047932435 0.026424393 -0.09013322 0.02583484 0.11110581 -0.0671086 0.12640983 -0.0067945775
-0.07177284 0.011021236 0.031684652 -0.06623728 -0.06691487 -0.04194923 -0.103053 -0.054505304
-0.010710676 0.18115816 -0.033571314 -0.076386556 -0.06705585 -0.12137892 -0.07751713 -0.04484428
0.001261607 -0.012626672 0.049057353 -0.09616947 0.039952815 -0.031082034 -0.08652421 0.024700304
0.13589023 0.11174879 0.03945855 -0.08623153 0.076876976 0.049093876 -0.036369253 0.04437176
-0.012467059 -0.07374734 0.025221841 -0.15866618 -0.07676103 -0.15613794 -0.012428894 -0.13401589
0.045856167 0.14755316 0.09628894 -0.025007084 0.11755862 0.01556642 -0.009375748 -0.0364228
-0.006888099 -0.12623152 0.056404654 -0.036311083 -0.10863472 -0.06692501 -0.07053448 -0.07823092
-0.08946073 -0.043697607 0.1276599 0.045580823 0.02581672 0.05118809 -0.088980965 -0.10061084
00000000: 14ce 1a3e f5e6 b63c 2d5d a9bc 590d 24be
00000010: bf90 c63d 8bbe ea3c d380 a53d de1b 80bd
00000020: 8b08 9cbd ea6d d4bd f4a9 593d 4e56 2b3e
00000030: fb93 efbd 74e0 f23d 8f41 f5bd 0de8 e3bd
00000040: 1764 d73d 2de8 323d c927 18be a47e 173e
00000050: e203 07be 1cd0 b4bc 40b4 1e3e 16a9 a5bd
00000060: e5a0 b8bd 0a47 54bd c42a 203d e782 dabd
00000070: 18c5 82bc 4f81 773d 11f8 963d 91b1 5abe
00000080: 1654 aabb 31b0 653c 10b6 a5bd dade c33c
00000090: 77e2 95bc a12a b13d 15b5 f73d 719c 45bd
000000a0: f29f d33c 2813 95bd 0505 373d 6537 493d
000000b0: 1cc7 3c3b 7619 403d ddc8 883c cafb ca3d
000000c0: d70f 4e3b edc5 753e 8869 143d cc87 88bd
000000d0: ae5a de3d d1dd e3bd 4c8d 0a3e f8d7 d7bd
000000e0: 21ce 163d 2b7a a9bd f824 e0bd 2b6b fbbd
000000f0: 1278 b4bd 175c 993c dfb9 b53d daa3 013e
00000100: a02b 98bd 16d1 bebd 6f6e 003d 4e64 853d
00000110: ebb4 6f3d 91f9 fa3d e3fd 0fbd b208 e2bd
00000120: 64db e6bc 9d68 13be 8f11 74bd a378 bdbd
00000130: 3482 fd39 984d 19bd c161 f1bc e09b ba3d
00000140: 1d81 afbd e1ab 2a3d f9a5 8a3d fca1 b63d
00000150: 7873 923d 8b50 cf3c 249b c4bb ada7 01bd
00000160: 43b8 fabc 7b3c 813d e906 2bbd 1a66 14be
00000170: ef42 e2bb cb13 11bd e554 abbd f888 533b
00000180: eb52 66bd 39f4 e0bb d431 683c 5410 f7bb
00000190: 6ac6 5cbe c204 f23c de8d 403d cae1 afbd
000001a0: 86b8 90bd a88f d33d 8671 53bd 800b e3bd
000001b0: c36f 053d 2733 d53d 9325 28be 6217 36be
000001c0: 0bf4 853c f05d c2bb 775c 523e b7dc f0bd
000001d0: bdce 69bd 1407 fc3d 15e9 24be a8d1 2abe
000001e0: 0046 f43d e976 08be e8a5 b8bd 149f c93d
000001f0: dd8f f9bb 33be ebbd 7737 b8bd 67b8 043d
00000200: e83e ab3c f081 493d bc6d 7abc b7a5 d83d
00000210: 6ebe b9bc b35f 8b3d b18a afbd 57d8 e5bc
00000220: 04d0 07bd 82cb cbbc 5149 163e 7386 fa3d
00000230: ed03 d53d c431 71bd d03f 94bd 0de8 163e
00000240: abf1 ebbd 8197 8fbd e88f b63d c762 8f3c
00000250: d35b 403e 2f4d 503e 6f26 ebba ecbc 4f3c
00000260: df60 0b3b efa4 21bd 2327 3bbd d9dc 83bd
00000270: b6c2 11be f804 1cbc 593b 293c 7239 e2bc
00000280: 7837 6e3d b912 a63d ca8f 593c 2ac5 78bd
00000290: 7251 513e b33e cd3d e74f e53c 56fc 433c
000002a0: 17c8 11bd 0919 cfbd c471 75bc 9ea1 023e
000002b0: 00a2 bf3c 0e6b cc3c fdb4 04bd fb26 3f3d
000002c0: 55ba ddbd b15b de3c 203e 97bd f514 313e
000002d0: a244 c7bb 87a9 14be c60c 5bbb d8c6 0f3d
000002e0: cd54 44bd f877 d83c c497 b8bd 96a3 d33c
000002f0: 718b e33d 3c70 89bd 9471 013e 0ca5 debb
00000300: a4fd 92bd 6a92 343c c4c7 013d 69a7 87bd
00000310: aa0a 89bd f5d2 2bbd 740d d3bd f440 5fbd
00000320: d57b 2fbc 8681 393e 1382 09bd 8e70 9cbd
00000330: 9454 89bd 8395 f8bd 4dc1 9ebd a3ae 37bd
00000340: 825c a53a 1ae0 4ebc 5df0 483d 80f4 c4bd
00000350: 90a5 233d c09f febc 9b33 b1bd 4b58 ca3c
00000360: cf26 0b3e 8ddc e43d 4a9f 213d 289a b0bd
00000370: ad71 9d3d a916 493d edf7 14bd 2abf 353d
00000380: a342 4cbc d808 97bd 099e ce3c 6379 22be
00000390: e334 9dbd a0e2 1fbe 8fa2 4bbc 763b 09be
000003a0: add3 3b3d 2d18 173e 2333 c53d a8db ccbc
000003b0: 93c2 f03d 4c0a 7f3c bd9c 19bc 1330 15bd
000003c0: 90b5 e1bb d642 01be 9108 673d eeba 14bd
000003d0: e17b debd fb0f 89bd 6274 90bd 8837 a0bd
000003e0: 3037 b7bd 43fc 32bd 47b9 023e f5b2 3a3d
000003f0: 967d d33c 9aaa 513d a73b b6bd 0e0d cebd

sequential/conv2d_1/BiasAdd;sequential/conv2d_2/Conv2D;sequential/conv2d_1/Conv2D;sequential/conv2d_1/BiasAdd/ReadVariableOp f4 [32]
0.025344616 -0.14682505 -0.13199559 -0.07226007 -0.019520933 0.021129549 -0.18872783 -0.03973564
0.008088346 0.23247346 0.01429478 -0.23477036 -0.23809649 -0.2203879 -0.0032476722 -0.0480823
-0.021472532 -0.16790445 -0.07503884 -0.1566155 -0.0145983305 0.10135184 -0.11287888 0.15070288
-0.04040652 0.0739957 0.011448811 -0.0379302 -0.012927842 0.20247431 -0.2523689 -0.04569728
00000000: 839f cf3c 4e59 16be da29 07be 16fd 93bd
00000010: 5dea 9fbc e017 ad3c de41 41be d7c1 22bd
00000020: fb84 043c 860d 6e3e a734 6a3c a467 70be
00000030: 91cf 73be 5ead 61be e6d6 54bb f2f1 44bd
00000040: 2ae7 afbc 25ef 2bbe f7ad 99bd d05f 20be
00000050: d62d 6fbc 8e91 cf3d 0b2d e7bd db51 1a3e
00000060: 4f81 25bd 0f8b 973d cb93 3b3c b35c 1bbd
00000070: 4dcf 53bc 6d55 4f3e 7f36 81be 122d 3bbd

sequential/conv2d_2/BiasAdd;sequential/conv2d_2/Conv2D;sequential/conv2d_2/BiasAdd/ReadVariableOp f4 [32]
-0.11868959 -0.06475341 -0.0644292 -0.07273223 -0.082954146 -0.15800725 -0.108939566 -0.109786354
-0.15162432 -0.034514852 -0.064339936 -0.13555022 -0.115591764 -0.15814961 -0.06698269 -0.06421863
-0.08813185 -0.10938278 -0.14359821 -0.03134272 -0.11560974 -0.061727762 -0.13861896 -0.14482787
0.00056565326 -0.16470648 -0.1871533 -0.12677951 -0.29101118 -0.055919692 -0.008145391 -0.14091012
00000000: 8713 f3bd 709d 84bd 75f3 83bd a3f4 94bd
00000010: dde3 a9bd a7cc 21be b51b dfbd abd7 e0bd
00000020: 6843 1bbe 725f 0dbd a8c4 83bd adcd 0abe
00000030: 60bb ecbd f9f1 21be 382e 89bd 0f85 83bd
00000040: 797e b4bd 1404 e0bd 690b 13be 3961 00bd
00000050: cdc4 ecbd 40d6 7cbd 21f2 0dbe c24d 14be
00000060: 5948 143a d1a8 28be 1da5 3fbe 7dd2 01be
00000070: 6bff 94be 0c0c 65bd 3f74 05bc be4a 10be
