firmware/dig-s1-q-20220227.tflite (tflite, 201072 bytes, 5 tensors)

sequential_1/conv2d_3/Conv2D i1 [32, 3, 3, 3]
000000 30 50 f4 34 7f 14 35 59 58 fe 41 03 ee c1 f1 8d
       48 80 -12 52 127 20 53 89 88 -2 65 3 -18 -63 -15 -115
000010 a4 af e3 a9 11 fa f8 b4 e8 df a7 f3 b8 c7 e8 37
       -92 -81 -29 -87 17 -6 -8 -76 -24 -33 -89 -13 -72 -57 -24 55
000020 28 17 64 3d 29 12 48 0c 47 da 00 17 1c 0d 2a 05
       40 23 100 61 41 18 72 12 71 -38 0 23 28 13 42 5
000030 20 03 f9 d7 81 86 20 4d 3a 20 59 01 f3 aa de 1b
       32 3 -7 -41 -127 -122 32 77 58 32 89 1 -13 -86 -34 27
000040 dd 34 fb 40 2a 81 d4 ed 12 e9 29 06 f9 e6 0a df
       -35 52 -5 64 42 -127 -44 -19 18 -23 41 6 -7 -26 10 -33
000050 f5 dc 03 14 35 0e 16 2a 20 1f ad c0 dc d4 f9 20
       -11 -36 3 20 53 14 22 42 32 31 -83 -64 -36 -44 -7 32
000060 33 42 f8 81 b2 d6 e0 f9 26 22 33 3f 93 dc c5 03
       51 66 -8 -127 -78 -42 -32 -7 38 34 51 63 -109 -36 -59 3
000070 7f 27 46 0f 3a b2 d8 9b 29 2a fd 52 05 1d b0 94
       127 39 70 15 58 -78 -40 -101 41 42 -3 82 5 29 -80 -108
000080 fe 1f 19 e8 3a 6b e8 0a b3 3e 11 59 0e 2b 0b b3
       -2 31 25 -24 58 107 -24 10 -77 62 17 89 14 43 11 -77
000090 ae a2 81 27 3e 5b 2b fc 22 a4 ba b2 18 1a 1a 27
       -82 -94 -127 39 62 91 43 -4 34 -92 -70 -78 24 26 26 39
0000a0 18 3b 07 58 7f fb 02 d8 eb 45 e0 37 2c 58 59 bc
       24 59 7 88 127 -5 2 -40 -21 69 -32 55 44 88 89 -68
0000b0 41 8e 0b 2d f6 ce 63 aa 23 c8 9e 8f 21 dc 2c 21
       65 -114 11 45 -10 -50 99 -86 35 -56 -98 -113 33 -36 44 33
0000c0 f7 33 f0 70 6c 31 d1 b4 02 bd 81 ae c4 cd 2a fa
       -9 51 -16 112 108 49 -47 -76 2 -67 -127 -82 -60 -51 42 -6
0000d0 0b 0a f3 3b f8 fa 01 e0 77 3c 6f 07 19 1f d5 10
       11 10 -13 59 -8 -6 1 -32 119 60 111 7 25 31 -43 16
0000e0 ca 4e 3b de 06 34 0f cf e7 92 e2 26 4d a2 9d ef
       -54 78 59 -34 6 52 15 -49 -25 -110 -30 38 77 -94 -99 -17
0000f0 e3 81 ed 58 08 24 e2 d4 19 ee ca 02 0c 52 23 db
       -29 -127 -19 88 8 36 -30 -44 25 -18 -54 2 12 82 35 -37

sequential_1/conv2d_4/Conv2D i1 [64, 3, 3, 32]
000000 0c fc 18 dd fd fa 08 f5 06 c6 01 18 f9 ff cd d8
       12 -4 24 -35 -3 -6 8 -11 6 -58 1 24 -7 -1 -51 -40
000010 25 19 48 27 fd 0c 06 e3 f1 04 e5 4c 28 10 36 f6
       37 25 72 39 -3 12 6 -29 -15 4 -27 76 40 16 54 -10
000020 e8 f7 14 24 dd 0c dd 2e 1f 0d 0e e9 fa 00 04 31
       -24 -9 20 36 -35 12 -35 46 31 13 14 -23 -6 0 4 49
000030 10 0d 11 18 f0 11 e2 20 13 f7 ef 37 17 fd f6 f3
       16 13 17 24 -16 17 -30 32 19 -9 -17 55 23 -3 -10 -13
000040 09 ad cf 35 00 d5 cc 47 01 26 0f 1b bf 6c fc ef
       9 -83 -49 53 0 -43 -52 71 1 38 15 27 -65 108 -4 -17
000050 2f f1 0c cd 2b f5 1b d3 be fc 09 17 0e c3 b8 e6
       47 -15 12 -51 43 -11 27 -45 -66 -4 9 23 14 -61 -72 -26
000060 f0 e1 41 bb ec f4 c9 d7 f4 fc ba ce 13 cc d3 de
       -16 -31 65 -69 -20 -12 -55 -41 -12 -4 -70 -50 19 -52 -45 -34
000070 2e 31 0a 56 dd 4a f3 43 dc b9 05 09 7f 02 05 cb
       46 49 10 86 -35 74 -13 67 -36 -71 5 9 127 2 5 -53
000080 c1 c6 1f c3 de 23 df 4c ee 05 14 ac 03 e6 b9 81
       -63 -58 31 -61 -34 35 -33 76 -18 5 20 -84 3 -26 -71 -127
000090 39 f6 28 17 ee 10 fa bc cd fb 96 39 1f ea 27 c3
       57 -10 40 23 -18 16 -6 -68 -51 -5 -106 57 31 -22 39 -61
0000a0 0f 05 fe 04 10 0c 01 3f 2a 4a ee 30 00 25 e2 ec
       15 5 -2 4 16 12 1 63 42 74 -18 48 0 37 -30 -20
0000b0 66 02 6d e3 1d ef dc c0 d6 15 c1 f6 0a 16 2f 02
       102 2 109 -29 29 -17 -36 -64 -42 21 -63 -10 10 22 47 2
0000c0 e3 e2 f9 14 1b 29 f8 ee db bb c4 2d 0a 16 51 42
       -29 -30 -7 20 27 41 -8 -18 -37 -69 -60 45 10 22 81 66
0000d0 b6 cb bf df ee ed f5 3a f8 be 29 d5 16 09 a8 0a
       -74 -53 -65 -33 -18 -19 -11 58 -8 -66 41 -43 22 9 -88 10
0000e0 d9 f9 fb ce ef fc f2 d8 c6 d2 8f d3 eb b3 18 03
       -39 -7 -5 -50 -17 -4 -14 -40 -58 -46 -113 -45 -21 -77 24 3
0000f0 d7 16 0a 18 ac eb 1c 3a eb 0e f0 2e d5 04 d2 f4
       -41 22 10 24 -84 -21 28 58 -21 14 -16 46 -43 4 -46 -12

sequential_1/conv2d_5/Conv2D i1 [64, 3, 3, 64]
000000 fe 24 0f 0e 11 ea 30 e4 0b 10 ff f8 ee 06 0e ec
       -2 36 15 14 17 -22 48 -28 11 16 -1 -8 -18 6 14 -20
000010 d5 49 fe fb ee 16 eb 0d 10 d9 f7 fd fb 2e de ab
       -43 73 -2 -5 -18 22 -21 13 16 -39 -9 -3 -5 46 -34 -85
000020 00 eb e0 33 d4 e5 0f 1c f6 fe 66 f9 54 ea d0 19
       0 -21 -32 51 -44 -27 15 28 -10 -2 102 -7 84 -22 -48 25
000030 cd 08 11 2d fe e7 24 dc d1 26 d7 c2 f7 e5 06 08
       -51 8 17 45 -2 -25 36 -36 -47 38 -41 -62 -9 -27 6 8
000040 29 47 52 19 26 17 ca ac cd de de 90 c9 ef f9 2d
       41 71 82 25 38 23 -54 -84 -51 -34 -34 -112 -55 -17 -7 45
000050 23 e4 3e ac 06 f0 ec fc dc 17 4d ca fc 07 ea 92
       35 -28 62 -84 6 -16 -20 -4 -36 23 77 -54 -4 7 -22 -110
000060 81 01 34 4b 85 cb a1 f6 fe e5 26 21 2e 32 f8 e4
       -127 1 52 75 -123 -53 -95 -10 -2 -27 38 33 46 50 -8 -28
000070 a0 0b d4 bb 9a c1 49 0c 10 f6 04 13 bb f1 20 12
       -96 11 -44 -69 -102 -63 73 12 16 -10 4 19 -69 -15 32 18
000080 21 4d 01 df 6a 52 12 23 de e3 ec f9 e9 f2 dc 3f
       33 77 1 -33 106 82 18 35 -34 -29 -20 -7 -23 -14 -36 63
000090 14 d4 ef 08 47 e3 27 a2 16 e7 cf f6 d7 e7 08 3f
       20 -44 -17 8 71 -29 39 -94 22 -25 -49 -10 -41 -25 8 63
0000a0 a9 f2 38 46 15 eb 3c ab 1a 25 34 47 34 d2 31 e2
       -87 -14 56 70 21 -21 60 -85 26 37 52 71 52 -46 49 -30
0000b0 1e 40 06 fb 01 4f f7 09 19 28 66 29 00 2e 22 19
       30 64 6 -5 1 79 -9 9 25 40 102 41 0 46 34 25
0000c0 12 32 2e f3 12 13 30 06 d4 23 24 03 fd da 06 12
       18 50 46 -13 18 19 48 6 -44 35 36 3 -3 -38 6 18
0000d0 26 bd df e2 19 10 f2 f5 20 d3 e2 ca e3 1c 13 ce
       38 -67 -33 -30 25 16 -14 -11 32 -45 -30 -54 -29 28 19 -50
0000e0 2c e8 e2 f5 91 e0 10 df 04 be e0 16 f5 3d 01 11
       44 -24 -30 -11 -111 -32 16 -33 4 -66 -32 22 -11 61 1 17
0000f0 c2 03 cf cc df ed 3b 07 0e e9 12 d4 e0 02 17 e6
       -62 3 -49 -52 -33 -19 59 7 14 -23 18 -44 -32 2 23 -26

sequential_1/dense_2/MatMul i1 [256, 512] scale=0.0027559057 zero_point=0
000000 ff fe 05 0d d4 ea 05 16 ed 10 d7 1b d6 06 e1 f0
       -0.0027559057 -0.0055118115 0.013779528 0.035826776 -0.12125985 -0.060629927 0.013779528 0.060629927 -0.052362207 0.04409449 -0.11299214 0.074409455 -0.11574804 0.016535435 -0.08543308 -0.04409449
000010 f4 ed ee 1c ee e1 fc ef 01 f4 fd e3 0d fb d2 f9
       -0.03307087 -0.052362207 -0.049606305 0.07716536 -0.049606305 -0.08543308 -0.011023623 -0.0468504 0.0027559057 -0.03307087 -0.008267717 -0.07992127 0.035826776 -0.013779528 -0.12677166 -0.01929134
000020 0c df 09 fc 1a 19 d9 f8 13 fe f0 f0 ea c4 c9 f2
       0.03307087 -0.090944886 0.024803152 -0.011023623 0.07165355 0.06889764 -0.107480325 -0.022047246 0.052362207 -0.0055118115 -0.04409449 -0.04409449 -0.060629927 -0.16535434 -0.15157482 -0.03858268
000030 f5 2a 10 df f8 de df 0d e5 0d f2 f8 d3 ed e1 02
       -0.030314963 0.11574804 0.04409449 -0.090944886 -0.022047246 -0.0937008 -0.090944886 0.035826776 -0.074409455 0.035826776 -0.03858268 -0.022047246 -0.124015756 -0.052362207 -0.08543308 0.0055118115
000040 e1 fb eb fc 0f eb 0b 02 11 d8 14 fd 15 d9 15 cb
       -0.08543308 -0.013779528 -0.05787402 -0.011023623 0.041338585 -0.05787402 0.030314963 0.0055118115 0.0468504 -0.11023623 0.055118114 -0.008267717 0.05787402 -0.107480325 0.05787402 -0.146063
000050 e8 f7 2c 20 ee f8 16 00 10 08 d1 13 ea fd da fb
       -0.06614174 -0.024803152 0.12125985 0.08818898 -0.049606305 -0.022047246 0.060629927 0.0 0.04409449 0.022047246 -0.12952757 0.052362207 -0.060629927 -0.008267717 -0.104724415 -0.013779528
000060 d5 0d 05 29 17 e2 00 09 1c de 06 ec ce f4 de 2f
       -0.11850394 0.035826776 0.013779528 0.11299214 0.06338583 -0.08267717 0.0 0.024803152 0.07716536 -0.0937008 0.016535435 -0.055118114 -0.13779528 -0.03307087 -0.0937008 0.12952757
000070 16 fa eb e4 f5 e1 f5 0f e8 d7 0c 17 1b da 10 14
       0.060629927 -0.016535435 -0.05787402 -0.07716536 -0.030314963 -0.08543308 -0.030314963 0.041338585 -0.06614174 -0.11299214 0.03307087 0.06338583 0.074409455 -0.104724415 0.04409449 0.055118114
000080 30 e7 e5 35 03 f5 3b ec f3 15 06 0e 0d f0 e5 f5
       0.13228348 -0.06889764 -0.074409455 0.146063 0.008267717 -0.030314963 0.16259843 -0.055118114 -0.035826776 0.05787402 0.016535435 0.03858268 0.035826776 -0.04409449 -0.074409455 -0.030314963
000090 f5 2d 0c 13 0a e3 da 19 fc e2 07 0d ec df 0c f5
       -0.030314963 0.124015756 0.03307087 0.052362207 0.027559057 -0.07992127 -0.104724415 0.06889764 -0.011023623 -0.08267717 0.01929134 0.035826776 -0.055118114 -0.090944886 0.03307087 -0.030314963
0000a0 05 0a fa c1 f1 2b fd ec 09 12 f3 e6 0d 1f f6 0d
       0.013779528 0.027559057 -0.016535435 -0.17362206 -0.041338585 0.11850394 -0.008267717 -0.055118114 0.024803152 0.049606305 -0.035826776 -0.07165355 0.035826776 0.08543308 -0.027559057 0.035826776
0000b0 3a d3 11 34 1f f2 db f4 e9 f8 0b d1 e5 ec e0 13
       0.15984254 -0.124015756 0.0468504 0.1433071 0.08543308 -0.03858268 -0.10196851 -0.03307087 -0.06338583 -0.022047246 0.030314963 -0.12952757 -0.074409455 -0.055118114 -0.08818898 0.052362207
0000c0 f6 f5 00 1c 04 11 0c e5 2f 10 e7 2a 2a 1e 03 0d
       -0.027559057 -0.030314963 0.0 0.07716536 0.011023623 0.0468504 0.03307087 -0.074409455 0.12952757 0.04409449 -0.06889764 0.11574804 0.11574804 0.08267717 0.008267717 0.035826776
0000d0 0a 31 0b 0b 50 ed 13 12 fe 0e 09 31 df dd 0a ff
       0.027559057 0.13503937 0.030314963 0.030314963 0.22047246 -0.052362207 0.052362207 0.049606305 -0.0055118115 0.03858268 0.024803152 0.13503937 -0.090944886 -0.0964567 0.027559057 -0.0027559057
0000e0 ee fb 35 d3 e1 19 0d 18 10 fc 40 f2 0b 08 e1 f4
       -0.049606305 -0.013779528 0.146063 -0.124015756 -0.08543308 0.06889764 0.035826776 0.06614174 0.04409449 -0.011023623 0.17637797 -0.03858268 0.030314963 0.022047246 -0.08543308 -0.03307087
0000f0 2c 12 09 32 3b f6 e4 ee 0c 1f fc de fc 0e 09 0e
       0.12125985 0.049606305 0.024803152 0.13779528 0.16259843 -0.027559057 -0.07716536 -0.049606305 0.03307087 0.08543308 -0.011023623 -0.0937008 -0.011023623 0.03858268 0.024803152 0.03858268

sequential_1/dense_3/MatMul i1 [11, 256] scale=0.004176419 zero_point=0
000000 03 f0 d1 0d f2 20 e9 bf bb c3 b4 18 cb 01 13 ed
       0.012529258 -0.06682271 -0.1962917 0.05429345 -0.05846987 0.13364542 -0.09605764 -0.27146724 -0.28817293 -0.25476158 -0.31740785 0.10023406 -0.22135022 0.004176419 0.07935196 -0.07935196
000010 c3 c5 d4 06 05 fa 06 e2 97 e4 c3 c8 05 d0 e5 b9
       -0.25476158 -0.24640873 -0.18376245 0.025058515 0.020882096 -0.025058515 0.025058515 -0.12529257 -0.438524 -0.11693974 -0.25476158 -0.23387948 0.020882096 -0.20046812 -0.112763315 -0.29652578
000020 d7 a5 f9 12 15 fd ec f1 cd be f4 1b e2 08 13 9f
       -0.17123319 -0.38005415 -0.029234935 0.075175546 0.08770481 -0.012529258 -0.083528385 -0.062646285 -0.21299738 -0.27564368 -0.05011703 0.112763315 -0.12529257 0.033411354 0.07935196 -0.40511265
000030 ef e2 13 ef f4 c8 e8 c2 e9 ff b2 0b ee d9 af da
       -0.07099913 -0.12529257 0.07935196 -0.07099913 -0.05011703 -0.23387948 -0.10023406 -0.25893798 -0.09605764 -0.004176419 -0.3257607 0.04594061 -0.075175546 -0.16288035 -0.33828995 -0.15870392
000040 dc ff ef e0 f0 0c 05 ac c5 07 ad d5 b8 cb d7 c4
       -0.15035109 -0.004176419 -0.07099913 -0.13364542 -0.06682271 0.05011703 0.020882096 -0.35081923 -0.24640873 0.029234935 -0.3466428 -0.17958602 -0.30070218 -0.22135022 -0.17123319 -0.25058514
000050 f9 de 11 05 e0 dc f2 ec f5 f2 c7 d9 fa dc f4 1c
       -0.029234935 -0.14199826 0.07099913 0.020882096 -0.13364542 -0.15035109 -0.05846987 -0.083528385 -0.04594061 -0.05846987 -0.2380559 -0.16288035 -0.025058515 -0.15035109 -0.05011703 0.11693974
000060 1e fa f1 c9 af f6 e8 c0 f6 c2 ad e3 07 d9 b2 be
       0.12529257 -0.025058515 -0.062646285 -0.22970305 -0.33828995 -0.041764192 -0.10023406 -0.26729083 -0.041764192 -0.25893798 -0.3466428 -0.12111616 0.029234935 -0.16288035 -0.3257607 -0.27564368
000070 d5 c4 c3 a0 f9 bc f7 ee ed e3 a1 e5 f5 11 cf a0
       -0.17958602 -0.25058514 -0.25476158 -0.40093625 -0.029234935 -0.28399652 -0.037587773 -0.075175546 -0.07935196 -0.12111616 -0.39675984 -0.112763315 -0.04594061 0.07099913 -0.20464455 -0.40093625
000080 c0 d5 e6 09 dd fa f1 93 e6 dd b9 03 13 be a9 ef
       -0.26729083 -0.17958602 -0.1085869 0.037587773 -0.14617467 -0.025058515 -0.062646285 -0.4552297 -0.1085869 -0.14617467 -0.29652578 0.012529258 0.07935196 -0.27564368 -0.36334848 -0.07099913
000090 af ba c8 a4 ea b1 b3 e7 c1 f3 eb fc 02 a3 e3 fa
       -0.33828995 -0.29234934 -0.23387948 -0.38423055 -0.09188122 -0.32993713 -0.32158428 -0.104410484 -0.26311442 -0.05429345 -0.08770481 -0.016705677 0.008352838 -0.388407 -0.12111616 -0.025058515
0000a0 1e 19 ee e9 05 f8 c0 0f ad 08 f2 07 d9 d6 f1 af
       0.12529257 0.104410484 -0.075175546 -0.09605764 0.020882096 -0.033411354 -0.26729083 0.062646285 -0.3466428 0.033411354 -0.05846987 0.029234935 -0.16288035 -0.17540962 -0.062646285 -0.33828995
0000b0 f2 be de 0f dd db e3 cd 19 e4 ed f4 06 dc e2 e0
       -0.05846987 -0.27564368 -0.14199826 0.062646285 -0.14617467 -0.15452752 -0.12111616 -0.21299738 0.104410484 -0.11693974 -0.07935196 -0.05011703 0.025058515 -0.15035109 -0.12529257 -0.13364542
0000c0 f8 b3 fd f2 e9 c1 fc e2 e0 be e9 a8 06 17 0f fc
       -0.033411354 -0.32158428 -0.012529258 -0.05846987 -0.09605764 -0.26311442 -0.016705677 -0.12529257 -0.13364542 -0.27564368 -0.09605764 -0.3675249 0.025058515 0.09605764 0.062646285 -0.016705677
0000d0 f9 b9 bf 11 f6 e2 c5 40 9d dd e3 e9 15 f1 db fd
       -0.029234935 -0.29652578 -0.27146724 0.07099913 -0.041764192 -0.12529257 -0.24640873 0.26729083 -0.4134655 -0.14617467 -0.12111616 -0.09605764 0.08770481 -0.062646285 -0.15452752 -0.012529258
0000e0 b8 ea 0f 07 c8 8f f5 d1 01 01 f6 e6 e8 dc f2 ef
       -0.30070218 -0.09188122 0.062646285 0.029234935 -0.23387948 -0.47193536 -0.04594061 -0.1962917 0.004176419 0.004176419 -0.041764192 -0.1085869 -0.10023406 -0.15035109 -0.05846987 -0.07099913
0000f0 bb e1 d9 f2 d9 b3 e0 b8 01 17 dd e9 e2 bc d7 f7
       -0.28817293 -0.12946899 -0.16288035 -0.05846987 -0.16288035 -0.32158428 -0.13364542 -0.30070218 0.004176419 0.09605764 -0.14617467 -0.09605764 -0.12529257 -0.28399652 -0.17123319 -0.037587773
