firmware/dig-s2-q-20220211.tflite (tflite, 98560 bytes, 5 tensors)

sequential_2/dense_4/MatMul i1 [256, 256] scale=0.0037233424 zero_point=0
0	0x10	0.05957348
1	0xfd	-0.011170028
2	0xe9	-0.08563688
3	0xff	-0.0037233424
4	0x14	0.07446685
5	0x14	0.07446685
6	0xf4	-0.04468011
7	0xf3	-0.048403453
8	0xe4	-0.10425359
9	0x04	0.01489337
10	0xf3	-0.048403453
11	0x07	0.026063398
12	0xf3	-0.048403453
13	0xf2	-0.052126795
14	0x18	0.08936022
15	0xf6	-0.037233423
16	0xfe	-0.007446685
17	0xfc	-0.01489337
18	0xf9	-0.026063398
19	0xe1	-0.11542361
20	0x17	0.08563688
21	0x08	0.02978674
22	0xfd	-0.011170028
23	0x19	0.09308356
24	0x10	0.05957348
25	0x05	0.018616712
26	0xe4	-0.10425359
27	0x07	0.026063398
28	0xe5	-0.100530244
29	0xee	-0.06702016
30	0x11	0.063296825
31	0xfd	-0.011170028
32	0x14	0.07446685
33	0xff	-0.0037233424
34	0x06	0.022340056
35	0x04	0.01489337
36	0xea	-0.08191353
37	0xfd	-0.011170028
38	0xec	-0.07446685
39	0xe3	-0.10797693
40	0xe4	-0.10425359
41	0xfc	-0.01489337
42	0x0b	0.040956765
43	0x0c	0.04468011
44	0xf2	-0.052126795
45	0x02	0.007446685
46	0xf0	-0.05957348
47	0x00	0.0
48	0x0c	0.04468011
49	0x1a	0.096806906
50	0xf6	-0.037233423
51	0x00	0.0
52	0xe3	-0.10797693
53	0xe8	-0.08936022
54	0x05	0.018616712
55	0xe9	-0.08563688
56	0x13	0.07074351
57	0x0e	0.052126795
58	0xf9	-0.026063398
59	0xfb	-0.018616712
60	0xe9	-0.08563688
61	0x11	0.063296825
62	0xf5	-0.040956765
63	0x14	0.07446685
64	0x08	0.02978674
65	0xfa	-0.022340056
66	0xec	-0.07446685
67	0xf3	-0.048403453
68	0xfe	-0.007446685
69	0xea	-0.08191353
70	0x14	0.07446685
71	0xe1	-0.11542361
72	0x03	0.011170028
73	0x0d	0.048403453
74	0x11	0.063296825
75	0x14	0.07446685
76	0xe7	-0.09308356
77	0xed	-0.07074351
78	0x03	0.011170028
79	0xf0	-0.05957348
80	0x00	0.0
81	0xf9	-0.026063398
82	0xe3	-0.10797693
83	0x17	0.08563688
84	0x12	0.06702016
85	0xf6	-0.037233423
86	0xfb	-0.018616712
87	0xe7	-0.09308356
88	0x15	0.07819019
89	0xf9	-0.026063398
90	0xf3	-0.048403453
91	0xf8	-0.02978674
92	0xe3	-0.10797693
93	0x1b	0.100530244
94	0xe5	-0.100530244
95	0x04	0.01489337
96	0xe4	-0.10425359
97	0x17	0.08563688
98	0xf7	-0.03351008
99	0x0e	0.052126795
100	0xfa	-0.022340056
101	0xef	-0.063296825
102	0x05	0.018616712
103	0x09	0.03351008
104	0xfb	-0.018616712
105	0x06	0.022340056
106	0x12	0.06702016
107	0xf9	-0.026063398
108	0x0b	0.040956765
109	0xe9	-0.08563688
110	0xe6	-0.096806906
111	0x13	0.07074351
112	0x13	0.07074351
113	0xe7	-0.09308356
114	0x12	0.06702016
115	0x1a	0.096806906
116	0x0e	0.052126795
117	0x00	0.0
118	0xe9	-0.08563688
119	0xe0	-0.11914696
120	0xf1	-0.055850137
121	0xe8	-0.08936022
122	0xf7	-0.03351008
123	0xfa	-0.022340056
124	0x00	0.0
125	0x03	0.011170028
126	0xe3	-0.10797693
127	0x09	0.03351008
128	0x07	0.026063398
129	0x05	0.018616712
130	0x11	0.063296825
131	0xe7	-0.09308356
132	0xf8	-0.02978674
133	0x02	0.007446685
134	0xf0	-0.05957348
135	0xfe	-0.007446685
136	0xef	-0.063296825
137	0x08	0.02978674
138	0x0f	0.055850137
139	0xef	-0.063296825
140	0xe7	-0.09308356
141	0xe3	-0.10797693
142	0x09	0.03351008
143	0x0e	0.052126795
144	0xfb	-0.018616712
145	0xfc	-0.01489337
146	0xe3	-0.10797693
147	0x0f	0.055850137
148	0x03	0.011170028
149	0xfb	-0.018616712
150	0x0d	0.048403453
151	0x12	0.06702016
152	0xec	-0.07446685
153	0x00	0.0
154	0xf7	-0.03351008
155	0xf4	-0.04468011
156	0x0f	0.055850137
157	0x0b	0.040956765
158	0xfd	-0.011170028
159	0xf4	-0.04468011
160	0x11	0.063296825
161	0x0e	0.052126795
162	0xfd	-0.011170028
163	0x18	0.08936022
164	0xed	-0.07074351
165	0xf1	-0.055850137
166	0x0a	0.037233423
167	0x0f	0.055850137
168	0xe7	-0.09308356
169	0x07	0.026063398
170	0xec	-0.07446685
171	0x0d	0.048403453
172	0xfe	-0.007446685
173	0xe5	-0.100530244
174	0xe8	-0.08936022
175	0x06	0.022340056
176	0xe2	-0.111700274
177	0xed	-0.07074351
178	0x10	0.05957348
179	0x01	0.0037233424
180	0x07	0.026063398
181	0xe5	-0.100530244
182	0xfb	-0.018616712
183	0x19	0.09308356
184	0x16	0.08191353
185	0x0c	0.04468011
186	0xfc	-0.01489337
187	0x04	0.01489337
188	0xe1	-0.11542361
189	0xef	-0.063296825
190	0xeb	-0.07819019
191	0xf4	-0.04468011
192	0xf5	-0.040956765
193	0xe4	-0.10425359
194	0x07	0.026063398
195	0x00	0.0
196	0xe3	-0.10797693
197	0xe2	-0.111700274
198	0x10	0.05957348
199	0xfa	-0.022340056
200	0xfe	-0.007446685
201	0x04	0.01489337
202	0xfb	-0.018616712
203	0x19	0.09308356
204	0x0c	0.04468011
205	0xf2	-0.052126795
206	0x0c	0.04468011
207	0xf2	-0.052126795
208	0xed	-0.07074351
209	0x0d	0.048403453
210	0xf7	-0.03351008
211	0xf6	-0.037233423
212	0xea	-0.08191353
213	0xe8	-0.08936022
214	0xfc	-0.01489337
215	0xfc	-0.01489337
216	0xf3	-0.048403453
217	0xfe	-0.007446685
218	0xee	-0.06702016
219	0x05	0.018616712
220	0xe7	-0.09308356
221	0xeb	-0.07819019
222	0x04	0.01489337
223	0xe5	-0.100530244
224	0xf3	-0.048403453
225	0xea	-0.08191353
226	0x10	0.05957348
227	0xe3	-0.10797693
228	0xf3	-0.048403453
229	0x18	0.08936022
230	0x04	0.01489337
231	0xfd	-0.011170028
232	0x10	0.05957348
233	0xe4	-0.10425359
234	0xe1	-0.11542361
235	0xeb	-0.07819019
236	0x0a	0.037233423
237	0x14	0.07446685
238	0x0d	0.048403453
239	0xf9	-0.026063398
240	0x00	0.0
241	0xf3	-0.048403453
242	0xe7	-0.09308356
243	0x13	0.07074351
244	0xff	-0.0037233424
245	0x08	0.02978674
246	0xfb	-0.018616712
247	0xed	-0.07074351
248	0xf9	-0.026063398
249	0x00	0.0
250	0x0e	0.052126795
251	0x0f	0.055850137
252	0xe9	-0.08563688
253	0xed	-0.07074351
254	0xe6	-0.096806906
255	0xe5	-0.100530244

sequential_2/dense_5/MatMul i1 [11, 256] scale=0.0053209686 zero_point=0
0	0xf9	-0.03724678
1	0xde	-0.18091293
2	0xdc	-0.19155487
3	0xc9	-0.29265326
4	0xd9	-0.20751777
5	0xe8	-0.12770325
6	0xcd	-0.2713694
7	0xf8	-0.04256775
8	0xe8	-0.12770325
9	0xcb	-0.28201133
10	0xd0	-0.2554065
11	0xcf	-0.26072747
12	0xd2	-0.24476455
13	0xe3	-0.1543081
14	0xf4	-0.063851625
15	0x01	0.0053209686
16	0xf0	-0.0851355
17	0xbf	-0.34586295
18	0xdb	-0.19687584
19	0xf5	-0.058530655
20	0xcf	-0.26072747
21	0xef	-0.09045646
22	0x20	0.170271
23	0xc2	-0.32990006
24	0xa0	-0.510813
25	0xf7	-0.04788872
26	0xb8	-0.38310975
27	0xe9	-0.122382276
28	0xd7	-0.2181597
29	0xdb	-0.19687584
30	0xbe	-0.35118392
31	0xf3	-0.06917259
32	0xcd	-0.2713694
33	0xe7	-0.13302422
34	0xa8	-0.46824524
35	0x0e	0.07449356
36	0x0c	0.063851625
37	0xf9	-0.03724678
38	0xec	-0.10641937
39	0xd4	-0.23412262
40	0x12	0.09577744
41	0xbf	-0.34586295
42	0x04	0.021283874
43	0xe2	-0.15962906
44	0x17	0.122382276
45	0xe0	-0.170271
46	0xe5	-0.14366615
47	0xf6	-0.053209685
48	0xf7	-0.04788872
49	0xed	-0.1010984
50	0xc3	-0.3245791
51	0x07	0.03724678
52	0xcc	-0.27669036
53	0xfc	-0.021283874
54	0xcf	-0.26072747
55	0x02	0.010641937
56	0xc5	-0.31393716
57	0x0b	0.058530655
58	0xf6	-0.053209685
59	0xd5	-0.22880165
60	0xca	-0.2873323
61	0xf5	-0.058530655
62	0xfc	-0.021283874
63	0xd6	-0.22348069
64	0xc8	-0.29797423
65	0x11	0.09045646
66	0xbd	-0.3565049
67	0xfa	-0.031925812
68	0xd8	-0.21283874
69	0xa7	-0.4735662
70	0xf2	-0.07449356
71	0xf2	-0.07449356
72	0xfe	-0.010641937
73	0x0c	0.063851625
74	0x06	0.031925812
75	0xcd	-0.2713694
76	0xf3	-0.06917259
77	0xee	-0.09577744
78	0x1e	0.15962906
79	0xba	-0.3724678
80	0xfd	-0.015962906
81	0xe0	-0.170271
82	0xee	-0.09577744
83	0xed	-0.1010984
84	0xb2	-0.41503555
85	0x05	0.026604842
86	0x28	0.21283874
87	0x03	0.015962906
88	0xe6	-0.13834518
89	0xf1	-0.07981453
90	0xdd	-0.1862339
91	0xe9	-0.122382276
92	0xd0	-0.2554065
93	0xef	-0.09045646
94	0x00	0.0
95	0xdd	-0.1862339
96	0xfc	-0.021283874
97	0xd6	-0.22348069
98	0xf8	-0.04256775
99	0xdc	-0.19155487
100	0xee	-0.09577744
101	0x03	0.015962906
102	0xbf	-0.34586295
103	0xc1	-0.33522102
104	0xfd	-0.015962906
105	0xbf	-0.34586295
106	0xee	-0.09577744
107	0xd8	-0.21283874
108	0xe6	-0.13834518
109	0x04	0.021283874
110	0xc1	-0.33522102
111	0xbd	-0.3565049
112	0xc7	-0.3032952
113	0xe4	-0.14898711
114	0xe3	-0.1543081
115	0xfc	-0.021283874
116	0xfb	-0.026604842
117	0x15	0.11174034
118	0xe6	-0.13834518
119	0xc0	-0.340542
120	0xe8	-0.12770325
121	0xe3	-0.1543081
122	0xf8	-0.04256775
123	0xfb	-0.026604842
124	0xd3	-0.23944359
125	0xca	-0.2873323
126	0xde	-0.18091293
127	0x30	0.2554065
128	0xed	-0.1010984
129	0xe5	-0.14366615
130	0xfe	-0.010641937
131	0xef	-0.09045646
132	0xff	-0.0053209686
133	0x0d	0.06917259
134	0xf2	-0.07449356
135	0xb5	-0.39907265
136	0xf9	-0.03724678
137	0xfe	-0.010641937
138	0x01	0.0053209686
139	0x0d	0.06917259
140	0x0d	0.06917259
141	0xea	-0.11706131
142	0xc5	-0.31393716
143	0xe2	-0.15962906
144	0xd7	-0.2181597
145	0xfe	-0.010641937
146	0xff	-0.0053209686
147	0xcb	-0.28201133
148	0xfd	-0.015962906
149	0x12	0.09577744
150	0xf0	-0.0851355
151	0xdf	-0.17559196
152	0xf9	-0.03724678
153	0xf3	-0.06917259
154	0xdf	-0.17559196
155	0xd1	-0.25008553
156	0xfe	-0.010641937
157	0xc7	-0.3032952
158	0x0c	0.063851625
159	0xff	-0.0053209686
160	0xdf	-0.17559196
161	0xef	-0.09045646
162	0xe7	-0.13302422
163	0x8e	-0.6065904
164	0xb4	-0.4043936
165	0xbb	-0.36714682
166	0xd1	-0.25008553
167	0xef	-0.09045646
168	0x06	0.031925812
169	0xc9	-0.29265326
170	0xc1	-0.33522102
171	0xda	-0.2021968
172	0x0a	0.053209685
173	0xea	-0.11706131
174	0xb0	-0.42567748
175	0xdd	-0.1862339
176	0x12	0.09577744
177	0xfa	-0.031925812
178	0xd9	-0.20751777
179	0xb3	-0.40971458
180	0xca	-0.2873323
181	0xe6	-0.13834518
182	0xe4	-0.14898711
183	0xf9	-0.03724678
184	0x03	0.015962906
185	0xd0	-0.2554065
186	0xfa	-0.031925812
187	0xcd	-0.2713694
188	0xd0	-0.2554065
189	0xbe	-0.35118392
190	0xc5	-0.31393716
191	0xd3	-0.23944359
192	0x02	0.010641937
193	0xed	-0.1010984
194	0xf3	-0.06917259
195	0xdd	-0.1862339
196	0xe2	-0.15962906
197	0xe2	-0.15962906
198	0x06	0.031925812
199	0xc3	-0.3245791
200	0xee	-0.09577744
201	0xca	-0.2873323
202	0xdb	-0.19687584
203	0x00	0.0
204	0xff	-0.0053209686
205	0xf4	-0.063851625
206	0xda	-0.2021968
207	0xed	-0.1010984
208	0xdc	-0.19155487
209	0xf4	-0.063851625
210	0x05	0.026604842
211	0xe0	-0.170271
212	0xb1	-0.4203565
213	0xb2	-0.41503555
214	0xde	-0.18091293
215	0xd2	-0.24476455
216	0xcd	-0.2713694
217	0xe1	-0.16495003
218	0xfb	-0.026604842
219	0xe6	-0.13834518
220	0xd7	-0.2181597
221	0xb7	-0.3884307
222	0x9e	-0.52145493
223	0xc7	-0.3032952
224	0xe6	-0.13834518
225	0x05	0.026604842
226	0xd1	-0.25008553
227	0x0c	0.063851625
228	0xe1	-0.16495003
229	0x0b	0.058530655
230	0xfa	-0.031925812
231	0xe2	-0.15962906
232	0xdc	-0.19155487
233	0xd6	-0.22348069
234	0x03	0.015962906
235	0xc9	-0.29265326
236	0xe6	-0.13834518
237	0xeb	-0.11174034
238	0x0c	0.063851625
239	0xc7	-0.3032952
240	0xfe	-0.010641937
241	0xf6	-0.053209685
242	0x06	0.031925812
243	0xff	-0.0053209686
244	0xdf	-0.17559196
245	0xc3	-0.3245791
246	0x01	0.0053209686
247	0xe7	-0.13302422
248	0xf0	-0.0851355
249	0xe4	-0.14898711
250	0xb7	-0.3884307
251	0xf4	-0.063851625
252	0x04	0.021283874
253	0x09	0.04788872
254	0xe7	-0.13302422
255	0xc0	-0.340542

sequential_2/conv2d_6/Conv2D i1 [32, 3, 3, 3]
0	0xd0	-48
1	0x0f	15
2	0x33	51
3	0x0c	12
4	0xf4	-12
5	0xc5	-59
6	0xee	-18
7	0x7f	127
8	0x5d	93
9	0xe7	-25
10	0xa8	-88
11	0xe9	-23
12	0xba	-70
13	0x36	54
14	0xe5	-27
15	0x05	5
16	0x05	5
17	0xc9	-55
18	0x5a	90
19	0x0a	10
20	0xce	-50
21	0x10	16
22	0xa1	-95
23	0xab	-85
24	0xbb	-69
25	0xd8	-40
26	0x32	50
27	0x22	34
28	0xcf	-49
29	0x17	23
30	0x07	7
31	0x33	51
32	0x43	67
33	0x03	3
34	0x3d	61
35	0xf7	-9
36	0xc8	-56
37	0x00	0
38	0xbe	-66
39	0xfb	-5
40	0x4d	77
41	0xdf	-33
42	0x5a	90
43	0x7f	127
44	0x39	57
45	0xd6	-42
46	0xf2	-14
47	0x9a	-102
48	0x96	-106
49	0xd0	-48
50	0xb5	-75
51	0xa3	-93
52	0x20	32
53	0xeb	-21
54	0xa4	-92
55	0x8d	-115
56	0xb5	-75
57	0xf7	-9
58	0x8a	-118
59	0xa5	-91
60	0x28	40
61	0xe9	-23
62	0xc8	-56
63	0xfc	-4
64	0xee	-18
65	0x06	6
66	0xd3	-45
67	0x13	19
68	0xf8	-8
69	0x21	33
70	0x21	33
71	0xdb	-37
72	0x7f	127
73	0x47	71
74	0x66	102
75	0x2b	43
76	0x5e	94
77	0x3c	60
78	0xf6	-10
79	0xea	-22
80	0x32	50
81	0x81	-127
82	0xb7	-73
83	0x0a	10
84	0x07	7
85	0x09	9
86	0xe0	-32
87	0xf9	-7
88	0x38	56
89	0xf2	-14
90	0xd9	-39
91	0xb1	-79
92	0xb9	-71
93	0x15	21
94	0x31	49
95	0x29	41
96	0x2f	47
97	0xd2	-46
98	0x36	54
99	0x15	21
100	0xf7	-9
101	0x08	8
102	0x44	68
103	0x0a	10
104	0x5b	91
105	0x21	33
106	0xe5	-27
107	0x1a	26
108	0xc5	-59
109	0x17	23
110	0x03	3
111	0xd5	-43
112	0xfc	-4
113	0xe5	-27
114	0x81	-127
115	0x94	-108
116	0xb6	-74
117	0xe0	-32
118	0xc0	-64
119	0x01	1
120	0xb8	-72
121	0xfc	-4
122	0xc6	-58
123	0x24	36
124	0xfa	-6
125	0x35	53
126	0x20	32
127	0x05	5
128	0x0c	12
129	0x41	65
130	0x57	87
131	0x07	7
132	0x5b	91
133	0x50	80
134	0x56	86
135	0x21	33
136	0x3e	62
137	0x91	-111
138	0xd3	-45
139	0x23	35
140	0xf2	-14
141	0x1d	29
142	0x7f	127
143	0xcb	-53
144	0x04	4
145	0xb7	-73
146	0xd3	-45
147	0x01	1
148	0x54	84
149	0xb9	-71
150	0x6b	107
151	0xff	-1
152	0x2b	43
153	0xa7	-89
154	0x1d	29
155	0xcb	-53
156	0xfa	-6
157	0x03	3
158	0xc5	-59
159	0x1e	30
160	0x32	50
161	0xc1	-63
162	0x48	72
163	0x45	69
164	0x27	39
165	0xde	-34
166	0x0c	12
167	0x2c	44
168	0x81	-127
169	0xbb	-69
170	0x8c	-116
171	0x3c	60
172	0xfd	-3
173	0x0a	10
174	0x4a	74
175	0x2f	47
176	0x2a	42
177	0xa7	-89
178	0xb6	-74
179	0xca	-54
180	0x07	7
181	0xfe	-2
182	0x31	49
183	0x4c	76
184	0x41	65
185	0x05	5
186	0xce	-50
187	0xfe	-2
188	0xe4	-28
189	0x2c	44
190	0x7b	123
191	0xee	-18
192	0x04	4
193	0x50	80
194	0x47	71
195	0x39	57
196	0x17	23
197	0xfa	-6
198	0xa6	-90
199	0x25	37
200	0x42	66
201	0x06	6
202	0x2f	47
203	0x06	6
204	0x11	17
205	0x01	1
206	0x66	102
207	0xc6	-58
208	0x82	-126
209	0xa1	-95
210	0xfa	-6
211	0x81	-127
212	0xa2	-94
213	0xce	-50
214	0xe2	-30
215	0xc4	-60
216	0xb7	-73
217	0x30	48
218	0xdf	-33
219	0x81	-127
220	0xe0	-32
221	0xbf	-65
222	0xe8	-24
223	0x4f	79
224	0x1a	26
225	0x9f	-97
226	0xbb	-69
227	0xff	-1
228	0x27	39
229	0xf5	-11
230	0x73	115
231	0x86	-122
232	0x40	64
233	0x64	100
234	0x94	-108
235	0xd7	-41
236	0xeb	-21
237	0xbe	-66
238	0x22	34
239	0x10	16
240	0xc5	-59
241	0xed	-19
242	0x35	53
243	0xe9	-23
244	0x07	7
245	0xe6	-26
246	0xbc	-68
247	0xc8	-56
248	0xd6	-42
249	0xe1	-31
250	0xe8	-24
251	0x26	38
252	0x1d	29
253	0x51	81
254	0xfe	-2
255	0xfd	-3

sequential_2/conv2d_7/Conv2D i1 [32, 3, 3, 32]
0	0x1a	26
1	0x15	21
2	0x3f	63
3	0x2d	45
4	0x4b	75
5	0x8e	-114
6	0xf1	-15
7	0xf4	-12
8	0x39	57
9	0xe3	-29
10	0x1b	27
11	0x90	-112
12	0xef	-17
13	0x56	86
14	0x50	80
15	0x23	35
16	0x1b	27
17	0xae	-82
18	0x4f	79
19	0xce	-50
20	0xc1	-63
21	0xfc	-4
22	0x57	87
23	0xd9	-39
24	0x4a	74
25	0x0e	14
26	0xd5	-43
27	0x23	35
28	0xff	-1
29	0x38	56
30	0x98	-104
31	0xd4	-44
32	0xdc	-36
33	0xe3	-29
34	0xd4	-44
35	0xa3	-93
36	0x0b	11
37	0xef	-17
38	0xcc	-52
39	0x2a	42
40	0xad	-83
41	0xe8	-24
42	0xb6	-74
43	0x39	57
44	0x06	6
45	0x53	83
46	0xfc	-4
47	0xf6	-10
48	0xb7	-73
49	0x03	3
50	0xac	-84
51	0xe0	-32
52	0xe3	-29
53	0xf1	-15
54	0x10	16
55	0xdd	-35
56	0x24	36
57	0x03	3
58	0x48	72
59	0xcc	-52
60	0xbf	-65
61	0xad	-83
62	0xb8	-72
63	0xb4	-76
64	0x0a	10
65	0x0a	10
66	0xba	-70
67	0x91	-111
68	0x34	52
69	0xf6	-10
70	0x38	56
71	0xe9	-23
72	0xf5	-11
73	0x1d	29
74	0x0b	11
75	0x4e	78
76	0x27	39
77	0x0e	14
78	0x13	19
79	0xd4	-44
80	0xbe	-66
81	0x03	3
82	0xae	-82
83	0x25	37
84	0x1f	31
85	0xd5	-43
86	0xe1	-31
87	0xc5	-59
88	0x92	-110
89	0xd9	-39
90	0xe9	-23
91	0xa4	-92
92	0xf0	-16
93	0x2a	42
94	0xa5	-91
95	0x0b	11
96	0x51	81
97	0x1d	29
98	0x0a	10
99	0xa0	-96
100	0x15	21
101	0xa3	-93
102	0xf6	-10
103	0xbd	-67
104	0xac	-84
105	0x0d	13
106	0x25	37
107	0x1b	27
108	0x06	6
109	0x32	50
110	0xce	-50
111	0xe0	-32
112	0x23	35
113	0x08	8
114	0x8b	-117
115	0x1a	26
116	0xf5	-11
117	0x0a	10
118	0xf0	-16
119	0x8d	-115
120	0x05	5
121	0x53	83
122	0xe8	-24
123	0xda	-38
124	0xd6	-42
125	0xf4	-12
126	0x86	-122
127	0xd1	-47
128	0xef	-17
129	0xc9	-55
130	0x08	8
131	0xa5	-91
132	0x39	57
133	0x25	37
134	0xe9	-23
135	0xbd	-67
136	0x0c	12
137	0x03	3
138	0x88	-120
139	0xfe	-2
140	0xde	-34
141	0xc9	-55
142	0x13	19
143	0x2c	44
144	0x36	54
145	0xed	-19
146	0xec	-20
147	0xee	-18
148	0xf8	-8
149	0x25	37
150	0xc2	-62
151	0x24	36
152	0x3d	61
153	0x18	24
154	0xe1	-31
155	0xd9	-39
156	0xed	-19
157	0xc7	-57
158	0xfc	-4
159	0xf0	-16
160	0xa1	-95
161	0xae	-82
162	0x1e	30
163	0xc5	-59
164	0xa8	-88
165	0x91	-111
166	0x3b	59
167	0xcf	-49
168	0xeb	-21
169	0xf3	-13
170	0xbe	-66
171	0x1d	29
172	0xe8	-24
173	0x36	54
174	0xfc	-4
175	0xa0	-96
176	0xfa	-6
177	0xaa	-86
178	0xdd	-35
179	0xf5	-11
180	0xb8	-72
181	0x0f	15
182	0xb8	-72
183	0x2a	42
184	0xa3	-93
185	0xeb	-21
186	0xee	-18
187	0xe4	-28
188	0x00	0
189	0x0a	10
190	0xa7	-89
191	0xd6	-42
192	0xcc	-52
193	0xc7	-57
194	0x35	53
195	0xd1	-47
196	0xb0	-80
197	0x2c	44
198	0x0b	11
199	0xd3	-45
200	0x49	73
201	0x48	72
202	0x1d	29
203	0xf2	-14
204	0xe7	-25
205	0xc3	-61
206	0x55	85
207	0x14	20
208	0xc7	-57
209	0xfa	-6
210	0x9c	-100
211	0x55	85
212	0xcb	-53
213	0x7f	127
214	0xd3	-45
215	0x19	25
216	0x0a	10
217	0x29	41
218	0xbb	-69
219	0x06	6
220	0x12	18
221	0xeb	-21
222	0x90	-112
223	0x3d	61
224	0xec	-20
225	0xe3	-29
226	0xcf	-49
227	0x47	71
228	0xb8	-72
229	0x9f	-97
230	0xc7	-57
231	0xcd	-51
232	0x21	33
233	0xd8	-40
234	0xcd	-51
235	0xa4	-92
236	0xab	-85
237	0x0d	13
238	0x37	55
239	0x9f	-97
240	0x21	33
241	0x9f	-97
242	0xf9	-7
243	0x39	57
244	0xb8	-72
245	0xce	-50
246	0xf5	-11
247	0x8e	-114
248	0x49	73
249	0x18	24
250	0xf8	-8
251	0x0f	15
252	0x57	87
253	0x1a	26
254	0x91	-111
255	0xe5	-27

sequential_2/conv2d_8/Conv2D i1 [32, 3, 3, 32]
0	0x18	24
1	0x34	52
2	0xf8	-8
3	0x1a	26
4	0x15	21
5	0x0c	12
6	0xfe	-2
7	0xff	-1
8	0xae	-82
9	0xd5	-43
10	0xfe	-2
11	0x39	57
12	0xf0	-16
13	0x14	20
14	0x0b	11
15	0x1f	31
16	0xd5	-43
17	0xcf	-49
18	0x15	21
19	0xc9	-55
20	0x23	35
21	0xff	-1
22	0xf3	-13
23	0xed	-19
24	0xfe	-2
25	0xf0	-16
26	0xb8	-72
27	0x15	21
28	0xed	-19
29	0xf8	-8
30	0xd9	-39
31	0x4f	79
32	0xf9	-7
33	0xf8	-8
34	0x09	9
35	0x1f	31
36	0xec	-20
37	0x0e	14
38	0xeb	-21
39	0x10	16
40	0xc1	-63
41	0xfc	-4
42	0x0b	11
43	0x4e	78
44	0x02	2
45	0x03	3
46	0xfd	-3
47	0x16	22
48	0x1a	26
49	0xe4	-28
50	0x0a	10
51	0x1c	28
52	0xfd	-3
53	0xe7	-25
54	0xda	-38
55	0xf5	-11
56	0x0c	12
57	0xdc	-36
58	0xd4	-44
59	0x08	8
60	0x32	50
61	0x2b	43
62	0xc3	-61
63	0x34	52
64	0xea	-22
65	0xf1	-15
66	0xee	-18
67	0x4c	76
68	0xdb	-37
69	0xc1	-63
70	0x13	19
71	0xee	-18
72	0xce	-50
73	0xe9	-23
74	0xd4	-44
75	0x1a	26
76	0xef	-17
77	0x22	34
78	0x32	50
79	0x1c	28
80	0x66	102
81	0x7f	127
82	0xe4	-28
83	0x1a	26
84	0xdd	-35
85	0x03	3
86	0xdf	-33
87	0xd6	-42
88	0xf9	-7
89	0xd5	-43
90	0xf6	-10
91	0x8f	-113
92	0x16	22
93	0xff	-1
94	0x1b	27
95	0xe1	-31
96	0xf2	-14
97	0x17	23
98	0x1f	31
99	0x0b	11
100	0x02	2
101	0xd3	-45
102	0x03	3
103	0xeb	-21
104	0xda	-38
105	0x5a	90
106	0x00	0
107	0x39	57
108	0x36	54
109	0x10	16
110	0x04	4
111	0x01	1
112	0xaa	-86
113	0xf8	-8
114	0xf2	-14
115	0xa8	-88
116	0x33	51
117	0x14	20
118	0x34	52
119	0xe7	-25
120	0x21	33
121	0x08	8
122	0xb7	-73
123	0xed	-19
124	0xfb	-5
125	0x12	18
126	0xd0	-48
127	0xe5	-27
128	0xea	-22
129	0x0c	12
130	0xf6	-10
131	0xc1	-63
132	0x2b	43
133	0x1a	26
134	0xd9	-39
135	0x08	8
136	0xcf	-49
137	0xd3	-45
138	0xd9	-39
139	0xc8	-56
140	0x01	1
141	0xf7	-9
142	0x08	8
143	0x0a	10
144	0xd6	-42
145	0x03	3
146	0xf5	-11
147	0x13	19
148	0x61	97
149	0xd4	-44
150	0xc3	-61
151	0xe6	-26
152	0xc1	-63
153	0xbe	-66
154	0xbd	-67
155	0xea	-22
156	0x0b	11
157	0xda	-38
158	0x26	38
159	0x3a	58
160	0x0a	10
161	0xf6	-10
162	0xd6	-42
163	0xe7	-25
164	0x33	51
165	0xe6	-26
166	0xc8	-56
167	0xc9	-55
168	0x32	50
169	0x9e	-98
170	0xdb	-37
171	0x1e	30
172	0x40	64
173	0xf4	-12
174	0x35	53
175	0x0b	11
176	0x23	35
177	0x26	38
178	0xe6	-26
179	0xef	-17
180	0x11	17
181	0x4e	78
182	0xf4	-12
183	0xd4	-44
184	0xc0	-64
185	0xef	-17
186	0x9a	-102
187	0x20	32
188	0xcc	-52
189	0x38	56
190	0x68	104
191	0xde	-34
192	0x1b	27
193	0xf1	-15
194	0x0e	14
195	0x0f	15
196	0xdf	-33
197	0x10	16
198	0x19	25
199	0xe2	-30
200	0x08	8
201	0x20	32
202	0xed	-19
203	0x1f	31
204	0xc5	-59
205	0x12	18
206	0x02	2
207	0xe8	-24
208	0xfa	-6
209	0x1f	31
210	0x0c	12
211	0xcc	-52
212	0xc6	-58
213	0xd4	-44
214	0xd3	-45
215	0xfe	-2
216	0xf9	-7
217	0x21	33
218	0x05	5
219	0x0d	13
220	0xd3	-45
221	0x07	7
222	0x03	3
223	0x33	51
224	0xe6	-26
225	0x08	8
226	0x81	-127
227	0xf5	-11
228	0xe3	-29
229	0x3b	59
230	0xf5	-11
231	0xb7	-73
232	0xe8	-24
233	0xe5	-27
234	0xb8	-72
235	0xcb	-53
236	0xa8	-88
237	0x59	89
238	0x44	68
239	0x16	22
240	0xe0	-32
241	0xd2	-46
242	0x1b	27
243	0x2a	42
244	0xff	-1
245	0x15	21
246	0xc9	-55
247	0xd2	-46
248	0xfb	-5
249	0x1d	29
250	0x15	21
251	0xf6	-10
252	0xdf	-33
253	0xeb	-21
254	0x01	1
255	0x0d	13
