firmware/dig-s0-q-20220224.tflite (tflite, 335904 bytes, 5 tensors)

sequential/conv2d/Conv2D i1 [32, 3, 3, 3]
-73 -127 -89 -32 34 3 76 51
52 -4 22 36 19 73 49 -2
15 20 35 53 -2 9 40 -25
-25 -82 -94 -45 9 -37 -44 -81
-83 -83 -114 -127 -1 -60 50 -9
-14 26 30 42 51 8 29 8
65 112 63 114 76 81 -1 -127
-3 -73 3 -121 120 55 61 -33
-120 -5 -67 125 -4 3 70 104
-100 -88 -99 37 64 98 62 -1
-5 4 -64 4 36 45 -72 68
42 55 -19 -7 42 73 95 36
-45 -54 41 25 18 26 25 -12
-41 -127 -75 -85 -28 21 40 -126
-75 -112 -62 -40 -69 111 89 6
101 88 -61 -53 6 -54 13 -14
55 127 -8 110 -27 55 -27 -14
77 54 -103 1 13 -68 -127 -112
82 -1 23 -20 57 103 8 -59
-50 48 108 4 21 63 -16 43
41 -56 -86 -102 -53 106 77 33
-22 85 127 -74 -2 -60 -74 -76
49 -45 107 21 -36 -2 -91 -22
-76 56 26 127 -12 105 37 86
-33 -11 34 22 -58 -18 76 59
65 -36 -104 -127 33 -11 35 -22
65 56 -126 -81 -14 47 24 -39
-62 -86 -43 -85 -20 -3 33 -3
12 -67 33 -37 -73 -30 -80 2
15 -43 108 127 105 54 75 41
-8 -2 -6 73 -68 -122 94 -40
11 63 -31 -49 -73 -51 -60 30
00000000: b781 a7e0 2203 4c33 34fc 1624 1349 31fe
00000010: 0f14 2335 fe09 28e7 e7ae a2d3 09db d4af
00000020: adad 8e81 ffc4 32f7 f21a 1e2a 3308 1d08
00000030: 4170 3f72 4c51 ff81 fdb7 0387 7837 3ddf
00000040: 88fb bd7d fc03 4668 9ca8 9d25 4062 3eff
00000050: fb04 c004 242d b844 2a37 edf9 2a49 5f24
00000060: d3ca 2919 121a 19f4 d781 b5ab e415 2882
00000070: b590 c2d8 bb6f 5906 6558 c3cb 06ca 0df2
00000080: 377f f86e e537 e5f2 4d36 9901 0dbc 8190
00000090: 52ff 17ec 3967 08c5 ce30 6c04 153f f02b
000000a0: 29c8 aa9a cb6a 4d21 ea55 7fb6 fec4 b6b4
000000b0: 31d3 6b15 dcfe a5ea b438 1a7f f469 2556
000000c0: dff5 2216 c6ee 4c3b 41dc 9881 21f5 23ea
000000d0: 4138 82af f22f 18d9 c2aa d5ab ecfd 21fd
000000e0: 0cbd 21db b7e2 b002 0fd5 6c7f 6936 4b29
000000f0: f8fe fa49 bc86 5ed8 0b3f e1cf b7cd c41e

sequential/conv2d_1/Conv2D i1 [64, 3, 3, 32]
16 -93 33 -65 -56 0 24 32
-106 21 -18 -40 -61 39 -18 3
-45 27 24 18 -16 -31 -44 25
103 56 14 -57 -35 -7 42 -6
29 -63 43 7 6 -11 -27 28
-127 -72 -42 -4 -90 32 -79 -19
28 -47 -12 30 8 -82 -65 6
74 -8 5 -43 -45 32 70 -60
-25 -36 -9 32 -9 -29 -69 35
-77 -38 1 -9 -21 14 -44 -39
17 -14 12 49 -36 2 28 -20
-26 -5 -25 -12 -13 -27 26 6
-26 6 47 -11 -27 -23 5 38
-65 43 -53 -37 -30 36 14 2
-15 53 51 67 30 -70 -34 45
72 21 -19 -14 -41 -10 51 -28
-29 -72 9 6 -55 -29 -43 47
-79 -28 -22 21 -44 53 -16 12
24 -36 -41 58 -11 -85 20 19
51 -15 27 2 -24 48 51 -29
-5 -62 -33 18 -41 28 -22 23
-19 32 -12 -23 -34 41 -33 -27
13 -5 60 45 38 -60 15 -23
4 29 -36 -33 8 11 41 -3
13 8 48 -6 -27 -4 24 6
-15 63 51 15 -19 41 18 -13
-18 0 -13 26 23 6 -5 13
81 47 22 -30 -58 -32 4 51
-6 -80 35 6 20 31 42 11
-23 -48 19 55 -7 16 -31 -29
55 -7 -84 3 -9 3 52 61
21 -8 6 -18 14 29 44 -23
00000000: 10a3 21bf c800 1820 9615 eed8 c327 ee03
00000010: d31b 1812 f0e1 d419 6738 0ec7 ddf9 2afa
00000020: 1dc1 2b07 06f5 e51c 81b8 d6fc a620 b1ed
00000030: 1cd1 f41e 08ae bf06 4af8 05d5 d320 46c4
00000040: e7dc f720 f7e3 bb23 b3da 01f7 eb0e d4d9
00000050: 11f2 0c31 dc02 1cec e6fb e7f4 f3e5 1a06
00000060: e606 2ff5 e5e9 0526 bf2b cbdb e224 0e02
00000070: f135 3343 1eba de2d 4815 edf2 d7f6 33e4
00000080: e3b8 0906 c9e3 d52f b1e4 ea15 d435 f00c
00000090: 18dc d73a f5ab 1413 33f1 1b02 e830 33e3
000000a0: fbc2 df12 d71c ea17 ed20 f4e9 de29 dfe5
000000b0: 0dfb 3c2d 26c4 0fe9 041d dcdf 080b 29fd
000000c0: 0d08 30fa e5fc 1806 f13f 330f ed29 12f3
000000d0: ee00 f31a 1706 fb0d 512f 16e2 c6e0 0433
000000e0: fab0 2306 141f 2a0b e9d0 1337 f910 e1e3
000000f0: 37f9 ac03 f703 343d 15f8 06ee 0e1d 2ce9

sequential/conv2d_2/Conv2D i1 [64, 3, 3, 64]
-30 31 -28 25 -24 54 -5 -29
-26 -3 46 50 7 4 -43 34
7 -7 -50 38 40 -21 5 -5
80 -42 -22 -1 1 -21 -7 -36
-11 -55 -72 -2 1 43 -40 -40
29 14 -22 70 -32 -74 24 74
-1 20 -24 48 37 -57 -105 -6
-50 18 -11 -16 72 -15 -54 35
-42 3 50 3 -22 -94 23 -11
-27 -7 -45 -1 11 -98 -59 6
27 26 -4 96 -8 -30 0 -17
45 -8 -1 -73 -50 12 -13 69
-3 25 -71 29 -5 71 58 -5
-4 -97 19 68 11 -43 6 7
-26 -21 3 -9 -21 -43 -6 -3
-14 -32 -70 11 4 1 37 -25
-74 -10 45 -43 27 -8 45 20
13 13 -18 -3 52 -39 6 26
-21 -24 22 8 -75 -17 -75 -47
53 26 38 -3 -42 -25 -58 10
58 9 21 32 -29 -13 109 6
-102 -15 24 75 -6 -49 5 37
-2 6 26 53 -8 -38 5 -11
-42 -16 21 -100 30 -31 -32 32
25 -9 -46 -1 14 40 13 -11
-49 7 31 32 73 96 28 28
8 0 8 63 45 -30 -11 -54
97 22 30 35 -91 42 12 -70
31 6 71 22 -71 -15 23 3
66 -38 15 -43 18 16 -32 -40
-85 -10 -1 100 -18 31 -7 50
-22 4 -117 31 83 -21 -61 -10
00000000: e21f e419 e836 fbe3 e6fd 2e32 0704 d522
00000010: 07f9 ce26 28eb 05fb 50d6 eaff 01eb f9dc
00000020: f5c9 b8fe 012b d8d8 1d0e ea46 e0b6 184a
00000030: ff14 e830 25c7 97fa ce12 f5f0 48f1 ca23
00000040: d603 3203 eaa2 17f5 e5f9 d3ff 0b9e c506
00000050: 1b1a fc60 f8e2 00ef 2df8 ffb7 ce0c f345
00000060: fd19 b91d fb47 3afb fc9f 1344 0bd5 0607
00000070: e6eb 03f7 ebd5 fafd f2e0 ba0b 0401 25e7
00000080: b6f6 2dd5 1bf8 2d14 0d0d eefd 34d9 061a
00000090: ebe8 1608 b5ef b5d1 351a 26fd d6e7 c60a
000000a0: 3a09 1520 e3f3 6d06 9af1 184b facf 0525
000000b0: fe06 1a35 f8da 05f5 d6f0 159c 1ee1 e020
000000c0: 19f7 d2ff 0e28 0df5 cf07 1f20 4960 1c1c
000000d0: 0800 083f 2de2 f5ca 6116 1e23 a52a 0cba
000000e0: 1f06 4716 b9f1 1703 42da 0fd5 1210 e0d8
000000f0: abf6 ff64 ee1f f932 ea04 8b1f 53eb c3f6

sequential/dense/MatMul i1 [512, 512] scale=0.0027763597 zero_point=0
-0.033316314 -0.019434517 -0.074961714 -0.07773807 0.027763598 -0.022210877 0.036092676 0.038869034
-0.113830745 0.027763598 -0.06663263 -0.022210877 -0.058303554 0.011105439 -0.036092676 0.063856274
0.06663263 0.044421755 -0.038869034 -0.033316314 -0.019434517 0.041645397 0.11660711 -0.033316314
0.0027763597 0.0 -0.09994895 0.094396226 0.008329079 0.044421755 0.019434517 -0.047198113
0.049974475 0.016658157 -0.041645397 0.08884351 0.10550167 0.055527195 -0.047198113 0.074961714
0.019434517 -0.013881799 0.024987238 0.063856274 -0.041645397 -0.033316314 0.049974475 0.030539956
-0.074961714 -0.12771255 -0.0055527193 -0.0027763597 0.09994895 -0.058303554 -0.058303554 0.022210877
-0.016658157 0.11105439 -0.08606715 -0.041645397 0.0055527193 -0.024987238 -0.09994895 -0.041645397
0.061079912 -0.07773807 -0.049974475 -0.013881799 -0.008329079 0.041645397 0.008329079 -0.08606715
0.1582525 -0.08329079 -0.038869034 0.0027763597 -0.030539956 -0.047198113 0.027763598 0.061079912
-0.041645397 0.0027763597 -0.07773807 0.036092676 -0.047198113 0.016658157 -0.036092676 0.113830745
0.09994895 -0.016658157 0.07218535 0.052750833 0.10550167 -0.024987238 0.008329079 0.008329079
0.024987238 -0.061079912 -0.058303554 -0.022210877 -0.074961714 -0.013881799 0.033316314 0.0055527193
-0.061079912 -0.061079912 0.016658157 0.013881799 0.044421755 0.030539956 -0.013881799 0.036092676
-0.061079912 -0.06663263 -0.041645397 0.022210877 0.013881799 0.102725305 0.058303554 0.0
-0.038869034 0.0055527193 -0.06940899 0.06940899 0.036092676 0.0 0.008329079 -0.113830745
-0.07773807 -0.074961714 0.044421755 -0.041645397 -0.022210877 0.013881799 -0.030539956 -0.019434517
-0.013881799 -0.07218535 -0.049974475 -0.11938347 -0.008329079 -0.11660711 0.030539956 0.008329079
-0.07773807 -0.102725305 0.030539956 -0.047198113 -0.058303554 -0.011105439 0.047198113 0.033316314
-0.09161987 -0.0055527193 0.030539956 0.061079912 -0.030539956 -0.022210877 0.08606715 -0.049974475
-0.019434517 0.058303554 -0.052750833 0.0 0.008329079 -0.063856274 0.08884351 -0.061079912
-0.036092676 0.041645397 -0.09161987 0.044421755 -0.036092676 -0.06663263 -0.036092676 0.027763598
0.022210877 0.0 -0.06663263 0.1582525 -0.027763598 0.0027763597 -0.024987238 -0.027763598
-0.016658157 0.07773807 0.122159824 0.047198113 -0.044421755 0.0 -0.0055527193 -0.011105439
0.07773807 -0.055527195 0.008329079 0.0055527193 0.052750833 -0.011105439 -0.07773807 0.016658157
0.09717259 0.016658157 -0.049974475 -0.030539956 -0.047198113 0.055527195 0.061079912 -0.063856274
-0.055527195 -0.102725305 -0.07773807 0.030539956 0.019434517 0.10827803 -0.055527195 0.11660711
0.030539956 -0.0027763597 0.09161987 -0.058303554 -0.07218535 -0.041645397 0.013881799 -0.041645397
-0.0027763597 -0.036092676 0.0 -0.047198113 -0.016658157 -0.061079912 -0.12771255 -0.022210877
0.06940899 -0.094396226 0.033316314 0.0027763597 -0.11660711 -0.011105439 -0.0055527193 -0.11660711
-0.030539956 0.013881799 0.124936186 -0.036092676 0.033316314 0.011105439 -0.063856274 -0.08884351
-0.0055527193 0.011105439 0.024987238 0.049974475 -0.052750833 -0.008329079 0.036092676 0.036092676
00000000: f4f9 e5e4 0af8 0d0e d70a e8f8 eb04 f317
00000010: 1810 f2f4 f90f 2af4 0100 dc22 0310 07ef
00000020: 1206 f120 2614 ef1b 07fb 0917 f1f4 120b
00000030: e5d2 feff 24eb eb08 fa28 e1f1 02f7 dcf1
00000040: 16e4 eefb fd0f 03e1 39e2 f201 f5ef 0a16
00000050: f101 e40d ef06 f329 24fa 1a13 26f7 0303
00000060: 09ea ebf8 e5fb 0c02 eaea 0605 100b fb0d
00000070: eae8 f108 0525 1500 f202 e719 0d00 03d7
00000080: e4e5 10f1 f805 f5f9 fbe6 eed5 fdd6 0b03
00000090: e4db 0bef ebfc 110c dffe 0b16 f5f8 1fee
000000a0: f915 ed00 03e9 20ea f30f df10 f3e8 f30a
000000b0: 0800 e839 f601 f7f6 fa1c 2c11 f000 fefc
000000c0: 1cec 0302 13fc e406 2306 eef5 ef14 16e9
000000d0: ecdb e40b 0727 ec2a 0bff 21eb e6f1 05f1
000000e0: fff3 00ef faea d2f8 19de 0c01 d6fc fed6
000000f0: f505 2df3 0c04 e9e0 fe04 0912 edfd 0d0d

sequential/dense_1/MatMul i1 [11, 512] scale=0.0034942562 zero_point=0
-0.1747128 -0.29351753 0.052413844 -0.07337938 -0.0873564 -0.14675876 -0.07687364 0.052413844
-0.02795405 -0.18519558 -0.3109888 0.02795405 -0.0069885124 -0.013977025 0.052413844 -0.32846007
-0.13627599 -0.10832194 0.059402354 -0.013977025 0.0034942562 0.02795405 0.0034942562 -0.12579322
-0.10832194 -0.11880471 0.013977025 -0.16423003 -0.12579322 -0.25857496 -0.16073579 -0.031448305
0.052413844 -0.22013813 -0.052413844 -0.059402354 0.02795405 0.06988512 -0.03494256 -0.059402354
0.052413844 0.06988512 -0.15374728 -0.10133343 0.013977025 -0.21664388 -0.17820707 -0.15374728
-0.20616111 0.0069885124 -0.13278173 -0.12928748 -0.03843682 -0.094344914 0.0069885124 -0.14675876
-0.0873564 -0.07337938 -0.12579322 -0.20616111 -0.1118162 0.041931074 -0.27954048 -0.3109888
-0.04542533 0.0069885124 0.07687364 -0.094344914 -0.03494256 -0.08386215 -0.07687364 -0.2550807
0.041931074 -0.020965537 0.013977025 -0.3179773 -0.17121856 -0.03843682 -0.20965537 -0.22013813
-0.12579322 -0.10832194 -0.013977025 -0.20965537 -0.29701176 -0.04891959 -0.02795405 -0.08036789
-0.25158644 -0.09783918 -0.094344914 -0.35291988 -0.3494256 -0.18519558 -0.04542533 -0.24809219
-0.09783918 -0.041931074 -0.11531045 0.059402354 -0.052413844 -0.094344914 -0.04891959 -0.11880471
0.0034942562 -0.03843682 -0.27604625 -0.11880471 -0.0104827685 -0.094344914 -0.0034942562 -0.04891959
0.09783918 -0.3040003 -0.2236324 0.03494256 -0.11880471 -0.01747128 -0.21314962 0.06289661
-0.04891959 0.0069885124 -0.22013813 0.052413844 0.052413844 -0.08036789 0.0 -0.01747128
-0.13627599 -0.03843682 -0.15724152 -0.18868983 -0.20616111 -0.15724152 0.07687364 -0.23760942
-0.3354486 0.06289661 -0.0873564 0.020965537 -0.041931074 -0.18170132 -0.33894286 0.031448305
-0.12579322 -0.024459794 -0.2236324 0.020965537 -0.33195433 0.0104827685 -0.20616111 -0.08386215
-0.21664388 -0.0559081 -0.1432645 -0.0034942562 0.06289661 -0.06988512 -0.06289661 -0.2236324
-0.26206923 -0.19218409 -0.06289661 -0.16423003 -0.23411517 -0.09783918 -0.15724152 -0.21314962
-0.3179773 -0.10133343 -0.06289661 -0.059402354 0.0034942562 -0.08386215 -0.2306209 -0.14675876
-0.059402354 -0.32846007 -0.1432645 -0.24809219 -0.26206923 0.02795405 -0.24809219 -0.22013813
0.01747128 0.06289661 -0.0559081 0.07337938 0.013977025 0.0069885124 -0.30050603 -0.11880471
-0.2306209 -0.041931074 -0.08386215 -0.0104827685 -0.041931074 0.09783918 -0.14675876 -0.3109888
-0.13627599 0.08036789 0.03843682 -0.12579322 -0.07337938 -0.12928748 0.06289661 -0.052413844
-0.0034942562 -0.17820707 -0.059402354 -0.08386215 -0.031448305 -0.11531045 -0.031448305 -0.024459794
0.01747128 -0.066390865 -0.12928748 -0.11531045 -0.09085066 -0.11531045 -0.22712666 -0.13278173
-0.07337938 -0.059402354 -0.06289661 -0.1118162 -0.13977024 -0.25158644 -0.0873564 -0.19567835
-0.3354486 -0.11531045 -0.20965537 -0.32846007 0.0034942562 -0.15374728 -0.04891959 -0.09783918
-0.20965537 -0.22712666 0.07337938 -0.11531045 -0.04542533 0.013977025 -0.06289661 -0.24459793
-0.041931074 -0.052413844 -0.04891959 0.0104827685 -0.24110368 -0.059402354 -0.06289661 -0.06289661
00000000: ceac 0feb e7d6 ea0f f8cb a708 fefc 0fa2
00000010: d9e1 11fc 0108 01dc e1de 04d1 dcb6 d2f7
00000020: 0fc1 f1ef 0814 f6ef 0f14 d4e3 04c2 cdd4
00000030: c502 dadb f5e5 02d6 e7eb dcc5 e00c b0a7
00000040: f302 16e5 f6e8 eab7 0cfa 04a5 cff5 c4c1
00000050: dce1 fcc4 abf2 f8e9 b8e4 e59b 9ccb f3b9
00000060: e4f4 df11 f1e5 f2de 01f5 b1de fde5 fff2
00000070: 1ca9 c00a defb c312 f202 c10f 0fe9 00fb
00000080: d9f5 d3ca c5d3 16bc a012 e706 f4cc 9f09
00000090: dcf9 c006 a103 c5e8 c2f0 d7ff 12ec eec0
000000a0: b5c9 eed1 bde4 d3c3 a5e3 eeef 01e8 bed6
000000b0: efa2 d7b9 b508 b9c1 0512 f015 0402 aade
000000c0: bef4 e8fd f41c d6a7 d917 0bdc ebdb 12f1
000000d0: ffcd efe8 f7df f7f9 05ed dbdf e6df bfda
000000e0: ebef eee0 d8b8 e7c8 a0df c4a2 01d4 f2e4
000000f0: c4bf 15df f304 eeba f4f1 f203 bbef eeee
