firmware/dig1310s3q.tflite (tflite, 63824 bytes, 5 tensors)

sequential/dense/MatMul i1 [128, 256] scale=0.006972438 zero_point=0
000000 fd f3 f3 c5 dc 2d e2 fd f3 e5 15 02 ec 28 14 09
       -0.020917315 -0.0906417 -0.0906417 -0.41137385 -0.25100777 0.3137597 -0.20917314 -0.020917315 -0.0906417 -0.18825583 0.14642121 0.013944876 -0.13944876 0.27889752 0.13944876 0.06275194
000010 f6 16 05 12 05 19 ee f7 db 28 0c 18 ff 05 fa d9
       -0.06972438 0.15339364 0.03486219 0.12550388 0.03486219 0.17431095 -0.12550388 -0.06275194 -0.25798023 0.27889752 0.08366926 0.16733852 -0.006972438 0.03486219 -0.04183463 -0.2719251
000020 15 00 11 07 02 07 f9 ea ff ff dd ec 33 1b 17 f2
       0.14642121 0.0 0.11853145 0.048807066 0.013944876 0.048807066 -0.048807066 -0.15339364 -0.006972438 -0.006972438 -0.24403533 -0.13944876 0.35559434 0.18825583 0.16036607 -0.09761413
000030 07 15 f4 03 e9 f0 f9 1d eb eb e5 0a df 04 e8 eb
       0.048807066 0.14642121 -0.08366926 0.020917315 -0.16036607 -0.11155901 -0.048807066 0.20220071 -0.14642121 -0.14642121 -0.18825583 0.06972438 -0.23009045 0.027889753 -0.16733852 -0.14642121
000040 f6 19 e1 fb 02 f9 03 03 e0 09 fe e8 1e e7 fe 05
       -0.06972438 0.17431095 -0.21614559 -0.03486219 0.013944876 -0.048807066 0.020917315 0.020917315 -0.22311802 0.06275194 -0.013944876 -0.16733852 0.20917314 -0.17431095 -0.013944876 0.03486219
000050 0e 07 f5 0a ea 0e 0b f8 46 f4 0b 08 0c 11 dc 01
       0.09761413 0.048807066 -0.07669682 0.06972438 -0.15339364 0.09761413 0.07669682 -0.055779506 0.48807067 -0.08366926 0.07669682 0.055779506 0.08366926 0.11853145 -0.25100777 0.006972438
000060 e7 0b e9 28 11 dd 10 f1 06 fa eb 27 24 f6 03 d4
       -0.17431095 0.07669682 -0.16036607 0.27889752 0.11853145 -0.24403533 0.11155901 -0.10458657 0.04183463 -0.04183463 -0.14642121 0.2719251 0.25100777 -0.06972438 0.020917315 -0.30678728
000070 f5 22 f2 e1 0d 33 06 16 01 0b e7 03 ec 1b ea 06
       -0.07669682 0.2370629 -0.09761413 -0.21614559 0.0906417 0.35559434 0.04183463 0.15339364 0.006972438 0.07669682 -0.17431095 0.020917315 -0.13944876 0.18825583 -0.15339364 0.04183463
000080 2e 16 1c 3f 0c ff 03 1b 15 0a 11 ff 16 ea fb 2c
       0.32073215 0.15339364 0.19522826 0.4392636 0.08366926 -0.006972438 0.020917315 0.18825583 0.14642121 0.06972438 0.11853145 -0.006972438 0.15339364 -0.15339364 -0.03486219 0.30678728
000090 0f d4 fc f0 f3 f3 05 0f ee f1 2a 12 23 f0 f2 09
       0.10458657 -0.30678728 -0.027889753 -0.11155901 -0.0906417 -0.0906417 0.03486219 0.10458657 -0.12550388 -0.10458657 0.29284242 0.12550388 0.24403533 -0.11155901 -0.09761413 0.06275194
0000a0 d8 ed ee fd 13 e3 08 e3 20 14 f4 06 ed 1d de 0a
       -0.27889752 -0.13247633 -0.12550388 -0.020917315 0.13247633 -0.20220071 0.055779506 -0.20220071 0.22311802 0.13944876 -0.08366926 0.04183463 -0.13247633 0.20220071 -0.2370629 0.06972438
0000b0 dd d9 12 2a f7 f6 f7 f4 04 e1 23 d9 e5 f4 23 01
       -0.24403533 -0.2719251 0.12550388 0.29284242 -0.06275194 -0.06972438 -0.06275194 -0.08366926 0.027889753 -0.21614559 0.24403533 -0.2719251 -0.18825583 -0.08366926 0.24403533 0.006972438
0000c0 f8 f2 0b 28 f0 06 eb e7 e9 1e 1f f9 03 e8 e5 22
       -0.055779506 -0.09761413 0.07669682 0.27889752 -0.11155901 0.04183463 -0.14642121 -0.17431095 -0.16036607 0.20917314 0.21614559 -0.048807066 0.020917315 -0.16733852 -0.18825583 0.2370629
0000d0 13 0e ee 30 cf 30 1b 33 04 f6 f0 c6 10 14 06 f3
       0.13247633 0.09761413 -0.12550388 0.33467704 -0.34164947 0.33467704 0.18825583 0.35559434 0.027889753 -0.06972438 -0.11155901 -0.40440142 0.11155901 0.13944876 0.04183463 -0.0906417
0000e0 28 0d d3 f5 fd 03 d5 1d fb f8 fd d3 ef 00 d8 ed
       0.27889752 0.0906417 -0.3137597 -0.07669682 -0.020917315 0.020917315 -0.29981485 0.20220071 -0.03486219 -0.055779506 -0.020917315 -0.3137597 -0.11853145 0.0 -0.27889752 -0.13247633
0000f0 f7 e8 bb f6 36 ec f3 1c fa e7 e1 05 01 01 e1 10
       -0.06275194 -0.16733852 -0.48109823 -0.06972438 0.37651166 -0.13944876 -0.0906417 0.19522826 -0.04183463 -0.17431095 -0.21614559 0.03486219 0.006972438 0.006972438 -0.21614559 0.11155901

sequential/dense_1/MatMul i1 [11, 128] scale=0.018314274 zero_point=0
000000 d0 e8 e9 d7 ef ba e3 d5 c3 db c6 c7 d5 d5 c7 e5
       -0.8790852 -0.4395426 -0.4212283 -0.75088525 -0.31134266 -1.2819992 -0.5311139 -0.7875138 -1.1171707 -0.67762816 -1.0622278 -1.0439136 -0.7875138 -0.7875138 -1.0439136 -0.4944854
000010 eb cb e3 a3 ed e4 c4 c0 ea ad a8 c3 c1 b2 c3 e2
       -0.38459975 -0.9706565 -0.5311139 -1.7032275 -0.3479712 -0.5127997 -1.0988564 -1.1721135 -0.40291402 -1.5200847 -1.6116561 -1.1171707 -1.1537993 -1.4285134 -1.1171707 -0.5494282
000020 ac db c0 ec e7 db ed ec b7 b6 c3 f3 ea d0 ed e4
       -1.538399 -0.67762816 -1.1721135 -0.36628547 -0.45785686 -0.67762816 -0.3479712 -0.36628547 -1.336942 -1.3552563 -1.1171707 -0.23808557 -0.40291402 -0.8790852 -0.3479712 -0.5127997
000030 b1 ce e1 c1 aa cf e5 e6 cf d9 e4 be e0 d5 c0 c2
       -1.4468277 -0.9157137 -0.56774247 -1.1537993 -1.5750276 -0.8973994 -0.4944854 -0.47617114 -0.8973994 -0.7142567 -0.5127997 -1.2087421 -0.58605677 -0.7875138 -1.1721135 -1.1354849
000040 cf bb c9 c1 d1 ea c5 df b2 dd b1 b2 e7 d5 c3 b2
       -0.8973994 -1.2636849 -1.0072851 -1.1537993 -0.8607709 -0.40291402 -1.0805422 -0.6043711 -1.4285134 -0.6409996 -1.4468277 -1.4285134 -0.45785686 -0.7875138 -1.1171707 -1.4285134
000050 de d7 b5 e2 c8 07 bf c3 dc e5 b0 e3 af b0 de dc
       -0.6226853 -0.75088525 -1.3735706 -0.5494282 -1.0255994 0.12819992 -1.1904278 -1.1171707 -0.65931386 -0.4944854 -1.4651419 -0.5311139 -1.4834563 -1.4651419 -0.6226853 -0.65931386
000060 b8 e4 f1 f2 e6 d3 e4 be da cc c3 ac a8 b2 d2 b3
       -1.3186277 -0.5127997 -0.2747141 -0.25639984 -0.47617114 -0.82414234 -0.5127997 -1.2087421 -0.6959424 -0.9523423 -1.1171707 -1.538399 -1.6116561 -1.4285134 -0.8424566 -1.410199
000070 e5 ea b1 f2 ca ac dc e7 c0 c6 be d2 d4 c0 de c6
       -0.4944854 -0.40291402 -1.4468277 -0.25639984 -0.9889708 -1.538399 -0.65931386 -0.45785686 -1.1721135 -1.0622278 -1.2087421 -0.8424566 -0.80582803 -1.1721135 -0.6226853 -1.0622278
000080 e9 dd da c2 c2 a4 d0 c8 ae dd bf bc da e9 d0 c5
       -0.4212283 -0.6409996 -0.6959424 -1.1354849 -1.1354849 -1.6849132 -0.8790852 -1.0255994 -1.5017705 -0.6409996 -1.1904278 -1.2453706 -0.6959424 -0.4212283 -0.8790852 -1.0805422
000090 e3 e3 d3 e6 df d2 df cc e7 c5 ef c1 06 a5 f7 f5
       -0.5311139 -0.5311139 -0.82414234 -0.47617114 -0.6043711 -0.8424566 -0.6043711 -0.9523423 -0.45785686 -1.0805422 -0.31134266 -1.1537993 0.10988565 -1.6665989 -0.16482846 -0.20145701
0000a0 e1 f7 c2 d6 c0 ba dd c0 c7 ec f1 f5 e6 d3 e7 e8
       -0.56774247 -0.16482846 -1.1354849 -0.7691995 -1.1721135 -1.2819992 -0.6409996 -1.1721135 -1.0439136 -0.36628547 -0.2747141 -0.20145701 -0.47617114 -0.82414234 -0.45785686 -0.4395426
0000b0 d2 bf f6 02 e5 e3 d9 ec e5 c6 d7 07 e5 bc b9 f3
       -0.8424566 -1.1904278 -0.18314274 0.036628548 -0.4944854 -0.5311139 -0.7142567 -0.36628547 -0.4944854 -1.0622278 -0.75088525 0.12819992 -0.4944854 -1.2453706 -1.3003135 -0.23808557
0000c0 da 01 be b6 e7 d8 ec bb c0 ba d5 c5 ee cd db d3
       -0.6959424 0.018314274 -1.2087421 -1.3552563 -0.45785686 -0.73257095 -0.36628547 -1.2636849 -1.1721135 -1.2819992 -0.7875138 -1.0805422 -0.32965693 -0.93402797 -0.67762816 -0.82414234
0000d0 f2 cc ed c9 ef da d9 dd ed be e5 fe ed af d7 d6
       -0.25639984 -0.9523423 -0.3479712 -1.0072851 -0.31134266 -0.6959424 -0.7142567 -0.6409996 -0.3479712 -1.2087421 -0.4944854 -0.036628548 -0.3479712 -1.4834563 -0.75088525 -0.7691995
0000e0 a6 b8 dc cb d3 d5 c8 e4 d8 c8 f9 99 ee c4 ec c7
       -1.6482847 -1.3186277 -0.65931386 -0.9706565 -0.82414234 -0.7875138 -1.0255994 -0.5127997 -0.73257095 -1.0255994 -0.12819992 -1.8863702 -0.32965693 -1.0988564 -0.36628547 -1.0439136
0000f0 da e7 b7 f9 c9 eb ac d7 d8 b7 fd f7 d1 ca fa c1
       -0.6959424 -0.45785686 -1.336942 -0.12819992 -1.0072851 -0.38459975 -1.538399 -0.75088525 -0.73257095 -1.336942 -0.054942824 -0.16482846 -0.8607709 -0.9889708 -0.10988565 -1.1537993

sequential/conv2d/Conv2D i1 [32, 3, 3, 3]
000000 0e 76 3b 0b 32 f9 0a e5 cf f2 2c c8 db 27 e9 20
       14 118 59 11 50 -7 10 -27 -49 -14 44 -56 -37 39 -23 32
000010 f6 1e 4a 7f 56 06 16 af cf e1 dc 11 f9 d9 81 ba
       -10 30 74 127 86 6 22 -81 -49 -31 -36 17 -7 -39 -127 -70
000020 a7 b7 94 de 78 77 48 09 01 10 ad 92 a1 74 66 22
       -89 -73 -108 -34 120 119 72 9 1 16 -83 -110 -95 116 102 34
000030 4b 52 7e e9 ff 37 fb 18 c4 ed e7 1a 56 f3 e5 e7
       75 82 126 -23 -1 55 -5 24 -60 -19 -25 26 86 -13 -27 -25
000040 b4 e6 d1 ad ea e5 90 d6 58 62 73 72 4f 4f 89 fc
       -76 -26 -47 -83 -22 -27 -112 -42 88 98 115 114 79 79 -119 -4
000050 81 18 fc 18 25 75 3d 73 1c 40 39 39 06 44 40 40
       -127 24 -4 24 37 117 61 115 28 64 57 57 6 68 64 64
000060 cc cd e5 e5 00 f4 93 81 90 b8 d6 84 0b d8 8b 26
       -52 -51 -27 -27 0 -12 -109 -127 -112 -72 -42 -124 11 -40 -117 38
000070 f1 83 28 fc 81 31 2b e5 4e 25 c3 19 07 97 15 3e
       -15 -125 40 -4 -127 49 43 -27 78 37 -61 25 7 -105 21 62
000080 f5 23 fe b3 19 ef 98 ae 82 99 2c c9 be 65 78 2c
       -11 35 -2 -77 25 -17 -104 -82 -126 -103 44 -55 -66 101 120 44
000090 24 0e 09 fa ea b8 0f 14 34 66 7f 69 fd e3 ca 99
       36 14 9 -6 -22 -72 15 20 52 102 127 105 -3 -29 -54 -103
0000a0 a6 d2 04 f9 2b 2e 55 36 ab fb 81 f6 f2 dc 47 60
       -90 -46 4 -7 43 46 85 54 -85 -5 -127 -10 -14 -36 71 96
0000b0 23 26 34 1e a1 8a c7 14 da cf 27 4c 02 63 60 7f
       35 38 52 30 -95 -118 -57 20 -38 -49 39 76 2 99 96 127
0000c0 3f 54 2b f6 b5 f2 49 5b 75 ce b6 da e7 94 ea 0a
       63 84 43 -10 -75 -14 73 91 117 -50 -74 -38 -25 -108 -22 10
0000d0 16 12 b6 a6 c7 e5 d8 0c e2 ca 2b f3 0b 3a 20 35
       22 18 -74 -90 -57 -27 -40 12 -30 -54 43 -13 11 58 32 53
0000e0 7f f9 b9 0c e6 a4 ee da e3 26 38 04 67 42 ec 22
       127 -7 -71 12 -26 -92 -18 -38 -29 38 56 4 103 66 -20 34
0000f0 06 d7 f6 9f b9 81 1d 21 f1 2c 56 f6 05 21 0f 29
       6 -41 -10 -97 -71 -127 29 33 -15 44 86 -10 5 33 15 41

sequential/conv2d_1/Conv2D i1 [32, 3, 3, 32]
000000 c8 12 04 ab f7 c6 d5 0a db a6 a2 c6 45 ee 14 1d
       -56 18 4 -85 -9 -58 -43 10 -37 -90 -94 -58 69 -18 20 29
000010 fa 2f ed 14 15 c8 1a d3 30 fd b5 fd f7 e1 dc de
       -6 47 -19 20 21 -56 26 -45 48 -3 -75 -3 -9 -31 -36 -34
000020 e8 fe d8 a8 c3 13 32 e1 3f b3 fa 07 62 db 2e c3
       -24 -2 -40 -88 -61 19 50 -31 63 -77 -6 7 98 -37 46 -61
000030 03 a5 f8 3e e6 bd 45 df 45 05 ba bb 21 f0 2c 81
       3 -91 -8 62 -26 -67 69 -33 69 5 -70 -69 33 -16 44 -127
000040 23 55 cf dd 10 a1 f5 28 ff b4 f1 ce 19 cd 01 de
       35 85 -49 -35 16 -95 -11 40 -1 -76 -15 -50 25 -51 1 -34
000050 13 f5 e4 0e d2 00 20 1a 15 31 ef fc 05 e9 07 c8
       19 -11 -28 14 -46 0 32 26 21 49 -17 -4 5 -23 7 -56
000060 08 48 3a e3 e9 ea 2a f9 16 b5 e0 c1 38 0e 0b 08
       8 72 58 -29 -23 -22 42 -7 22 -75 -32 -63 56 14 11 8
000070 00 17 00 0d 25 15 00 11 22 e6 b4 0d fe 17 b8 0b
       0 23 0 13 37 21 0 17 34 -26 -76 13 -2 23 -72 11
000080 ef 23 fb a2 de 56 52 e3 1b e9 2a c9 3b 0e 23 a8
       -17 35 -5 -94 -34 86 82 -29 27 -23 42 -55 59 14 35 -88
000090 04 b7 12 03 c8 03 63 28 51 00 d3 cd 40 f5 3f c6
       4 -73 18 3 -56 3 99 40 81 0 -45 -51 64 -11 63 -58
0000a0 2c 1e cf d7 0e ee 0e 41 05 da ff 13 24 f0 47 ee
       44 30 -49 -41 14 -18 14 65 5 -38 -1 19 36 -16 71 -18
0000b0 03 f2 ee de cb 36 3d 38 25 11 0c ea d9 12 ef 03
       3 -14 -18 -34 -53 54 61 56 37 17 12 -22 -39 18 -17 3
0000c0 03 32 08 2f fb eb 1a f0 23 fe d2 de d5 26 07 21
       3 50 8 47 -5 -21 26 -16 35 -2 -46 -34 -43 38 7 33
0000d0 fb e8 e8 14 eb 03 c5 ec c5 02 dc 46 09 1a c7 43
       -5 -24 -24 20 -21 3 -59 -20 -59 2 -36 70 9 26 -57 67
0000e0 d7 19 0b d2 0c 6a 13 02 3d e1 08 0b 0b 51 1d f5
       -41 25 11 -46 12 106 19 2 61 -31 8 11 11 81 29 -11
0000f0 2b 16 26 ee e5 0a 3e 22 f4 39 09 ed 32 fa 46 fc
       43 22 38 -18 -27 10 62 34 -12 57 9 -19 50 -6 70 -4

sequential/conv2d_2/Conv2D i1 [32, 3, 3, 32]
000000 f9 da cf dc ee e4 c0 ed 28 f9 57 c0 28 dc 06 01
       -7 -38 -49 -36 -18 -28 -64 -19 40 -7 87 -64 40 -36 6 1
000010 fc 09 0d 0b db 31 e6 1d 32 d6 09 1b f2 10 f4 f1
       -4 9 13 11 -37 49 -26 29 50 -42 9 27 -14 16 -12 -15
000020 f0 27 ce 10 f9 f6 1e ca ff fb 5e e2 1e c5 60 15
       -16 39 -50 16 -7 -10 30 -54 -1 -5 94 -30 30 -59 96 21
000030 24 38 36 ee 22 13 bf 1f 15 3b b6 0d e7 0b 1f e1
       36 56 54 -18 34 19 -65 31 21 59 -74 13 -25 11 31 -31
000040 e8 ca c8 f5 e4 f2 d8 09 f9 12 f4 1c 45 02 25 0c
       -24 -54 -56 -11 -28 -14 -40 9 -7 18 -12 28 69 2 37 12
000050 ff 34 34 37 db 03 e7 17 17 13 ee 0d 0b ee 14 d6
       -1 52 52 55 -37 3 -25 23 23 19 -18 13 11 -18 20 -42
000060 ad f0 d7 06 fb e6 e5 d7 dc f1 0f a9 0c ca 1b fd
       -83 -16 -41 6 -5 -26 -27 -41 -36 -15 15 -87 12 -54 27 -3
000070 24 fa 14 fc ea 23 02 ec 2f f0 19 08 1c 25 cb ff
       36 -6 20 -4 -22 35 2 -20 47 -16 25 8 28 37 -53 -1
000080 f8 04 c4 f6 29 49 d8 fe 0a b7 f7 b0 00 ea 0f 52
       -8 4 -60 -10 41 73 -40 -2 10 -73 -9 -80 0 -22 15 82
000090 09 28 0b 0e 6d dc d0 34 0d 28 dd 0d fd f6 fc fb
       9 40 11 14 109 -36 -48 52 13 40 -35 13 -3 -10 -4 -5
0000a0 1f d7 ec ed 19 0b de 2e 09 eb ac ea c9 fe b7 47
       31 -41 -20 -19 25 11 -34 46 9 -21 -84 -22 -55 -2 -73 71
0000b0 03 f2 44 14 eb c0 fc 6d f7 13 01 0d 12 1a 41 1c
       3 -14 68 20 -21 -64 -4 109 -9 19 1 13 18 26 65 28
0000c0 d4 0f 3d d9 01 01 11 0e fa 00 cd ef d1 00 37 de
       -44 15 61 -39 1 1 17 14 -6 0 -51 -17 -47 0 55 -34
0000d0 ef e3 12 e0 1f f8 eb 10 f4 0e 37 ef 0b 20 01 0f
       -17 -29 18 -32 31 -8 -21 16 -12 14 55 -17 11 32 1 15
0000e0 34 da d3 fe 0c 71 ff fa c8 00 e0 04 07 32 e8 25
       52 -38 -45 -2 12 113 -1 -6 -56 0 -32 4 7 50 -24 37
0000f0 e9 05 e4 bb 7f d3 00 0b cb 02 ed 45 c9 09 36 27
       -23 5 -28 -69 127 -45 0 11 -53 2 -19 69 -55 9 54 39
